aminer_train/train/pretrained_hgnn/decoder_v.pth (torch, 135200 bytes, 4 tensors)

weight f4 [128, 128]
-0.030459227 -0.049295243 0.009012831 0.040363874 -0.03367557 -0.00017378232 -0.0052566864 -0.008849909
-8.623087e-05 -0.00926054 -0.044888422 0.032391988 0.012325638 0.023027157 0.041732263 -0.029408935
-0.03250965 0.062055174 0.037056856 0.0005075683 0.07754494 -0.048014313 -1.183496e-06 -0.021370202
-0.005144094 -2.5942201e-05 -0.0023089314 0.0059864135 -0.0073053683 -0.013818634 -0.022032991 0.0060212384
-3.115034e-07 -0.00012584987 -0.027434034 -0.016369306 0.057912335 0.014593594 -0.0028554825 0.013120649
0.02093424 -0.008424238 0.036906082 -0.028803423 0.13279162 -0.0013922855 -0.009457448 -0.051144745
-0.07384583 -0.03867766 0.040365353 0.012471669 0.056055367 -0.07750042 -0.024235992 0.037639666
-0.09034429 -0.0003610454 0.021450019 -0.002447256 -0.025378704 -0.011032566 -0.018239353 -0.033138197
0.059382226 -0.0015245607 -0.003773903 -0.022378419 -0.043627154 -0.0009155822 -0.007823724 0.038085748
0.036127888 0.0012335037 -0.014231468 0.0012403022 -0.029813834 -0.01241132 0.06972326 -0.039278354
-0.050588537 0.046776555 -0.059992246 0.052644126 0.025292853 -0.0327956 0.020882847 0.009746638
-0.008946929 0.041705508 -0.009139041 -0.04944663 0.002817328 -0.05626443 0.0039630537 -0.023581056
-0.010755606 -0.023114737 0.073841415 -0.0038319686 0.024379794 -0.011543898 -0.012053741 -0.0063705067
0.022090126 -0.036066588 -0.00743682 0.023426525 -0.0095901545 0.019945353 -0.034505803 -0.050022744
0.0072591733 0.054655764 0.044167362 -0.0065918034 0.09619252 0.028427642 0.038217366 -7.4345044e-06
0.026183272 0.021295683 -0.020558529 0.009179154 -0.014274331 0.0016075196 0.028408792 -0.009953088
0.0044531263 0.07533688 -0.065594345 -0.026014099 0.018304719 -0.08163428 0.05515018 0.06383886
-0.05212534 0.0014242047 0.01173588 0.020265982 0.012713751 -0.053649325 0.021858362 0.0018511544
0.05117404 -0.032417577 4.852432e-06 0.030215068 0.012008328 0.032772157 -0.073153615 -0.042561516
0.02784121 -0.041526534 -0.0140488865 0.00079846487 0.0019874666 0.016863152 0.04584036 0.024018599
-0.020313425 6.883103e-05 -0.0063362992 0.0072144656 0.00028310894 0.015174071 -0.05429059 0.004846253
0.001483333 -0.051941603 -0.024480594 0.020029506 0.014132852 -0.040934537 -0.017175986 -0.039356258
0.024540443 0.009214706 0.065063104 0.07149741 -0.014914433 0.033046365 0.04067733 0.059354365
0.04330506 -0.0024028916 0.033898547 0.007361081 0.065803304 0.049060497 0.013825251 0.021491023
0.012876212 -0.013303481 -0.03015606 0.027457234 -0.06243701 -0.02292458 0.05148846 -0.0066316607
-0.009201258 0.008531996 -0.016462058 0.00018392933 0.04117166 0.017506706 -0.035031013 0.006820046
-0.08301208 0.039137904 -0.09685506 0.059023194 0.017825307 0.059769463 0.007394553 0.0036141942
0.012152588 -0.0244924 0.081460446 -0.03984744 0.054373134 -0.03286051 0.021514967 0.04490734
-0.043099724 0.008667343 -0.02447548 -0.034071524 0.00016806126 -0.033126503 1.0404453e-05 0.000116836876
-0.02087909 -0.009312256 0.014342883 0.08554902 -0.012243313 0.02371483 0.043738157 0.03604254
0.012881837 1.7857969e-06 0.0048880572 -0.023790793 0.023343962 0.012117224 0.012989062 0.022504905
1.4371745e-05 0.017062414 0.00061788526 0.07973629 -0.038192794 0.002358835 0.023324404 0.026206162
00000000: a185 f9bc cfe9 49bd 8eaa 133c 9754 253d
00000010: 65ef 09bd 5639 36b9 4840 acbb 35ff 10bc
00000020: d9d6 b4b8 85b9 17bc ecdc 37bd 76ad 043d
00000030: 79f1 493c 73a3 bc3c 73ef 2a3d 02eb f0bc
00000040: d728 05bd 912d 7e3d eec8 173d 550e 053a
00000050: e2cf 9e3d a8aa 44bd 9dd8 9eb5 9010 afbc
00000060: ca8f a8bb 749e d9b7 7151 17bb ad29 c43b
00000070: df61 efbb 8d67 62bc 887e b4bc cf4d c53b
00000080: b43c a7b4 91f6 03b9 57bd e0bc ec18 86bc
00000090: 7c35 6d3d f819 6f3c 0c23 3bbb fef7 563c
000000a0: 497e ab3c d105 0abc d52a 173d 28f5 ebbc
000000b0: 87fa 073e 597d b6ba 69f3 1abc 277d 51bd
000000c0: 7c3c 97bd 776c 1ebd 2456 253d f955 4c3c
000000d0: 509a 653d 8ab8 9ebd 8f8a c6bc 0d2c 1a3d
000000e0: 6d06 b9bd b14a bdb9 f3b7 af3c 2462 20bb
000000f0: 00e7 cfbc f0c1 34bc b26a 95bc ebbb 07bd
00000100: c73a 733d c5d3 c7ba 9653 77bb f252 b7bc
00000110: 63b2 32bd ae03 70ba 142f 00bc cdff 1b3d
00000120: d6fa 133d 84ad a13a 1a2b 69bc a391 a23a
00000130: 243c f4bc d958 4bbc 12cb 8e3d 57e2 20bd
00000140: ed35 4fbd c698 3f3d 6eba 75bd 5ea1 573d
00000150: f532 cf3c ae54 06bd 8112 ab3c 5db0 1f3c
00000160: 2496 12bc 65d3 2a3d ebbb 15bc 8d88 4abd
00000170: eca2 383b 8875 66bd 81dc 813b 0f2d c1bc
00000180: 4838 30bc 1e5b bdbc 2b3a 973d c421 7bbb
00000190: 22b8 c73c 9e22 3dbc 0e7d 45bc afbf d0bb
000001a0: 5af6 b43c 8fba 13bd 91b0 f3bb fce8 bf3c
000001b0: 0620 1dbc 7064 a33c f555 0dbd a6e4 4cbd
000001c0: 5cde ed3b b9de 5f3d d6e8 343d 0e00 d8bb
000001d0: 9500 c53d 16e1 e83c d089 1c3d e875 f9b6
000001e0: 4d7e d63c 4974 ae3c 5c6a a8bc 2a64 163c
000001f0: e2de 69bc 68b3 d23a 8eb9 e83c 4712 23bc
00000200: 88eb 913b 394a 9a3d 5456 86bd 851b d5bc
00000210: c7f3 953c e02f a7bd 28e5 613d f3bd 823d
00000220: 6181 55bd 61ac ba3a d947 403c d804 a63c
00000230: 564d 503c 65bf 5bbd 4f10 b33c 6fa2 f23a
00000240: df9b 513d 4bc8 04bd 13d2 a236 9785 f73c
00000250: 94be 443c 193c 063d 90d1 95bd fc54 2ebd
00000260: 4013 e43c ba17 2abd 4d2d 66bc 1250 513a
00000270: 2840 023b 9824 8a3c 1ac3 3b3d a7c2 c43c
00000280: 5768 a6bc 6159 9038 bba0 cfbb 5367 ec3b
00000290: 3d6e 9439 ab9c 783c cf5f 5ebd 51cd 9e3b
000002a0: 656c c23a b8c0 54bd 878b c8bc eb14 a43c
000002b0: 7a8d 673c f9aa 27bd a7b4 8cbc 0734 21bd
000002c0: 0a09 c93c 47f9 163c ce3f 853d 3c6d 923d
000002d0: aa5b 74bc a05b 073d 469d 263d 901d 733d
000002e0: a660 313d d579 1dbb 34d9 0a3d 3935 f13b
000002f0: e2c3 863d a9f3 483d 4e83 623c f10d b03c
00000300: bff6 523c d8f6 59bc d709 f7bc feed e03c
00000310: f3bd 7fbd 54cc bbbc 90e5 523d 674e d9bb
00000320: e0c0 16bc c9c9 0b3c 70db 86bc 27dd 4039
00000330: 9da3 283d 396a 8f3c ae7c 0fbd b17a df3b
00000340: 3d02 aabd 114f 203d f25b c6bd 4ec2 713d
00000350: 6106 923c d3d0 743d 024e f23b 1edc 6c3b
00000360: a61b 473c 49a4 c8bc bcd4 a63d 1237 23bd
00000370: 5db6 5e3d be98 06bd 2840 b03c c2f0 373d
00000380: 5689 30bd 7901 0e3c cd80 c8bc 958e 0bbd
00000390: 9a39 3039 a8af 07bd c98e 2e37 5206 f538
000003a0: a00a abbc 6f92 18bc 69fe 6a3c 5334 af3d
000003b0: 2d98 48bc 9a45 c23c c826 333d 58a1 133d
000003c0: 570e 533c 84af ef35 ff2b a03b e9e4 c2bc
000003d0: d63b bf3c 5287 463c 13d0 543c 355c b83c
000003e0: 2d1e 7137 7ac6 8b3c 94f9 213a c84c a33d
000003f0: 0c70 1cbd af96 1a3b d212 bf3c 4eae d63c

bias f4 [128]
-0.039898664 0.03164373 0.045730505 -0.06831428 0.016068194 0.06562489 -0.09730159 0.08010957
-0.07379903 0.046928603 0.052136593 0.020962724 -0.03117405 -0.04308407 0.079870135 0.011561233
0.030352661 0.00975772 0.07047501 -0.07342029 -0.016880836 -0.009891274 -0.101674475 0.04602484
0.06324281 -0.014920535 -0.044215176 -0.084997416 0.0858065 0.04790317 -0.032728937 -0.07457342
-0.015544607 -0.026540576 0.022637257 0.019632308 -0.09510233 0.045378514 0.05761392 0.060050834
-0.037670296 -0.023391215 -0.10218209 -0.048091743 0.006399228 0.052998245 -0.03369078 0.03344284
0.001999927 0.02656026 -0.08926666 0.026807513 -0.04108895 0.06744963 0.043658394 0.07709087
0.041852903 0.080845915 -0.10733449 0.030365862 0.008504073 0.046758268 -0.08593512 -0.026443897
0.037609573 0.059381124 0.064432375 0.006897308 -0.09862858 -0.095812954 -0.018790811 0.034894258
0.012044769 -0.1016013 0.0464339 -0.034168802 -0.03693507 -0.053618707 0.057566933 -0.06251859
-0.093633 -0.090069905 0.021055846 -0.0061626104 -0.029114025 0.050005943 -0.0630622 -0.054600064
-0.0032243575 0.05679183 0.008939953 0.097040616 -0.049709372 0.00056978106 0.031604126 0.027407855
0.03591582 -0.09729138 -0.022075836 -0.048642408 0.080807894 -0.06842845 0.068793714 -0.01883028
0.0061725522 0.016395522 0.013183652 -0.042275283 0.06620847 -0.06569449 0.058434233 -0.051310334
0.054036096 -0.014288251 -0.01314149 -0.040878993 0.0009126109 -0.025719682 0.057239916 0.046950784
-0.029920915 0.07000548 0.038177453 -0.087811306 -0.0050962633 0.031416886 0.07202418 -0.02638176
00000000: c86c 23bd db9c 013d e94f 3b3d 5be8 8bbd
00000010: 72a1 833c 5866 863d 0e46 c7bd 7c10 a43d
00000020: f223 97bd 3538 403d 2e8d 553d 05ba ab3c
00000030: b960 ffbc ec78 30bd f492 a33d 536b 3d3c
00000040: 25a6 f83c d8de 1f3c 3455 903d 615d 96bd
00000050: ae49 8abc 030f 22bc b53a d0bd 8b84 3c3d
00000060: 7285 813d 4275 74bc f91a 35bd 2013 aebd
00000070: 51bb af3d 1d36 443d c70e 06bd f3b9 98bd
00000080: cfae 7ebc 9f6b d9bc c571 b93c efd3 a03c
00000090: 03c5 c2bd d2de 393d 93fc 6b3d ddf7 753d
000000a0: 2b4c 1abd ef9e bfbc d844 d1bd d9fb 44bd
000000b0: 9db0 d13b b014 593d 58ff 09bd 5cfb 083d
000000c0: 3511 033b e794 d93c 70d1 b6bd 6e9b db3c
000000d0: e34c 28bd 0823 8a3d 25d3 323d d1e1 9d3d
000000e0: f36d 2b3d 8b92 a53d 2fd2 dbbd d4c1 f83c
000000f0: ab54 0b3c 9985 3f3d c1fe afbd dfa0 d8bc
00000100: 7f0c 1a3d 9f39 733d 1ff5 833d d002 e23b
00000110: c8fd c9bd 9539 c4bd 30ef 99bc 48ed 0e3d
00000120: 6c57 453c 5814 d0bd 7931 3e3d 96f4 0bbd
00000130: 3a49 17bd 4a9f 5bbd 4ecb 6b3d bf09 80bd
00000140: a9c2 bfbd 9276 b8bd 4f7d ac3c b9ef c9bb
00000150: 8980 eebc 08d3 4c3d c126 81bd 51a4 5fbd
00000160: be4f 53bb 8d9e 683d e178 123c 3bbd c63d
00000170: 0e9c 4bbd 5c5d 153a 5473 013d 7086 e03c
00000180: 781c 133d b440 c7bd 62d8 b4bc 433d 47bd
00000190: 9c7e a53d 3724 8cbd b8e3 8c3d f641 9abc
000001a0: 1f43 ca3b e74f 863c 3f00 583c d928 2dbd
000001b0: 4e98 873d d58a 86bd bc58 6f3d c92a 52bd
000001c0: f454 5d3d 4519 6abc 674f 57bc bb70 27bd
000001d0: 483c 6f3a 15b2 d2bc 6774 6a3d 774f 403d
000001e0: b51c f5bc 085f 8f3d f65f 1c3d 6ad6 b3bd
000001f0: 8efe a6bb feae 003d 6a81 933d 901e d8bc

weight f4 [128, 128]
-0.034936275 -0.089391336 -0.01976159 -0.013688897 0.0042959265 0.009465469 0.05223879 -0.016065866
-0.023818513 0.00014106724 0.121556856 3.070559e-05 0.0075228144 -0.06652382 -0.007381537 -0.023754138
-0.031811576 -0.053960256 -0.01600787 0.008919685 -0.016922746 -2.6516556e-08 -0.00011945763 -0.008391633
0.00095619564 0.031190721 0.097720966 -0.0023924247 0.014668282 -1.00311766e-07 0.094036914 0.00050376146
0.007051787 -0.013808406 0.018358197 -0.033273906 -0.087083414 0.04029631 0.0017219618 -0.022283392
-0.019270878 -0.031616382 0.012647578 0.031795904 -0.00039269202 0.08327706 0.0510072 0.027245644
-0.029462066 0.02763515 -0.027937772 -0.03910374 0.01146227 0.0071411054 0.0142253535 0.030047357
0.00054977485 -1.2180907e-06 -0.05132049 -0.014522759 -0.02156181 0.016705947 0.0067990166 0.0675967
0.0010686807 -0.050983753 -0.006996856 -0.019581283 -0.066852696 0.0062044756 0.035580985 -0.007033553
0.002083404 -0.017749732 5.491513e-07 -0.03755957 -0.057007104 -0.036498975 -0.012483802 0.050998963
-0.0028222904 0.07908422 0.034394387 -1.879438e-07 -0.04883432 9.2655e-06 -0.00056469056 0.029344963
-0.0045341793 0.046681333 0.049183246 -0.014283829 0.005995801 0.00010756972 0.06787433 -0.0073331827
-0.028844584 0.02098151 -0.015099469 -0.021392884 0.011836733 0.023062568 0.0037906044 0.032355726
-0.02600816 0.0731239 -0.013839023 -0.025851384 0.0065969443 0.027406335 -0.00096937845 0.02029572
-0.022587707 -0.026652692 -0.017373912 -0.0461116 -0.0745812 0.02782705 -0.015953956 0.0014709583
-0.046795722 0.04632332 0.027609564 -0.027530106 0.0030651102 -0.050590426 0.03206654 0.08473786
-0.005268869 -0.077466264 0.018945485 0.0014014354 -0.015494635 -0.02536004 0.00044745815 -0.03681726
-0.045979396 8.8787165e-06 0.006888193 -0.07956007 0.026146498 0.015569502 0.007124629 0.052346036
0.02876163 0.018884204 0.036657475 -2.6715884e-07 0.018529212 1.1230913e-07 -0.024176463 -0.036252063
-0.053615816 0.0060311235 -0.06372515 0.08383778 0.011206734 -0.09576244 -0.0027742179 -0.012377923
0.036438998 -0.06707182 0.034631263 -0.048656836 -0.023939213 0.038038768 0.0027490158 -0.027803265
0.031102277 -0.014566504 0.12403634 0.00018468227 -0.035557568 0.043503948 0.022609422 0.033134703
-0.031405117 0.0035106014 0.0275059 0.0010507776 0.05638426 0.01906469 0.02322444 0.007442788
0.0010975924 7.089896e-07 -0.05106837 -0.02977601 -0.018171268 0.025140993 0.05705386 0.0006540714
0.056626026 4.758056e-05 0.010603529 -0.03930856 0.04379315 -0.000694972 0.03906191 -0.018311158
0.0044952664 -0.035314426 -0.0002793566 0.032057874 0.037573412 0.035722047 -0.016951995 -0.09366377
-0.08332808 -0.018432995 0.023733927 -0.007134339 0.0071657253 0.014356708 0.007213743 -0.0064452495
0.018904334 0.015095016 0.046290867 0.03643362 -0.0047151907 -0.029628083 0.003687762 0.024380717
-0.025860658 -0.033688754 0.03011972 0.0016081249 -0.03187251 -0.035504177 -0.005194204 0.008243398
0.029444145 -2.66095e-08 0.019540975 -0.07657821 0.08208581 -0.023488669 2.3948382e-07 0.016728139
-0.03546622 0.009288143 0.029782789 0.03508381 0.00034962865 0.010605194 0.0005293507 -0.014721243
-0.040419936 0.0066581923 0.060668148 0.05921126 -0.053810183 0.044247482 0.0054760594 0.001708675
00000000: 5719 0fbd ce12 b7bd 0fe3 a1bc 6547 60bc
00000010: d8c4 8c3b 0e15 1b3c 57f8 553d 909c 83bc
00000020: 0b1f c3bc 73eb 1339 cdf2 f83d e0c9 0038
00000030: f181 f63b a43d 88bd d2e0 f1bb 0a98 c2bc
00000040: db4c 02bd 6e05 5dbd f022 83bc df23 123c
00000050: 92a1 8abc 86c6 e3b2 5485 fab8 0f7d 09bc
00000060: 34a9 7a3a af83 ff3c ee21 c83d 3aca 1cbb
00000070: 3c53 703c fa6a d7b3 6d96 c03d dc0e 043a
00000080: ad12 e73b a73c 62bc ee63 963c 384a 08bd
00000090: ca58 b2bd be0d 253d 73b3 e13a a98b b6bc
000000a0: f6dd 9dbc 2e80 01bd c937 4f3c 6c3c 023d
000000b0: 3be2 cdb9 2a8d aa3d edec 503d 4232 df3c
000000c0: 6e5a f1bc 1c63 e23c c1dd e4bc 3e2b 20bd
000000d0: 3fcc 3b3c efff e93b 7511 693c e025 f63c
000000e0: c41e 103a 477d a3b5 6f35 52bd def0 6dbc
000000f0: 65a2 b0bc e9da 883c 49ca de3b 2370 8a3d
00000100: f912 8c3a 57d4 50bd e245 e5bb ed68 a0bc
00000110: 11ea 88bd ea4e cb3b 5ebd 113d b879 e6bb
00000120: b889 083b e367 91bc 6469 1335 10d8 19bd
00000130: 4880 69bd f37f 15bd dc88 4cbc 4ae4 503d
00000140: 2df6 38bb e8f6 a13d 21e1 0c3d 99cd 49b4
00000150: 7f06 48bd 0573 1b37 be07 14ba d964 f03c
00000160: 7493 94bb ed34 3f3d 5f74 493d b906 6abc
00000170: 6d78 c43b 0e97 e138 b201 8b3d 324b f0bb
00000180: 7a4b ecbc 6ae1 ab3c c363 77bc 2140 afbc
00000190: dbee 413c b6ed bc3c ca6b 783b 7087 043d
000001a0: 110f d5bc fcc1 953d 12bd 62bc 48c6 d3bc
000001b0: 2e2b d83b 4083 e03c e31d 7eba 3643 a63c
000001c0: db09 b9bc bf56 dabc bc53 8ebc 84df 3cbd
000001d0: 07be 98bd 8ef5 e33c dfb1 82bc 2ccd c03a
000001e0: dfac 3fbd 86bd 3d3d 742d e23c d186 e1bc
000001f0: 04e0 483b e837 4fbd 3458 033d 0b8b ad3d
00000200: 7aa6 acbb a2a6 9ebd 9033 9b3c 5eb0 b73a
00000210: 36dd 7dbc dcbf cfbc d198 ea39 b2cd 16bd
00000220: e454 3cbd ccf5 1437 5ab6 e13b 64f0 a2bd
00000230: 2e31 d63c 3917 7f3c b875 e93b cc68 563d
00000240: 839d eb3c 0cb3 9a3c 2626 163d 086e 8fb4
00000250: 93ca 973c 992e f133 b80d c6bc 0b7d 14bd
00000260: 429c 5bbd bba0 c53b 5582 82bd 24b3 ab3d
00000270: 739c 373c 191f c4bd a7cf 35bb c6cc 4abc
00000280: 0f41 153d f35c 89bd 83d9 0d3d 644c 47bd
00000290: 2b1c c4bc 8ace 1b3d d528 343b acc3 e3bc
000002a0: 34ca fe3c 59a8 6ebc c406 fe3d 45a7 4139
000002b0: d0a4 11bd 3231 323d 6537 b93c 41b8 073d
000002c0: a7a2 00bd 1e12 663b 0e54 e13c 3fba 893a
000002d0: 2ff3 663d 8e2d 9c3c 2e41 be3c a2e2 f33b
000002e0: 17dd 8f3a 6551 3e35 112d 51bd d2ec f3bc
000002f0: e9db 94bc 7cf4 cd3c 4fb1 693d fd75 2b3a
00000300: b1f0 673d 3d91 4738 6dba 2d3c 0302 21bd
00000310: 7260 333d c82e 36ba 62ff 1f3d 4801 96bc
00000320: 074d 933b dca5 10bd 9c76 92b9 1e4f 033d
00000330: 94e6 193d 4851 123d e9de 8abc cad2 bfbd
00000340: eaa7 aabd cb00 97bc a76d c23c 2cc7 e9bb
00000350: 76ce ea3b 6638 6b3c 4361 ec3b ac32 d3bb
00000360: 43dd 9a3c 1651 773c 7e9b 3d3d 6b3b 153d
00000370: e381 9abb 98b6 f2bc 61ae 713b 12ba c73c
00000380: bbd9 d3bc 38fd 09bd a2bd f63c b8c7 d23a
00000390: c08c 02bd d46c 11bd 2434 aabb 510f 073c
000003a0: d934 f13c e992 e4b2 6514 a03c 09d5 9cbd
000003b0: 9b1c a83d 4f6b c0bc 6892 8034 7309 893c
000003c0: 0745 11bd 4c2d 183c 09fb f33c 0bb4 0f3d
000003d0: 5d4e b739 68c1 2d3c 20c4 0a3a 5e31 71bc
000003e0: 608f 25bd f72c da3b 2a7f 783d 8287 723d
000003f0: 1168 5cbd d93c 353d 8470 b33b 9ef5 df3a

bias f4 [128]
-0.058511537 0.06862248 0.1047807 0.014331777 0.014911642 0.09952826 -0.09943618 0.007610053
-0.02599819 0.074929975 0.039178222 -0.07987959 0.008836158 -0.08962937 0.060732745 -0.06425557
0.058588766 0.07525715 0.031918023 -0.023343666 -0.0640384 -0.08419918 -0.08041249 0.042401787
-0.067292765 0.08333499 -0.040032435 -0.056704413 0.034830075 -0.04408764 0.0022723028 -0.074522264
-0.089436635 -0.009455444 0.058694847 -0.07161028 -0.048882723 -0.061722804 0.037664738 0.10445924
-0.021629548 -0.06284746 0.01012143 -0.071530566 -0.008629593 -0.06017502 0.04958171 0.036118504
0.033900645 0.068750866 -0.053464632 0.0024892436 -0.01156782 0.014928502 0.049575854 0.007578845
-0.038405504 0.07621466 -0.010928318 0.0060114358 -0.04610684 -0.023241688 -0.09984399 0.032752294
0.0016250594 0.039163657 0.097499005 0.07926992 -0.089625195 -0.008809962 -0.026446132 0.06682852
0.06546999 -0.100902446 -0.042991485 0.07363202 0.021188932 -0.07775294 0.08716489 -0.0077811005
-0.056055836 -0.016455779 0.06471695 -0.03203592 0.04242684 -0.029696085 -0.03340683 -0.07291585
0.07284026 0.061346397 -0.032307494 0.09187719 -0.033082258 0.04307456 -0.038514666 0.03649102
-0.02859859 0.017393949 -0.07265764 -0.013305086 -0.057302676 -0.06269806 -0.04158887 -0.0024422146
-0.0311513 -0.087554485 -0.022389196 -0.05563729 0.071934 -0.10221712 -0.06294668 -0.007753259
-0.00015547502 -0.023402315 0.01399341 -0.012730764 -0.0025044733 -0.046693634 0.09828016 -0.0023611072
0.012825214 0.0046469173 6.6616885e-05 -0.028928248 0.01992994 -0.07715514 -0.016370384 0.076739945
00000000: cba9 6fbd f189 8c3d 4397 d63d d4cf 6a3c
00000010: f64f 743c 79d5 cb3d 32a5 cbbd c05d f93b
00000020: 28fa d4bc e374 993d 5879 203d e997 a3bd
00000030: 88c5 103c 9a8f b7bd e6c2 783d 6d98 83bd
00000040: c6fa 6f3d 6c20 9a3d 79bc 023d 373b bfbc
00000050: 9126 83bd 9f70 acbd 4eaf a4bd 7fad 2d3d
00000060: cad0 89bd 89ab aa3d 0df9 23bd e342 68bd
00000070: fba9 0e3d 3e95 34bd eaea 143b 219f 98bd
00000080: 8e2a b7bd 02eb 1abc 026a 703d 69a8 92bd
00000090: 4039 48bd 0dd1 7cbd 5746 1a3d baee d53d
000000a0: 7330 b1bc 2bb6 80bd 5bd4 253c 9e7e 92bd
000000b0: 2363 0dbc 157a 76bd 3116 4b3d fff0 133d
000000c0: 67db 0a3d 41cd 8c3d bbfd 5abd 9422 233b
000000d0: f486 3dbc ad96 743c 0d10 4b3d f657 f83b
000000e0: 174f 1dbd 6f16 9c3d b00c 33bc 94fb c43b
000000f0: 87da 3cbd 5a65 bebc 017b ccbd 4527 063d
00000100: f2ff d43a 126a 203d 8fad c73d 4558 a23d
00000110: 6a8d b7bd a957 10bc 8fa5 d8bc 64dd 883d
00000120: 2115 863d f1a5 cebd d717 30bd 62cc 963d
00000130: 6994 ad3c ef3c 9fbd 8183 b23d 9af8 febb
00000140: ce9a 65bd 45ce 86bc 528a 843d 1938 03bd
00000150: c4c7 2d3d 3445 f3bc 9ad5 08bd e854 95bd
00000160: 462d 953d 5c46 7b3d dd54 04bd 1c2a bc3d
00000170: 4381 07bd f36e 303d 8ec1 1dbd 9c77 153d
00000180: 9747 eabc c17d 8e3c 87cd 94bd 93fd 59bc
00000190: 36b6 6abd d767 80bd 1759 2abd 900d 20bb
000001a0: 0331 ffbc c44f b3bd 8c69 b7bc ede3 63bd
000001b0: 2252 933d 3657 d1bd 30ea 80bd 0d0f febb
000001c0: 0207 23b9 36b6 bfbc 9e44 653c b294 50bc
000001d0: 1722 24bb d341 3fbd 1c47 c93d cebc 1abb
000001e0: d920 523c 2b45 983b abb4 8b38 effa ecbc
000001f0: 1d44 a33c 8403 9ebd 2f1b 86bc d529 9d3d
