pubmed_train/train/pretrained_hgnn/decoder_c.pth (torch, 324640 bytes, 4 tensors)

weight f4 [200, 200]
0	0xbda715d6	-0.08158462
1	0xbc0350da	-0.008014882
2	0x3a6dcd67	0.000907144
3	0x3c235ec2	0.0099713225
4	0xbd062947	-0.03275421
5	0x3af31ca6	0.0018547967
6	0x3bf49a5e	0.007464691
7	0xbba8e321	-0.005154029
8	0xbcb22fec	-0.021751367
9	0xbca43fa5	-0.02004988
10	0x3cb201d3	0.021729385
11	0x3caabf09	0.020843046
12	0x3d2095de	0.039205424
13	0x3c9d19e5	0.019177387
14	0x3a34d379	0.0006897967
15	0x3d06005e	0.032715194
16	0x3d4edc76	0.050503217
17	0xbd2ecd0a	-0.04267601
18	0x3cfc69b0	0.030812114
19	0xbd9b8ad9	-0.075948425
20	0x3c21b734	0.009870339
21	0x37fe5615	3.0319245e-05
22	0x3ceca0bf	0.028885243
23	0x3cda8e1d	0.026679093
24	0x3946c7d5	0.00018957195
25	0xbd1273be	-0.03575491
26	0x3c3b62a8	0.011437096
27	0x3d546294	0.051851824
28	0xbd4391a1	-0.047746304
29	0xbd4fe135	-0.050751884
30	0x3b1e8cb0	0.0024192743
31	0x3d941394	0.07230297
32	0xbd760196	-0.060060106
33	0x3b20748d	0.0024483532
34	0x3cd83fa2	0.02639753
35	0x3d785ada	0.060633518
36	0xbcf89c6b	-0.030348023
37	0x3da9fc5b	0.08300086
38	0xbc8b029f	-0.016969023
39	0x3898a30c	7.278295e-05
40	0x3af771d7	0.0018878531
41	0x3a55fc2f	0.00081628835
42	0xbc9008b3	-0.017582273
43	0x3b8ff310	0.004392989
44	0x3bf92dbf	0.0076043303
45	0x3c39539b	0.011311437
46	0xbd87c560	-0.06629443
47	0x3dbf807d	0.09350679
48	0xbd012660	-0.031530738
49	0x3dc2c282	0.09509756
50	0xbd4e2770	-0.05033058
51	0x38a5d6f5	7.907852e-05
52	0xb882d459	-6.238436e-05
53	0x3b40cf01	0.002942026
54	0xbc7ce413	-0.0154352365
55	0x3cc5928b	0.024117729
56	0xbb1da578	-0.0024054926
57	0x3c3a16bf	0.011357962
58	0x3a8c11e6	0.0010686486
59	0x3be26507	0.006909016
60	0xbb562a81	-0.0032679143
61	0x3b8a858d	0.0042273463
62	0xbb61be68	-0.0034445766
63	0xbd107d4b	-0.03527574
64	0x39c16b7d	0.00036891914
65	0x3e067a32	0.13132551
66	0xbd1b9f14	-0.037993506
67	0x3c4419a7	0.011969007
68	0x3b5baac5	0.0033518535
69	0x3b9183b6	0.00444075
70	0x3b3e11d8	0.0029002335
71	0xbd779078	-0.06044051
72	0x3c22a77f	0.0099276295
73	0x3c5e0cb1	0.013552831
74	0xbca8012a	-0.020508368
75	0x3bd65dd0	0.006541945
76	0xbcdfcde6	-0.02731986
77	0xbd18e306	-0.03732588
78	0xbc87b076	-0.016563635
79	0xbc7fcdb3	-0.015613007
80	0x3ac2d129	0.001486336
81	0x39990896	0.0002918883
82	0x3ce3e14f	0.027817396
83	0xba6e7d20	-0.00090976246
84	0x3d89d6b2	0.06730403
85	0xbd14614b	-0.0362256
86	0xbd818b06	-0.06325345
87	0x3d3a99f4	0.045556977
88	0x3e21f966	0.15817794
89	0xbc890ccd	-0.016729737
90	0xbc103a75	-0.008803
91	0xba8c2489	-0.0010692041
92	0xbcdb8276	-0.026795607
93	0x39248faf	0.00015693785
94	0x3cd7d033	0.026344394
95	0xbb60810d	-0.0034256608
96	0x3d167ba3	0.036739003
97	0x3d2da61e	0.04239475
98	0x3b45b6bd	0.0030168735
99	0xb909b3ef	-0.00013132369
100	0xbbdeca6f	-0.0067990343
101	0xbcb18b42	-0.021672849
102	0x3d7dad92	0.061933108
103	0xbd501163	-0.05079783
104	0xb9c79411	-0.00038066556
105	0xbd42eb1b	-0.047587495
106	0xbdcf9350	-0.101355195
107	0xbd3abeb2	-0.045592017
108	0xbd0c39c3	-0.034234773
109	0xbd47c1bb	-0.04876874
110	0xbdcba977	-0.09944432
111	0x3bfabb85	0.0076517486
112	0xbdc913ef	-0.09818255
113	0x398858b6	0.00026006036
114	0xbd5e83cb	-0.054324906
115	0xbd5f7142	-0.05455137
116	0x3c8ab716	0.016933005
117	0xbcf9a093	-0.030472076
118	0x3dd1867e	0.102307305
119	0xbc5f15bf	-0.0136160245
120	0xbd8e556b	-0.06949886
121	0xbd186638	-0.03720686
122	0x3b281118	0.0025644954
123	0x3b9a4ce4	0.004708873
124	0xbbfc5506	-0.0077005653
125	0xbd20f21c	-0.039293393
126	0x36d3ca52	6.311843e-06
127	0x3d3e5d0c	0.046475455
128	0x3b50987b	0.0031829167
129	0x3c113be8	0.00886438
130	0x3c50845e	0.012726871
131	0xbd0542aa	-0.03253428
132	0x3b8de89c	0.0043307077
133	0x3c431f83	0.011909368
134	0x3b923724	0.0044621397
135	0x3dadfda8	0.08495647
136	0x3cd6229b	0.026139548
137	0x3d024f6e	0.03181403
138	0x36f0a7b8	7.1720824e-06
139	0xbc7b8b08	-0.015352972
140	0xba1e3ebf	-0.00060365716
141	0x3c649b2a	0.01395301
142	0x3d172e67	0.036909487
143	0xbc8efd54	-0.01745478
144	0xbd7ba9ea	-0.06144134
145	0x3d6a49b8	0.05719921
146	0xbd2b05a1	-0.041753415
147	0xbd09e353	-0.03366406
148	0x3db517de	0.08842443
149	0xbc900f79	-0.017585503
150	0xbc31a3c0	-0.010842264
151	0x3c2822f7	0.0102622425
152	0x3c363761	0.011121602
153	0x3bb7c509	0.005608205
154	0x3b1d83ab	0.002403478
155	0x3d0c525f	0.034258243
156	0x38375cd9	4.371707e-05
157	0x3d9b6857	0.075882606
158	0xbd57b90f	-0.05266672
159	0x3c646664	0.013940427
160	0x3cd2123b	0.025643459
161	0xbd3704c9	-0.044682298
162	0x3d9e7b82	0.07738401
163	0x3d3898ab	0.04506747
164	0x3cc1d056	0.023658913
165	0x3cab26ce	0.020892527
166	0x3ca6b501	0.020349981
167	0xbd0d8260	-0.034548163
168	0xb5a25475	-1.2094521e-06
169	0xbcfc723b	-0.030816188
170	0x3b722262	0.0036946763
171	0x3cdeffbd	0.027221555
172	0x3cabe581	0.02098346
173	0x3d2d6537	0.042332854
174	0xbcac0b71	-0.02100155
175	0x3b9d1fc4	0.0047950465
176	0x3a74bed2	0.0009336296
177	0xbc6614cd	-0.014043045
178	0xb9895291	-0.00026192193
179	0x3afc12cb	0.0019231675
180	0x3c3ab3ab	0.011395375
181	0x3d8a172d	0.06742702
182	0x3a003a95	0.0004891542
183	0x3cffc5f2	0.031222317
184	0x3c82f052	0.015983734
185	0x3d3fd794	0.04683645
186	0x3d0ec7f1	0.034858648
187	0xbb236b0b	-0.0024935629
188	0x3c643061	0.01392755
189	0xbc65d354	-0.014027435
190	0x3ba6d4a3	0.0050912662
191	0xbcfa67b8	-0.030567035
192	0x3ce3f9ad	0.027829016
193	0x3b8ec0fd	0.004356502
194	0x3d211588	0.039327174
195	0xbb89568b	-0.004191225
196	0x3a1d1cfc	0.0005993394
197	0x3b3f3f45	0.0029181999
198	0x3d359220	0.04432881
199	0x3b83278b	0.0040025166
200	0xbd759e02	-0.05996514
201	0xbcf79f01	-0.030227186
202	0xbda69b0d	-0.08135042
203	0x3c7aa14b	0.015297244
204	0xbca70510	-0.020388156
205	0xbcc0a456	-0.023515861
206	0xbd98dc4b	-0.074638925
207	0xb9a5bd5c	-0.00031612336
208	0xbb36b2e4	-0.0027877623
209	0x3d19d39a	0.037555315
210	0x3c6a5fb0	0.01430504
211	0xbd8dc27f	-0.06921863
212	0x3c03ca8c	0.008043896
213	0x3cbeae9b	0.023276618
214	0xbcee3c03	-0.02908135
215	0x3d77a3ec	0.060459062
216	0x3d134e9b	0.035963636
217	0x3b012195	0.0019703854
218	0xbd8bb238	-0.06821102
219	0xbbee2474	-0.007267529
220	0x3d24114b	0.040055554
221	0x3c900386	0.017579805
222	0xbcf82992	-0.03029326
223	0xbc77c5dc	-0.015122857
224	0x3ccbab21	0.024861874
225	0x3c02e7a3	0.007989797
226	0xbd1eee4e	-0.038801484
227	0xbbd58185	-0.006515684
228	0xb7257946	-9.863003e-06
229	0xbcfab333	-0.030603027
230	0x3cc5102b	0.024055561
231	0xbb045f47	-0.0020198391
232	0xbd1af58b	-0.037831824
233	0xbdd116eb	-0.102094494
234	0xbd5b7e30	-0.05358714
235	0x3ce48996	0.027897637
236	0xbd6eb7a5	-0.058280606
237	0x3d86cfe3	0.0658262
238	0x3bd1709b	0.0063915974
239	0x3d12f079	0.035873864
240	0x3b1486ca	0.0022663348
241	0xbca060d3	-0.01957742
242	0xbd245f6f	-0.040130075
243	0xbd8f6572	-0.07001771
244	0x3cd607e3	0.026126808
245	0xbcb859dc	-0.022503786
246	0xbc0a2f39	-0.00843411
247	0xba78ea7c	-0.000949539
248	0xba95e68a	-0.0011436504
249	0xbc1cce3c	-0.0095706545
250	0x3c180ae5	0.009279941
251	0xbbc74ed8	-0.006082397
252	0xbc3556e1	-0.011068077
253	0xbc9078cc	-0.017635725
254	0x3c16754b	0.009183238
255	0xbc31d537	-0.010854057

bias f4 [200]
0	0x3c04b9c6	0.008100932
1	0x3ce510ab	0.02796205
2	0x3db7c001	0.08972169
3	0xbd2005d9	-0.039068077
4	0xbc826016	-0.015914958
5	0xbcd2e270	-0.02574274
6	0xbcc7caae	-0.024388637
7	0xbc83bb33	-0.016080474
8	0xbd3ebd9d	-0.046567548
9	0x3d1772a3	0.03697456
10	0xbd9ae067	-0.075623326
11	0xbcd45ad6	-0.02592222
12	0xbc5cdb6e	-0.0134800505
13	0x3cc78786	0.024356615
14	0xbdc99476	-0.0984277
15	0x3d810f46	0.06301741
16	0x3d1382fc	0.03601359
17	0xbcbf7272	-0.023370001
18	0xbc200a21	-0.00976804
19	0x3cc64502	0.024202827
20	0xbc0cbae9	-0.008589485
21	0xbd5f728c	-0.0545526
22	0xbd814c02	-0.063133255
23	0x3d63ecc1	0.055645708
24	0x3d9762bf	0.07391881
25	0x3c5436a1	0.012952478
26	0xbd55897f	-0.05213308
27	0x3d14ded3	0.036345314
28	0xbd0f2f16	-0.034957014
29	0xbdbd9e0d	-0.092586614
30	0xbd087edf	-0.03332412
31	0xbd7a5ec3	-0.061125528
32	0x3d0ca7f0	0.034339845
33	0x3d5c99d6	0.053857647
34	0x3cbb4fd7	0.022865219
35	0x3b0fcb2c	0.0021941168
36	0xbd60d264	-0.054888144
37	0x3cfc1c53	0.030775225
38	0xbc53665a	-0.0129028205
39	0x3c58f2be	0.013241468
40	0x3daa354e	0.08310948
41	0x3caf0158	0.021362945
42	0x3c92e537	0.017931564
43	0xbd19fb0b	-0.03759293
44	0xb94e76fc	-0.00019690016
45	0xbc74c544	-0.01493961
46	0xbd8a3baa	-0.06749661
47	0xbd203fc9	-0.03912333
48	0xbd3cbd58	-0.04607901
49	0xbd474fad	-0.04865997
50	0x3d6dba51	0.058039013
51	0xbd35222c	-0.044222042
52	0xbd16f864	-0.036857978
53	0x3db88f97	0.090117626
54	0xbd8cbaf8	-0.06871599
55	0xbbd05d55	-0.0063587823
56	0xbc159b5c	-0.009131279
57	0xbdbb3893	-0.0914165
58	0xbdafee69	-0.08590395
59	0xbd224311	-0.03961474
60	0xbd07f71b	-0.033194643
61	0x3bc6f931	0.0060721864
62	0xbc9b84ae	-0.018984165
63	0xbba0c75b	-0.0049065775
64	0xbd58a3b5	-0.0528905
65	0x3c82d23f	0.015969394
66	0xbb860546	-0.004089984
67	0x3cd67103	0.026176935
68	0xbd18e6a9	-0.03732935
69	0xbd58efbe	-0.05296301
70	0xbc86dc87	-0.016462578
71	0xbd25aab2	-0.04044599
72	0xbd74a171	-0.059724275
73	0x3d6af1cd	0.057359505
74	0x3c7d6aa8	0.015467323
75	0xbd4be1e9	-0.04977599
76	0x3cbdb837	0.02315913
77	0x3d23c709	0.039984737
78	0x3ca93057	0.020652933
79	0xbd3740e1	-0.044739608
80	0xbd78bace	-0.060725026
81	0xbbd8a4b6	-0.006611432
82	0xbc15a1eb	-0.0091328425
83	0x3d2ea607	0.042638805
84	0xbd8342eb	-0.06409248
85	0xbd2c3efb	-0.04205225
86	0x3d8adea3	0.06780746
87	0x3d4d88bc	0.05017923
88	0xbd0e3a77	-0.034723725
89	0x3ca95aa9	0.020673113
90	0xbc22bc2d	-0.00993256
91	0x3bb067dd	0.005383475
92	0x3cfcfced	0.030882323
93	0xbdc2e8dc	-0.09517071
94	0x3d8181c0	0.06323576
95	0xbd0f7a17	-0.035028543
96	0xbd08b7ed	-0.03337853
97	0xbd2fe7ef	-0.0429458
98	0xbd4f53db	-0.05061708
99	0x3d5be0a5	0.053681035
100	0x3ca9b53c	0.020716302
101	0x3ccff126	0.025383543
102	0x3da626a2	0.081128374
103	0x3cf97716	0.030452292
104	0x3da5e9d7	0.08101242
105	0x3da10e50	0.07864058
106	0xbd9a289d	-0.075272776
107	0xbb361e28	-0.002778897
108	0xbd0150c7	-0.031571176
109	0x3db9e9b7	0.09077781
110	0x3bae780a	0.0053243684
111	0x3ca6e683	0.020373588
112	0xbdab34ae	-0.08359657
113	0xbc5da30f	-0.013527646
114	0xbd9873ae	-0.07443939
115	0x3a698823	0.00089085306
116	0xbd14fae3	-0.036372077
117	0x3dafa934	0.08577195
118	0x3ca2f834	0.019893743
119	0x3d400a60	0.046884894
120	0xbd8b676f	-0.06806838
121	0xbbd85a45	-0.006602558
122	0x3d889872	0.06669702
123	0xbd9492f7	-0.07254594
124	0xbd848bca	-0.06471975
125	0x3d9b25ed	0.07575593
126	0x3d076f0a	0.03306488
127	0xbd1fa1f0	-0.038972795
128	0xbd2ba78e	-0.04190784
129	0x3d60d169	0.05488721
130	0x3d51bf99	0.051208112
131	0xbd7e2627	-0.062048104
132	0x38fde00a	0.000121057106
133	0x3b1a8c47	0.0023582147
134	0xbda4be7e	-0.08044146
135	0x3d1c543a	0.038166262
136	0x3d81a3b5	0.06330053
137	0xbd61dccf	-0.05514222
138	0xbd10e45c	-0.03537403
139	0x3c6e2127	0.014534271
140	0xbce4ac96	-0.027914327
141	0x3d7047ac	0.0586621
142	0xbcf8a20a	-0.030350704
143	0xbc065799	-0.008199596
144	0xba814138	-0.0009861356
145	0xbcf29176	-0.029610377
146	0xbd0f4b4e	-0.034983926
147	0x3b4bd297	0.0031100863
148	0xbd22e196	-0.039765917
149	0x3bed31af	0.0072385888
150	0x3d0c7fad	0.03430145
151	0xbd9a23cf	-0.07526361
152	0xbc71ab0b	-0.0147502525
153	0xbd9caef6	-0.07650559
154	0x3da97e7b	0.08276077
155	0xbda03b9e	-0.07823871
156	0x3d2aec05	0.041728992
157	0xbce7e578	-0.028307661
158	0x3d7ae63e	0.061254732
159	0xbc925cf5	-0.017866591
160	0xbce6723c	-0.028130643
161	0x3d6bfee2	0.057616122
162	0x3dae4343	0.08508923
163	0xbd2536be	-0.04033541
164	0x3c434d78	0.011920325
165	0x3ce50ee7	0.027961208
166	0x3d15a36c	0.036532804
167	0x3d548cc4	0.051892057
168	0xbd0d6ece	-0.0345295
169	0x3cbc4265	0.022980878
170	0x3d7d9761	0.061911944
171	0xbd17b25a	-0.037035324
172	0xbd7ecded	-0.062208105
173	0x3d500a5a	0.050791122
174	0xbd66bf1e	-0.056334607
175	0x3c61a568	0.013772346
176	0x3d8467b3	0.064650916
177	0x3acba09e	0.0015535539
178	0x3daa1efb	0.0830669
179	0xbd6f465b	-0.058416706
180	0x3d513573	0.051076364
181	0xbd2b6327	-0.041842606
182	0x3da126a3	0.078686975
183	0x3d96fa27	0.073719315
184	0xbc1f9fa5	-0.009742652
185	0x3c92b240	0.017907262
186	0xbd81af62	-0.0633228
187	0x3d142a64	0.03617324
188	0xbd10b6b4	-0.03533049
189	0xbd150e1a	-0.0363904
190	0xbcd4ec2f	-0.025991527
191	0xbd488033	-0.048950385
192	0xbd16e472	-0.036838956
193	0x3c2a9efe	0.010413883
194	0xbd9d02f0	-0.07666576
195	0xbcc3f03a	-0.02391826
196	0x3d849603	0.06473925
197	0x3c8a038b	0.016847393
198	0x3c843499	0.016138362
199	0x3d1a7c74	0.037716344

weight f4 [200, 200]
0	0x3cfcd6ae	0.030864086
1	0x3d0239ee	0.031793527
2	0xb8258bda	-3.9469312e-05
3	0xbd8b2b67	-0.06795388
4	0x3b0eced0	0.002179075
5	0x3bbb061a	0.0057075145
6	0x3b4cfe61	0.0031279551
7	0x3b9fef7f	0.004880845
8	0xbc20ed8f	-0.009822263
9	0x3cbe3aba	0.023221362
10	0xbb99b155	-0.004690329
11	0xbc4db59b	-0.012555505
12	0x3d3a4be4	0.04548253
13	0x3d873b13	0.066030644
14	0xb752c684	-1.2563196e-05
15	0xbc90b083	-0.017662292
16	0xbc07ac70	-0.008280858
17	0xb788c608	-1.6304679e-05
18	0x3cb0d262	0.021584693
19	0x3da6121b	0.08108922
20	0xbd3a3336	-0.045458995
21	0xbc830726	-0.01599462
22	0xbc28d162	-0.010303827
23	0x3b80f7ec	0.0039358046
24	0xbd8346a4	-0.06409958
25	0xbd148206	-0.036256813
26	0x3bac53fb	0.0052590347
27	0xbd7b23c6	-0.061313413
28	0xbd17c81d	-0.037056077
29	0x3d5a83cc	0.053348348
30	0xbc923f0b	-0.017852327
31	0x3cb699e8	0.022290185
32	0x3d28c55a	0.041203834
33	0x3ac84939	0.0015280611
34	0x3c9b3f98	0.018951222
35	0xbcad15b2	-0.02112851
36	0x3d5469d8	0.051858753
37	0x3a6e7897	0.0009096949
38	0x3cc33098	0.023826882
39	0x3d3645f9	0.044500325
40	0xb8b1930a	-8.467406e-05
41	0x3b3b86d5	0.0028614302
42	0xbc89590f	-0.0167661
43	0x3a810435	0.0009843173
44	0xbb8e9df0	-0.0043523237
45	0xbb2daac2	-0.0026499485
46	0xbc0e5374	-0.008686889
47	0xb9f8383c	-0.00047344144
48	0x3d2bb9e5	0.04192533
49	0xbbf28876	-0.0074015213
50	0x38dc9009	0.00010517246
51	0xbcad324d	-0.02114215
52	0xbd2e8a1d	-0.042612184
53	0xbd34fe1c	-0.04418765
54	0x3bb3e61a	0.0054900767
55	0x3a9aab33	0.0011800289
56	0x3da07063	0.07833936
57	0xbd70ea8b	-0.058817428
58	0xbc742bf7	-0.01490306
59	0x3cce179a	0.025157738
60	0xbd9129ab	-0.07088026
61	0x3d754a4d	0.059885312
62	0x3d15d26c	0.036577627
63	0x3d04c386	0.03241303
64	0xbd21a2db	-0.03946195
65	0xbd57898b	-0.052621406
66	0xbb9a4461	-0.0047078584
67	0x3c5c139d	0.013432411
68	0xbcb455d0	-0.022013575
69	0x3ca07c02	0.019590382
70	0xbbca73d1	-0.006178357
71	0x3d33eaf6	0.043925248
72	0xbd3337d6	-0.04375442
73	0x3d57e5e0	0.05270946
74	0xbc5635c7	-0.013074345
75	0xbc8acba3	-0.016942805
76	0x3cbe1ae2	0.023206178
77	0x3c7582b6	0.014984777
78	0x3dbdefd7	0.092742614
79	0xbd74899f	-0.05970156
80	0x3d65772f	0.056021865
81	0xbaff14b6	-0.0019461128
82	0x3c1392e6	0.009007191
83	0x3c939e22	0.01801974
84	0x3b3dd46b	0.0028965722
85	0x3d48a5d1	0.04898626
86	0x3a3f0565	0.00072868756
87	0x3d906fc1	0.07052565
88	0xba7bce87	-0.0009605665
89	0xbd956dd2	-0.07296337
90	0xbcbfc95b	-0.023411443
91	0xbcd18561	-0.025576295
92	0xb9ccaba0	-0.00039037783
93	0x3b0256bc	0.0019888123
94	0x3baad75a	0.00521366
95	0x3ad6ab02	0.0016377869
96	0x3c8d8b1d	0.017278248
97	0xbbcfdcbc	-0.0063434523
98	0x3cd62468	0.026140407
99	0xbca3a06b	-0.019973954
100	0x3d8b9008	0.06814581
101	0x3d30423f	0.043031927
102	0x39122f41	0.00013941248
103	0xbb31ccc2	-0.0027130102
104	0xbd045408	-0.0323067
105	0x3b63af7a	0.0034742043
106	0xb64b3624	-3.0280871e-06
107	0xbb4c8086	-0.0031204536
108	0x3c96fa95	0.018430034
109	0xbd56be8c	-0.052427813
110	0xbcdd0391	-0.02697924
111	0x3c651f61	0.013984532
112	0xbd71a6fd	-0.058997143
113	0xbc218ad9	-0.009859764
114	0xbbd8420d	-0.0065996707
115	0x3dad2ca1	0.08455778
116	0xbd7b2329	-0.06131283
117	0x3c962e59	0.018332647
118	0x3cc8c86b	0.02450963
119	0x3c861e13	0.016371762
120	0x3d4d4b48	0.050120622
121	0xbb5210a2	-0.003205337
122	0x39ab3e26	0.00032661966
123	0x3df336ff	0.11875724
124	0xbce6d935	-0.028179744
125	0xbc39fabc	-0.011351284
126	0x3c0bbe70	0.008529291
127	0xbd983879	-0.07432646
128	0xbd4c46fa	-0.049872376
129	0xbd87d726	-0.06632833
130	0x3626ba4b	2.4844364e-06
131	0x3cf7e51e	0.030260619
132	0x3d1fa7e0	0.038978457
133	0x3b940d26	0.004518169
134	0xbd4a118a	-0.049333133
135	0x3cbcdd1e	0.023054656
136	0x3d876c89	0.06612498
137	0x3dbb607d	0.09149263
138	0x3cfe1eed	0.031020606
139	0x3d4f7c93	0.050655913
140	0x3d9adcfa	0.07561679
141	0x3d9535fa	0.07285686
142	0x3b1f969d	0.0024351247
143	0x3c9823b4	0.018571712
144	0xb9d75bc3	-0.00041076363
145	0xbd33b7cf	-0.043876465
146	0xbd1fdc25	-0.039028306
147	0xbca19c91	-0.019727977
148	0x3d3e5c5c	0.0464748
149	0xbd3b6050	-0.045746148
150	0x3cde290a	0.027119178
151	0xbcfae64b	-0.03062739
152	0x39b369ee	0.00034220464
153	0x3b946b88	0.0045294203
154	0x3c443a60	0.011976808
155	0x3d5131d3	0.051072907
156	0x3c3cc532	0.011521624
157	0x3b60f036	0.0034322864
158	0xbd4a933e	-0.049456827
159	0x3cd0d8bb	0.02549397
160	0x3da26e3e	0.07931183
161	0x3c11e392	0.008904355
162	0x3bc66d29	0.0060554934
163	0x3c102708	0.008798368
164	0x3cb758b1	0.022381159
165	0xbb3449b1	-0.0027509744
166	0xbc638f36	-0.013889125
167	0xb80e41ed	-3.3916836e-05
168	0xbd42c445	-0.04755046
169	0xbd48b592	-0.049001284
170	0x39ad9217	0.00033105977
171	0xbca16833	-0.019703006
172	0xbd653370	-0.055957258
173	0x3db7111a	0.08938809
174	0x3d1f86bd	0.038946856
175	0xb83281aa	-4.2559266e-05
176	0x3d0d1db2	0.034452148
177	0x3cd1e0a3	0.02561981
178	0xbd7d8025	-0.061889786
179	0xbb773f9f	-0.003772713
180	0x39045785	0.00012621105
181	0x3d0aed1c	0.03391753
182	0xbc2b42b4	-0.010452915
183	0x3bd8bea1	0.0066145216
184	0xba175c41	-0.000577394
185	0xbdb47815	-0.08811966
186	0x3a813257	0.0009856921
187	0x39d663b3	0.00040891542
188	0xbc927343	-0.017877227
189	0xb95ad67f	-0.00020870006
190	0xbaf5240d	-0.001870276
191	0x3ce2edc2	0.027701262
192	0xbbe6e086	-0.0070458082
193	0x3d2d227d	0.04226922
194	0x3d12ff34	0.035887912
195	0xbdd1076f	-0.10206496
196	0xbb2c6e3b	-0.002631082
197	0x3beb0382	0.007172049
198	0xbd630598	-0.055425256
199	0xbcb3e176	-0.021958094
200	0xbd56dc5d	-0.05245625
201	0xbcd93c7b	-0.026518097
202	0xbd24f8ce	-0.04027634
203	0xbc90b7ae	-0.01766571
204	0x3ba6a396	0.005085419
205	0x3d51c6f7	0.05121514
206	0x39192a7c	0.00014607044
207	0x3aef10b6	0.0018239233
208	0xbcfd27b3	-0.03090272
209	0x3ba96fb8	0.0051707886
210	0x3d738a58	0.059458107
211	0x3b030894	0.0019994127
212	0xbbe43d9c	-0.006965352
213	0xbd8438cc	-0.06456146
214	0x3d1d6137	0.03842279
215	0x3d089d85	0.033353347
216	0x3ccb935a	0.024850536
217	0xbb912282	-0.0044291625
218	0xbc9c02e3	-0.019044345
219	0x3d7dbfb2	0.061950393
220	0x3cfeb99a	0.031094361
221	0x3ccc6bb5	0.024953702
222	0x3a8e89b5	0.001087478
223	0x3cbd893a	0.023136724
224	0x3c84fffb	0.016235342
225	0x3d151ef4	0.036406472
226	0x3b975f41	0.0046195094
227	0xb665a64c	-3.4220457e-06
228	0xbaec1139	-0.0018010504
229	0x3b54eb88	0.003248902
230	0xbd2d7a95	-0.04235323
231	0xb6243569	-2.4468993e-06
232	0xbb6e6e04	-0.0036381492
233	0xba3a9d06	-0.0007118735
234	0xbb679669	-0.0035337454
235	0xbd3bd2a4	-0.04585518
236	0xbcdd10c3	-0.026985532
237	0xbd09de92	-0.033659525
238	0xbdaf6ce5	-0.08565692
239	0xbb9951c2	-0.0046789357
240	0xba5ca93d	-0.00084175525
241	0xbd0c3992	-0.03423459
242	0x3d8e0f0b	0.06936463
243	0x3d1cc2d7	0.03827175
244	0xbc6966bc	-0.014245685
245	0x3d2dc763	0.042426478
246	0xbc957b45	-0.018247256
247	0x3d9fb277	0.07797711
248	0x3c4aa68b	0.0123688085
249	0x3cef99e1	0.02924818
250	0xbb92717c	-0.004469095
251	0x3cbc0993	0.022953784
252	0x3d89ef35	0.06735078
253	0x39626b98	0.00021593121
254	0xba028a0c	-0.0004979677
255	0xbc2fc182	-0.010727288

bias f4 [200]
0	0xbd480c4f	-0.048839863
1	0xbc785c50	-0.015158728
2	0xbbeb6a06	-0.00718427
3	0x3cd01bbe	0.025403854
4	0x3d6cf687	0.057852294
5	0xbc72a2dd	-0.014809337
6	0xbb0151cf	-0.00197326
7	0xbd4cc7aa	-0.049995102
8	0xbc9e434f	-0.019319205
9	0xbcfcc6bd	-0.030856485
10	0xbd0db9c0	-0.034600973
11	0xbb908285	-0.0044100904
12	0xbd05a62c	-0.032629177
13	0xbd6023da	-0.05472169
14	0x3bd25885	0.0064192438
15	0xbd441d9b	-0.047879796
16	0xbcfca262	-0.030839149
17	0x3bdeae41	0.006795675
18	0xbc989c43	-0.018629199
19	0x3c2a15e8	0.010381199
20	0xbc0f5b61	-0.008749814
21	0x3d580002	0.052734382
22	0xba6e246b	-0.0009084406
23	0xbbdd2bac	-0.006749591
24	0x3cb10111	0.021606954
25	0x3c9ad776	0.018901568
26	0x3d114d28	0.035473973
27	0x3c6a5f40	0.014304936
28	0x3d6d58b4	0.057945922
29	0xbd3ae874	-0.04563184
30	0x3d89b347	0.067236476
31	0x3c8635bc	0.016383044
32	0x3c888bd0	0.01666823
33	0x3d692a1b	0.05692492
34	0xbd60e4bd	-0.05490564
35	0xbd186c4c	-0.037212655
36	0x3c4bcdc1	0.012439192
37	0xbd0d9386	-0.034564517
38	0x3c48a6fe	0.012246845
39	0xbc66dca9	-0.014090695
40	0x3d306cda	0.04307256
41	0xbcd10fdf	-0.025520263
42	0x3c8cc765	0.017184922
43	0x3cefeb2d	0.029286945
44	0x3c182884	0.009287003
45	0x3ceeb256	0.029137772
46	0xbbb97998	-0.005660247
47	0xbd695ffd	-0.056976307
48	0x3c762074	0.015022386
49	0xbc837eb0	-0.01605162
50	0xbd2d8551	-0.04236347
51	0xbd3cfd7d	-0.046140183
52	0x3c2ac8d4	0.010423858
53	0xbba2be15	-0.004966507
54	0xbca7e08f	-0.02049282
55	0x3d5f72c9	0.054552827
56	0x3d75f9ee	0.060052805
57	0x3b41e7cf	0.0029587632
58	0x3cc671af	0.02422413
59	0xbc1fc290	-0.009750977
60	0xbd2f7a37	-0.042841163
61	0xb9e5d633	-0.00043837875
62	0x3cf47f5f	0.029845892
63	0x3cbdb451	0.02315727
64	0x3cd08aca	0.025456805
65	0x3d42e1b1	0.047578517
66	0xbc840974	-0.016117789
67	0x3af243f9	0.0018483392
68	0xbd76cbd1	-0.06025297
69	0xbc86b32c	-0.016442858
70	0x3cc1c449	0.023653166
71	0xbd5ad61f	-0.053426858
72	0xbd5b5567	-0.053548243
73	0x3c8bb4ed	0.017054046
74	0xbd5cbf46	-0.05389335
75	0xbbe9e5a2	-0.00713797
76	0xbc654b31	-0.013994978
77	0xbce3fad5	-0.027829567
78	0x3cda72fe	0.02666616
79	0x3d5140ba	0.05108712
80	0xbbe31af2	-0.0069307024
81	0x3cf23c99	0.02956991
82	0x3d6f7321	0.058459405
83	0xbcbf1fc8	-0.023330584
84	0xbd3221ea	-0.043489374
85	0xbd5a4198	-0.05328521
86	0x3d0eac38	0.03483221
87	0x3cde13a1	0.02710897
88	0xbcc247fa	-0.023715962
89	0x3d046412	0.032321997
90	0x3d1f1dd0	0.03884679
91	0x3c3c70d6	0.011501512
92	0xbd5cf310	-0.05394274
93	0x3d2c6b92	0.042094775
94	0xbd273a8b	-0.040827315
95	0x3acc90d5	0.0015607128
96	0x3cad7d5e	0.021177944
97	0xbc0df46a	-0.00866423
98	0x3cb859da	0.022503782
99	0x3d5d7675	0.054068048
100	0xbd43ba7d	-0.04778527
101	0x3c814928	0.015781954
102	0x3b168649	0.0022968224
103	0xbd716cc7	-0.05894163
104	0xbcc89ee3	-0.024489826
105	0xbd422829	-0.04740158
106	0x3c951ffe	0.018203732
107	0xbcafc07b	-0.021454087
108	0xbd53e9a6	-0.051736496
109	0xbd83981b	-0.06425496
110	0x3d59a043	0.053131353
111	0x3bd13233	0.006384158
112	0x3c36d9d4	0.011160333
113	0x3d49ac4a	0.049236573
114	0x3d852f43	0.06503155
115	0x3d035eb5	0.03207274
116	0xbd2f913e	-0.042863123
117	0xbcbe4b45	-0.02322925
118	0x3cca92be	0.024728175
119	0x3d7d57eb	0.061851423
120	0x3bf38201	0.007431269
121	0x3cf25102	0.029579643
122	0xbd9caf38	-0.07650608
123	0x3d84380e	0.06456004
124	0xbd3cabb5	-0.04606219
125	0xbc2dc73b	-0.010606582
126	0xbc51943c	-0.0127916895
127	0xbd119d3a	-0.035550334
128	0x3d24d640	0.040243387
129	0x3c81ade7	0.015829993
130	0xbd5a0c14	-0.053234175
131	0xbd492d0d	-0.04911523
132	0xbd763f72	-0.0601191
133	0x3c5999a0	0.013281256
134	0xb9a8233a	-0.00032069703
135	0x3d5bf30c	0.053698584
136	0x3d6db2b7	0.058031764
137	0xbd0b9ea3	-0.034086835
138	0x3cb556de	0.022136148
139	0xbb58e5c9	-0.0033095947
140	0xbd2855ff	-0.041097637
141	0x3cb7cc06	0.022436153
142	0x3ce5a460	0.028032482
143	0x3d453b2c	0.048152134
144	0xbc2e1ab9	-0.010626488
145	0x3b7ccb4c	0.0038573323
146	0xbcd9089b	-0.026493361
147	0x3ca2e04f	0.01988235
148	0xbae78a3d	-0.00176651
149	0xbd802c9b	-0.06258508
150	0xbd9628c7	-0.073319964
151	0xbd770575	-0.06030794
152	0x3d8069c7	0.062701754
153	0xbbfa9c30	-0.0076480135
154	0xbce86d99	-0.028372573
155	0x3d449c67	0.04800072
156	0xbbc06e33	-0.005872512
157	0xbc055948	-0.008138962
158	0xbd395cfc	-0.045254692
159	0x3d799aef	0.06093877
160	0xbd580008	-0.052734405
161	0xbcf706d3	-0.030154621
162	0x3c8a523a	0.016884912
163	0x3c44a152	0.012001352
164	0xbd17b5b0	-0.037038505
165	0xbd1a24cd	-0.037632752
166	0x3d73cf3c	0.059523806
167	0xbcf6133c	-0.030038469
168	0x3c296405	0.010338788
169	0xbd211086	-0.0393224
170	0x3ca4c46a	0.020113189
171	0x3d8bd983	0.068285964
172	0x3d494ae8	0.0491437
173	0x3d37fb3a	0.044917323
174	0x3c9edced	0.019392455
175	0x3d83b860	0.06431651
176	0x3be88187	0.007095519
177	0xbc629c44	-0.013831202
178	0xbd686aee	-0.0567426
179	0xbceb45fa	-0.02871989
180	0xbd14e3f3	-0.0363502
181	0x3cec8e25	0.028876374
182	0x3c14c7bf	0.009080826
183	0x3cbc9f6b	0.023025235
184	0x3cf1c7e7	0.029514266
185	0xbd70bd1c	-0.0587741
186	0x3d0164e7	0.03159037
187	0x3d3fbeac	0.0468127
188	0x3cb19b94	0.02168063
189	0x3cba8cf6	0.022772294
190	0x3d4a8e38	0.049452037
191	0x3d1e31b6	0.038621627
192	0xbd36ae93	-0.04460008
193	0x3c35d57b	0.011098261
194	0xbbcc612b	-0.0062371693
195	0xbcd68e9d	-0.02619105
196	0x3d23b4ee	0.03996747
197	0x3d465a9d	0.04842626
198	0x3c15b1f5	0.009136667
199	0x3d1ed16b	0.038773935
