pubmed_train/train/pretrained_hgnn/decoder_g.pth (torch, 324640 bytes, 4 tensors)

weight f4 [200, 200]
-0.00014766277 -0.0015548199 0.021682268 0.0129162 -0.07434438 -0.004104431 0.020321697 -0.05519762
-0.0053947656 0.001881586 0.05174064 0.024941938 -0.02737685 0.05559625 0.0016802893 0.020108286
0.0070329686 -0.0077694617 -0.012729899 -0.064278424 -0.014754503 0.023578731 -0.0031873323 -0.090666935
0.004376293 -5.6806897e-05 -0.015723689 0.024904726 -0.080513634 0.09708997 -0.104531966 0.03898244
-0.009429257 -0.040175203 0.005569219 -0.0338147 0.054228526 0.0064363256 -6.3394524e-05 -1.3381548e-05
0.04261039 0.033761587 0.0020377086 0.052654795 -0.042987272 -0.011237851 0.011391707 -0.048615806
0.060782116 0.055246796 0.05112339 7.951156e-05 -0.003200671 -0.012660731 -0.0005949742 -0.009352099
-0.0030475822 -8.5702755e-05 0.092093475 -0.0064087035 -0.009187701 -0.019132245 0.011984133 -0.033458013
-0.0007428585 -0.007908641 0.02242109 0.027201394 0.032965075 0.006554053 0.06632736 -0.03648761
0.0059130276 1.0030002e-06 -0.094754994 0.052621823 -0.017825436 -2.9471306e-05 0.031277947 -0.040754776
0.074338436 0.037569683 -0.024641745 -0.018381463 0.082560234 0.024695525 -0.0029670426 0.019082697
-1.7370483e-05 0.045925133 -0.008472576 -0.008107196 0.0258503 -0.005405496 -0.020942217 0.027746238
-0.032950584 -7.7473294e-07 0.034713298 -0.016523372 -0.029030304 -0.002446548 0.018771552 0.07482967
-0.014451133 0.0064312555 0.034306597 0.012295383 0.013403593 -6.833556e-05 -0.06578325 0.023983197
-0.0031338718 0.025444921 0.0008056204 -0.015002775 0.034519404 0.015289051 -0.024025336 -0.024980936
0.08111203 -0.041644275 -0.00035277146 0.027029328 -0.0123271 -0.06132695 0.0151044605 0.028014785
0.050687306 0.016648576 0.0012928353 -1.6088749e-06 0.00022807393 -0.011125052 -0.024381872 -0.06178211
0.03163314 -0.022980273 -0.0063755237 8.485812e-05 -0.018876795 0.04179331 0.0038156975 0.00935242
-0.040630918 -0.020191047 0.005221181 -0.0021783116 -0.012425492 -0.0028713339 0.09631869 -0.011138689
-0.021841282 -0.004206059 -0.005932749 -0.03672573 0.033720188 -0.013718394 -0.0046956106 0.004719173
-0.049959105 -0.08167678 -0.020412114 -0.06356831 -0.055599317 0.0015564323 -0.019644773 0.035489928
0.011088982 0.0036391735 -0.013379895 -0.00036019963 -0.028909497 -0.015671555 -0.04609414 -0.0110867815
-0.04217048 -0.05801185 0.071047455 -0.024816254 0.0335382 -0.03336452 -0.010288156 -0.015242849
0.061299227 0.005776772 -0.13979432 0.070384175 -0.00090508047 -0.008902522 0.09168813 0.05280691
-0.0065017575 0.020177066 0.0015962292 0.046925377 0.011516084 0.004454922 -4.741845e-05 0.060964882
-0.06439709 0.024099248 -0.0050831204 -0.00026148316 0.03220073 -0.06373774 -0.028185314 -0.00042769988
-0.029395761 -0.08840909 0.012729792 -0.000384766 0.03789718 -0.000100170284 0.059161533 0.023324858
6.66728e-05 -0.08025078 0.04951306 -0.00025900186 -0.001445507 0.021845033 -0.0011328757 -0.031059831
-0.0005515542 0.020713383 -0.0053821723 -0.023052614 -0.03155941 0.045146223 0.02462063 -0.002327711
0.031093711 0.04594104 0.057288393 -0.0053956327 -0.013580747 -9.997166e-07 0.09098068 -0.04505106
-0.02460866 -0.008088447 -0.010451895 0.010234103 -0.014644231 -0.039293732 -0.016257158 -0.024695246
-0.034514397 -0.053912353 -0.03160988 0.00021476779 -0.0009710258 -0.024684712 -0.0021908358 -0.025254818
00000000: ecd5 1ab9 19cb cbba 039f b13c 789e 533c
00000010: de41 98bd 767e 86bb b079 a63c e616 62bd
00000020: 93c6 b0bb 8d9f f63a feed 533d 0953 cc3c
00000030: 6a45 e0bc e5b8 633d 273d dc3a 22ba a43c
00000040: d174 e63b f896 febb 1191 50bc 68a4 83bd
00000050: dfbc 71bc 2f28 c13c 90e2 50bb 96af b9bd
00000060: 0267 8f3b f143 6eb8 f7ce 80bc ff04 cc3c
00000070: 55e4 a4bd 1bd7 c63d db14 d6bd 0dac 1f3d
00000080: 2c7d 1abc c18e 24bd ff7d b63b 4881 0abd
00000090: bb1e 5e3d d0e7 d23b adf2 84b8 5081 60b7
000000a0: 3b88 2e3d 9749 0a3d 148b 053b 8eac 573d
000000b0: 6c13 30bd f71e 38bc 48a4 3a3c 5e21 47bd
000000c0: abf6 783d 774a 623d c366 513d 72bf a638
000000d0: 59c2 51bb f46e 4fbc 0bf8 1bba 8c39 19bc
000000e0: f2b9 47bb 51bb b3b8 819b bc3d 1a00 d2bb
000000f0: 0388 16bc 3abb 9cbc 1959 443c 450b 09bd
00000100: 64bc 42ba 3f93 01bc 6fac b73c 75d5 de3c
00000110: 6306 073d 62c3 d63b a4d6 873d 0874 15bd
00000120: 12c2 c13b d39e 8635 e80e c2bd fb89 573d
00000130: a606 92bc 2639 f7b7 4e1d 003d 7bee 26bd
00000140: c03e 983d abe2 193d 7cdd c9bc b994 96bc
00000150: 5715 a93d 454e ca3c b772 42bb 5153 9c3c
00000160: d4b6 91b7 fe1b 3c3d 8fd0 0abc 0bd4 04bc
00000170: 02c4 d33c 9620 b1bb 038f abbc 144c e33c
00000180: 31f7 06bd 3ef7 4fb5 882f 0e3d 065c 87bc
00000190: f6d0 edbc 4456 20bb ccc6 993c 4c40 993d
000001a0: 72c4 6cbc 48bd d23b 1385 0c3d 9372 493c
000001b0: be9a 5b3c 604f 8fb8 5eb9 86bd 6978 c43c
000001c0: a561 4dbb de71 d03c 4530 533a 33ce 75bc
000001d0: 3864 0d3d ee7e 7a3c c8d0 c4bc d2a4 ccbc
000001e0: 101e a63d 3093 2abd 2ff4 b8b9 9c6c dd3c
000001f0: 9bf7 49bc f831 7bbd b378 773c 437f e53c
00000200: 7e9d 4f3d 9862 883c 5b74 a93a 85f0 d7b5
00000210: 2127 6f39 da45 36bc 7ebc c7bc 3d0f 7dbd
00000220: c091 013d 2041 bcbc c5e9 d0bb dbf5 b138
00000230: 82a3 9abc 762f 2b3d c810 7a3b e53a 193c
00000240: 9b6c 26bd b267 a5bc 7116 ab3b 01c2 0ebb
00000250: 4a94 4bbc fd2c 3cbb bc42 c53d 0c7f 36bc
00000260: 7dec b2bc fbd2 89bb 8167 c2bb b86d 16bd
00000270: 2e1e 0a3d 1dc3 60bc a3dd 99bb 4ba3 9a3b
00000280: eba1 4cbd 2846 a7bd 4e37 a7bc 1a30 82bd
00000290: 1cbc 63bd 3401 cc3a 13ee a0bc e35d 113d
000002a0: 90ae 353c 337f 6e3b 5937 5bbc 2dd9 bcb9
000002b0: 9cd3 ecbc a261 80bc 35cd 3cbd 55a5 35bc
000002c0: f4ba 2cbd d59d 6dbd 5481 913d 754b cbbc
000002d0: 5a5f 093d 3ca9 08bd a78f 28bc 24bd 79bc
000002e0: e614 7b3d 134b bd3b 3e26 0fbe 9425 903d
000002f0: ec42 6dba e2db 11bc fcc6 bb3d 0f4c 583d
00000300: b20c d5bb 604a a53c 9038 d13a d334 403d
00000310: f5ad 3c3c 98fa 913b 2ce3 46b8 50b6 793d
00000320: 9fe2 83bd c96b c53c 4e90 a6bb ad17 89b9
00000330: eae4 033d ef88 82bd e3e4 e6bc e83c e0b9
00000340: 61cf f0bc d30f b5bd 9e90 503c 6bba c9b9
00000350: 133a 1b3d 8312 d2b8 5d53 723d c613 bf3c
00000360: b0d2 8b38 855a a4bd 35ce 4a3d a4ca 87b9
00000370: 2b77 bdba 5bf4 b23c 007d 94ba 3071 febc
00000380: 2d96 10ba 1daf a93c ef5c b0bb d6d8 bcbc
00000390: 7144 01bd 3feb 383d 34b1 c93c 838c 18bb
000003a0: 3db8 fe3c ac2c 3c3d 3ca7 6a3d d9cd b0bb
000003b0: c881 5ebc 002e 86b5 1454 ba3d 7687 38bd
000003c0: 1a98 c9bc 6885 04bc 6d3e 2bbc f0ac 273c
000003d0: 5bee 6fbc 77f2 20bd bb2d 85bc af4d cabc
000003e0: f85e 0dbd 33d3 5cbd 5d79 01bd 4a33 6139
000003f0: 708c 7eba 9837 cabc 2094 0fbb 31e3 cebc

bias f4 [200]
-0.023821581 -0.04931253 0.01308678 0.035205364 -0.011686763 -0.046933774 -0.06316402 -0.07513432
0.056086533 -0.06840949 -0.01127118 0.07039387 -0.021241367 0.04186688 0.0377639 0.012217142
-0.026324216 0.05229918 -0.006816706 -0.007954795 0.026464026 -0.07743287 0.010639218 0.07847585
-0.055672977 0.059616033 0.017428007 0.026717199 0.041303355 -0.048592616 -0.020299926 0.036652442
-0.040486693 0.013168227 -0.03696992 0.018828224 0.006606835 0.051830806 -0.086462766 0.03407972
-0.04154725 0.019689284 -0.05452032 -0.032193642 -0.09695121 0.03281677 0.001026845 -0.038716465
-0.07396905 -0.05140126 -0.0037607045 -0.026151361 -0.03529164 -0.0061467676 -0.038710393 -0.039158612
0.05949194 -0.055361714 -0.037420746 -0.022217294 -0.03214918 -0.06576239 -0.07261194 0.06658062
-0.017203689 -0.014141751 0.053992752 0.014083689 -0.009556452 0.08439454 0.054570705 -0.0045136637
0.005043125 -0.04817856 -0.06188111 0.054685976 -0.059728373 -0.00036237584 0.026980687 0.076103665
-0.05383915 -0.0020404102 -0.07608292 0.083497405 -0.06374755 -0.06944086 -0.07251778 -0.059660286
0.04912073 0.04376738 -0.048155114 -0.0020312136 0.0044711656 0.00065766217 0.04228653 -0.06337706
0.03285854 -0.04764983 -0.030409163 -0.011687224 0.0040576616 -0.06144494 -0.06544441 0.04669706
-0.06658689 0.016045636 -0.0106217135 -0.0001879216 0.07291117 0.027445946 -0.035237655 0.011638238
0.037667107 0.019095106 -0.056133486 0.05378159 0.014146615 0.00040342915 -0.042426586 0.06535989
-0.04236068 0.026847811 0.040110424 -0.084251605 -0.037134074 0.03709459 -0.00022627579 -0.048528515
-0.046606608 0.0015800464 0.06936634 0.043957178 0.0013875117 -0.0032680328 0.058149174 -0.003629487
-0.06581379 -0.05899026 0.011252333 -0.035999984 0.043983843 -0.055120487 -0.054572355 0.023569241
-0.028151887 0.036226872 0.036606267 -0.020933408 -0.024567561 0.06343573 -0.023488624 0.073653355
-0.058425575 0.025720386 -0.082683854 0.014146059 0.0034031745 0.012891795 -0.02178866 0.021396767
-0.0621249 0.036577266 0.03746168 0.035548177 0.0180508 0.039959684 -0.059666827 0.041350562
-0.03749297 0.088392004 0.06539742 0.06775189 -0.06055403 0.016335936 0.026005315 0.060231052
0.017272236 -0.06659276 -0.06665737 -0.06757573 0.07932096 -0.047729928 0.071080096 -0.026998537
0.050845657 -0.0165116 -0.06345175 0.07751203 -0.018404935 -0.019314814 -0.01276389 -0.015268205
-0.04295424 0.0046543614 0.052849103 0.045263555 0.0455678 -0.059227858 -0.04950257 0.03142328
00000000: 7a25 c3bc effb 49bd ef69 563c 8033 103d
00000010: d679 3fbc a13d 40bd 235c 81bd 06e0 99bd
00000020: feba 653d 461a 8cbd c1aa 38bc a92a 903d
00000030: 6002 aebc 9b7c 2b3d 52ae 1a3d 682a 483c
00000040: e2a5 d7bc aa37 563d ad5e dfbb d454 02bc
00000050: 16cb d83c 2095 9ebd 1d50 2e3c f2b7 a03d
00000060: 5909 64bd f12f 743d 2ec5 8e3c 07de da3c
00000070: b52d 293d 0d09 47bd 084c a6bc df20 163d
00000080: 60d5 25bd 8cbf 573c c56d 17bd a63d 9a3c
00000090: 267e d83b 8a4c 543d 6413 b1bd 2d97 0b3d
000000a0: 732d 2abd 6c4b a13c b350 5fbd 7bdd 03bd
000000b0: 5b8e c6bd e16a 063d 3397 863a 2895 1ebd
000000c0: 167d 97bd 218a 52bd 2776 76bb 613b d6bc
000000d0: f78d 10bd d36a c9bb ca8e 1ebd c864 20bd
000000e0: d2ad 733d f7c2 62bd 7f46 19bd 0b01 b6bc
000000f0: dcae 03bd 6fae 86bd 92b5 94bd 6c5b 883d
00000100: c0ee 8cbc ceb2 67bc 8127 5d3d 46bf 663c
00000110: aa92 1cbc 0bd7 ac3d 8885 5f3d 5be7 93bb
00000120: cc40 a53b e256 45bd 0c77 7dbd 67fe 5f3d
00000130: bda5 74bd 43fd bdb9 9a06 dd3c 3ddc 9b3d
00000140: 7186 5cbd 67b8 05bb 5dd1 9bbd b000 ab3d
00000150: 138e 82bd 0237 8ebd 3484 94bd 585e 74bd
00000160: d232 493d 6d45 333d 4c3e 45bd 1c1e 05bb
00000170: db82 923b f666 2c3a a434 2d3d d5cb 81bd
00000180: ad96 063d 782c 43bd a31c f9bc c57b 3fbc
00000190: 22f6 843b b0ad 7bbd b807 86bd 6b45 3f3d
000001a0: b55e 88bd 2372 833c b206 2ebc d20c 45b9
000001b0: 7452 953d 52d6 e03c 5c55 10bd 4fae 3e3c
000001c0: d348 1a3d 576d 9c3c 3aec 65bd 164a 5c3d
000001d0: 34c7 673c 5883 d339 80c7 2dbd 68db 853d
000001e0: 6482 2dbd f1ef db3c d44a 243d 1b8c acbd
000001f0: e619 18bd 7ff0 173d 7244 6db9 d6c5 46bd
00000200: 92e6 3ebd 8f19 cf3a f10f 8e3d 710c 343d
00000210: 2bdd b53a 7e2c 56bb d42d 6e3d b0dc 6dbb
00000220: 61c9 86bd c59f 71bd b55b 383c b874 13bd
00000230: 6728 343d 05c6 61bd 4387 5fbd 4814 c13c
00000240: c99e e6bc a162 143d 74f0 153d 8a7c abbc
00000250: e941 c9bc 98ea 813d 376b c0bc 92d7 963d
00000260: a84f 6fbd 8fb3 d23c 2756 a9bd dfc4 673c
00000270: cb07 5f3b 1b38 533c 227e b2bc 4648 af3c
00000280: ae76 7ebd 0bd2 153d 6b71 193d f79a 113d
00000290: 45df 933c c4ac 233d 3465 74bd 355f 293d
000002a0: 3a92 19bd de06 b53d 15ef 853d 81c1 8a3d
000002b0: 8107 78bd f1d2 853c 1909 d53c d6b4 763d
000002c0: 817e 8d3c c961 88bd a983 88bd 2565 8abd
000002d0: 0773 a23d 7580 43bd 7192 913d 092c ddbc
000002e0: 8943 503d 5643 87bc fef2 81bd a1be 9e3d
000002f0: f2c5 96bc 1a3a 9ebc a31f 51bc 7e27 7abc
00000300: c9f0 2fbd 9d83 983b 4d78 583d 4766 393d
00000310: 4da5 3a3d e998 72bd 35c3 4abd b2b5 003d

weight f4 [200, 200]
0.014324428 0.005326837 0.0100392895 -0.017330328 -0.013151767 0.01314872 -0.020218855 0.029977176
0.006259309 -0.019670093 0.031041855 -0.00865909 -0.03792528 -0.06339106 0.025641792 0.106519796
0.00031075915 0.012350654 -0.050821263 -0.0028769765 0.0056795278 -0.0009863803 -0.026297126 0.034670673
-0.0174949 -0.00057632686 -0.013200481 0.027487846 -0.051149577 0.025584757 -0.0026465643 0.07008424
-5.0674083e-05 0.009427755 -0.029710775 0.00029604387 -0.0021386123 0.030090012 0.007845389 0.020085204
-0.035032514 -0.03159455 0.010916671 0.011207158 -0.007873051 -0.07525805 0.0019099695 0.011480131
0.0034188647 0.008253202 -0.09878639 -0.09659313 -0.0520668 0.028799566 -0.07189386 -0.0028688533
-0.028238041 0.00061297946 0.0036934898 0.026315605 0.049802665 -0.033565965 -0.023417449 0.040348236
-0.0062063453 -0.033488814 0.06965732 -0.00029816432 -0.05448502 0.04752187 -0.03916407 -0.041676328
0.002015318 0.022310803 0.035110377 2.902535e-05 0.004872764 -0.025147501 -0.0079443855 -0.0022565462
-0.0014917467 8.146268e-05 0.019059718 -0.044736274 0.046875454 0.0047613685 0.0031167371 0.037689112
-0.009104961 -0.07994734 -0.010618215 -0.027139002 -0.055527337 -0.03751031 -0.034158345 0.022697758
0.06448486 -0.00015417197 -0.042843617 -0.002037732 -0.0019261449 -0.06889392 0.046737727 0.04301167
-0.02006587 0.0012266395 -0.0261146 -0.078026935 0.0056615854 0.06554846 -0.009255423 0.0034868363
-0.037196655 -1.8403063e-05 -0.027583888 0.008323044 -0.015289464 -0.00092930975 0.0067132968 0.041070506
-1.5561179e-08 -0.009842282 -0.06505336 0.09063302 -0.06275079 0.01758069 -0.038654007 2.256742e-05
-0.017815711 -1.2499224e-08 -0.0024864806 -0.008911688 -0.005815812 -0.0041549676 0.029305965 0.037556436
0.06703987 -0.07692523 -0.01659136 -0.017329223 0.04210332 -0.0028614923 -0.0018264696 -0.022777785
0.037860774 -0.05506041 0.0068700323 -0.0181034 0.01277002 -0.10919423 -0.040985204 -0.050866935
0.03625733 0.024670059 0.0005304925 -0.027976368 0.03430014 0.061793186 0.041037522 -0.04047521
0.0472283 -0.042681657 0.039918885 -0.029164461 0.05377681 0.0217696 -3.249675e-07 0.045386612
-0.0018454419 -0.06482365 -0.019941678 -0.014264643 0.023115652 -0.0041245185 0.13488688 0.009276504
0.008858096 0.029240716 -0.057129946 0.0426444 0.056765195 0.07810106 -0.035460796 0.029840952
0.02775189 0.008509502 0.0002231074 -0.07708073 -0.00042334694 -0.002871268 -0.0063187955 -0.02561493
-0.00059839553 -0.034854073 0.026890393 0.014071692 -0.011786217 0.0061973394 -0.0077265603 0.0016848636
-0.008805755 0.00044535997 0.061988547 0.046497777 0.045289595 0.064144626 -0.05748913 0.03711062
0.078949906 -0.008057913 0.05105282 0.043283515 0.04668647 -0.011947847 0.06361365 0.013508867
-0.050331384 0.027213417 0.004726565 -0.0473844 0.011762508 0.006004811 -0.0023737696 0.008961688
0.00028111442 -0.00092927506 0.010017094 -0.018490907 -0.0047558798 -0.053248513 -0.02216078 -0.027793843
0.00092910265 0.008025974 -0.047991574 -0.08313359 0.011009339 0.024152998 0.038230665 0.022034174
0.024734382 -0.0013799225 -0.047944266 -9.227331e-05 0.007827341 0.019863352 0.0552388 0.025330696
-0.0034257704 0.009167973 0.02765937 -0.02075225 0.029609485 0.03375773 0.047380757 -0.007895078
00000000: 01b1 6a3c bf8c ae3b d57b 243c 55f8 8dbc
00000010: 827a 57bc bb6d 573c 03a2 a5bc b292 f53c
00000020: e41a cd3b 2d23 a1bc 7d4b fe3c dbde 0dbc
00000030: 8a57 1bbd 2cd3 81bd bc0e d23c 0d27 da3d
00000040: 63ed a239 665a 4a3c f529 50bd a88b 3cbb
00000050: 551b ba3b 6e49 81ba 126d d7bc d602 0e3d
00000060: 7751 8fbc a414 17ba d546 58bc 312e e13c
00000070: 3882 51bd 2097 d13c fb71 2dbb 5388 8f3d
00000080: e28a 54b8 df76 1a3c 0364 f3bc 5636 9b39
00000090: f627 0cbb 547f f63c f289 003c ba89 a43c
000000a0: 417e 0fbd 4969 01bd d6db 323c 3a9e 373c
000000b0: f8fd 00bc e420 9abd f157 fa3a 2917 3c3c
000000c0: 080f 603b 7038 073c 8550 cabd 9ed2 c5bd
000000d0: ff43 55bd 11ed eb3c 173d 93bd 5f03 3cbb
000000e0: 7753 e7bc 5bb0 203a 7a0e 723b d393 d73c
000000f0: e1fd 4b3d 777c 09bd f3d5 bfbc 3144 253d
00000100: 995e cbbb 912b 09bd 7fa8 8e3d f052 9cb9
00000110: af2b 5fbd 4ba6 423d 816a 20bd ccb4 2abd
00000120: 6d13 043b 25c5 b63c e6cf 0f3d 777b f337
00000130: b5ab 9f3b 2202 cebc 2b29 02bc 90e2 13bb
00000140: b786 c3ba f1d6 aa38 2023 9c3c 623d 37bd
00000150: 7a00 403d 4105 9c3b 2c42 4c3b e65f 1a3d
00000160: f92c 15bc 6ebb a3bd 06f8 2dbc 9d52 debc
00000170: a270 63bd 69a4 19bd 9fe9 0bbd a6f0 b93c
00000180: a310 843d 39a9 21b9 ca7c 2fbd 788b 05bb
00000190: b376 fcba 4118 8dbd 0f70 3f3d 012d 303d
000001a0: 2e61 a4bc 31c7 a03a 49ee d5bc 96cc 9fbd
000001b0: d284 b93b 453e 863d 0fa4 17bc 6883 643b
000001c0: 855b 18bd 4760 9ab7 9bf7 e1bc 605d 083c
000001d0: a980 7abc ec9c 73ba 37fb db3b 8c39 283d
000001e0: 65ab 85b2 8641 21bc b23a 85bd ce9d b93d
000001f0: 7c83 80bd 6105 903c aa53 1ebd 2a4f bd37
00000200: 41f2 91bc 2bbc 56b2 39f4 22bb 5402 12bc
00000210: 9192 bebb 6526 88bb 1013 f03c c7d4 193d
00000220: 334c 893d fa8a 9dbd 9bea 87bc 04f6 8dbc
00000230: 8874 2c3d e087 3bbb 2666 efba 7a98 babc
00000240: e613 1b3d 0687 61bd 021e e13b 954d 94bc
00000250: 5939 513c 39a1 dfbd 1ae0 27bd d959 50bd
00000260: 9182 143d dd18 ca3c c010 0b3a b22e e5bc
00000270: 4e7e 0c3d da1a 7d3d f616 283d 55c9 25bd
00000280: 7672 413d f6d2 2ebd fc81 233d 4fea eebc
00000290: 1345 5c3d 2956 b23c 3177 aeb4 50e7 393d
000002a0: c1e2 f1ba 43c2 84bd bb5c a3bc 40b6 69bc
000002b0: 095d bd3c f826 87bb c91f 0a3e 7afc 173c
000002c0: 8c21 113c 3a8a ef3c 1701 6abd e5ab 2e3d
000002d0: 9f82 683d 73f3 9f3d 573f 11bd 0375 f43c
000002e0: ee57 e33c 706b 0b3c f0f1 6939 80dc 9dbd
000002f0: aaf4 ddb9 e22b 3cbb e60d cfbb 67d6 d1bc
00000300: a5dd 1cba 25c3 0ebd 3e49 dc3c f48c 663c
00000310: fa1a 41bc 0d13 cb3b 162f fdbb a4d6 dc3a
00000320: 0346 10bc 347f e939 b4e7 7d3d 7474 3e3d
00000330: 9581 393d 425e 833d b979 6bbd 4e01 183d
00000340: 7db0 a13d 5605 04bc c31c 513d 0e4a 313d
00000350: 503a 3f3d e7c0 43bc e047 823d 4b54 5d3c
00000360: 4828 4ebd acee de3c 4de1 9a3b 2516 42bd
00000370: 89b7 403c 01c4 c43b 3f91 1bbb 0bd4 123c
00000380: 8a62 9339 989a 73ba bd1e 243c 3e7a 97bc
00000390: 36d7 9bbb 1d1b 5abd 868a b5bc eaaf e3bc
000003a0: 068f 733a 607f 033c d092 44bd f241 aabd
000003b0: 8460 343c 82dc c53c c297 1c3d 0381 b43c
000003c0: c29f ca3c 84de b4ba 3561 44bd db82 c1b8
000003d0: 3f3e 003c 78b8 a23c 1442 623d 5282 cf3c
000003e0: e482 60bb 4435 163c e795 e23c 9f00 aabc
000003f0: 978f f23c 8c45 0a3d 5312 423d 5b5a 01bc

bias f4 [200]
-0.037364323 0.027506303 0.042697605 -0.073924854 -0.027348187 0.0340639 0.017199649 -0.057245467
-0.026637424 0.07383057 0.024126804 0.04608905 -0.02410253 0.03110288 -0.0655004 0.03389586
0.04295323 -0.044692952 -0.0279699 0.039809015 0.05777135 -0.053826213 0.008513838 0.018934779
-0.06435082 0.0687617 0.06712352 0.013042339 0.00019366803 -0.0668965 0.035419974 -0.026142908
0.009112258 0.003134043 0.033911597 -0.017800283 0.035872553 -0.049243465 -0.026657531 0.0023793837
-0.033016916 -0.028984532 -0.048142467 -0.052106876 0.025138905 0.05958857 0.036108714 0.034582235
0.001448228 0.050947394 -0.036041144 -0.007809684 -0.00044470894 -0.0057608006 0.060334526 -0.020923628
0.0645344 -0.059197 -0.005217267 -0.018820135 -0.037123997 -0.023902927 0.019902857 0.06508524
0.04717429 -0.05066684 -0.02669864 0.07235971 0.033106316 0.052186724 -0.04960184 0.013497526
-0.011165415 -0.001908074 0.06411911 0.011423921 -0.015149318 0.05351256 -0.023822803 0.011894582
0.044147193 -0.0045465813 0.02251478 0.014429324 0.034138385 -0.026372366 -0.03077732 0.015398595
-0.0221196 0.056249965 0.05420924 -0.05248201 -0.01786041 -0.013549127 0.06253437 0.027722294
0.040973265 0.05057931 -0.073057726 -0.0015987152 0.028868347 0.034988187 -0.041368652 -0.003052619
-0.052571762 -0.08032203 -0.027176999 0.050615672 0.037924185 -0.008734203 -0.075011924 0.036326155
-0.015425478 -0.05876743 0.01618346 0.03194244 0.07604027 0.032950252 0.012965143 0.003794967
0.008554213 -0.034278654 -0.028443944 -0.06655854 -0.027077336 -0.05031115 -0.032591227 0.062459633
-0.05708699 -0.038457923 -0.04280277 0.0042229937 -0.003630879 -0.042789686 0.056490473 -0.018048206
0.082020395 0.05203167 -0.05775289 0.018753406 0.04076232 0.037370592 0.07001001 -0.06963192
0.022862041 -0.028552808 -0.008420632 -0.032785952 0.00920791 -0.008733466 0.00067093543 -0.032270793
0.007269175 -0.00735746 -0.055663623 0.008314519 -0.011365751 -0.041411653 0.039729048 -0.011108602
0.05141887 -0.05899981 -0.01770344 0.045672942 0.00909722 -0.05348386 0.03740975 0.034207292
-0.008821365 -0.058435913 -0.043957353 0.0693163 0.04232113 0.05553829 -0.053523373 -0.019644838
0.014374517 -0.038382865 0.02233904 -0.06329325 -0.05152539 -0.016113805 0.058874067 -0.06737512
0.010510001 0.042035233 -0.006449316 -0.011610498 -0.010563009 -0.07366926 0.029247643 -0.034999713
-0.023983393 -0.04051071 -0.015145178 -0.042041305 0.002762203 0.028361117 -0.044267822 0.056333072
00000000: 550b 19bd e654 e13c afe3 2e3d ea65 97bd
00000010: 4e09 e0bc 9786 0b3d 47e6 8c3c 397a 6abd
00000020: ba36 dabc 7b34 973d 93a5 c53c dfc7 3c3d
00000030: ab72 c5bc 78cb fe3c 1325 86bd 63d6 0a3d
00000040: baef 2f3d f50f 37bd 2221 e5bc c70e 233d
00000050: a7a1 6c3d e078 5cbd a07d 0b3c 1c1d 9b3c
00000060: 5dca 83bd efd2 8c3d 0e78 893d 89af 553c
00000070: 5e13 4b39 0801 89bd 8914 113d a729 d6bc
00000080: 954b 153c 8464 4d3b e3e6 0a3d e6d1 91bc
00000090: 19ef 123d 84b3 49bd e560 dabc 6fef 1b3b
000000a0: bf3c 07bd f870 edbc 0931 45bd 056e 55bd
000000b0: 1bf0 cd3c 2513 743d bbe6 133d 1aa6 0d3d
000000c0: 78d2 bd3a 37ae 503d e19f 13bd 61e8 ffbb
000000d0: d327 e9b9 19c5 bcbb 5621 773d 0768 abbc
000000e0: 9d2a 843d 8e78 72bd 9cf5 aabb af2c 9abc
000000f0: 550f 18bd 12d0 c3bc 510b a33c 694b 853d
00000100: d439 413d 0888 4fbd 1bb7 dabc 5431 943d
00000110: 7d9a 073d bfc1 553d 4d2b 4bbd ba24 5d3c
00000120: 25ef 36bc 5718 faba e150 833d 662b 3b3c
00000130: d834 78bc fc2f 5b3d 0a28 c3bc 7ee1 423c
00000140: b0d3 343d 7dfb 94bb ea70 b83c f968 6c3c
00000150: b1d4 0b3d dc0a d8bc b820 fcbc 634a 7c3c
00000160: 2a34 b5bc 5d66 663d 820a 5e3d 60f7 56bd
00000170: ff4f 92bc 28fd 5dbc 0512 803d dd19 e33c
00000180: 95d3 273d 402c 4f3d 4a9f 95bd fb8b d1ba
00000190: 507d ec3c c64f 0f3d 2d72 29bd 730e 48bb
000001a0: 7d55 57bd e07f a4bd 4ca2 debc 6152 4f3d
000001b0: 6456 1b3d e719 0fbc da9f 99bd bcca 143d
000001c0: 25bb 7cbc 1eb6 70bd 2d93 843c 13d6 023d
000001d0: 00bb 9b3d d8f6 063d c06b 543c fbb4 783b
000001e0: f826 0c3c c667 0cbd 4603 e9bc d84f 88bd
000001f0: 4ad1 ddbc 1013 4ebd 617e 05bd acd5 7f3d
00000200: 0cd4 69bd 0e86 1dbd f551 2fbd 0a61 8a3b
00000210: 0bf4 6dbb 3d44 2fbd 8e62 673d d5d9 93bc
00000220: 4ffa a73d 291f 553d 4b8e 6cbd bea0 993c
00000230: 64f6 263d e811 193d 6861 8f3d 2e9b 8ebd
00000240: 2d49 bb3c 94e7 e9bc b1f6 09bc 904a 06bd
00000250: c6dc 163c d016 0fbc b7e1 2f3a 612e 04bd
00000260: 4232 ee3b d916 f1bb 8aff 63bd 9f39 083c
00000270: 6a37 3abc 449f 29bd edba 223d db00 36bc
00000280: 989c 523d c9a9 71bd ce06 91bc 8d13 3b3d
00000290: 820c 153c e411 5bbd f73a 193d f21c 0c3d
000002a0: 7d87 10bc 7f5a 6fbd a00c 34bd b4f5 8d3d
000002b0: ec58 2d3d 1e7c 633d 533b 5bbd 36ee a0bc
000002c0: 1883 6b3c 5a37 1dbd 5d00 b73c e49f 81bd
000002d0: 4a0c 53bd 1901 84bc ef25 713d f8fb 89bd
000002e0: 2432 2c3c 232d 2c3d c954 d3bb f539 3ebc
000002f0: 7910 2dbc e9df 96bd c198 ef3c dc5b 0fbd
00000300: d278 c4bc 8fee 25bd 7b23 78bc 8133 2cbd
00000310: 1406 353b 9355 e83c 2d52 35bd 82bd 663d
