pubmed_train/train/pretrained_hgnn/decoder_d.pth (torch, 324640 bytes, 4 tensors)

weight f4 [200, 200]
000000 22 70 34 bd e8 d7 0d bb 37 d2 96 bc a7 fb f0 3c
       -0.04405225 -0.0021643583 -0.018410785 0.029416872
000010 73 ab 9e bb 2d 6e 0a 3c c7 87 92 bd 1e 04 9b bc
       -0.0048422157 0.0084491195 -0.07154804 -0.018922862
000020 2d 5e c6 bb 65 9a 3e bd b6 ba d3 bc 94 d0 c8 3c
       -0.006053707 -0.04653396 -0.025845867 0.02451352
000030 f1 33 16 bb eb ac 33 3a 3d 09 42 bd 8d 9e 92 bc
       -0.0022919143 0.0006854075 -0.04737209 -0.017897869
000040 2b c2 a3 3b a5 91 26 bb 95 36 9d bb 4f de 48 bc
       0.004997512 -0.00254164 -0.0047977665 -0.012260034
000050 38 46 71 bc 43 6e 5b 3d de 64 23 b7 f2 de 6a 3c
       -0.014726214 0.05357195 -9.739042e-06 0.014335381
000060 cb 33 ce 3b 3b 2d 59 3b 5a c1 8f 3d 05 e9 b3 bc
       0.0062927953 0.0033138532 0.07019301 -0.021961698
000070 8b de 75 3c fe 16 fd bc 30 23 02 3d 1b f3 26 bc
       0.015006672 -0.030894753 0.03177184 -0.010189797
000080 ab 1d 05 3d 6a 90 f3 3c fa ee 90 bc 77 b5 e2 3c
       0.032498997 0.029731948 -0.017692078 0.02767442
000090 fd 6d f6 bb 03 c3 0d 3c 0d 77 0b bd 23 bb 28 bc
       -0.007520436 0.008652451 -0.034049083 -0.010298523
0000a0 0f 28 d0 3c a3 c4 bc ba c9 38 9d ba 5c 49 ab bb
       0.025409726 -0.0014401864 -0.0011995073 -0.005227251
0000b0 00 66 7e bc fc 1b 3f 3d 66 21 8c 3d c0 de 00 bd
       -0.015527248 0.046657547 0.06842308 -0.03146243
0000c0 78 92 7a 3c a5 81 29 bd 58 f9 f2 bb 20 0e af 3b
       0.01529371 -0.041383404 -0.007414978 0.00534226
0000d0 9d 18 27 3d e1 cf 48 3d b7 9c 3b bb c6 0d 17 bd
       0.040794957 0.049026374 -0.0028627345 -0.03687837
0000e0 14 9f f9 bc ba 06 d9 bc 71 34 90 3b 81 a4 f4 bb
       -0.030471362 -0.026492465 0.0044007828 -0.0074658995
0000f0 e2 87 14 bd c7 98 c8 3b 44 69 5c bd ab de f8 3b
       -0.0362624 0.006121728 -0.053811327 0.0075949035
000100 0c f5 74 3a 5f 8f e7 bd c1 0c 29 bd 2b 23 31 bd
       0.0009344376 -0.11306643 -0.04127193 -0.04324643
000110 53 f8 4c 3c 88 b4 71 bc a7 76 bf bc f8 e7 db 3d
       0.012510377 -0.014752515 -0.023372008 0.10737604
000120 ff 48 8a bc ce b7 48 3c 09 19 25 3d f6 7a 43 3d
       -0.01688051 0.012250854 0.04030708 0.047724687
000130 07 3d 1c 3a 0d 95 86 bd 45 7b a3 3b f9 67 1c bc
       0.00059600215 -0.06571398 0.00498906 -0.009546273
000140 74 53 8b 3c 01 e3 35 bc 3d 1c 2a bc b8 75 fb b6
       0.017007567 -0.011101485 -0.010382709 -7.494087e-06
000150 4a ba 3b bc fb 4d 83 bd 9c 98 52 bd 8b f2 0a 3d
       -0.011457989 -0.06411358 -0.05141507 0.033922713
000160 0e 6a de 3c 30 4a bb bb da ee 17 bc 7d 18 5b bd
       0.02715018 -0.005715631 -0.009273255 -0.05349015
000170 44 36 05 3d a6 17 00 36 8e cf ff bb c5 36 97 bd
       0.032522455 1.9087252e-06 -0.007806725 -0.07383493
000180 b7 56 6f bc 0c c3 43 35 c2 64 5e bd b1 40 91 3b
       -0.014608077 7.292699e-07 -0.05429531 0.0044327606
000190 85 97 5c bc e6 57 92 3c 8c 0d 1e bd 8b b0 fa b7
       -0.013463859 0.017864179 -0.038587138 -2.9884532e-05
0001a0 7c 4a 78 bd 92 40 5f 3c 90 44 36 3d 52 24 ec bc
       -0.06061791 0.013626235 0.04449898 -0.028825913
0001b0 cc 6d ad 3c 72 d9 03 3c 4e 26 83 3b 9f 2f 45 3c
       0.02117052 0.0080474485 0.004002369 0.01203528
0001c0 f2 17 b3 3c 44 4a 4a bc 58 a1 3d bc d4 ed de 3a
       0.021862004 -0.012346808 -0.011574112 0.0017008134
0001d0 c8 76 e3 bc 52 a9 0b 3d d1 43 09 bc 65 9d 90 3c
       -0.0277666 0.034097023 -0.008377985 0.017653177
0001e0 d0 81 63 bc a3 29 70 bd 04 89 3a ba ef 09 61 bd
       -0.01388593 -0.058633458 -0.0007115754 -0.054941114
0001f0 6e 10 a1 bd 9c bd f7 bc 1d 78 7b b7 ce 99 fb 3c
       -0.07864462 -0.03024178 -1.4988732e-05 0.030712988
000200 97 7c 04 bc b3 0d 3c 3d b8 b2 3c bc 25 10 57 b7
       -0.008086345 0.045911502 -0.011517219 -1.2818758e-05
000210 c5 81 33 3c c0 ec 9e 3a 31 be 4a bc 0e 89 e5 3c
       0.010956232 0.0012125 -0.012374447 0.028019454
000220 39 71 6c bc c7 8c 8a 3c 20 d8 5f b9 5b c0 13 bb
       -0.014431291 0.016912831 -0.0002134745 -0.0022545073
000230 b4 74 8d ba e2 02 44 3c 26 32 3e bd 37 20 9f bc
       -0.0010792227 0.011963578 -0.046434544 -0.01942454
000240 4d 79 54 3a a3 9e ad 3d 80 4c 48 bc 18 7d 31 bc
       0.00081052334 0.08477523 -0.01222527 -0.010833047
000250 47 03 4f 3b 81 35 3d bd c9 57 c2 bc 80 5b 54 3c
       0.0031587647 -0.046193603 -0.0237235 0.012961268
000260 b2 b4 93 b9 ae 40 df bc ba 5d ab bb c4 a6 ab ba
       -0.00028172653 -0.027252521 -0.005229679 -0.0013095965
000270 8e 9c 1d b9 e7 f5 4d bd ac 6b e4 3b 28 93 fc bc
       -0.00015031008 -0.05028334 0.0069708433 -0.030831888
000280 76 06 b8 3b ce 08 83 bd 46 67 d9 bc df 98 7e bd
       0.0056160046 -0.06398164 -0.026538502 -0.062157508
000290 0e 9a 0a bd b6 98 60 bd fe 2c 15 3b 65 6e 22 bd
       -0.033838324 -0.054833136 0.0022762413 -0.03965606
0002a0 33 70 56 bd 7a 44 d7 3c 34 61 a1 bc 49 6f 94 3d
       -0.052353095 0.02627777 -0.01969967 0.072477885
0002b0 f2 15 a2 bc be 65 de b9 14 de df b9 c8 5a 8b bd
       -0.019785855 -0.00042418943 -0.00042699336 -0.068044245
0002c0 2c 5b 48 bb 2f 53 20 bc ee 04 8f bc 6c ac ce bb
       -0.003057192 -0.0097854575 -0.017458405 -0.0063071754
0002d0 4c 20 79 3d 24 64 16 3d 83 22 27 bd 12 9e 9c bc
       0.060821816 0.036716595 -0.040804397 -0.019118343
0002e0 fa 06 41 bc ea 3e 12 3d 77 df 06 3d 8e 84 3a bd
       -0.0117814485 0.03570453 0.032927956 -0.04553657
0002f0 54 20 ba 3b 0f 5e db bc 3f f1 47 bd 52 64 80 bd
       0.0056801233 -0.02677825 -0.048814055 -0.062691346
000300 51 a5 90 3c 35 01 2b bd ea 86 37 bd c0 53 95 b8
       0.017656954 -0.041749198 -0.0448064 -7.120473e-05
000310 07 68 fd bc 8d c3 2d bb a9 d8 5a bd ec ca 8a 3c
       -0.030933393 -0.0026514262 -0.05342928 0.016942464
000320 16 e9 6f 3d 2b 93 3f 3d 84 80 82 38 6e 8b 88 bd
       0.058571897 0.04677121 6.222821e-05 -0.06667219
000330 01 d7 f1 3c c1 ad 9b 3c ee 62 3c 3d a8 59 55 3c
       0.029521467 0.01900375 0.045992784 0.013021864
000340 39 0c 9b ba 40 bc 1a 3c e5 09 89 3d 6c 29 8f 39
       -0.0011829204 0.009444296 0.0669134 0.00027305947
000350 5a fd 50 3d e8 f6 9c 38 b3 3e ba bd 2e 1e d2 3b
       0.051022865 7.4846495e-05 -0.0909399 0.006412289
000360 ef 8a ff 3c 08 85 4d bd 09 fc b7 3c 2c 9d a6 39
       0.031194178 -0.050175697 0.022459047 0.0003177909
000370 15 44 38 3c fe 3c f0 bc 3f 14 8e 3c e9 0a 13 3c
       0.011246701 -0.029325958 0.017343638 0.008974769
000380 69 39 c4 3d 6b 89 2c 3d 99 e7 51 3d 2a 3a d0 3c
       0.095812626 0.04212324 0.05124626 0.02541836
000390 de a2 05 3c f4 9c b1 3b e0 7c 65 3d 38 52 9b bc
       0.008156506 0.0054203216 0.056027293 -0.018960103
0003a0 63 94 4b 3b 59 7e 94 3b 69 eb 69 ba 83 69 17 3d
       0.0031063787 0.0045316634 -0.00089233235 0.03696586
0003b0 d3 d2 41 3a 08 d0 86 bc 88 c1 69 bc 67 59 ca bc
       0.0007393781 -0.016456619 -0.014267333 -0.024700833
0003c0 e0 2f 9c 3d b0 42 34 bd e7 53 de 39 ca 3a a6 3c
       0.07626319 -0.04400891 0.00042405652 0.020291705
0003d0 a1 23 d8 3c 06 1e 62 3d 3f cf e4 bb 99 9d 56 bc
       0.026384177 0.055204414 -0.0069827135 -0.013099098
0003e0 dc db 6c bc e0 f9 01 bd 20 cb 4e bb 69 a2 15 39
       -0.014456715 -0.03173244 -0.0031554177 0.0001427025
0003f0 84 91 ef 3b ae 6f 46 3d b6 c7 82 3b 0f 94 8a bd
       0.007311048 0.04844635 0.0039910926 -0.06766521

bias f4 [200]
000000 71 27 82 bc 77 c3 b9 3d b2 e1 2c bd 9f 23 22 bc
       -0.015887948 0.09070485 -0.042207427 -0.009896188
000010 12 ea a3 bd bb a7 42 3c 51 b5 5e bd 95 ec fb 3c
       -0.0800363 0.01188081 -0.054372136 0.03075246
000020 58 e7 84 3d c7 e9 38 bd 63 03 62 bd e9 51 62 bc
       0.06489438 -0.045144822 -0.05517901 -0.013813474
000030 dc 4d 11 bd 55 ca 00 bc 77 4b 80 bc 76 00 f4 bc
       -0.035474643 -0.00786074 -0.015660984 -0.029785376
000040 30 86 57 bb 7b eb 2b 3d 63 57 a6 bd 5c 23 b4 3d
       -0.0032886378 0.04197262 -0.081221364 0.08795807
000050 11 66 a0 3d a2 d3 bc 39 58 c3 b8 3d 06 d8 9f 3d
       0.078319676 0.00036015833 0.09021634 0.07804875
000060 5c 64 43 3d d7 06 46 bb 6e db b2 3d b2 9d 96 3c
       0.047703132 -0.003021648 0.08733259 0.018385742
000070 a8 95 4f bc ff 63 a0 3c 6b 9e 45 3d e9 fe 4a 3d
       -0.012669958 0.019578932 0.048246782 0.049559508
000080 fe 82 3c 3c 9e 45 12 bd 34 99 99 3c 93 fd 45 bc
       0.01150584 -0.035710923 0.01874981 -0.012084383
000090 38 7b ed bb 07 4d 65 bd 5c 12 32 3d 38 75 97 3d
       -0.007247355 -0.055981662 0.04347454 0.073954046
0000a0 42 52 76 3d b1 be 0f bd 5d 4b 0e bc 14 be 1e bd
       0.06013704 -0.035093967 -0.00868496 -0.03875549
0000b0 01 96 80 bd 13 cd 87 3d 81 04 97 3c c0 89 a0 3b
       -0.06278611 0.06630912 0.018434765 0.0048992336
0000c0 0a 46 34 bd 0c aa f7 bb c8 0b a2 bc 2a 30 95 bc
       -0.044012107 -0.007558113 -0.019781008 -0.018211443
0000d0 02 e3 8c 3b 80 5b 22 3d 12 55 fb 3c 85 53 3c 3b
       0.0042995224 0.039638042 0.030680213 0.0028736305
0000e0 54 3b 6d bc 19 22 f6 3c 30 e9 16 3d d7 0c ba 3d
       -0.014479477 0.030045556 0.03684348 0.0908448
0000f0 2a 78 9a 3d 8b 51 75 3d bb 9a 41 3c b8 9f 04 bd
       0.07542451 0.05989222 0.011816676 -0.032378882
000100 2e 62 b6 3d d6 5a d1 3c d2 25 8e bd ba 6f a5 3c
       0.08905445 0.02555601 -0.069408074 0.020194877
000110 03 c9 68 ba 5c 49 de bb 36 17 13 bd 67 18 79 bc
       -0.0008880051 -0.0067836475 -0.035910808 -0.015203572
000120 a5 b4 69 3c b0 1a 6b bd 25 79 38 3b 98 eb 80 bd
       0.01426426 -0.057398498 0.002814838 -0.06294936
000130 07 84 8f 3c e6 14 bd bd 19 f2 51 bd 52 ac 42 3d
       0.01751901 -0.09232502 -0.051256273 0.04752762
000140 38 81 75 3d cd 62 2f bd b2 18 49 3d 79 8b b0 3c
       0.059937686 -0.042818833 0.049095817 0.02155088
000150 9c 8b 01 3d c0 0f 05 3c 07 a5 9e bd db f0 3d 3d
       0.031627283 0.008121431 -0.0774632 0.046372276
000160 7a 91 c4 3b 57 d2 03 bb e6 80 86 bc 94 6c ac bb
       0.0059987875 -0.0020114386 -0.016418885 -0.005261967
000170 d1 05 04 3d 4a 64 1c 3d 35 2c 46 bd d7 05 e8 3b
       0.03223211 0.03818158 -0.048382003 0.0070807743
000180 90 dd 60 3c bd ab 4f bd f5 37 7c bd c1 d7 7c bd
       0.0137247 -0.05070089 -0.061576802 -0.061729196
000190 e4 c1 18 bb 53 77 19 bd 2c 07 7c 3d 7a b0 54 3d
       -0.0023308927 -0.037467312 0.061530277 0.051926114
0001a0 85 d9 ab 3d 69 06 a4 bb a2 b7 45 3d 17 5d 9d 3d
       0.08391098 -0.005005647 0.04827083 0.07683771
0001b0 79 0a 33 bd e0 c9 88 3d 90 a1 c2 3c cd 2a ab bd
       -0.04371116 0.066791296 0.02375868 -0.08357773
0001c0 fa 87 df 3c 48 1e 5d 3d 37 cf a6 3d 91 f6 a4 3c
       0.027286518 0.053983957 0.08144992 0.020137103
0001d0 2c 12 95 3d e6 0a b3 bc f9 4b f3 3b 3e b8 b0 bc
       0.07278857 -0.021855783 0.007424828 -0.021572229
0001e0 45 0e a3 3d b4 75 19 3d 50 42 1c bd 23 ef b6 3c
       0.07961706 0.037465766 -0.038149178 0.022330826
0001f0 ec b9 31 bd 86 ec b4 3d af ad aa bc 8b eb 70 3d
       -0.0433902 0.08834176 -0.020834772 0.05881838
000200 be ac 93 bd 02 8e 0b 3b c6 1c 90 bc e7 91 1c bc
       -0.07210682 0.002129436 -0.017591845 -0.00955627
000210 7a 00 af bd a9 3f 32 3d 6d ac a0 bd 58 47 52 3b
       -0.08545013 0.043517742 -0.078453876 0.0032085981
000220 2c 8f 57 bc 8d 60 80 3d ef f9 74 3d 97 30 34 3d
       -0.013156693 0.062684156 0.059808668 0.04399165
000230 9e 80 5d 3d 01 ef f6 bc 9d e8 67 bc 4b ed 29 bc
       0.054077737 -0.030143263 -0.01415458 -0.010371516
000240 ca e8 60 bd 89 fc 67 3d cc 67 62 3d 63 23 80 bd
       -0.054909505 0.05663732 0.05527477 -0.062567495
000250 78 f6 b8 bd a9 28 d1 bb 6b 6e 93 3d 69 e6 88 3d
       -0.09031385 -0.006383021 0.07198795 0.06684572
000260 f7 d6 10 3c 36 38 02 bd f6 26 13 bc d3 c5 9b 3b
       0.008840314 -0.03179189 -0.008981457 0.004753807
000270 74 7d a3 bd e4 c9 a0 3d 5f d7 96 bc 25 79 01 bd
       -0.07982913 0.078510076 -0.018413244 -0.031609673
000280 13 38 a5 3c 8f 11 4e 3c 1a 46 8f 3d 66 3b 29 bd
       0.02016834 0.0125774285 0.06995793 -0.041316412
000290 8f 14 ee bc ee e8 55 3c 86 4a 9f 3c 22 ee c4 3c
       -0.029062537 0.013056023 0.019444715 0.024039332
0002a0 83 de a3 3d 9b 46 9e 3d 92 4b 8c 3d 4f 8a 06 ba
       0.08001425 0.07728311 0.068503514 -0.0005132304
0002b0 46 dd b0 3d 5e 28 37 3d 52 b4 43 3b d4 69 3c 3d
       0.086359546 0.04471623 0.0029862118 0.045999363
0002c0 15 f5 96 3b 92 3f f7 3c d7 6a ac bd 6d 73 d1 3c
       0.004606853 0.03018168 -0.084188156 0.025567735
0002d0 28 72 95 bd 4c 00 97 3b d8 d9 b1 3d d7 4b 54 3b
       -0.07297164 0.0046081897 0.086841285 0.0032393837
0002e0 f5 47 95 3d 6e 3e 90 3d 07 14 34 3d 86 6e b3 bb
       0.07289115 0.070431575 0.043964412 -0.005475822
0002f0 d8 8d 8c 3d 4d 7b 6e 3c ac 06 ea 3c d9 02 bc 3a
       0.06862992 0.014555764 0.028567635 0.001434411
000300 b6 68 ac 3d 99 4a 0f bc 6b c1 9e 3d 00 26 80 bb
       0.084184095 -0.008745813 0.07751735 -0.00391078
000310 58 d6 6e bd a2 72 5e bd dc a6 97 bd e8 a0 08 3d
       -0.058309883 -0.05430854 -0.07404873 0.033356577

weight f4 [200, 200]
000000 0d d4 c3 3d 47 3f 50 3d ef d7 25 3c a1 70 53 3d
       0.0956193 0.050841596 0.010122283 0.051621083
000010 12 55 d5 3b fb 71 5a 3c 5e 53 59 3d e6 dc 7d 3c
       0.0065103853 0.013332839 0.05305802 0.015494561
000020 13 fb b8 3a 6c 60 a4 bb 96 7b 25 3d 28 bc 18 bd
       0.0014112912 -0.005016377 0.040401064 -0.037288815
000030 b0 2a 6c bc ee 14 e0 3b 42 35 d6 37 d8 d7 5c ba
       -0.014414474 0.0068384325 2.5535588e-05 -0.0008424497
000040 59 9d c6 3d bc 57 c4 3a 48 49 6b 3c 28 44 d5 bc
       0.096979804 0.001497976 0.014360733 -0.026033476
000050 bb a7 8b 3c ed 8b 4e bc df 73 26 3c 48 47 d8 3c
       0.017047754 -0.012606603 0.010159462 0.026401177
000060 5e 30 bc bd 05 67 cc 3c 29 02 39 bd 23 17 3b 3c
       -0.09188913 0.024951467 -0.045168076 0.01141909
000070 31 66 26 bd da ba fd bc 22 5c e7 3c 34 69 8f bc
       -0.0406248 -0.030972887 0.028242175 -0.01750622
000080 cf bc 63 bc 2c 19 c5 3b 72 bb 34 bc ba e1 20 bc
       -0.013899996 0.0060149636 -0.011031019 -0.009819442
000090 e4 05 09 3e d8 62 4b 33 fc a8 5a 3d b2 69 13 3d
       0.13381153 4.735452e-08 0.053383812 0.03598947
0000a0 d8 3a 9c 39 76 be 1d 3b fc e7 59 bc 73 43 e3 3c
       0.0002979848 0.0024069822 -0.013299938 0.027742123
0000b0 02 39 f3 3c 8d cc 7c 3c f7 7e 07 bd c3 18 59 3c
       0.02969027 0.015429628 -0.033080067 0.013250533
0000c0 d6 bd 46 b9 39 40 9a 3c 81 79 44 bd 43 e2 e0 bc
       -0.00018953471 0.018829452 -0.047967438 -0.02745164
0000d0 f7 49 b7 3a d2 ee 74 3b 57 2f 14 bd 76 9f b5 3c
       0.0013983835 0.0037373793 -0.03617796 0.022170763
0000e0 1b 18 94 3b 20 27 bd bc 97 2f ef bd 0c 2c 08 3d
       0.004519475 -0.023089945 -0.11678999 0.03324513
0000f0 93 f5 36 bd bc 13 20 bc aa 37 82 bb 20 19 9f 3d
       -0.04466779 -0.00977033 -0.003973921 0.07768464
000100 68 a5 ef 3d 8f 77 f3 b9 8a cc d2 bc 38 9c 11 bd
       0.117014706 -0.0004643765 -0.025732297 -0.035549372
000110 46 08 47 3c 00 64 ce 3b 8e 29 fe bb e7 da 90 3d
       0.012147969 0.006298542 -0.0077564185 0.07073002
000120 e2 e2 87 3c c6 c8 3e ba 4f 65 19 3a 6e da fa 3c
       0.016587678 -0.00072778424 0.0005851583 0.030621734
000130 4d b0 07 bd 76 65 4a bc de 0f 8d 39 de 8b 5c bd
       -0.033127118 -0.012353292 0.00026905438 -0.053844325
000140 a4 f3 1c bd e8 25 45 3b c2 e7 02 3a f6 d3 b2 bc
       -0.03831829 0.0030082408 0.0004993641 -0.021829586
000150 50 66 6b bd 63 2e 11 bb 65 f1 1d 3a b6 0e 99 3d
       -0.05747062 -0.0022152893 0.00060250453 0.07473509
000160 a9 bb a9 3c ef 65 9e 39 d8 97 82 bc ba d9 0d bd
       0.020719366 0.00030212055 -0.015941545 -0.03463147
000170 eb da 1b bd e0 99 4f bd 2f b8 2f bb 24 c7 61 bb
       -0.038050573 -0.050683856 -0.0026812663 -0.0034450972
000180 71 0c 83 3c cd 54 3f 3a 6f ee 39 bc c8 56 3c 3d
       0.015997143 0.0007298708 -0.011348351 0.0459812
000190 aa e8 4b b9 9e 3c 3e 39 10 fe 43 b9 61 4f ad bc
       -0.00019446263 0.00018142394 -0.00018691295 -0.021156015
0001a0 63 4e 4f 3d 32 93 d7 3c 6c a0 07 3c f7 58 89 3b
       0.050611865 0.026315305 0.008277994 0.0041915136
0001b0 d9 62 1e 3c 11 f4 b7 bd ba 1a 85 3c dc d3 06 bb
       0.009667122 -0.08982099 0.016248096 -0.0020573055
0001c0 0e 3d cf bb 4b 58 12 3a f2 cf 3b 3d fa 8c 26 bd
       -0.006324417 0.00055826147 0.04585261 -0.04066179
0001d0 e4 ee 8b b9 5a 22 4c bc 0d 6e 29 3d 5e 53 98 3d
       -0.00026690133 -0.012459362 0.04136472 0.07437776
0001e0 cc 50 8d 3b 31 85 08 b6 c6 e9 41 bd 37 e4 92 bd
       0.0043126103 -2.0343107e-06 -0.047342084 -0.07172435
0001f0 1b 69 55 bc d3 3d 61 bb a4 f5 ea ba 45 50 3c 39
       -0.013025547 -0.0034369125 -0.001792599 0.0001795898
000200 29 15 c0 3b c8 e6 f6 b9 a0 f4 87 3c 86 41 19 bc
       0.0058618975 -0.00047092722 0.016596138 -0.009354001
000210 19 40 a9 bc 64 99 59 3c 12 ac df 3b 38 36 10 3c
       -0.020660447 0.0132812 0.0068259323 0.008801989
000220 0b f4 bd bc eb cd 88 bd 80 0b 68 3c e3 e3 6a bd
       -0.023187658 -0.06679901 0.014162898 -0.057346236
000230 39 6a f7 bc cc 8d 26 bc 0e 93 37 3c 99 2e 56 3d
       -0.030202018 -0.010165643 0.011204494 0.052290533
000240 32 3b 89 3c 4d c1 2c bc 0e 3a e3 3c bd 8b 8e 3d
       0.01675186 -0.010544133 0.027737644 0.06960247
000250 7e 6d 8d bc 4f c3 1f 3d 38 65 84 3d 42 9b db 3a
       -0.017264124 0.03900462 0.064646184 0.0016754644
000260 d3 36 57 3b 81 2e 2c bd be f4 4c bc 50 bb af 3d
       0.0032839074 -0.042036537 -0.012509523 0.08580649
000270 89 2b fd bd 22 02 da 3c 17 db 60 3d 5e 72 37 bd
       -0.12361819 0.026612345 0.05489644 -0.044786803
000280 b2 24 39 bd f0 bb 96 bc 8f 11 a5 bc be e6 02 bd
       -0.04520101 -0.018400162 -0.020149974 -0.031958334
000290 81 3c 98 3d df 54 1b 39 b9 98 7e bd a6 6f 35 3b
       0.07433415 0.00014813569 -0.062157366 0.0027684956
0002a0 96 09 f2 bb 38 29 ae 3b 9d f3 93 3b b4 39 bb 3c
       -0.0073863966 0.0053149723 0.004515125 0.022854663
0002b0 1c e7 8b 3c 15 de 05 3d 86 0e e5 3b dc 19 15 3c
       0.017077975 0.032682497 0.0069902567 0.009100404
0002c0 d3 1b c3 bc 6b ba 98 bc 76 ca d5 bd 63 74 de 3c
       -0.023816979 -0.018643579 -0.10439007 0.027155107
0002d0 1b 16 4d 38 f0 2f 24 bc e4 c4 83 bd e6 92 c3 3c
       4.8896396e-05 -0.010021195 -0.06434038 0.023873758
0002e0 e2 c3 02 bd 2e 00 9b bc 0b 03 dd 3c 10 a7 8e 3c
       -0.03192509 -0.018920984 0.02697899 0.017413646
0002f0 5e 40 0f bc 68 73 ce 3c 96 94 6e 3c 99 46 b1 3a
       -0.008743374 0.025201514 0.014561793 0.0013525068
000300 fb e7 17 bc e6 dd 17 3c 17 ed 62 bd ea 1c 02 3c
       -0.009271617 0.009269213 -0.055401888 0.007941464
000310 db e5 2c bb 6e 33 d6 bb 53 41 d2 3b b7 82 0e bc
       -0.0026382122 -0.0065368926 0.0064164787 -0.008698157
000320 22 66 56 3c b8 e7 b7 bc 7c 23 b4 bc dd 20 48 bd
       0.013085874 -0.02244936 -0.021989577 -0.048859466
000330 63 2d 20 3d 7f 12 d7 bc 1f b9 80 bc fb c7 70 3d
       0.039105784 -0.026253937 -0.015713273 0.058784466
000340 1a 9f 37 3d 97 3a 99 bc d4 f8 97 3c 96 44 b2 bc
       0.044829465 -0.018704696 0.018551268 -0.02176122
000350 ff 25 45 3c 6b e9 03 3c 77 d7 67 bc 6e d1 82 3c
       0.012032985 0.008051257 -0.014150492 0.015969004
000360 7f 52 0d bd 95 80 a3 bb fd d1 67 bd 52 08 58 3d
       -0.034502503 -0.0049896934 -0.056596745 0.05274231
000370 00 01 06 ba 83 14 c9 3c 86 cd bf bb ad 46 8b bd
       -0.00051118433 0.024545914 -0.0058533577 -0.0680059
000380 dc b8 4f bb 38 a5 aa 3d b7 36 a0 3b 01 57 e8 3c
       -0.0031695878 0.08332294 0.004889335 0.0283618
000390 85 ce 28 3c 13 83 3d b9 dd 87 27 3b 8b 9b bd ba
       0.010303144 -0.00018073274 0.0025563159 -0.0014465911
0003a0 4e 10 4c bc 2e 06 8d 3b e1 81 b1 3c f5 c8 02 bc
       -0.012455059 0.004303715 0.021668376 -0.007982482
0003b0 a0 ac 94 bc a4 ab 14 39 f0 66 3a 39 72 24 32 b9
       -0.01814872 0.00014178321 0.0001777669 -0.0001698898
0003c0 87 b6 ef bb 1a 55 fb bc ba 8f 94 bd 60 8c f4 3c
       -0.00731546 -0.030680228 -0.07253976 0.029852092
0003d0 08 13 c8 3c ec 71 b2 bc f6 9e 32 bb 52 e1 03 bd
       0.024423137 -0.021782838 -0.0027255393 -0.032197304
0003e0 3f d2 74 bb 0d 8e 5a bd 18 6f 91 bc e7 0c 20 3d
       -0.0037356762 -0.053358126 -0.017753169 0.039074805
0003f0 fb 39 de bc da c8 45 3c 4c e5 8f bc 59 6f 63 3c
       -0.027127257 0.0120718125 -0.017565392 0.013881528

bias f4 [200]
000000 49 90 04 3c 67 22 c4 3c a3 a8 b6 bc be f6 ee bc
       0.008091041 0.023942186 -0.02229721 -0.02917039
000010 23 c6 40 bc 3d bd 38 3c 68 5c fb bc 6b c8 0d 3d
       -0.0117659895 0.011275587 -0.030683711 0.03461496
000020 e0 fc 29 bb f4 71 5e 3c ea 10 f3 3c 8b ab 15 bc
       -0.0025938079 0.013576973 0.029671151 -0.009135137
000030 11 a3 1a 3d 21 7f 4a 3d 7d fe 4a 3d e6 a5 75 bc
       0.03775317 0.049437646 0.049559105 -0.014993167
000040 16 f0 86 bd cf cd 35 3d 1d a1 07 bd fc 4c d7 3c
       -0.065887615 0.044385727 -0.033112634 0.026281826
000050 19 5c a0 bb 3d b4 7d bd 9f 0c 67 3a 70 00 3a 3d
       -0.0048937914 -0.061939467 0.00088138314 0.045410573
000060 48 d3 f1 b9 eb 69 7c bd a2 67 a1 3c 8a a7 08 bc
       -0.0004612452 -0.06162445 0.019702736 -0.008340726
000070 03 d3 49 bd 1f 92 e1 bc 67 86 7a 3c 0f 1d db bc
       -0.049273502 -0.027535496 0.015290833 -0.026747255
000080 ab a0 0e bd 58 a2 e1 bc 3e 41 1e bd 04 ab 0d 3d
       -0.034821194 -0.027543232 -0.03863644 0.03458692
000090 95 eb b2 3b 96 d3 41 bd 55 86 bc 3c 24 7b 1b bd
       0.0054602125 -0.047320925 0.023013273 -0.037959233
0000a0 5a 4a c3 bc 9b 16 9b bc 84 28 45 bd 08 75 72 bc
       -0.023839165 -0.018931678 -0.04813434 -0.01479841
0000b0 99 97 2e bc d1 52 ed 3c 7e 93 84 bc 34 e8 ce bc
       -0.010656261 0.028970154 -0.016183611 -0.025257207
0000c0 18 4b 0c 3d 62 68 49 3d a7 76 0c bd 41 d6 53 bc
       0.034251302 0.049171813 -0.034292843 -0.0129295
0000d0 8b 5d 76 bc be 5e 1e bd f5 92 6e bb 9d 46 79 3c
       -0.015036951 -0.038664572 -0.0036403511 0.015214589
0000e0 dd 6e 7c bc aa ac 5e bc a9 9b 0f bd e0 36 0f 3c
       -0.015407291 -0.013590971 -0.03506056 0.008741111
0000f0 f2 0c 5a 3d 85 07 75 3c ff 5c 62 3c 50 06 9e bc
       0.053235 0.014955406 0.013816117 -0.01929012
000100 67 87 79 bc 1c db 79 bc 57 58 47 3c 02 31 96 bc
       -0.015230036 -0.015249994 0.012167058 -0.018333916
000110 2e 25 95 3c 4d e7 f3 bc 72 cb 66 3d 21 56 22 3c
       0.018206205 -0.029773379 0.056346364 0.00990823
000120 70 80 7a 3b f8 56 81 bb e7 d0 e9 bc 0b 17 c7 3c
       0.0038223527 -0.003947135 -0.028541995 0.02430298
000130 e3 4d 66 3c b0 94 3d 3d 9c 26 e8 bc 72 83 93 3c
       0.014056656 0.046284378 -0.028338723 0.018007014
000140 3d d8 39 bb d1 32 af bc af a1 0d bd 3e 31 a5 bb
       -0.0028357648 -0.021386536 -0.03457802 -0.0050412705
000150 15 15 00 3d 18 aa 49 bd c6 db 08 3d 91 69 58 3d
       0.031270105 -0.04923448 0.033412717 0.05283505
000160 57 d2 22 bd ee de 1f bd 57 02 49 bd 99 ba 13 bd
       -0.039751377 -0.03903096 -0.049074497 -0.036066625
000170 11 4b c5 bc f1 94 10 bc 13 72 b5 bc 15 5e 4c 3c
       -0.024083646 -0.008824573 -0.022149121 0.012473603
000180 61 74 8e 3d 8d b8 7f bc 30 08 08 3d 21 04 27 3c
       0.06955791 -0.015607965 0.033210933 0.0101938555
000190 d4 12 ff 3c 94 30 2e bd a6 38 aa bc 08 b0 0a 3d
       0.031136908 -0.042526796 -0.020778965 0.033859283
0001a0 be f2 b9 bc d9 e7 5c bc 6d 41 01 3d 53 19 32 bc
       -0.022698756 -0.013483011 0.031556536 -0.010870296
0001b0 f5 c1 f4 bc 46 84 4b bb d3 aa e6 bc 81 66 13 3d
       -0.029877642 -0.0031054183 -0.028157627 0.035986427
0001c0 8d 36 05 3d 1a 2e 3f 3d 54 b1 b6 bc 28 5e 52 3d
       0.032522727 0.046674825 -0.022301354 0.051359326
0001d0 de d9 6a bc dc be 0a bd 53 70 6e 3b 20 0e b4 3b
       -0.01433417 -0.033873424 0.0036382868 0.005494848
0001e0 15 02 ab bc 44 22 06 3d a0 b4 a9 3b 40 7f 3b bd
       -0.020875016 0.032747522 0.005179003 -0.045775652
0001f0 d7 b1 dc bc 68 e8 73 bd 6b 6f 2e bd fc ff 12 3d
       -0.02694027 -0.05954781 -0.042586725 0.035888657
000200 53 87 91 bc 2b e4 e2 bc 4e bf 07 bc 4c 29 93 3c
       -0.017764723 -0.02769669 -0.008285357 0.017964028
000210 b0 18 8e bd ef 23 e1 bc c3 24 28 3c 51 e5 94 3d
       -0.069383025 -0.027482955 0.010262671 0.07270301
000220 21 3b 2f 3d 7d 3a 8c 3c 04 1c 51 3d 4e fe 03 3b
       0.042781 0.017117733 0.05105211 0.002014059
000230 ee 4b 1b bd 2c d7 55 bc 33 a5 63 bd 3d e7 0a bd
       -0.03791421 -0.013051789 -0.055577468 -0.033911932
000240 09 bb 91 bc 48 d1 32 3d d3 59 4b 3d 4d 6c 69 3d
       -0.01778938 0.043656617 0.04964621 0.05698805
000250 ce f8 3a bc d4 7a e5 bc c3 de 16 bb 5e da 36 bc
       -0.011411859 -0.02801267 -0.002302096 -0.011160461
000260 41 d7 eb 3b b1 0c 47 3d aa b1 d7 3c 3c 38 41 bd
       0.007197291 0.048596088 0.026329834 -0.04717277
000270 b9 f0 6f 3c 1d 14 ee bc 15 e5 f8 bc eb 2b 3d 3d
       0.014644795 -0.029062325 -0.030382672 0.04618446
000280 e9 af ba bc 79 ca 79 bd e0 6e d8 3c 3d 85 d2 bc
       -0.022788959 -0.06098411 0.026420057 -0.025698299
000290 1f 4d 34 3d 76 23 63 3d dd d4 cc bc 90 26 9a 3a
       0.04401886 0.05545374 -0.025003845 0.001176076
0002a0 21 24 55 bb 63 24 1b bd a9 2b 06 bd 86 67 5a bd
       -0.0032522755 -0.037876498 -0.03275648 -0.053321384
0002b0 88 b9 f3 3c 31 08 9a bc 0b eb 07 bd a2 a1 19 3d
       0.029751554 -0.018802734 -0.03318314 0.03750766
0002c0 cd d1 61 bd 48 14 51 3c 0c 73 72 3c e3 da 41 3c
       -0.055131722 0.012761183 0.014797937 0.011831972
0002d0 b7 91 72 bd ad 32 00 bd 28 e8 8d 3c d4 32 34 bc
       -0.059220996 -0.03129833 0.017322615 -0.0109984465
0002e0 0e ed 7e bc f3 9c 67 3d 62 58 dd 3c 5b e8 55 bd
       -0.015559448 0.056546163 0.027019683 -0.052223545
0002f0 12 91 85 bc 28 ab 2d 3c a4 75 df 3b a6 5d 08 ba
       -0.016304526 0.010599889 0.006819444 -0.0005201943
000300 7c 43 ee 3c 1d 2e 41 3d 2a a8 37 bc d2 45 fe 3c
       0.029084913 0.047163118 -0.011209527 0.031039152
000310 2b 8e 51 3d f1 7f 47 bd 17 18 df 3c c0 39 59 bc
       0.051160973 -0.048706 0.027233167 -0.013258398
