pubmed_train/train/pretrained_hgnn/decoder_s.pth (torch, 324640 bytes, 4 tensors)

weight f4 [200, 200]
000000 d9 78 96 bd 4e bb 73 ba 69 0f f5 bb 0f 5d 87 bd
       -0.073472686 -0.0009297625 -0.0074786437 -0.066095464
000010 be 2b e9 3c 77 b2 18 bc 60 96 cb 3b 4f d3 a0 bd
       0.02846324 -0.009319893 0.0062129945 -0.07852804
000020 61 1b dc 3c 92 84 07 bd 34 f5 69 bc 65 00 41 bd
       0.026868524 -0.033085413 -0.014279652 -0.047119517
000030 2e 19 1b ba 07 5d e6 b7 72 ab 14 3d 3c 20 e0 bc
       -0.0005916533 -2.7461456e-05 0.036296315 -0.02735912
000040 59 54 81 3b f8 de 95 bd 19 76 a0 3c 46 41 53 bc
       0.0039468226 -0.073179185 0.019587563 -0.01289398
000050 21 69 6d 3d 54 08 84 3c 99 be a6 bc 4a 80 1c bd
       0.057961587 0.016117252 -0.020354556 -0.038208283
000060 ef 8c 29 bd fe 20 b2 bc 15 23 03 bd 99 de 95 3d
       -0.04139417 -0.021744248 -0.03201588 0.07317848
000070 72 c2 01 3e 5b 30 8b 3b 27 a2 94 3d 54 d2 18 3d
       0.12671831 0.004247708 0.072574906 0.03730996
000080 c4 5f d3 3d 40 af 28 3a 74 75 df 3b 86 ff 23 bc
       0.10321 0.00064348057 0.0068194214 -0.010009652
000090 0d f3 35 3a bd b9 79 33 35 d7 d8 bc 8c e0 7c bc
       0.00069408194 5.814376e-08 -0.026469806 -0.0154343955
0000a0 9f 05 a9 3c 0e b4 32 bd 61 ee 3d bd f8 38 e0 3a
       0.020632563 -0.043628745 -0.046369914 0.0017106822
0000b0 9d a8 23 bc c1 b7 9d bb be 66 6b b6 63 6a f4 bc
       -0.009988931 -0.004813165 -3.5077533e-06 -0.029835885
0000c0 19 e7 f6 b8 3c 50 fc bb 8f b1 63 bc 85 b6 36 b9
       -0.000117732394 -0.0076999944 -0.013897314 -0.00017424866
0000d0 cb 63 0f 3a 72 a8 de 3c e2 49 b5 3c 4a b3 7b bc
       0.00054698874 0.02717993 0.022129957 -0.01536257
0000e0 87 13 4a bc 52 b7 66 3d 1e db 95 bd 2c 9a ec bd
       -0.012333757 0.05632717 -0.07317184 -0.115528435
0000f0 8a fe 88 bb d7 d7 62 bc 42 38 4a bd 26 e9 16 bd
       -0.004180734 -0.013845406 -0.049370058 -0.03684344
000100 c9 dd 56 bd 6d 1d 83 3d 05 dd c0 ba 97 ae 2b bc
       -0.052457605 0.06402097 -0.0014714306 -0.010478637
000110 e1 1c 26 3d 70 be b7 ba ae f6 31 bc 93 aa 32 3b
       0.040554885 -0.0014018547 -0.010862036 0.0027262315
000120 ec b5 93 3d d8 92 75 3d 6e eb cf 3c aa 34 63 3c
       0.07212433 0.059954494 0.025380816 0.013867537
000130 c1 38 fb b6 36 71 8f 3d 9e 14 55 bc 11 ba 25 3c
       -7.48699e-06 0.07004015 -0.013005404 0.0101151625
000140 cc 7d db bb cb 87 7a bc 5a 01 d2 3b 0b f3 ea bc
       -0.0066983458 -0.015291165 0.0064088525 -0.028680345
000150 a7 ca 2c 3d 61 7d b9 3b 20 57 a3 bb a1 51 bd 3c
       0.04218545 0.0056606983 -0.0049847513 0.023110213
000160 bb 7b 3f b7 71 f4 ef bc 99 d7 8a bb fb 11 41 bc
       -1.1413295e-05 -0.029291363 -0.004237127 -0.011784072
000170 1d 2b 83 3d 70 24 cb bc d6 80 2e bc b1 ac e0 3c
       0.064047076 -0.024797648 -0.010650834 0.027426096
000180 ed 43 49 bc ab f3 a1 3c a2 94 80 ba 8b bb 3a b8
       -0.012284261 0.01976951 -0.0009809921 -4.452052e-05
000190 8f 69 10 b7 b9 43 af 3b d1 c0 0c bb b0 32 d8 bc
       -8.607646e-06 0.0053486493 -0.0021477232 -0.026391357
0001a0 7d bf 81 ba 7f 22 85 bd ae 7f a4 3c 6e f8 92 bc
       -0.0009898987 -0.0650072 0.020080414 -0.017940726
0001b0 7e d8 cb bb 4a e3 2c b8 cb b7 88 3c 92 1a 36 bb
       -0.0062208762 -4.1219675e-05 0.016689202 -0.0027786833
0001c0 54 a8 2a bb c4 04 4a bd e9 ef 7b bc 47 08 62 3d
       -0.0026040273 -0.04932095 -0.015377023 0.055183675
0001d0 ba c6 eb bb 6f fe df ba df 20 dc b7 64 4b a8 bc
       -0.007195321 -0.0017089377 -2.624135e-05 -0.020543762
0001e0 b5 96 b9 3c 9a b5 78 b3 99 57 47 bd 4c ba 44 3c
       0.02265487 -5.7907165e-08 -0.048667524 0.012007307
0001f0 94 53 ec bc a4 36 b8 bb 6b b0 65 bd 24 20 8a ba
       -0.028848447 -0.005621748 -0.05607645 -0.0010538143
000200 1d 58 1c ba 8b 35 0b bd d2 a8 5b 3d fc 9c 1b 3b
       -0.00059640576 -0.03398661 0.053627796 0.0023744693
000210 de 3f 94 bc 68 b4 be 3a 24 05 9f 3c c9 fd 9c 3c
       -0.01809686 0.0014549615 0.01941163 0.019163983
000220 65 de 34 3d 47 e1 6f bb e7 7c ba 3c 5a 66 08 3c
       0.044157404 -0.0036602782 0.022764636 0.008325184
000230 d5 7a 83 b9 c6 36 32 3d ce ba 1e 3c d8 fa 71 bc
       -0.00025077784 0.043509267 0.009688092 -0.0147692785
000240 2d 02 b7 3c 68 4c 64 bb dd 6e 5c 3d 06 9a 9b 3c
       0.022339905 -0.003483558 0.053816665 0.018994343
000250 17 57 ad bb d1 4a 0f 3d bc f3 b7 3c 6e 7f 89 3c
       -0.005289923 0.03498346 0.022455089 0.016784396
000260 d4 12 01 bd 46 aa 4b bc 25 a4 5d 3d e9 65 f9 bc
       -0.031512097 -0.012430733 0.05411162 -0.030444102
000270 d5 5b 2b bc 7d c2 b6 ba 70 61 81 bc f0 f1 22 bd
       -0.010458906 -0.001394346 -0.015793532 -0.03978151
000280 03 44 87 bc d5 77 c9 bc c3 c2 11 36 2a dd d3 b7
       -0.016511923 -0.024593273 2.172005e-06 -2.5256148e-05
000290 34 b0 16 bd bb 44 1e 3d 18 86 0e b9 3a 2c 19 3d
       -0.036789134 0.038639765 -0.00013592129 0.037395693
0002a0 9c 7b 0c 3c b0 f1 1a bd 2b dc 81 bc f7 fa cc 3c
       0.008574393 -0.037828147 -0.015852055 0.025022013
0002b0 a7 f5 72 bd 91 e9 a2 bd b7 32 e2 b8 a9 16 39 3c
       -0.059316304 -0.079547055 -0.00010785966 0.0112969065
0002c0 92 61 15 bd 13 e0 7c 3d f7 6c 57 3d 3b 79 83 bd
       -0.036470003 0.06173713 0.05259415 -0.06419607
0002d0 c0 a3 99 ba 18 db bf bc e0 8d 4b 39 1f e8 cc 3b
       -0.0011721775 -0.023419902 0.00019412441 0.006253257
0002e0 02 85 0c bd c5 3c d5 39 99 a2 d2 bd 12 1c 9f 3c
       -0.034306534 0.00040671803 -0.10284919 0.019422565
0002f0 c9 8d 54 bd 30 0f d8 bc bc d4 91 3a a8 5a 07 3c
       -0.05189303 -0.02637443 0.0011126022 0.00826136
000300 92 c0 af 3d d7 b1 de 3c 7f 8d 99 3d 60 58 5e 3c
       0.08581652 0.02718441 0.07497691 0.013570875
000310 0b ab c7 bc 63 a1 ae ba 37 ae 91 b7 98 72 58 bc
       -0.024373552 -0.0013323243 -1.7366472e-05 -0.013210915
000320 44 e7 95 bc 0e 96 d2 bd aa 51 2c bd 8e 65 02 bd
       -0.018298753 -0.10282527 -0.04207007 -0.03183513
000330 60 ea d4 3c 49 07 be 3c fa 48 f6 3c 3e 9d 2a bd
       0.025990665 0.023196833 0.030064095 -0.041653864
000340 db e1 76 3c 3f ff 8d 3c c4 e4 2b 3d 30 fa 5d 3c
       0.015068497 0.017333625 0.041966215 0.013548419
000350 9e bd 58 3d c1 94 0a 3d f1 d9 56 3d de 24 06 3a
       0.052915208 0.03383327 0.05245394 0.0005117188
000360 fe 65 41 bd 0a 6b a9 3d 1b e3 a0 3c 50 10 9e bc
       -0.047216408 0.08272369 0.019639542 -0.019294888
000370 fb 49 5d 3a 8f 16 1b bd eb 91 b8 bc d6 8a 7d 39
       0.0008441505 -0.03786331 -0.022530517 0.0002417968
000380 ec 15 65 bd 39 9a a3 37 7b e5 9b 3d be 63 ca bc
       -0.05592911 1.950293e-05 0.07612129 -0.024705764
000390 9c 53 10 37 09 d5 69 bd 0f 74 88 bd 7a 2e f2 bc
       8.602536e-06 -0.05708793 -0.066627614 -0.029563177
0003a0 e3 c5 ed bc b0 b4 27 bd 14 ad 85 3c a4 e5 e6 bc
       -0.029025024 -0.0409438 0.016317882 -0.028185673
0003b0 f2 c4 34 bd 77 33 4b b4 bf cc 53 3b 6e ae a1 39
       -0.044133134 -1.8924571e-07 0.0032318083 0.00030838273
0003c0 60 48 06 3c 94 5c a7 bc 89 f1 27 38 ed 76 85 3d
       0.0081959665 -0.020429887 4.004085e-05 0.06516824
0003d0 a8 09 31 3d e9 22 d5 3c 55 d5 9f 3c 83 6c 1b 3d
       0.0432221 0.026017623 0.019510904 0.03794528
0003e0 b7 a9 43 bc d9 03 07 bc e5 ea bb bd c2 ca 33 ba
       -0.011942319 -0.008240663 -0.09175662 -0.00068585214
0003f0 38 70 ef bc 56 16 b1 bc 8b 57 2c ba 95 6a 21 bd
       -0.029228315 -0.021617096 -0.0006574324 -0.039408285

bias f4 [200]
000000 a1 31 62 bd 57 4c 76 3d 42 e2 8d bc 52 3c 96 3c
       -0.05522311 0.060131397 -0.017319802 0.01833931
000010 1e 61 9a 3c e3 a0 93 3d a6 d4 1d bc 34 81 8a bc
       0.018845137 0.07208421 -0.009633219 -0.016907312
000020 15 a5 c1 3c 8d d7 2c bd 76 67 3f 3d cc ab 31 bd
       0.023638288 -0.042197753 0.046729527 -0.04337673
000030 a5 0c 8a 3d ff ee 77 3d ab 2a cf 3c 24 d4 f2 bc
       0.06740693 0.06053066 0.0252889 -0.029642172
000040 c8 ae b2 3d f7 f3 dd bc 76 cb 35 3c 01 51 0e bd
       0.08724743 -0.02709387 0.011095872 -0.03474522
000050 25 17 5a 3d 93 e3 89 bc 36 f1 1d bd 43 15 53 3d
       0.05324473 -0.016832149 -0.038560115 0.05153395
000060 c9 43 6c bd e3 38 a4 ba f3 ce c6 3c f7 8a 89 bd
       -0.057681832 -0.0012529161 0.024268603 -0.067159586
000070 33 1d 8b bd e7 2d 92 3c f2 91 1c bd 91 ee 8f bd
       -0.06792679 0.017844154 -0.03822512 -0.07027925
000080 5d 15 13 3d 8a 95 bc bc 12 6d 57 bd 21 a6 50 3c
       0.035909045 -0.023020525 -0.052594252 0.012734921
000090 d9 d5 c4 bc d9 0b 5b 3d f8 91 36 bd c4 d2 f1 3b
       -0.024027752 0.053478096 -0.0445728 0.0073798615
0000a0 cc a8 29 bd 62 cd 18 3c 6d 46 03 3d 6f c6 7f bd
       -0.041420743 0.009326311 0.032049585 -0.0624451
0000b0 9f f8 0c bd 70 7f 81 3c d5 01 64 3d 9c 31 31 bd
       -0.03441679 0.015807837 0.05566581 -0.0432602
0000c0 2f 38 1a bd bf 70 a4 bd 2b c6 a2 bc 9b 38 d9 ba
       -0.037651237 -0.08029317 -0.019869884 -0.0016572656
0000d0 44 1d 46 bd a7 d2 31 3d b0 5e 70 3d dd 81 4b bd
       -0.048367754 0.043413784 0.05868405 -0.049684394
0000e0 ac 62 78 3d 8d 6f 06 3d 11 9e 92 bd 5e 11 05 3d
       0.060640976 0.032821227 -0.07159055 0.032487266
0000f0 33 54 e7 bc 70 fe ee bc 87 ad aa 3c cb 52 d0 3c
       -0.028238392 -0.02917406 0.020834697 0.025430104
000100 34 61 d3 bc 23 2d 27 3c 74 f5 e4 bc 48 dd 21 bc
       -0.025803186 0.0102036325 -0.027949072 -0.009879418
000110 97 08 1b bd 62 79 65 3d 87 77 0e bd e5 6b d1 bc
       -0.03784999 0.056023963 -0.03478196 -0.025564143
000120 05 ab 83 bd b4 b3 0b bc 0b 5b 2d bc b8 c3 82 bd
       -0.06429104 -0.008526731 -0.010580788 -0.06384987
000130 56 1f 80 bc 20 ab be ba 86 79 8c 3c c7 f3 6c bd
       -0.015639942 -0.0014546849 0.01714779 -0.05784967
000140 28 f8 97 bd 58 50 2f bd 82 46 0d 3d e3 f9 36 3d
       -0.07420379 -0.04280123 0.03449107 0.044671904
000150 fe 03 67 3d 04 48 41 3d 39 6f 00 bd 72 ae 3b 3d
       0.05640029 0.04718782 -0.03135607 0.04582066
000160 9b 5c 32 3d 0a b2 90 3d 4a 25 cc 3c cd 4d 8c bd
       0.043545347 0.07065208 0.024920125 -0.06850777
000170 4b 5f 2b 3d ab 88 85 bc 4a f0 79 bd 14 36 34 bd
       0.041838925 -0.01630052 -0.061020173 -0.043996885
000180 2e 92 58 bd 3e dd 4c 3d 58 2a d1 3b d5 1f e8 bb
       -0.052873783 0.05001568 0.0063832216 -0.007083873
000190 1c 45 64 bd 15 01 00 3d f5 25 74 3d 26 d2 0e bb
       -0.05572997 0.031251032 0.05960651 -0.0021792739
0001a0 10 32 38 3d 18 48 0d bd 57 f3 8e bc 1d 49 7e bd
       0.04496962 -0.034492582 -0.017450018 -0.062081445
0001b0 34 a6 24 3d 90 00 ee bc 1e 36 90 bd 8b b2 45 bd
       0.040197566 -0.029053003 -0.07041572 -0.048265975
0001c0 57 5f a3 3c 74 ba b6 3c a1 fe 02 bd 67 68 54 bd
       0.019942923 0.022305705 -0.031981114 -0.05185738
0001d0 ab da c7 3a fe b1 32 3d ef 43 89 bd e5 2f 34 3d
       0.0015247663 0.043626778 -0.067024104 0.04399099
0001e0 97 6f e3 3c 49 90 07 3d 49 ea 4e bd d0 31 82 3c
       0.027763171 0.033096585 -0.0505164 0.015892893
0001f0 40 b5 74 3d a1 ba bb 39 b8 a4 9c bc 37 48 84 bd
       0.059743166 0.0003580647 -0.019121513 -0.064590864
000200 71 15 2e bc 6a d1 8f 3c 0d bb 77 3d c0 04 4f 3c
       -0.010625229 0.017555911 0.06048112 0.01263541
000210 b7 22 57 bd fd 1b 58 bd 0d 4a 55 3d c4 70 13 3c
       -0.05252334 -0.052761067 0.052072573 0.008999053
000220 ee 8f d7 3c 86 44 d6 3b 55 e3 13 bd f3 39 ad 3d
       0.026313748 0.0065389303 -0.036105473 0.084583186
000230 77 4f 4f 3d cd 45 b4 bc ae f9 cc bc 2f 4d 90 3c
       0.050612893 -0.02200594 -0.0250214 0.017614929
000240 d8 fc 6f bd 19 52 05 bd 68 9d b3 bc 84 2d 4f 3d
       -0.05859074 -0.032548998 -0.021925643 0.050580516
000250 88 57 ca bc 01 f4 af 3b d8 da 53 bc a0 fd cc bc
       -0.024699941 0.0053696637 -0.012930594 -0.025023282
000260 28 be b8 bd 8c c1 47 bc 97 9e d0 3c 41 e4 1f bd
       -0.090206444 -0.012192141 0.025466247 -0.03903604
000270 0e 11 e1 bc 7b aa f8 3c 74 14 9c 3c df cc e1 bc
       -0.027473953 0.030354729 0.019052722 -0.02756351
000280 c1 9f 48 3d dd 1b 9c bd 75 3e 3f bb 52 4d 68 bc
       0.04898048 -0.07622502 -0.0029181514 -0.014178591
000290 a7 20 e6 3c c9 51 82 bd 4f 80 40 bd 8c 7d 42 3c
       0.028091742 -0.063632555 -0.046997365 0.011870753
0002a0 49 53 90 bd 3e 25 43 bd a8 8d 82 3c 6f 43 6d 3d
       -0.070471354 -0.04764294 0.015936688 0.057925638
0002b0 0b 08 50 bd b9 d1 52 bd af 78 d7 3c 96 93 1f bb
       -0.05078892 -0.05146954 0.026302664 -0.0024349443
0002c0 7f 6e 10 bd c1 a7 d1 3c 99 08 25 3d f3 19 a1 3c
       -0.035261627 0.025592687 0.040291402 0.019665694
0002d0 2e 38 87 bd 92 5a dd 3c 27 49 91 3d a5 31 e8 bc
       -0.06602512 0.027020726 0.07094031 -0.028343985
0002e0 09 a3 00 3c f2 d9 7e 3b 66 9d f3 bc b5 5d 88 bc
       0.007851371 0.003888723 -0.02973814 -0.016646245
0002f0 d3 98 86 bd fe 2e 10 3d 9b 26 5f bc bb 0a 4f bd
       -0.06572118 0.035201065 -0.013620044 -0.050547343
000300 07 88 41 3d ff 13 02 3d 90 64 54 bb af 92 34 3d
       0.047248866 0.03175735 -0.0032408573 0.0440852
000310 76 69 e8 bc 54 27 a1 bc ab 6d 7c bd df aa a7 bb
       -0.0283706 -0.019672073 -0.061628025 -0.005116805

weight f4 [200, 200]
000000 04 51 96 bb b3 88 a7 3a c4 43 64 3d cc b8 ee bc
       -0.0045872945 0.0012781828 0.05572869 -0.029140852
000010 47 1d 5a bd c3 25 e2 bc 7e 60 0a 3e 09 ea a0 3c
       -0.053250577 -0.027605897 0.13513371 0.019642847
000020 3c 13 79 3b 80 72 0a bd 4a b2 8a 3d 0e a1 0a bd
       0.003800585 -0.033800602 0.06772287 -0.033845
000030 8b 3a af bd f3 90 47 bd d3 ef 6f 3d 80 d9 46 3d
       -0.08556088 -0.04872222 0.058578324 0.048547268
000040 42 f4 c0 bd 20 a3 19 3d ef d2 f7 3b b3 e4 70 bd
       -0.094215885 0.037509084 0.007562987 -0.058811855
000050 10 80 87 bd cc b5 8d bc 68 06 b3 3c d2 69 b9 3d
       -0.06616223 -0.017298602 0.02185364 0.09053387
000060 22 8d 04 bd 35 2f f9 bb 20 06 ca bd 81 42 86 bb
       -0.032361157 -0.0076045045 -0.098644495 -0.0040972834
000070 39 c7 bc 3c 22 4b a2 bd 7e 91 bb 3c 9a 07 a5 3b
       0.023044216 -0.07924487 0.022896525 0.0050363066
000080 be 68 31 39 ed d6 bf bc 78 ee c4 bd ef 0d 38 bc
       0.00016919055 -0.023417914 -0.09615797 -0.011233791
000090 17 fa ff 3c fe 60 ae bb 08 a9 d7 3c a4 fb e3 b9
       0.031247182 -0.005321621 0.026325718 -0.000434843
0000a0 d3 3d 5c 3d dd 21 6d bd 2a cd 2c 3d 3e b9 39 b5
       0.053769898 -0.057893623 0.042187847 -6.9187433e-07
0000b0 e1 f3 6f ba 42 b6 45 3c 79 33 71 bc 2b 8c 4e b6
       -0.0009153467 0.012067379 -0.014721745 -3.077798e-06
0000c0 f4 3f 8a 3a 54 61 4e bd 4f 47 2d b9 60 2b 8d bb
       0.0010547624 -0.050385788 -0.0001652513 -0.004308149
0000d0 68 cc 6d bd fe 92 04 bc 2d 12 70 bc 85 b4 48 bb
       -0.058056265 -0.008091686 -0.014652771 -0.0030625176
0000e0 9a 1f f8 3c bc de 9a 3c 7b 6f 81 3c d7 d8 0b 3d
       0.030288506 0.018905036 0.015800228 0.03414234
0000f0 61 82 7d b7 cc 93 44 3d 3a 27 90 3d 76 98 6a bb
       -1.5110331e-05 0.047992513 0.07038732 -0.003579644
000100 e5 b0 9b bc f4 79 6e 3d 80 3a 1a 3d c4 d9 e8 ba
       -0.019005248 0.058221772 0.037653446 -0.0017765095
000110 dd da 78 bc af 0c 92 3c ab 92 96 3d 58 ee 98 bc
       -0.0151889 0.017828314 0.073521934 -0.018668339
000120 ed 37 fd 3c a0 eb 61 3d 92 e1 6a bc 6d 8d e2 b8
       0.030910457 0.05515635 -0.014336007 -0.000108028624
000130 d2 c2 bb 3c 32 ce 2f ba 0d e4 bb 3c 6e c4 e3 39
       0.022920046 -0.0006706446 0.022935892 0.00043443165
000140 f1 ff 68 bc 0a 9c e2 3c 89 f8 2d bd 26 c2 17 bb
       -0.014221177 0.027662296 -0.04247335 -0.0023156493
000150 d5 79 40 bc 35 e4 07 bc 6b 88 a8 bd 46 c4 76 3d
       -0.011747797 -0.008294155 -0.08229145 0.060245775
000160 4c ae 67 3c 79 8c ce bb 27 3d cc 3c 27 a3 d8 3d
       0.014140677 -0.0063033667 0.024931503 0.10577994
000170 d7 6c cd 36 e4 79 92 bc 5d 65 28 3b 48 5e 7e 3a
       6.1221467e-06 -0.017880388 0.0025695183 0.000970338
000180 64 3f 0f ba a4 c4 b4 3c 4d 27 37 bd b2 81 49 bd
       -0.0005464463 0.022066422 -0.044715215 -0.049195953
000190 20 cb 2b ba 8d 01 ad bc e7 84 84 3b eb 3b 8a 3c
       -0.00065534003 -0.021118904 0.0040441635 0.016874274
0001a0 16 28 60 bc 61 1e 04 bc 1f c8 87 bc f3 a4 b0 b9
       -0.013681432 -0.0080638835 -0.016574917 -0.00033692233
0001b0 b8 04 1d 3d 84 de 1c 3d f1 ea 0e b8 3b 54 96 bc
       0.03833458 0.038298145 -3.4074244e-05 -0.018350711
0001c0 17 55 0c b9 cb 82 86 bc 35 7c 81 3a e5 12 00 3a
       -0.00013383139 -0.016419789 0.0009878936 0.0004885628
0001d0 5d a9 4d bc 56 53 2a b9 45 e2 84 bc a2 bb 89 3b
       -0.012552586 -0.00016243508 -0.016221175 0.004203276
0001e0 ee 9b 9f bc 74 38 94 bc aa 74 91 bd 7b 6a 52 3d
       -0.019483533 -0.018093325 -0.0710233 0.05137108
0001f0 9d 22 13 bb e8 76 cb bb ea b8 bd 3d b5 3c ef bc
       -0.002245105 -0.006209243 0.09263785 -0.029203752
000200 b3 4b 16 bc 92 24 52 b9 6b 0f e2 ba 2f 43 2f bb
       -0.009173322 -0.00020040784 -0.0017247027 -0.0026742925
000210 ae 5e a3 bc d3 df 07 3d d0 ea 72 bb a5 01 5a 36
       -0.019942608 0.03317244 -0.0037066229 3.2485489e-06
000220 02 33 db 3d 3f e2 2b 3d 46 c7 43 3c 1f 6f 8b bb
       0.10703088 0.041963812 0.011949366 -0.00425519
000230 a0 ba fb 3c aa fb b1 3c b6 4f b1 bc f0 8a 57 bd
       0.030728638 0.021726448 -0.021644454 -0.052622736
000240 48 4b 37 3d e2 da 19 bd 19 53 01 3d f7 f6 22 bc
       0.04474953 -0.03756226 0.03157339 -0.009946576
000250 14 8c 59 3d e4 e7 ba 37 aa 62 f3 bc b0 29 9c 3c
       0.053112105 2.228091e-05 -0.029710133 0.019062847
000260 cd 0c 1d ba 3f 09 6b ba 1f 57 1c bd 29 68 54 3b
       -0.0005990982 -0.00089659163 -0.038169023 0.0032410717
000270 e2 b7 19 34 0a 38 36 bc f3 5b 3b 3c f5 62 a8 3d
       1.4316132e-07 -0.011121759 0.011435497 0.082219996
000280 f6 c4 ab bd 63 86 63 bb 4f 39 db 3c 72 f5 91 3a
       -0.08387177 -0.0034717552 0.026760725 0.001113577
000290 48 d7 b4 bd 6f 09 c1 bc 1f 3f a7 3b 28 48 33 bc
       -0.08830124 -0.023564069 0.00510396 -0.010942496
0002a0 cb 9a fc 39 c8 71 71 bd 03 c6 e4 3b 14 a9 25 bc
       0.00048180515 -0.0589464 0.0069816126 -0.010111112
0002b0 8a ad 6d 33 51 87 66 bb f1 67 c4 3c f8 cd fe 3b
       5.5338695e-08 -0.003517587 0.023975344 0.007776018
0002c0 6e f1 38 3d c6 c3 ac 3c f0 f1 bc bc 6c 89 57 b9
       0.04515212 0.021089446 -0.023064584 -0.00020555191
0002d0 c9 af 25 b9 3a fe 03 bd d9 ce b7 ba 56 30 59 3c
       -0.00015801111 -0.03222487 -0.0014023437 0.013256153
0002e0 85 88 2c 3c 79 63 4d 3b e1 9a c0 bc a0 7b 90 39
       0.010530596 0.0031339808 -0.023511352 0.00027557928
0002f0 a9 8f a4 35 f9 60 e5 bb fc 95 d3 bd 89 52 31 3d
       1.2260763e-06 -0.0070000854 -0.103313416 0.043291602
000300 2a bb 86 3d e9 85 76 3d ec 6f 75 3d 16 5f 5f bd
       0.065786675 0.0601863 0.05992119 -0.05453404
000310 3c b0 ad bd 96 4c 67 bc e9 ca da bc 2c 7a 9b bc
       -0.0848088 -0.014117381 -0.026708083 -0.018979155
000320 a4 03 50 bd aa 3b f8 bc 84 13 5d bd 8f 18 70 bb
       -0.050784722 -0.030301888 -0.05397369 -0.0036635732
000330 75 82 a0 bc 65 d6 cf bc 9f 26 01 3c 47 0a 02 bd
       -0.019593457 -0.025370786 0.007882743 -0.031748082
000340 f9 00 0b bd 07 4e 23 37 22 c3 7e 39 a6 12 3d 3d
       -0.033936474 9.733724e-06 0.0002429602 0.046160363
000350 30 b9 53 34 51 2b a7 3d 5d 4e d2 bc f3 8d b0 3c
       1.9718277e-07 0.08162559 -0.025672132 0.021552062
000360 1b ab db 3c 58 a1 79 3d b5 58 84 3b b4 4d a3 b4
       0.026814988 0.060944885 0.004038895 -3.0417652e-07
000370 95 6f 4f 3b 68 ec 76 3b 3f e5 21 bd fa 41 08 bd
       0.0031652201 0.003767753 -0.039525267 -0.033266045
000380 89 f9 35 39 74 05 68 bc 5d 98 84 bc 7a 56 ea b8
       0.00017354464 -0.014161456 -0.016185934 -0.00011174097
000390 89 7e 4a bd ee a5 08 3c 2f 15 4e 3b 6c a4 02 3c
       -0.04943708 0.008340342 0.0031445732 0.007973772
0003a0 25 88 a1 bb 00 b4 81 3d 02 6e a9 bd fb d9 54 3c
       -0.00492956 0.063331604 -0.082729355 0.012991424
0003b0 a9 f0 1d bc d5 61 93 3c e0 79 1e bd 59 d5 22 bc
       -0.009639897 0.017990986 -0.038690448 -0.009938561
0003c0 b1 f7 02 3d b3 eb 27 3c 5d 08 08 bd 97 a9 59 bc
       0.0319745 0.010249066 -0.0332111 -0.013285062
0003d0 8d 8b 81 bd 10 e0 88 3a 34 46 69 bc 0b f4 ca 3b
       -0.06325445 0.0010442752 -0.014237929 0.006193643
0003e0 8f a2 2a 3d 29 d8 06 3b 4c 9d 88 3c 65 6a 2b 3c
       0.041658934 0.002057562 0.016676567 0.010462378
0003f0 04 e1 7b bd c2 39 dc bc 79 70 a1 3d 41 ee cd bc
       -0.06149389 -0.02688301 0.078827806 -0.025138022

bias f4 [200]
000000 34 00 82 bd 18 05 81 3d ea b7 2e bd 45 b3 97 bd
       -0.06347695 0.062998 -0.042655863 -0.0740724
000010 40 95 4c 3d bf 2e 23 3d f6 10 75 bc 99 2b 18 3d
       0.049947023 0.039839502 -0.014957657 0.037150953
000020 f8 9d df 3a c7 87 92 3a f0 a5 fb 3c d5 bc 54 bd
       0.0017060628 0.0011179381 0.030718774 -0.051937897
000030 05 33 a6 bc 6b 82 df ba d7 44 94 bc 52 76 50 bd
       -0.020288 -0.0017052417 -0.018099232 -0.05089409
000040 5d 8c 4f 3d c3 02 1e bd f0 11 9e 3d d1 29 dc bb
       0.05067097 -0.038576853 0.07718265 -0.006718852
000050 15 68 9a 3d 56 39 1b 3d 51 95 b2 bc 10 24 e5 3c
       0.07539383 0.037896477 -0.021799715 0.027971298
000060 98 4d 95 bd 4d 4d e8 3c 72 99 a9 3c e0 56 b1 bd
       -0.072901905 0.028357172 0.020703051 -0.08659148
000070 6d 55 5b bd 15 2e 2f 3d a5 74 48 3d 4e d7 83 bd
       -0.053548265 0.042768557 0.048939366 -0.064375505
000080 84 a6 6d bd 21 08 91 bb 66 c2 a0 bc 91 d8 18 3d
       -0.05802013 -0.004426018 -0.019623946 0.03731591
000090 5b aa 18 3c ee 4d 9b bc b2 a5 4d 3d 5f 26 83 3d
       0.00931796 -0.018958058 0.050206847 0.06403803
0000a0 62 2a 1e 3d 35 c8 c6 bc 07 54 cf 3c ac f8 3e bc
       0.03861464 -0.024265388 0.025308622 -0.011655968
0000b0 e7 6a 98 3c 59 c0 00 bd c0 c3 55 3d 27 3c 04 3d
       0.018605663 -0.031433437 0.052188635 0.03228393
0000c0 87 df ed bc 9f 8a 53 bd 6b 22 6d bd 03 c9 b5 bc
       -0.02903725 -0.05164587 -0.05789415 -0.022190576
0000d0 c4 c6 6c 3c fe 68 77 3c 1b 63 65 3d 92 aa 25 3c
       0.014451686 0.015100716 0.056002717 0.010111468
0000e0 2e c1 8f 3c a9 4d 37 3c d0 b3 bd bc f9 ef 86 3d
       0.01754817 0.011187949 -0.02315703 0.0658874
0000f0 68 a4 12 3c a8 b9 27 bc 8f b1 ec bc e6 3a b6 bc
       0.00895033 -0.010237135 -0.02889326 -0.022244882
000100 53 11 e6 bc f9 dd 43 bb cb a9 13 3d 02 03 88 3c
       -0.028084433 -0.0029886945 0.0360506 0.016602997
000110 c8 c0 9a bc 34 6e c9 3c db 1b a3 bd 18 9f 59 3d
       -0.018890753 0.024588682 -0.079642974 0.05313024
000120 64 21 86 bc 3f f7 a1 bc 33 d1 a4 bd 9d a9 95 bd
       -0.016373344 -0.019771216 -0.08047714 -0.07307742
000130 28 d2 29 3b a9 12 4e 3b 71 e8 2d 3d db 60 0d 3d
       0.0025912616 0.0031444228 0.042458 0.034516197
000140 60 8f 87 bd eb 7a d7 3c 39 f6 b4 3c 18 43 4a bd
       -0.066191435 0.026303729 0.022090064 -0.04938039
000150 5a 88 82 bc 1a 12 06 bd 1b 6d 58 3c 19 f3 69 3d
       -0.015934158 -0.032732107 0.0132096065 0.0571166
000160 ab 8d 4d bd fa cc 09 3d 22 a7 26 bb 59 ff fb bc
       -0.050183933 0.033642747 -0.0025429209 -0.030761408
000170 29 87 fe 3c 49 83 35 bc e2 b9 f9 3c 83 d4 4c 3d
       0.031070309 -0.011078664 0.030484144 0.050007354
000180 41 58 11 bc c6 19 26 bc 50 9c 37 3b 71 23 6c 3d
       -0.008871139 -0.010137981 0.0028016753 0.057650987
000190 1b 11 7c bd 00 0e 06 3d 91 7e 77 bc 7f f8 67 3d
       -0.06153975 0.032728195 -0.015105859 0.05663347
0001a0 17 31 02 3d 39 24 7c bd b3 cc 7c bd ad 57 73 bd
       0.031785097 -0.061557982 -0.061718654 -0.059409786
0001b0 22 a4 50 3d ab a9 56 bd fb 96 8f bd 0a 16 b6 3c
       0.05093778 -0.0524079 -0.07011219 0.022227306
0001c0 f9 f8 0f bd a7 b1 53 3d 6d 74 85 bd ba 40 f2 bc
       -0.03514955 0.051683094 -0.06516347 -0.02957188
0001d0 af e3 0f bd 0b ec 82 b9 2a 36 b1 3b 86 01 fa 3c
       -0.035129245 -0.00024971398 0.005408068 0.030518305
0001e0 b3 9f d4 ba df 42 6a 3d 18 2e 25 3d 95 d7 5c 3d
       -0.001622191 0.05719268 0.04032716 0.053916533
0001f0 75 5d 0d 3a 9d 16 5d bd 8c 71 05 bc 6f 83 87 bd
       0.00053926493 -0.053976644 -0.0081447475 -0.06616866
000200 6d 61 c1 bc a6 e6 53 bd 3e 9b 2e 3d 85 d9 3c 3d
       -0.023606027 -0.051733635 0.04262852 0.04610588
000210 ad 02 d9 bc 33 28 55 3d 7c f5 a0 3c 2c 3a 40 3d
       -0.026490534 0.05204029 0.019648306 0.046930477
000220 32 46 2e bd c1 f7 0e bd 59 92 23 bb 5b 34 bb 3c
       -0.042547412 -0.034904245 -0.0024959056 0.022852113
000230 0e cb b9 bc 26 09 41 bd 71 15 a3 bc f8 06 ae bc
       -0.022679832 -0.047127865 -0.019907685 -0.021243557
000240 09 da ef 3a eb 7f 88 bb ac ed 62 bd a2 18 36 3d
       0.0018299232 -0.0041656396 -0.055402443 0.044457085
000250 dd 2e 3f 3d 86 b2 ce bc d0 83 4b bd b0 a1 8e 3d
       0.04667555 -0.025231611 -0.049686253 0.06964433
000260 51 53 94 bd b3 d8 85 bb 4e 3f 0c bb 08 68 94 bd
       -0.07242454 -0.0040846705 -0.0021400037 -0.07246405
000270 d0 d1 21 bc 58 f4 8f 3c 95 a6 0a bc a8 a0 8a 3c
       -0.009876683 0.017572567 -0.008462568 0.01692231
000280 47 96 c1 3c 39 bd b7 bc 8a 8a 04 3d c4 80 89 3c
       0.023631228 -0.022429096 0.032358684 0.016785033
000290 b5 f2 8e 3c 50 73 72 bd 39 32 c4 bc e4 66 75 3d
       0.017449716 -0.059192 -0.02394973 0.059912577
0002a0 39 b3 68 bd 22 56 61 bd ca 50 83 3d fe d1 a0 3d
       -0.056811545 -0.055013783 0.06411894 0.07852553
0002b0 c3 5c 46 3d 1e bc 5e 3d a0 88 52 3d 88 ca 85 bd
       0.04842831 0.05437862 0.051399827 -0.065327704
0002c0 8f 30 64 3d 30 43 07 bd b8 54 ca 3b 57 fb fa 3c
       0.05571037 -0.03302306 0.00617465 0.030637426
0002d0 a3 25 1e bd 20 f7 49 bc da e3 c5 3b 12 41 74 3b
       -0.038610112 -0.012326986 0.006039125 0.003727023
0002e0 b6 11 ed bb 2b 64 90 bc 66 b7 e3 bc 98 93 cd bb
       -0.0072347773 -0.017625889 -0.027797412 -0.006273698
0002f0 94 82 1c bc e2 f0 6a 3d 37 bc 7c 3b 0b bc a9 3b
       -0.009552617 0.05735863 0.0038564333 0.005179887
000300 cb 73 bf 3c 73 c2 17 bd d1 87 6c 3d 0f 93 e9 bb
       0.023370644 -0.037050676 0.057746712 -0.0071281265
000310 c1 3b 49 3d 35 16 0c bd d0 75 38 bb 93 b1 5f bd
       0.04912925 -0.034200866 -0.0028146394 -0.054612707
