aminer_train/train/pretrained_han/decoder_v.pth (torch, 135200 bytes, 4 tensors)

weight f4 [128, 128]
00000000: 78dc c4bc 7bf6 8cbc 7dd2 5a3c 51de 3cbd
00000010: 57be f0ba b80c 95bc ee29 e33a 9d74 2fbd
00000020: e32c 223d 8e70 203d 6d06 fdb8 8a05 cebc
00000030: accf 31b9 e078 40bc bc9e 95ba c42f 683d
00000040: 1b8b c73c e8d2 6abd 86f3 ad3d 8754 8cb6
00000050: f013 eabc 86b8 c0bd 7a6d 0a3d 4687 8e3d
00000060: 42cf aeb5 0659 24bd 706d 063d 0e93 0d3c
00000070: b307 93bc a302 8dbc 324d 31ba adfb 91b9
00000080: 55fb 15bc f66c 9abb 649b 773c 0c7a 4bbd
00000090: 470b 633d 57a3 f3bc c286 c3bc e15e 36bc
000000a0: 8ec7 20bd 8cbd 38b9 ff9c 46bd d49a 17bd
000000b0: 378b 40bc 1003 4bbc 30a0 2dbc fd96 58bb
000000c0: b7ef dc3b b8cd 3ebc c24b bcbd e9c6 8abc
000000d0: c6ec 9f3c 7032 203c 08d8 60bd 9651 56bd
000000e0: 349a 063c 237c 42bd f26e d2bc 7230 fb3c
000000f0: 97e6 cdbc 8cc2 1f3d 3374 053c e178 a9bc
00000100: eb3b c4bb 0190 2dbd 83a3 dbbb 54f2 d63d
00000110: 1f53 8639 853f aabc cdfa 60bc 50e5 cbbb
00000120: e500 c8bc 05d6 02bd 3d79 b13c dd2d 67bc
00000130: c642 023d 947f 283d 9a3d a635 ccdf 1ab6
00000140: 3c40 153c 0fcb 483d 4534 25bd 62f6 95bc
00000150: 446c 1e3c a045 433d e40b 3cbd 6ba6 753d
00000160: 3965 82bd 1733 32b5 f18d 043d 44d4 14bc
00000170: aabe 643d b2fe 6b3c 5ede 64bc 3922 51bc
00000180: f94a fc3c 723d d1ba eaad cb3c 1111 01bc
00000190: 79c9 9a3b 81b6 aa3c c2b9 4a3c 1b07 813d
000001a0: aa30 463c 9f09 10bb 263e 5abd 4655 943c
000001b0: 6ec2 823c 8633 133d b7b0 70bc 5af5 373d
000001c0: 06f7 18bc b227 afbc 1820 073d 9899 aa3b
000001d0: 3b6e 873d fe66 c83c a07a 3f3c abba 743c
000001e0: 4bf0 7fbb 7945 2abd d504 b9bc cedc b4bc
000001f0: f8e7 b23a a2e2 893c 9fdf 34bd 30da 2d3c
00000200: 4a5a 76bd bca4 7cbb 15a6 82bd eaeb b93c
00000210: 1c84 2cbd 2623 ed3c 175c c53b 0d52 813b
00000220: 863e a73c a3a9 8f3c a9ee 16b9 c4a8 bf3c
00000230: 4484 e5ba 4609 6dbc 4076 343d 6499 cc3c
00000240: 73a3 42bd b686 743d 0118 0dbc de16 e4bc
00000250: 4008 413d d361 1837 6a03 143d df47 8fbc
00000260: 437d dd3b 7e2b da3b c970 11bd 1ca7 c8bc
00000270: ba26 a1bd b9b1 293d 25b6 ed39 7afb cabc
00000280: 8081 9937 4a5f 913a 8a0a 74bc 7fc5 b034
00000290: 9e5b cebc fc59 68bd 598f 8fbd 9cd7 d13b
000002a0: a05f 683d 0c46 2d39 cf4d 563b a94d 5abc
000002b0: b227 a83c 5f51 cf3b 8c6d ae3b e280 88bd
000002c0: a3b5 be3c 5399 3f3d 7104 f1bc 30cb 9d3d
000002d0: 50d8 9f3d 4780 84ba 5d16 08be 2da5 9c3b
000002e0: c1a6 e939 2c8f 92bc 0181 0dbd 4b60 523c
000002f0: fe81 bd3c 661c 8abc a162 1e3c 7d1b 0c3b
00000300: 4dde c93b 009a 2a3d 81be 843d 589c 5fbc
00000310: 0766 dabb eadb a5bc c8ad 903d 2d62 373c
00000320: b13f d73b 5446 7e3d 2560 5b3d b3ad e637
00000330: abbf a23b 2dbb 4637 eb76 45bb 7a18 1fbb
00000340: b663 9abc 5566 1a3c 0024 683d 6cad 1fbd
00000350: 49a7 e639 a9c6 fc3c 5d3d ecba b214 ae3b
00000360: 6e83 eebc 68f4 bbb5 7bcf 07bd 3b2c 233c
00000370: 842e e73c 4611 fc3c ed58 b43a d430 cfbd
00000380: f95a 99bb 0b70 823d 6fb0 373b 21bf 5b3d
00000390: 290f c13c e312 2c3d 378f 203d 6eb0 90bd
000003a0: 3755 353d 7171 e2ba b442 873c 5e62 633c
000003b0: 89ba a13d 7e9e ddbb dfaf 4d3b e657 873c
000003c0: 791b 82bd 4ce4 3cbc bb60 2137 4277 b3b3
000003d0: df65 2f3b 2628 00bd 0c2a 213d fb21 873b
000003e0: 2063 40bd 1433 e639 7738 4c3c 4caf b43c
000003f0: cede 26bb fd64 20bd b6fd b3bd 696b d7bc
-0.024030909 -0.017207375 0.013355848 -0.046110455 -0.0018367273 -0.018194541 0.0017331222 -0.04283582
0.03959359 0.03916984 -0.00012065177 -0.025149126 -0.00016957399 -0.011747569 -0.0011415104 0.056686178
0.024358323 -0.057330042 0.08493714 -4.1821654e-06 -0.02857396 -0.09410195 0.03379581 0.06959395
-1.302433e-06 -0.040123962 0.03281921 0.008641018 -0.017948007 -0.017213171 -0.0006763517 -0.00027844068
-0.0091541605 -0.004712696 0.015112732 -0.04967694 0.055430677 -0.029740972 -0.023867968 -0.011131019
-0.03925281 -0.00017618219 -0.048489567 -0.03701289 -0.011751941 -0.012390867 -0.010597274 -0.003304898
0.0067424434 -0.011645727 -0.09194137 -0.01694055 0.019522082 0.00977765 -0.054893523 -0.0523239
0.008215476 -0.047481667 -0.025687668 0.030662749 -0.025134368 0.039003894 0.00814538 -0.020687522
-0.005988588 -0.04237366 -0.0067028417 0.10495439 0.00025620402 -0.020782242 -0.013731671 -0.0062224045
-0.024414489 -0.031942386 0.021664256 -0.014110056 0.03180196 0.041137293 1.2385892e-06 -2.3078055e-06
0.009109553 0.049021777 -0.04033305 -0.018305961 0.009669367 0.04767382 -0.045909777 0.05997316
-0.06366963 -6.638451e-07 0.03236193 -0.009083811 0.055845894 0.014403986 -0.013969032 -0.012764507
0.030797468 -0.0015963747 0.024863202 -0.007877604 0.0047237244 0.020838978 0.01237339 0.063001834
0.012096563 -0.002197839 -0.053281926 0.018107068 0.015961852 0.03593781 -0.01469057 0.04491172
-0.009336239 -0.021381233 0.03298959 0.005206298 0.06612822 0.024463173 0.011686951 0.014937083
-0.0039053138 -0.04157016 -0.022585312 -0.022077944 0.0013649454 0.0168317 -0.044158574 0.010611102
-0.0601447 -0.0038550338 -0.06379334 0.0226955 -0.042118177 0.028947424 0.006022941 0.003946549
0.020415556 0.017536944 -0.00014394023 0.023395903 -0.0017510732 -0.014467543 0.044058084 0.024975486
-0.04751916 0.059698783 -0.00861168 -0.027842935 0.04712701 9.0826825e-06 0.03613607 -0.017490325
0.006759317 0.0066580167 -0.03550795 -0.024493746 -0.07868715 0.041429255 0.0004533987 -0.024778116
1.8299324e-05 0.001109102 -0.014895091 3.2926252e-07 -0.02519017 -0.05672644 -0.07009763 0.0064038765
0.05673182 0.0001652466 0.0032700186 -0.01332418 0.02052674 0.006326839 0.0053231176 -0.066652074
0.02327997 0.04677708 -0.029421063 0.077047706 0.0780493 -0.001010903 -0.13289781 0.0047804327
0.00044565464 -0.017890535 -0.034546856 0.012840341 0.023133274 -0.016859245 0.00966707 0.002137869
0.0061605335 0.041650772 0.06481648 -0.013648115 -0.0066649946 -0.020246465 0.07064396 0.0111928405
0.006568872 0.06207879 0.053558487 2.7499022e-05 0.0049666963 1.18453e-05 -0.0030130695 -0.0024276064
-0.018846374 0.009423812 0.056674957 -0.038983747 0.00043993656 0.030856447 -0.0018023659 0.0053125257
-0.029115405 -1.4003717e-06 -0.033156853 0.009959276 0.028220423 0.030769955 0.0013759412 -0.10116735
-0.0046800342 0.06369027 0.0028028747 0.05364907 0.0235668 0.0420102 0.03919908 -0.07064901
0.04427072 -0.001727624 0.016511299 0.013878433 0.07896907 -0.0067632785 0.0031385345 0.016521405
-0.06352896 -0.01152904 9.61887e-06 -8.35703e-08 0.00267636 -0.03128829 0.03934674 0.004123924
-0.046969533 0.00043907075 0.012464634 0.022056244 -0.0025462392 -0.03915881 -0.08788626 -0.026296334

bias f4 [128]
00000000: bfce 1dbd c994 023d 9e40 95bd a44a 9c3d
00000010: f7f5 afbd f11e 743d 0cdf b73c dcbe 85bd
00000020: b823 433d 14df c33d 076c 6c3d f326 d73d
00000030: 8a90 eebc 42a8 2c3d 43fc 16bc 8dea d8bc
00000040: 8f10 82bd c5a3 64bc 4150 8b3d fc48 b4bc
00000050: fb75 83bd 2673 33bd 9334 92bd 6157 c43d
00000060: 4a5a d53d b953 4c3d c743 b03d 3393 333c
00000070: 1b6a 723b 3c0a 8bbc 9da7 a6bd 3f2a 753d
00000080: 64a6 1cbd d80f 563d 0ef3 f7bc a0a4 fc3c
00000090: f89c 3b3d d497 a6bd cdec 493d a7a4 9ebd
000000a0: 9ab5 69bd eeed da3a 3670 963c e3fe 373d
000000b0: 39b8 cebd 6b2b 78bc b6fb 513d 99cc bd3d
000000c0: 039f a33d 285f eb3b c32d bfbd 2cbc f9bc
000000d0: e326 44bd 29ca bd3b 8585 243d 8be6 0c3d
000000e0: 3d9f a5bc dca1 a5bd f7f8 263c c299 733c
000000f0: 1f5b 963d b386 e33c 6f87 2dbd 5a84 02bd
00000100: 256c 393d 4651 ae3d a930 2fbd edb1 dd3c
00000110: 80fa 46bb 162f 14bd 5a80 b43d 3f1a 7c3b
00000120: f5c6 d93d aa94 88bd ddac 823d e52d 593d
00000130: 254d 5dbd 961a a03d 2353 bcbd 6f33 383c
00000140: bf6a 91bc 9be1 3f3d 5b64 4fbd d4fe 9e3d
00000150: 2400 0d3d 6b7f acbb 10d9 dd3b 9fb6 273c
00000160: 5e9e 7cbd 873e 72bd 277e 1dbd 611f dcbb
00000170: 0149 6a3c fecc 753d dbb1 7bbb 2086 df3c
00000180: 3d90 d4bd bb78 56bd e15f a63d afa8 873d
00000190: 8cf7 893d 36bd 543c c84f 493b 8eb4 aebd
000001a0: 50e3 753d ddfc 9f3d 04eb 7ebc ff8a ccbd
000001b0: bdcc c5bc f519 083b 4ebe 113d f153 493d
000001c0: c061 a83d 3706 923b 11b9 c2bd 8a7b c63d
000001d0: fb73 1b3d ac6a 70bd 3b33 0e3c f07b a03d
000001e0: d833 13bc b10c 61bc 8bff 373d 5183 073d
000001f0: 9c40 883b be23 74bd e954 92bd 2df6 93bd
-0.038527247 0.031880174 -0.072877154 0.07631424 -0.08591836 0.05959982 0.022445224 -0.06530544
0.047641486 0.09564033 0.05772021 0.10505476 -0.029121656 0.04215265 -0.009215417 -0.02647903
-0.063508146 -0.013955061 0.068024166 -0.022007458 -0.06418987 -0.043810986 -0.07138934 0.09586979
0.10417612 0.04988453 0.086066775 0.010960388 0.0036989513 -0.016972654 -0.081374384 0.059854742
-0.03824462 0.052261204 -0.030267265 0.030840218 0.045803994 -0.08134428 0.049298096 -0.07746249
-0.057057954 0.0016702989 0.018364053 0.044920813 -0.100937314 -0.01514707 0.05126544 0.092675395
0.079893135 0.0071829744 -0.093349 -0.030485235 -0.047888648 0.0057919216 0.040166397 0.03439955
-0.020217532 -0.08087513 0.010191194 0.014868202 0.07341599 0.02777419 -0.042365488 -0.0318645
0.04526915 0.085115954 -0.042771015 0.02706238 -0.0030361712 -0.036177717 0.088135436 0.0038467792
0.10633651 -0.066689804 0.06380627 0.053022284 -0.05402865 0.07817571 -0.091955446 0.0112427315
-0.017751096 0.046846014 -0.050632816 0.07763448 0.034423962 -0.005264213 0.0067702606 0.010236411
-0.06167447 -0.059141662 -0.038450386 -0.006717608 0.014299632 0.06000995 -0.003840557 0.027285635
-0.10379074 -0.05236123 0.08123756 0.06623971 0.06736669 0.0129845645 0.003071772 -0.08530532
0.060031235 0.07811902 -0.015558962 -0.09987449 -0.024145478 0.0020767425 0.03558188 0.04915232
0.08221769 0.0044563073 -0.09507955 0.09691532 0.037952404 -0.05869548 0.0086792065 0.07836139
-0.0089845285 -0.013735936 0.04492144 0.033084217 0.0041580927 -0.0596044 -0.071451016 -0.07224689

weight f4 [128, 128]
00000000: fe35 183c d800 643b 6961 e03a 21ee 99bd
00000010: 6f2d 593d f7f9 d23c 9587 b33b 82cf 4dbc
00000020: 1b91 f93b c69a 603c 8873 babc e8d1 2a3d
00000030: 944e 7c3d af48 8e2e c585 66bd 9085 efbd
00000040: 5a8a 473d 9b98 543d 5cc6 8fbc 0b43 613b
00000050: bfc5 c0bc 6e4d 22bc b7f2 133d 7685 a5bd
00000060: d582 e7ba 685f 363d b546 a2bc 703d 6cbb
00000070: 7ecd cd3c 617f aa3d 43ea 333d 64be 21bd
00000080: 6567 c8ba 2dc2 4ebd a762 0dbd f425 38ba
00000090: 5ea3 41bb d8f9 16bd e7e7 32bd 19a6 d13c
000000a0: 6984 ab3a fee1 843c 5d14 59ba c4a5 4d3c
000000b0: c8fd e9bc e03b 5f3d 6b72 ff3d 5c68 573c
000000c0: f5b6 89b9 6cec ccbb 2b06 cbbb 8656 3dbc
000000d0: e279 5b32 42bd faba 0410 6c3d 786f 863c
000000e0: 07a9 99bc b6e4 4bbc 980d 5cbb bca4 babd
000000f0: 0545 8cbb 6a53 1bbd 2388 33ba 6026 0833
00000100: a0b0 993d 701b fcbb acd2 ffbb 2741 c33c
00000110: 7f27 eab3 4243 bd3c 99ee 3c3c a42d 19bd
00000120: 1302 1937 2a94 80ba 9022 1d3d 2e76 df3c
00000130: f01c 4d3d ff90 6db9 cbc4 813c 93b7 133d
00000140: c0d3 07bd 8cfb d23a 1d55 7e3c cabd d13b
00000150: 3c05 4d3d cbab f8bb 0934 b3bd a689 86bd
00000160: e079 c43d 0c43 e5ba a100 9c3c 8d7d 1abb
00000170: 8371 a1bc fd47 37bd 98e7 38bd ed11 6bba
00000180: 4e8f b8bc fc82 9abc e144 7838 e322 76bc
00000190: 6e4d 7e3d 5923 90ba af76 adbc 3cbd 9fbb
000001a0: a269 b73d a870 1bbd 7f8e 94bd 6526 043d
000001b0: 0ba7 9e3b 76ef 743d bf3c f0bc 8c7b 8cbd
000001c0: d0cd 6b3d 933b 2ebc af66 3731 5ed4 253d
000001d0: d260 d3bc 3603 8abc 5546 bf35 9344 88bc
000001e0: 5cc1 2dbd ddcf b03c dcae aa3c 7515 34ba
000001f0: 3949 513c ad1d d03c c991 8935 2e85 23bd
00000200: 88d4 0e3c dfe8 e5bd cd79 30bb a4e6 92bd
00000210: ba84 07bc 0e57 033d 8e09 61bc afa2 2fbd
00000220: 0a5b 553b e3a3 433d 0eaa 6fbd 3972 0bbd
00000230: 063a 0cbd e9e4 e63c fb16 083c 7c40 0d3c
00000240: 85cd 733b c7be dbb8 c6a6 943d 01e8 943c
00000250: ee8c 2e3b 97fc ecbc c988 1235 a30e f439
00000260: 63eb 90bd d724 c43a 9ced 93bc f626 913a
00000270: 8243 a9bc 0c3f d0bb 692b 273c 3b76 c4bc
00000280: 2d8f a5bc 0106 f1bc 24e6 153c b9ac 953b
00000290: 7303 0a3c bedc d43b 4d9f 5e3d 06b5 8abc
000002a0: ba9c 0abb a5e5 c13d 05ce a3bd a386 25bd
000002b0: 2a3c eb3c 093b a5bb 845d b8bc c4ae 01bd
000002c0: 3cc2 8439 0f6f d3bc 2d43 9339 f496 313b
000002d0: 050b 073c 1171 21bc 1143 1bbd e214 993d
000002e0: 1028 5cb9 fe7a 08b5 39fd ff3c 464e 363c
000002f0: c67b 963d f8ed 67ba d05f 40bb a244 b232
00000300: e7ad 1fbc e6e6 e9bd f412 08bc 16eb a93d
00000310: 25aa 8f32 21af febc c044 31bc 0702 f038
00000320: 1e4b c0bb d4ee 6d39 aba9 e53c 606c a93c
00000330: 5ef7 b23a 86fb 093d 0f16 a13c 4f20 913c
00000340: 2bb8 8a3d 6d6c e2bd ecfd 873b c928 a7b9
00000350: 8a55 b33c 6f47 983c bd15 97ba ea90 723c
00000360: 17ba 1fbb 549a 6bb9 5cab 803b 3df5 9abc
00000370: e91c 813d dbfd 083d e7c7 d13c 3e84 7a3c
00000380: 0629 af3c a14b eb3b 5ebd 48bd 9bdc 5f3b
00000390: 8e60 8bbd 0720 9cb9 1f9e c03d 1027 b5bc
000003a0: 852a 4cbd d4c1 903c aca0 0d3d 6b35 cdbb
000003b0: cf96 e23a 8fde 06ba 49f7 803c 167b 7d3c
000003c0: 44b2 02bc 64f0 eb3c ff31 f2bc d386 0e3d
000003d0: 242f 163c 1737 18bd 5f91 193b 45ff 6d3b
000003e0: f65d 8b3d 31f4 ccbc c1fa 033c 9957 aabd
000003f0: c74d a93c fad7 643c 6366 edbc 09c4 db3c
0.0092902165 0.0034790542 0.0017118874 -0.075161226 0.053021844 0.025753958 0.005478809 -0.012561681
0.007616175 0.013708776 -0.022760168 0.04170409 0.061598375 6.4703236e-11 -0.056279916 -0.11695397
0.048715927 0.05190335 -0.01755064 0.0034372236 -0.023531793 -0.009906156 0.036120143 -0.08082096
-0.0017662892 0.04452458 -0.019809106 -0.0036047362 0.0251224 0.08325077 0.04392458 -0.03948821
-0.0015289603 -0.05047815 -0.03451791 -0.00070246984 -0.0029546837 -0.036859363 -0.04367819 0.025591897
0.0013085726 0.016221043 -0.00082809274 0.012551729 -0.028563395 0.05450046 0.12472995 0.01314744
-0.0002626699 -0.0062537696 -0.0061958036 -0.011556273 1.2775191e-08 -0.001912989 0.05763246 0.016410574
-0.018757356 -0.012444666 -0.0033577438 -0.09113452 -0.0042806887 -0.037921347 -0.0006848594 3.169987e-08
0.07504392 -0.0076937005 -0.0078070965 0.023834778 -1.09036584e-07 0.02310336 0.0115314955 -0.037397042
9.119994e-06 -0.0009809781 0.03836304 0.027278032 0.050076425 -0.00022656097 0.015840909 0.036063742
-0.033160925 0.0016096695 0.015523222 0.0064007984 0.05005382 -0.0075888387 -0.08750159 -0.06569223
0.09593558 -0.0017491295 0.019043269 -0.002357337 -0.019707447 -0.044746388 -0.04514274 -0.000896721
-0.02252927 -0.018861286 5.9191956e-05 -0.015022966 0.06208556 -0.0010996863 -0.021174757 -0.0048748534
0.08955695 -0.037949234 -0.072537415 0.03226318 0.0048416904 0.05979868 -0.029325841 -0.06859502
0.057569325 -0.010634321 2.6688374e-09 0.040485732 -0.025803003 -0.016847234 1.4251078e-06 -0.016634261
-0.04242073 0.021583492 0.020835333 -0.00068696524 0.012773805 0.025404776 1.0249724e-06 -0.039921932
0.008717664 -0.11226057 -0.0026928068 -0.071728975 -0.008271391 0.032065444 -0.013735188 -0.042879757
0.0032555484 0.047763716 -0.058511786 -0.034044478 -0.034235023 0.028185325 0.00830626 0.008621331
0.0037201357 -0.00010478269 0.07258372 0.018177034 0.0026634294 -0.028929038 5.4588287e-07 0.00046550212
-0.070761465 0.0014964592 -0.018057637 0.0011074233 -0.020662073 -0.006355172 0.010203221 -0.023982158
-0.020209873 -0.029421808 0.009149108 0.0045677093 0.008423674 0.006496041 0.05435114 -0.016932022
-0.0021150545 0.09467629 -0.079982795 -0.040411603 0.028715212 -0.005042438 -0.02250553 -0.03166081
0.00025321718 -0.025809793 0.00028088075 0.0027098032 0.008242373 -0.009853617 -0.037905756 0.07474686
-0.0002099576 -5.0842925e-07 0.031248676 0.01112706 0.07347827 -0.0008847411 -0.0029353984 2.0753138e-08
-0.009746051 -0.114209935 -0.0083053 0.08296792 1.6724764e-08 -0.031089367 -0.010819614 0.000114444694
-0.0058683297 0.00022691052 0.028035006 0.02068156 0.0013654043 0.033687137 0.019663839 0.017715601
0.067734085 -0.11055837 0.004150143 -0.0003188311 0.021891374 0.01858875 -0.0011526864 0.014805058
-0.0024372393 -0.00022468838 0.0039266776 -0.018915767 0.06304342 0.03344522 0.025608016 0.015290318
0.021381866 0.0071806465 -0.04900872 0.003415859 -0.06805526 -0.000297785 0.09405159 -0.022113353
-0.049845237 0.01767055 0.034577057 -0.0062624714 0.0017287376 -0.0005144858 0.015742915 0.0154712405
-0.007977072 0.02880115 -0.029564856 0.034796547 0.009166513 -0.037161913 0.0023432595 0.0036315483
0.06805031 -0.025018783 0.00805539 -0.08317489 0.02066697 0.013967508 -0.028979486 0.026826875

bias f4 [128]
00000000: 3c9b fcbc f999 afbb 64be 5a3d 4cf9 093d
00000010: 4c65 6cbd f6d0 0c3d 475a 4b3d 9fe0 bdbd
00000020: ffd9 bb3a 4ff0 ab3d c49a 183d d086 d43d
00000030: 8bf1 743c 6287 0e3d cc78 cbbd aa03 e3bc
00000040: 2d82 7f3c 7978 98bd 98db 7a3d 3732 adbd
00000050: 8ac1 943c 9b6c a8bc 1181 90bc 190a af3d
00000060: 8b06 853d a097 4bbd 4196 e23b 9456 6e3d
00000070: a47f 6b3c 1377 93bd ebc2 a0bd d875 35bc
00000080: d757 663d 18b2 c63d 83bc 6ebc cdfc a33d
00000090: f44c 35bd 6bc3 02bd 7b7f ac3d 94a2 ce3c
000000a0: f3a7 73bd e7b1 383d 5271 b4bb 0a95 d23c
000000b0: 58be 6ebd e7bd 793b c2b3 09bd 37cf 623d
000000c0: cf6d d03d 7c7b fd39 f762 91bc d418 80bc
000000d0: b9b2 703b 8f45 973d bb58 623d c803 293c
000000e0: d893 3abc 38c8 19b8 682d 723d b9ab a43d
000000f0: 8999 92bd 591f 9e3d 2d25 82bc d645 503d
00000100: 4c1f a93d f09f cb3a 5283 77bd 22cb cb3d
00000110: ec03 85bd 4f40 433d 0642 9f3d fbc7 683d
00000120: e612 c83d ad41 48bd 7355 06bd 89b3 af3d
00000130: d07c 9a3d f13d a43d 9336 503d 2668 90bc
00000140: 3fda 1f3c 4763 be3c 226f b33c 1929 69bc
00000150: 4cf6 1cbd a23a 353d 45ef 1d3d 2762 873d
00000160: a809 863d 2969 d4bc 23ab ee3c 44df 8ebc
00000170: 97aa 7fbd 1a71 03bc 325e 77bc b8d4 b8bd
00000180: 0491 91bd abc0 eb3c 65fd 3c3c 2f5e 993b
00000190: fc95 c13d 28c5 e5bc 4894 9cbd ff22 dabb
000001a0: 3f2d 05bd 7c13 a23d dcf0 c7bd dce8 823c
000001b0: f391 a3bb 0cfd 9bbc 3cb1 203d 1a99 0b3d
000001c0: cb80 7e3b 97df b0bc 436f a2bd 95b1 ac3c
000001d0: a007 423d 2915 25bc ce21 00bc d7aa 9e3d
000001e0: e890 b1bc 128a 0a3d 97c9 373d f102 d63c
000001f0: 9c0c 6a3d bd51 e63c 0373 67bd 5410 fbba
-0.03083574 -0.005358931 0.053404227 0.033685014 -0.05771379 0.03437897 0.049646642 -0.09271359
0.0014331936 0.083954446 0.03725697 0.10377276 0.014950166 0.03479708 -0.099351496 -0.027711708
0.015595001 -0.07444853 0.061244577 -0.08456843 0.018158693 -0.0205596 -0.017639669 0.08546848
0.064953886 -0.049705148 0.0069148843 0.058188036 0.014373694 -0.07200446 -0.07849678 -0.011075459
0.056236114 0.097019374 -0.014571312 0.08007202 -0.04426284 -0.031924646 0.084227525 0.025224008
-0.05948634 0.045091536 -0.005506673 0.025705833 -0.058286995 0.0038107575 -0.033618696 0.055373397
0.10177194 0.00048347923 -0.017747385 -0.015636839 0.003672762 0.07386314 0.0552604 0.010315843
-0.011387788 -3.666451e-05 0.059125334 0.08040566 -0.07158191 0.07720823 -0.015886867 0.05084785
0.082579225 0.0015535336 -0.06042797 0.09950854 -0.06494889 0.04766875 0.07776265 0.05683134
0.097692296 -0.04889076 -0.032796334 0.085791655 0.07543337 0.08019627 0.050833296 -0.017627787
0.009756624 0.023240699 0.021903578 -0.01423099 -0.038320825 0.04424537 0.038558263 0.06610518
0.065448105 -0.02592905 0.029134339 -0.017440446 -0.062418547 -0.008022571 -0.0150981415 -0.09024948
-0.07107738 0.028778395 0.011535023 0.004680417 0.094524354 -0.028048113 -0.0764547 -0.006657004
-0.032513853 0.079138726 -0.09762737 0.015980177 -0.0049917637 -0.01904156 0.039231524 0.034081556
0.003883409 -0.021590991 -0.07931378 0.021080771 0.047370553 -0.010075846 -0.00782056 0.07747429
-0.021675542 0.03382308 0.044869985 0.02612445 0.05714093 0.028115148 -0.056506168 -0.0019154646
