aminer_train/train/pretrained_han/decoder_a.pth (torch, 135200 bytes, 4 tensors)

weight f4 [128, 128]
000000 17 2a 05 bd 88 be c6 bd 4e 04 47 3d d4 b1 02 3d
       -0.032510843 -0.0970431 0.04858809 0.03190787
000010 48 ac a2 ba 35 ea 1e bd 0e bd 18 3c 2d a2 65 3c
       -0.0012410963 -0.038797576 0.009322418 0.0140157165
000020 d4 66 6d bd ff 4a cc 3c 94 5c ac bb 9b 93 27 bd
       -0.057959393 0.024938105 -0.0052600596 -0.040912252
000030 12 33 2c b9 ee fa 1b 3c e1 cd 80 bc 58 9c 98 3d
       -0.00016422223 0.0095202755 -0.01572317 0.07451695
000040 6e e4 03 bd 8e e1 b9 bc 28 b5 9a ba f3 e6 7f 3a
       -0.03220027 -0.02269056 -0.0011803256 0.0009761892
000050 4f 7f 18 bd d7 48 f2 3c 26 c6 cc 3d 82 3f b1 bd
       -0.037230786 0.029575748 0.09998731 -0.08654691
000060 81 23 d2 b3 99 5c 4e 3d da b6 d2 bc bd ef 58 bd
       -9.785345e-08 0.050381277 -0.025721956 -0.052963007
000070 23 a6 f1 3c 80 6e 9a b7 fb 6c 02 3d 37 f9 19 3c
       0.029498165 -1.8409686e-05 0.031842213 0.009397796
000080 ca 0d 99 bd 22 81 cf 3c e6 ac 81 3d 09 f3 00 3b
       -0.07473333 0.02533013 0.06331806 0.001967611
000090 38 1f c1 bc 04 72 5d bd f3 d8 04 3b 83 db 9b 3d
       -0.023574457 -0.054063812 0.0020270913 0.07610228
0000a0 d6 83 9b bc e7 24 d3 bc 2d 1f 17 bd 66 fd 18 ba
       -0.018983763 -0.025774432 -0.036894966 -0.0005836099
0000b0 2b ba 05 3c 79 83 29 bd 64 84 e0 bc 8c fd 14 b8
       0.008162062 -0.041385148 -0.027406879 -3.5522084e-05
0000c0 f8 04 60 3d f8 a3 52 ba ff a1 16 bc 3e 58 d5 3d
       0.05469224 -0.00080352975 -0.009193896 0.104172215
0000d0 db 6d 8f bd 28 23 a0 bd 0f 86 28 3c 4c 9a 9c bd
       -0.07003375 -0.078192055 0.010285868 -0.07646617
0000e0 65 a2 c2 3d 2f 6a c7 3c f1 3a 8a bc 18 e1 16 bc
       0.095036305 0.024342624 -0.016873809 -0.00920894
0000f0 a7 80 5b bc 25 4a 4a b9 01 c8 df ba b8 54 48 3d
       -0.013397372 -0.00019291842 -0.0017073156 0.04890892
000100 eb 7e ee b9 f9 ec bb bc cf d8 b6 bb bf 57 92 39
       -0.0004548946 -0.022940146 -0.005580045 0.00027912666
000110 45 2e 7a 3c 20 7b a6 bd b8 d3 ab 3c 14 5e 89 bc
       0.015269821 -0.08128953 0.020974979 -0.016768493
000120 e9 58 9a 3c e7 8c 1f bd 78 4b b9 bb 96 4d 89 3d
       0.018841224 -0.038952734 -0.0056547485 0.067042515
000130 b7 37 a4 3d d1 71 31 bd f1 a1 c9 3c 5a 45 cb 3c
       0.08018439 -0.043321434 0.024613352 0.024813343
000140 41 72 c8 3a 6b f6 66 3d 54 ea 04 bc a6 d1 12 bd
       0.0015292839 0.056387346 -0.008112509 -0.035844468
000150 ea 68 01 bd 80 25 e0 bc e2 61 a0 bc 09 e6 e8 3b
       -0.031594194 -0.027361631 -0.019577924 0.0071075005
000160 47 b5 62 3c 12 6b c9 bc fc 52 92 3b d5 42 ca bb
       0.013837165 -0.024587188 0.004465459 -0.006172518
000170 cd 51 91 3d be 05 f0 bc c7 a8 0c bd 03 04 85 3c
       0.070956804 -0.029299613 -0.034340646 0.016237264
000180 f1 e8 44 b9 ab a3 52 bc eb 8a 36 3c 53 20 e7 3b
       -0.00018778794 -0.012856404 0.011141519 0.007053414
000190 2e 2c b8 b8 70 14 0c bd 2a e8 ff 37 37 b0 37 3c
       -8.782033e-05 -0.03419918 3.0506479e-05 0.0112114465
0001a0 3e 99 16 3c 33 31 dd 3c 7c 4e c6 3b 9a ce c3 3b
       0.009191809 0.027001 0.0060518365 0.0059755566
0001b0 01 e0 14 bb a1 ad d4 3d fa a2 22 bb c6 72 01 bd
       -0.0022716525 0.103846796 -0.002481638 -0.031603597
0001c0 bc a3 8d bc e3 9b d5 bc f4 ad e0 b7 42 79 51 3d
       -0.017289989 -0.02607531 -2.6783884e-05 0.05114103
0001d0 ed 94 0b bc 9a 53 4b 3d 2c 47 b4 3c 7f 50 50 3b
       -0.008519393 0.049640276 0.022006594 0.003178626
0001e0 ff c1 23 b8 04 de 7e 3d fc 77 9e 3c 17 91 86 3b
       -3.90429e-05 0.06222345 0.019344322 0.0041066515
0001f0 3d b2 dd bb 6e a5 14 bb 26 12 09 3d 5f ba 8f 3d
       -0.0067656324 -0.0022681612 0.033464573 0.07017969
000200 f0 95 94 bc 1d ce 82 3c ea 25 a9 bd 71 81 ad 3c
       -0.018137902 0.015967423 -0.08259185 0.021179887
000210 3e b0 48 3d ae 6c 29 3d e9 f0 ab bc 08 42 eb bc
       0.048996203 0.04136341 -0.020988898 -0.02871801
000220 ab 03 21 3d 23 4d 66 bc fb d5 88 3d 1e 6a 98 bd
       0.03931014 -0.014056477 0.066814385 -0.07442115
000230 6a fb 1c bd 6e 58 3c 3c c3 7b f2 3c 47 9e 9f 3b
       -0.038325705 0.011495693 0.02960003 0.004871163
000240 65 90 67 3d 18 85 66 bb e1 d9 f3 3c 39 67 0f 3d
       0.05653419 -0.0035174545 0.029766979 0.03501055
000250 1e 17 83 bd ad 29 4d bb 63 fe c6 bc 16 bb e2 3c
       -0.06400894 -0.0031305358 -0.024291223 0.0276771
000260 65 05 8a b5 62 cc 11 3d 9b 92 71 3d de 73 43 bd
       -1.0283371e-06 0.035595305 0.058977704 -0.04771792
000270 b8 01 31 bd 66 d2 aa bb f0 b1 45 ba 3c e6 b5 bc
       -0.04321453 -0.0052130697 -0.00075414684 -0.02220451
000280 12 6e b9 bb a9 26 c1 ba 72 60 c8 3b cb 21 6c 3d
       -0.0056588734 -0.0014736253 0.006115013 0.057649415
000290 0e 93 89 bd dc 38 92 3c 59 cb 79 3d 7a c3 a5 bd
       -0.067175016 0.017849378 0.060984943 -0.08093925
0002a0 6a 28 9c 39 0e 6b 35 bd c8 fb 0f bd 54 93 0d bc
       0.0002978475 -0.04429155 -0.035152227 -0.008641083
0002b0 eb fc 7b 3c b8 20 8c bb 00 1b 7b 3d 1a 67 2a bb
       0.015380125 -0.0042763613 0.061305046 -0.0026001395
0002c0 1f b0 27 3d a2 80 e0 3c 30 42 b6 3b 6a ce fb bb
       0.040939447 0.027405087 0.0055620894 -0.0076845186
0002d0 a3 39 3e 3b 5d bf 27 3d 37 fb 88 bb 39 b5 22 bd
       0.0029026053 0.040953983 -0.004180338 -0.03972361
0002e0 46 a6 13 bc 55 e2 3a ba 0e 2f d4 38 99 9e c3 3c
       -0.009011811 -0.0007129063 0.000101177124 0.023879336
0002f0 7b 43 13 bc e2 5b 1d ba dc 44 81 bb 4f 4d 03 bc
       -0.008988257 -0.00060027663 -0.0039449763 -0.008014037
000300 56 fd cf 3d 43 95 93 bb 83 e5 3b bc 71 72 bf bd
       0.10155742 -0.0045038774 -0.011468294 -0.09348
000310 fa 6b 99 3b d1 7e bc 3c de ca df bd 65 bf 8e bd
       0.0046820613 0.02300969 -0.10927366 -0.06970099
000320 58 13 15 bd a5 79 1b bc 63 89 26 bd 20 e6 78 38
       -0.0363954 -0.009489452 -0.040658366 5.934213e-05
000330 a7 5b 0e 3d b4 41 bc bd 98 ed e7 ba 2d 37 c6 3c
       0.034755375 -0.091922194 -0.001769471 0.024196232
000340 72 05 d5 3a 2f 7b 60 ba c3 b8 da bd 67 3d 62 3c
       0.0016252233 -0.00085632777 -0.10679772 0.013808585
000350 09 5b a3 3d e3 08 3c bd 78 eb 5a bd e3 5e fe bd
       0.07976348 -0.045906913 -0.053447217 -0.12420442
000360 53 c9 ae bc 44 e4 c5 bc b9 1d 1f 3a c4 d2 92 3c
       -0.021336233 -0.024156697 0.00060697977 0.017922767
000370 8e d7 61 bb 1c 6e 8b 3d a8 fb 00 3d 36 f0 35 bd
       -0.0034460756 0.06808111 0.031489998 -0.044418536
000380 ca 1d 23 bd 0f 5e cc 3b 4c 4a b7 3c 6b 11 4e b9
       -0.03982333 0.0062367986 0.022374295 -0.0001965218
000390 c4 66 d1 bb 8e c8 dc 3a d6 bb b6 bc 75 68 16 bd
       -0.0063904244 0.0016844438 -0.022306364 -0.03672071
0003a0 d5 1c bf bd 32 fa 08 3d 6b e7 49 bc 8a 6f 58 3d
       -0.09331671 0.03344173 -0.012323241 0.052840747
0003b0 b0 22 de 36 69 c3 1c 3c a5 e7 e1 bc 79 d7 09 bc
       6.6201537e-06 0.009568074 -0.027576277 -0.008413189
0003c0 1e 06 54 3d b2 93 6a bb d7 13 bc 3a 8d 9d b1 33
       0.051763646 -0.00357936 0.0014349174 8.270863e-08
0003d0 bc 82 6b 3b d0 bb 97 3d dd 22 29 bd 0a 84 71 3c
       0.0035936078 0.07408869 -0.041293014 0.014740953
0003e0 28 9a 53 b3 44 6a fe 3c 10 d0 31 bc cf 97 33 bd
       -4.926747e-08 0.03105653 -0.010852829 -0.043845948
0003f0 9e 68 c0 bb 25 57 20 3d 6f 82 89 3d 8c 2c 1d 3d
       -0.0058718463 0.039145608 0.06714331 0.03837256

bias f4 [128]
000000 a9 aa 40 bd ae d4 3a 3d cd ae 16 bd 08 b2 64 3c
       -0.047037754 0.045612983 -0.036787797 0.013958462
000010 95 f8 4c 3d 98 8c c3 bc 70 54 a1 bd 69 3b 83 3d
       0.050041754 -0.023870751 -0.07877433 0.06407816
000020 0b 01 cd 3c 1c 91 ad bd c3 7b 8a bd 16 b3 7b bd
       0.025024911 -0.08474943 -0.06761887 -0.061450087
000030 a7 9d b1 bc 47 8f 9b bd f4 7b ba bd 21 2d 05 bd
       -0.02168162 -0.07595687 -0.091056734 -0.03251374
000040 53 c8 53 bb c1 2e c5 bc e1 96 1b 3d dc 11 54 bd
       -0.0032315447 -0.024070146 0.037985686 -0.051774845
000050 c7 26 79 bd 6e 49 59 bd c4 b2 1e 3d f1 73 40 3d
       -0.060827997 -0.053048544 0.038744703 0.04698557
000060 6b 9d 8c bc 3c fb bd 3b a6 ab 88 3c f9 b5 44 bd
       -0.017164906 0.0057977717 0.01668341 -0.048025105
000070 8e e5 50 3d b9 6d 1e bd f5 c0 6a 3d 21 83 a5 3c
       0.05100017 -0.03867886 0.057312924 0.020204129
000080 7f 7a a8 3c ec d9 ec bb 10 b7 3c bd 96 f3 07 bb
       0.020566223 -0.0072281267 -0.04607302 -0.0020744554
000090 4c 39 e6 3c 25 7d 1a bc 4b e2 82 3c f5 aa 58 3d
       0.028103493 -0.009429251 0.015977046 0.052897412
0000a0 ca 91 98 bc 3d 9b ae bd bf 8c a7 bd 8b 11 dc bc
       -0.018624205 -0.08525703 -0.08181142 -0.026863834
0000b0 bc 6f bd bc 9d e4 85 bb 99 39 83 bd 21 12 29 3d
       -0.023124568 -0.0040860907 -0.0640747 0.041277055
0000c0 8e f1 4e 3c cb 0a 61 b9 49 da b6 ba ca 86 2e bd
       0.012630833 -0.00021461693 -0.0013950552 -0.042609014
0000d0 77 a4 5e bc 2e 96 50 3d 73 25 52 3d 8e 3a 4b bb
       -0.013589016 0.050924473 0.051305246 -0.0031010243
0000e0 80 dc 6a 3d 90 9e 81 bd c1 85 81 bd a0 0e fc bc
       0.05733919 -0.063290715 -0.0632434 -0.030768692
0000f0 fd bb 4f bd b8 5e 87 bd 62 60 e6 3c 5a 8f 56 bd
       -0.05071639 -0.06609863 0.02812213 -0.052382804
000100 8c 55 68 3d 58 4f 20 bc d0 e3 91 3d a3 4c 8e bc
       0.05672221 -0.009784542 0.0712353 -0.017370528
000110 18 21 8d bd 1f ec 58 3d 94 1e b6 39 4e 7b 7f bd
       -0.06891078 0.052959558 0.00034736528 -0.062373452
000120 36 b6 9d 3d a6 e3 69 3d 4b 20 85 bd 00 97 90 bd
       0.077007696 0.057101868 -0.065003 -0.07060051
000130 e0 c4 8c 3d 2e 3d 00 bd 9f 5c a3 3d c9 22 5a 3d
       0.068734884 -0.031308345 0.079766504 0.05325583
000140 97 44 f7 bc 44 10 56 bd 97 2e 53 3d 53 89 5d 3c
       -0.030184073 -0.052261606 0.051558103 0.01352151
000150 5c 6d 70 3d c9 74 46 bd b2 8b 9c bd 53 66 a9 bd
       0.058698043 -0.04845122 -0.07643832 -0.0827147
000160 a9 9d df 3c b8 92 a7 bd 48 d3 49 3d 03 34 6e 3c
       0.027296858 -0.08182281 0.04927376 0.014538768
000170 69 0e c7 3c 7d a7 ab bc 20 7a 87 bd 44 b9 a6 bb
       0.024298863 -0.020953888 -0.0661509 -0.0050880034
000180 ca 71 7f 3d f8 cc aa bc f1 6b ab bd 35 f7 99 bd
       0.062364377 -0.02084969 -0.083701976 -0.07517854
000190 d4 b8 80 3d 07 cd 94 bd 96 3d 82 3d 89 3e df bc
       0.06285253 -0.07265668 0.06359403 -0.027251499
0001a0 b6 79 0f bd c3 56 45 3d 15 a6 1d 3c 79 93 4c bd
       -0.035028182 0.048178446 0.009622117 -0.04994533
0001b0 d2 99 6f 3d 28 bd f3 bc bf d9 b5 3d af 72 93 3d
       0.058496304 -0.029753283 0.088794224 0.071996085
0001c0 ed 61 82 3d b7 cf 53 3d b8 20 54 bc 4c e2 4f 3d
       0.06366334 0.051711764 -0.012947254 0.050752923
0001d0 d3 3c 8c 3c 3d e1 2b bc 38 e4 8f 3a ee 2f 01 3d
       0.017118847 -0.010490713 0.0010978049 0.03153985
0001e0 32 02 38 3d 18 ab 9d 3d 39 b5 a2 bd 0e 57 c1 3b
       0.04492397 0.07698649 -0.07944722 0.0059002703
0001f0 27 86 41 3c 9b d5 61 bd be d3 b9 3d 7f d9 49 bd
       0.01181177 -0.05513535 0.0907359 -0.049279686

weight f4 [128, 128]
000000 50 d8 f8 3a 88 1f ec 3d 95 fa e8 bc b7 e2 02 bd
       0.0018985365 0.115294516 -0.0284398 -0.031954493
000010 0c 39 3b bc 49 54 a0 bd 5d 97 fd bb 78 e1 8c 3b
       -0.011427175 -0.07828576 -0.007738991 0.004299339
000020 bd a3 4e bd 28 69 f0 bc 76 ad c2 39 e9 c4 a5 bd
       -0.05044912 -0.029347017 0.00037131802 -0.08094198
000030 11 56 21 b8 c4 8c 7a 3c 77 ea 7c 3b bb 8f 5a 39
       -3.8465547e-05 0.01529235 0.00385919 0.00020843644
000040 1d 94 b3 bd 74 1e 3e bc 9f c3 ed bb c3 1e 35 b8
       -0.08768485 -0.01160394 -0.007255986 -4.3182412e-05
000050 8f d5 06 bc 93 58 ab 3a f6 1e b5 bc 4d df 1b 3d
       -0.008229627 0.0013072662 -0.02210949 0.038054753
000060 4f 05 55 3d 19 c2 9d 3d 85 32 c4 bc 16 b3 ef 3c
       0.052007016 0.07703037 -0.02394987 0.0292602
000070 ad 2f 7b 3d 03 5d 3b bc 2e 59 09 3b 62 08 de 3b
       0.061324764 -0.01143575 0.0020957696 0.0067759017
000080 d4 8d 80 bc 06 1b 0f bc 94 ec 5c b9 46 72 b3 bd
       -0.015692629 -0.00873447 -0.00021068967 -0.0876203
000090 3a dd 14 bd 5e ed 44 bc 17 d4 c2 bc f5 57 f7 38
       -0.03634379 -0.012019483 -0.023782773 0.00011794261
0000a0 e4 00 8b bc 41 15 cd 3c 1b c0 8f bc 82 4b 70 3c
       -0.016968198 0.025034549 -0.017547658 0.01466644
0000b0 38 40 a1 ba 18 70 33 3c d2 db 9e bd c7 c6 28 bd
       -0.0012302464 0.010952018 -0.07756771 -0.041205194
0000c0 2d 84 79 38 84 bd 24 bb 78 0c a7 bb 30 b1 64 3c
       5.9489324e-05 -0.0025137374 -0.005097922 0.01395826
0000d0 21 4d 00 39 b7 ed 9e bb 31 ab db 3d 39 d6 94 ba
       0.00012235764 -0.004850115 0.107260115 -0.0011355347
0000e0 ed bf 0b bd 0c 7a cb 3c 4b c2 61 39 97 81 aa 3d
       -0.03411858 0.02483847 0.00021530052 0.083254986
0000f0 01 aa 9e 3c ad df 19 3b 47 f2 f1 3b 90 74 0e 3d
       0.019368174 0.0023479268 0.007383618 0.03477913
000100 97 bc 7e 3c ed b3 b6 bd 3a ca ab 3a 28 17 59 bd
       0.015547893 -0.08921037 0.0013106533 -0.0530006
000110 a8 a5 26 3c b7 1e 0f 3d 9f 29 0a 3c b0 02 e9 bc
       0.010171331 0.0349414 0.008432775 -0.028443664
000120 33 59 69 3a 46 02 be 3c 59 cf 4d bc 74 f2 9a b9
       0.00089015363 0.023194443 -0.012561643 -0.0002955381
000130 f0 fc e6 bd 62 90 5d bc db be 21 38 6d f3 81 bb
       -0.11278713 -0.013523193 3.856314e-05 -0.003965786
000140 fa b4 ea 3c d5 14 37 bc 6a 86 27 3d 63 4a 3b bc
       0.02865075 -0.0111744 0.04089967 -0.011431309
000150 82 11 2d 3d c0 67 af bc a6 c2 61 3d 31 6f 30 bc
       0.042253025 -0.021411777 0.05511727 -0.010768698
000160 d9 4e 8f 3c 30 96 63 3d 1a d5 10 bd a8 9e 23 3d
       0.017493652 0.05556315 -0.03535948 0.03994623
000170 56 8a 65 3c a1 40 af bc 46 f6 8b 3c 46 a9 04 bd
       0.014010033 -0.021393122 0.017085206 -0.032387994
000180 01 fb bc b9 c6 ef 52 bb a2 6f 6b 3d 82 f6 c0 3c
       -0.00036045167 -0.0032186373 0.05747951 0.023555044
000190 e5 f2 13 bc 8b ad 93 bd 8e 07 f6 bc f2 41 d3 bc
       -0.009030079 -0.07210835 -0.0300329 -0.025788281
0001a0 0e 17 57 bb 98 66 0c bc ba ff fa 3c 47 9c 2a 3c
       -0.0032820138 -0.008569382 0.030639518 0.010413236
0001b0 bc af 71 bc 42 f9 8a 3c 3a bd b2 bd b9 39 a6 bc
       -0.014751371 0.016964559 -0.08727498 -0.020291196
0001c0 90 08 41 bd 25 ab cd 3b 42 2f e5 3c b0 35 b9 bc
       -0.047127306 0.0062765055 0.027976636 -0.022608608
0001d0 62 5e 27 3d 0c 68 31 bd 62 97 f0 bc a3 93 20 bc
       0.040861495 -0.043312117 -0.02936906 -0.009800824
0001e0 66 4b 13 bc e4 06 08 bd ad 64 5a 3d 3c ab 71 3c
       -0.008990144 -0.033209696 0.05331867 0.014750298
0001f0 16 8f 62 3d 2c ce 85 bc a4 94 9a 3d 86 d3 84 3d
       0.05531224 -0.016333662 0.07547882 0.064856574
000200 9b fb 1e bd 5d 1f de 36 a5 b7 cc bc 77 bb 08 3c
       -0.03881417 6.6197667e-06 -0.024989912 0.008345476
000210 b5 a8 97 3b 4e a0 84 bc f6 f1 9f 3c 03 6a 8b 3a
       0.0046282657 -0.01618972 0.019524556 0.0010636452
000220 55 24 ab 3b e2 eb a5 bc 2a 69 d7 bc 2f cb 77 bd
       0.005222837 -0.02025408 -0.026295263 -0.060496505
000230 cb 13 1f bd 97 ed 92 bc a6 68 f1 bd f2 4f c4 bb
       -0.038837235 -0.017935557 -0.11787538 -0.0059909755
000240 c4 0d 8e 3c 3f 04 77 bd 06 29 14 bd 38 83 f2 bc
       0.017340548 -0.060306784 -0.036171935 -0.029603586
000250 2e 95 09 3d 82 8e 97 bb 63 25 db bc 68 54 04 3c
       0.033589534 -0.0046251426 -0.026751226 0.008076765
000260 84 ae 11 bb eb c1 a9 3b 63 b8 c3 ba 03 38 65 3c
       -0.0022229264 0.0051805875 -0.0014932271 0.013990405
000270 d6 8d ed bc a5 2d 8b 3d 1b 08 4e ba 67 fb 75 bd
       -0.028998297 0.067958154 -0.0007859484 -0.06005421
000280 35 d8 ac 3d 22 57 55 3d 84 3d a9 bd fb 4d 0b b4
       0.08439676 0.05208505 -0.08263686 -1.2973753e-07
000290 f3 f8 ef bc 7f 81 03 3c 82 fa 9b 3b de f6 21 3d
       -0.029293513 0.00802648 0.0047600875 0.03954207
0002a0 8c b7 92 3c 9e 33 60 bc 50 04 84 3b 12 27 40 3d
       0.017909788 -0.0136841815 0.0040288344 0.04691226
0002b0 aa fc 3a 3c a4 f6 15 3d 4f 9f b4 bc 97 42 a6 bc
       0.011412779 0.036612168 -0.02204862 -0.020295424
0002c0 c6 2a 3f 3c 8e aa a4 3b 30 f9 22 3d 0c fa bf bc
       0.011667913 0.0050252145 0.039788425 -0.023434661
0002d0 28 9a 26 bc 7f 41 9e bd 85 0e f2 3c f4 2a 1d bd
       -0.01016859 -0.07727336 0.02954794 -0.03837104
0002e0 85 3e 42 3d 5f 5e 25 bd b9 c2 39 3d 23 28 85 ba
       0.047422905 -0.040373202 0.045351718 -0.0010159056
0002f0 49 f2 9b bc e3 15 50 bb 3c 68 26 3d 18 2e 63 bc
       -0.019036429 -0.0031751327 0.04062675 -0.01386597
000300 e0 b2 11 bd ed 3c 3e bc c4 f9 6c bc f0 8e 45 b9
       -0.03557098 -0.0116112055 -0.014463846 -0.00018840632
000310 a0 7e c0 3c 56 de 56 3c c3 b7 aa 3c 15 6b 16 3c
       0.02349788 0.013114532 0.020839578 0.009180804
000320 4c 08 50 3d 0a d5 72 bc 0e 54 1e 3d 0e b0 9d 3b
       0.050789163 -0.0148213 0.03865438 0.004812247
000330 30 b2 b8 3d ce 8f 2b 3c 4f 07 ca 3c 0a 9a df 3c
       0.090183616 0.010471297 0.024661688 0.027295131
000340 46 16 13 3d 18 8e fe 38 22 1e bd 3d 50 05 ea bc
       0.035909913 0.00012138131 0.09234263 -0.028566986
000350 d5 64 25 3b 17 79 15 3d ad d9 a9 bb 24 5c 80 3b
       0.0025237103 0.036492433 -0.0051834197 0.003917234
000360 f3 15 a5 3b 5f 3f 2d bd 68 14 87 35 be 1a 90 3b
       0.005038017 -0.042296764 1.0064223e-06 0.004397719
000370 51 d7 44 bd 15 e4 d0 3c 1b 69 06 bd c5 50 26 3d
       -0.048056904 0.025499383 -0.03281508 0.04060437
000380 12 c3 4f bb fd cc 98 3c 82 e5 4a bd 5f d0 45 bd
       -0.0031701964 0.018652434 -0.049535282 -0.04829442
000390 c9 70 4b 3b 49 38 0d bd 80 ca b9 3b f0 58 0e 3b
       0.0031042567 -0.034477506 0.005669892 0.0021720491
0003a0 d2 fb 24 3d d8 c8 33 3d 6e 48 14 3d 9a 92 84 3d
       0.040279217 0.04389271 0.036201887 0.064732745
0003b0 b5 58 75 3c 49 b3 93 3d 23 da 88 3c 59 6d 4b 3c
       0.014974763 0.0721193 0.016705578 0.012416207
0003c0 bf d3 ff bc ff 9c 0f bb 8b 76 f0 3c a1 58 55 bd
       -0.031228898 -0.0021913645 0.0293534 -0.052086476
0003d0 ca 23 6f bd fa ae 2a 3d b9 cf b9 b7 4d d7 eb 3b
       -0.05838374 0.041670777 -2.2150447e-05 0.0071972967
0003e0 82 49 11 bd b4 be 91 bd c3 3f e2 bc a8 58 2c bc
       -0.035470493 -0.07116452 -0.027618295 -0.010519184
0003f0 9f a8 1d bd c7 58 77 3c a1 9e 19 3c eb 59 be bc
       -0.038490888 0.01509685 0.009376199 -0.023236236

bias f4 [128]
000000 42 1c 83 3d 77 12 36 3d 4e 07 4c bb 21 8c 17 bd
       0.06401874 0.044451203 -0.0031132284 -0.03699887
000010 0a e8 b5 bd 12 e0 6f 3d 8c ee 43 bd a9 29 3e 3c
       -0.088821486 0.0585633 -0.047834918 0.011606612
000020 d3 3b b2 ba 80 2f 5d 3d 7d 5d a9 3d de 30 0d bc
       -0.0013598151 0.054000378 0.082697846 -0.008617608
000030 27 fb 10 3d a8 33 8a 3d 1a 4e 21 bc f1 db 3c bc
       0.035395768 0.06748134 -0.009845281 -0.0115270475
000040 49 7f 02 3d ce ff 8b bd d3 bb b8 bc 4e 8a a1 3d
       0.03185967 -0.068359 -0.022550499 0.07887708
000050 24 45 af 3d e5 f8 17 bd 4a 2f 30 bd 7c b6 90 bc
       0.085581094 -0.0371026 -0.04301385 -0.01766514
000060 51 d8 59 bb a1 34 c6 3b b1 b2 72 bd 40 b2 36 bc
       -0.0033240507 0.0060487543 -0.059252445 -0.011150897
000070 04 47 85 bc 27 f1 ae bc 1b e4 26 3d fd 30 79 3d
       -0.016269214 -0.021355225 0.040744882 0.060837734
000080 dc d0 3f bc 4f de 5e 3d 5d 1c 5a 3d e7 19 7a 3d
       -0.011707511 0.05441123 0.053249706 0.06105986
000090 2b 1b ea bc 7c 71 29 3d 24 e9 73 3c 25 4e 91 bd
       -0.028577408 0.041367993 0.014887128 -0.07094983
0000a0 36 8d 2c 3c 08 12 5d 3c 77 a1 3f 3c fe 22 45 bc
       0.010531714 0.0134930685 0.011696211 -0.012032269
0000b0 1e ec 0a bd 7a c1 c5 bc 7b f6 2e 3d 21 a5 fb bc
       -0.033916585 -0.024140108 0.04271553 -0.030718388
0000c0 64 cd 18 3d 0f 18 9f 3d b8 02 d1 bc 22 eb 70 3b
       0.03730525 0.07768261 -0.025513992 0.0036761244
0000d0 7c 45 6f bd d5 e6 ce 3c fd c0 a9 bd 28 59 78 3c
       -0.058415875 0.025256554 -0.08288763 0.015157975
0000e0 b8 f5 4f 3d 78 aa 8c bd d8 cf b7 3c 08 c4 aa 3d
       0.050771445 -0.06868452 0.022437975 0.08338171
0000f0 00 5f 0c bd 4d 46 1d bd 1b 61 82 3d 3b 95 8f 3d
       -0.034270287 -0.038397122 0.06366178 0.07010885
000100 f0 04 86 bb 08 46 37 3d 63 b4 f9 bb 9d 6f ce bc
       -0.004089944 0.04474452 -0.0076203807 -0.025199706
000110 35 8b 8e 3d 17 77 b6 bc e5 6d 1f bd 63 25 80 bb
       0.069601454 -0.022273583 -0.038923163 -0.003910707
000120 9b 1a 45 bd 19 44 6f bc 7f 92 ee 3c cc a3 a1 3d
       -0.048121076 -0.014603638 0.02912259 0.0789257
000130 cb 12 72 bd 66 45 a5 3c 59 6f 94 bc 01 31 af bd
       -0.059099954 0.020174693 -0.018119501 -0.08554269
000140 b4 01 f0 bc 0f dc 03 3d 19 df ca bc aa 78 a6 3c
       -0.029297687 0.032192286 -0.024764584 0.020321209
000150 a8 b9 8b bd 91 75 af 3d bf c0 d1 bc 80 fe 4b 3c
       -0.068225205 0.08567346 -0.025604604 0.012450814
000160 1a 45 ad bc 89 0a cd 3c dd 64 99 bc 7d c1 78 bd
       -0.021151114 0.025029438 -0.018724853 -0.0607314
000170 cf d3 8b 3b 95 67 fe 3c 91 04 de bb 5f f9 5a 3d
       0.004267193 0.031055251 -0.0067754467 0.053460475
000180 eb 82 2a bd 6f 6a 14 bd 2e 8f 76 3d 34 ca dc 3c
       -0.04162876 -0.036234315 0.06019514 0.026951887
000190 37 81 32 bd 94 40 5a 3d 35 5d 5b bd 92 6d cf 3b
       -0.04358026 0.053284243 -0.053555686 0.0063302005
0001a0 c6 6b b6 bb 83 af 76 3d cd b5 bf bc c3 33 b2 3c
       -0.005567047 0.060225975 -0.023402119 0.021753198
0001b0 76 8c 80 bc 75 cf 36 bc b9 af ab bd 4f 60 7f bd
       -0.015691977 -0.01115786 -0.08383126 -0.062347706
0001c0 dd ca 97 3c 04 f6 b9 bd 86 08 a4 3c 1d 2c 49 3c
       0.01852935 -0.09080127 0.020023596 0.012278584
0001d0 6e a6 1d 3d 49 1f 2d 3d a0 6c 8c 3d ea ab e3 bb
       0.038488798 0.042266164 0.06856656 -0.006947984
0001e0 0a b0 c0 bc 40 8b 0e 3d f6 f1 28 3d e1 d7 37 bc
       -0.023521442 0.034800768 0.041246377 -0.011220903
0001f0 d1 79 28 bc b2 20 d5 3b 19 a9 d9 bc af a0 87 bd
       -0.01028295 0.0065041417 -0.02656989 -0.06622445
