pubmed_train/train/pretrained_han/decoder_s.pth (torch, 324640 bytes, 4 tensors)

weight f4 [200, 200]
0.0756759 -8.8656045e-05 0.0150462715 0.0715557 -0.026789512 0.0043442347 0.08548205 -0.008100319
0.019968385 0.017283177 -0.00016286492 -3.496039e-07 -0.03197176 -1.6000065e-05 0.02624666 0.029175743
-0.07420691 -0.016278684 -0.019931376 -0.009822111 1.7567683e-05 -0.051031556 0.005702697 -0.0014239864
0.053293306 -0.009795848 0.03025787 0.0059215548 -0.0066428618 0.0152957225 0.0047345217 -0.0056548337
-0.057469793 -0.018822808 0.054477293 0.008621131 -0.00047783452 -0.006156942 -0.022447053 0.033634372
0.017202597 -0.04798013 -0.039783046 -0.0022782334 -0.00037812255 -0.015123891 -0.013343012 0.0041533806
-0.011383793 0.044037692 -0.0055095525 0.012354219 -0.039959483 -0.004416501 -0.0028465944 -0.051502135
-0.0074379984 -0.045399904 0.053483777 0.0104303295 6.364935e-05 -3.909907e-05 0.022432923 -0.025629908
0.003555864 0.07356871 0.06211709 -0.0074720616 0.02509307 -0.024902241 0.05446145 -0.037174456
-0.004332391 0.01781278 -0.040277258 0.031936478 0.0032790257 0.0067645917 0.00012361979 -4.2234093e-05
-0.061878994 -0.020492323 -0.030605953 0.0068030683 -0.011991587 0.061303843 -0.00045223345 -0.016844187
0.026371567 0.080168895 0.033947006 0.053272605 -0.004381409 0.020320099 -0.0055729095 -7.251328e-05
-0.04554837 -0.0993796 0.023846485 0.00023441832 -0.03262969 0.0051520686 -0.04000736 0.062268525
-0.00075361994 0.04542477 -0.026776379 0.0093432125 0.019842805 0.015296043 -0.008204335 -0.04805961
-0.012436626 -0.00059465854 -0.011212179 -0.019353937 0.025235528 -0.05612783 -0.018108472 0.06699105
0.0018101203 0.00015271426 -0.007980727 -0.007926843 -1.5428135e-05 -0.00239056 -0.0001538166 -0.059059463
0.011466991 -0.0301034 -0.016864501 0.01941698 0.012585015 0.0024568522 -0.039854337 0.05249069
0.051170997 -5.3432825e-05 -0.036991544 0.044658527 0.00096690503 0.0058325045 -0.00016594022 -1.3949353e-05
-4.82812e-06 -0.0195683 0.033464428 -0.002716605 -0.0053708563 -0.055345844 -0.004796367 0.0068940045
0.0025289694 -0.020287445 -0.0106464075 -0.018794632 0.01702812 -0.03319704 0.008245771 0.055363078
-0.030112255 -6.7717156e-05 0.0066968575 -0.044376917 -0.049474023 -0.13540827 -0.07559864 0.008784352
-0.004493939 0.042175088 0.033535916 -0.0032217456 -0.0043635247 -0.00013537484 -0.05177998 -0.08768716
0.0045113484 0.026221063 -0.038312934 -0.005148385 0.032856345 -0.02879866 0.06378996 0.054483432
0.00635327 0.012774869 -0.0014948105 0.058670428 -0.002820519 0.07071089 0.015728947 -0.0040496397
-0.0014627002 -0.00012510263 0.065463 0.033450924 -0.055271063 0.015325042 -0.06600106 0.06596532
-0.0659863 -6.56369e-05 0.005742506 -0.005300018 0.06823078 -0.05470495 0.03601735 -0.0023278876
0.00856979 -3.4798995e-05 -0.018421201 -6.576213e-05 0.0037313546 -0.020428995 -0.0011997352 0.00048201546
0.0045497417 -0.00017936861 5.81831e-09 0.040691696 -8.7744587e-07 -0.0013733391 -0.015157043 0.00020462296
0.05750789 -0.00049462775 -0.0014833992 -0.0054021506 -0.01168507 -0.03568342 -1.196835e-06 0.029127333
-0.08515186 -0.019609818 0.1554603 -1.577314e-06 -0.0066769654 -0.05842202 -0.011278027 -0.003441139
-1.46924585e-05 -0.0051730643 -0.0034450989 -0.050078373 0.032967985 -3.148933e-06 0.00017299892 -0.021740269
-0.02456152 0.0048108255 0.027723156 0.004444898 -0.03811258 -0.017461833 -0.0012572818 -0.032995816
00000000: f7fb 9a3d daec b9b8 a384 763c cb8b 923d
00000010: ae75 dbbc 155a 8e3b 3711 af3d 33b7 04bc
00000020: bd94 a33c 7395 8d3c b8c6 2ab9 32b1 bbb4
00000030: d2f4 02bd e137 86b7 3c03 d73c f801 ef3c
00000040: cbf9 97bd e05a 85bc 2047 a3bc ebec 20bc
00000050: 505e 9337 7706 51bd b1dd ba3b 0ea5 baba
00000060: 154a 5a3d c47e 20bc 5adf f73c 9a09 c23b
00000070: 5dac d9bb e99a 7a3c 0c24 9b3b 2f4c b9bb
00000080: 7265 6bbd 4a32 9abc 9523 5f3d a53f 0d3c
00000090: dd85 fab9 2cc0 c9bb e2e2 b7bc 32c4 093d
000000a0: 76ec 8c3c d086 44bd 8cf3 22bd 6a4e 15bb
000000b0: c03e c6b9 32ca 77bc a69c 5abc 1519 883b
000000c0: 1783 3abc de60 343d 7a89 b4bb 5a69 4a3c
000000d0: 8eac 23bd 4cb8 90bb ee8d 3abb e7f3 52bd
000000e0: 74ba f3bb 40f5 39bd ce11 5b3d f9e3 2a3c
000000f0: 7c7b 8538 4ffe 23b8 40c5 b73c d0f5 d1bc
00000100: 8009 693b 31ab 963d 7d6e 7e3d 32d8 f4bb
00000110: fb8f cd3c c9ff cbbc f812 5f3d 3e44 18bd
00000120: bbf6 8dbb 1bec 913c c4f9 24bd d3cf 023d
00000130: ece4 563b 82a9 dd3b ef9f 0139 8324 31b8
00000140: d474 7dbd 84df a7bc 56b9 fabc 46ec de3b
00000150: 5c78 44bc bd19 7b3d bf19 edb9 d2fc 89bc
00000160: 2f09 d83c 972f a43d 040c 0b3d 6034 5a3d
00000170: ec91 8fbb 5676 a63c f49c b6bb 4512 98b8
00000180: ed90 3abd 8887 cbbd b459 c33c 30ce 7539
00000190: b6a6 05bd afd2 a83b c2de 23bd 480d 7f3d
000001a0: 948e 45ba 530f 3a3d 235a dbbc 4614 193c
000001b0: 618d a23c 419c 7a3c 7a6b 06bc 27da 44bd
000001c0: fdc2 4bbc dce2 1bba 4ab3 37bc 268c 9ebc
000001d0: bdba ce3c 4ce6 65bd 3858 94bc 9b32 893d
000001e0: 8f41 ed3a ec21 2039 98c1 02bc 97df 01bc
000001f0: ab6b 81b7 f1aa 1cbb d449 21b9 56e8 71bd
00000200: 0ce0 3b3c 689b f6bc 6c27 8abc 5c10 9f3c
00000210: 6131 4e3c 2403 213b 4d3e 23bd 7a00 573d
00000220: ae98 513d 0f1d 60b8 7284 17bd dceb 363d
00000230: e677 7d3a 981e bf3b 3d00 2eb9 0408 6ab7
00000240: 3c01 a2b6 b34d a0bc ff11 093d 1209 32bb
00000250: 02fe afbb 53b2 62bd d82a 9dbb 1ae7 e13b
00000260: 11bd 253b db31 a6bc 456e 2ebc 33f7 99bc
00000270: 8e7e 8b3c 9ff9 07bd 4519 073c 65c4 623d
00000280: faad f6bc 5f03 8eb8 5071 db3b 92c4 35bd
00000290: 46a5 4abd 77a8 0abe 76d3 9abd 3eec 0f3c
000002a0: e541 93bb c9bf 2c3d f55c 093d ec23 53bb
000002b0: e6fb 8ebb 68f3 0db9 3f17 54bd 5395 b3bd
000002c0: efd3 933b 8ecd d63c 06ee 1cbd c9b3 a8bb
000002d0: 6094 063d 2beb ebbc 50a4 823d 052a 5f3d
000002e0: 172f d03b af4d 513c 84ed c3ba 6750 703d
000002f0: 75d8 38bb dfd0 903d fed9 803c d7b2 84bb
00000300: 13b8 bfba fb2d 03b9 7711 863d d603 093d
00000310: e963 62bd e315 7b3c 902b 87bd d318 873d
00000320: d323 87bd 8ba6 89b8 a22b bc3b c6ab adbb
00000330: 94bc 8b3d 4c12 60bd ee86 133d 798f 18bb
00000340: 4e68 0c3c 23f5 11b8 0fe8 96bc c6e9 89b8
00000350: be89 743b b55a a7bc 6f40 9dba 05b7 fc39
00000360: 0016 953b e514 3cb9 65ea c731 56ac 263d
00000370: 9f89 6bb5 9d01 b4ba 3f55 78bc 0f90 5639
00000380: 658d 6b3d e8a9 01ba 9e6e c2ba 8604 b1bb
00000390: bc72 3fbc c728 12bd f0a2 a0b5 729c ee3c
000003a0: 1964 aebd c5a4 a0bc fc30 1f3e 19b4 d3b5
000003b0: 72ca dabb ee4b 6fbd 79c7 38bc bb84 61bb
000003c0: a17f 76b7 cf82 a9bb 2bc7 61bb fb1e 4dbd
000003d0: 7009 073d 4252 53b6 0b67 3539 a618 b2bc
000003e0: 3e35 c9bc 21a4 9d3b ac1b e33c 82a6 913b
000003f0: f01b 1cbd 1e0c 8fbc 60cb a4ba 9f26 07bd

bias f4 [200]
-0.06952359 -0.015190702 -0.06880086 0.042122677 -0.045396335 -0.022297554 -0.05047236 0.047817994
-0.04678656 0.05866063 0.02576001 -0.026842779 0.03570416 -0.003285464 0.035485633 0.028866695
0.031842135 -0.017416624 0.063006155 0.06437993 -0.0035276257 0.053640008 -0.0029838018 0.027742663
-0.081225134 -0.02968811 0.022421353 0.043031733 0.015476167 -0.066622086 0.06283072 0.030290948
0.018814864 -0.0050354768 0.006516262 0.064419635 -0.0022499212 0.04083849 -0.046615697 -0.054237895
0.05338208 -0.052127685 0.0737469 -0.0022752376 0.042348556 0.0561162 -0.038764395 -0.04950597
-0.074208766 -0.0001689207 -0.0035027997 -0.04273738 -0.0387946 0.05154682 -0.049356245 0.02578578
0.0071037197 0.021576576 0.050739553 0.049055148 0.053774733 -0.002950078 -0.054866433 0.08484992
-0.056674622 -0.08340465 0.0005648027 -0.0018026042 0.052881807 0.04969164 -0.00042404345 -0.07488432
0.057712346 0.032038007 0.06779909 0.07335235 0.009999045 0.018269366 0.0563644 0.028460855
0.048587434 -0.01849698 -0.049518898 0.02002286 -0.015705671 -0.048826087 -0.04510979 0.045575716
-0.031660724 0.07890584 0.04829227 0.055266235 -0.025942402 0.0033483088 -0.050441053 -0.07722494
-0.006168023 0.07068646 -0.02580431 0.00054583204 -0.0051100464 -0.011917427 -0.075448856 -0.043782376
-0.042896517 0.020127214 0.038493365 0.046005767 0.031255 0.020728873 0.006260976 0.01794886
0.046761673 0.045237858 0.03512593 -0.0010542935 0.0034532964 -0.013155876 0.06548024 0.015993685
-0.016141841 -0.012109624 -0.020736542 0.029408326 -0.05162293 0.06408051 0.033268068 0.03384925
-0.035349667 0.012856383 -0.064295806 0.054649457 -0.061842714 -0.010569985 0.077290244 -0.008282676
-0.010841934 -0.027621124 -0.012003008 0.049519885 0.03947199 0.031538967 -0.040180642 0.029378293
0.007235353 -0.011527885 -0.0033771507 -0.07082654 -0.07323237 -0.003161723 -0.048734494 -0.038903
0.03628547 -0.020498311 -0.00447105 -0.08284469 0.027801033 0.00023652887 0.03450311 -0.0004057712
-0.05545806 0.037507776 -0.031804588 -0.04326204 -0.06660407 -0.0030594459 0.028809091 0.014374621
-0.019829541 0.0609276 0.03185581 0.06082396 0.07065907 -0.045374382 0.055620596 0.040879358
0.020810675 0.06519834 0.055362336 0.019569043 -0.051518552 -0.016687876 0.040921073 -0.0021759768
0.025752062 0.008209203 0.03609201 0.055052202 -0.041318648 0.03196212 0.007948892 -0.014292406
0.056274284 -0.037210908 0.021547433 -0.058151513 -0.030763414 0.0027632208 0.025894754 -0.0058404435
00000000: 6262 8ebd 6ce2 78bc 77e7 8cbd d488 2c3d
00000010: 82f1 39bd 5ca9 b6bc 1bbc 4ebd cddc 433d
00000020: 44a3 3fbd 2146 703d a806 d33c 63e5 dbbc
00000030: 863e 123d f050 57bb 6259 113d d979 ec3c
00000040: e66c 023d 4fad 8ebc 5f09 813d a0d9 833d
00000050: bd2f 67bb a0b5 5b3d e38b 43bb 9544 e33c
00000060: 5d59 a6bd 7b34 f3bc fcac b73c 0b42 303d
00000070: c08f 7d3c 2971 88bd 64ad 803d b924 f83c
00000080: a121 9a3c a400 a5bb 5e86 d53b 71ee 833d
00000090: 6a73 13bb 4346 273d 1af0 3ebd 8e28 5ebd
000000a0: 2ba7 5a3d d783 55bd 9d08 973d 271c 15bb
000000b0: ae75 2d3d 1ada 653d 6ac7 1ebd c6c6 4abd
000000c0: c4fa 97bd 4e20 31b9 3a8f 65bb 640d 2fbd
000000d0: 16e7 1ebd c222 533d c629 4abd b33c d33c
000000e0: 52c6 e83b 5cc1 b03c 47d4 4f3d 0dee 483d
000000f0: e542 5c3d 1956 41bb a0bb 60bd cbc5 ad3d
00000100: a623 68bd 0fd0 aabd 450f 143a 5c45 ecba
00000110: 989a 583d 7689 4b3d 2652 deb9 f35c 99bd
00000120: c863 6c3d 493a 033d 40da 8a3d c239 963d
00000130: 09d3 233c a3a9 953c 5bde 663d bd26 e93c
00000140: 9e03 473d fb86 97bc 54d4 4abd fb06 a43c
00000150: 2ea9 80bc ddfd 47bd 0bc5 38bd 9aad 3a3d
00000160: adae 01bd 6399 a13d 1ece 453d d95e 623d
00000170: 2985 d4bc 4d6f 5b3b 479b 4ebd 1c28 9ebd
00000180: 211d cabb 10c4 903d 8f63 d3bc 2b16 0f3a
00000190: 2d72 a7bb 5041 43bc ee84 9abd 2655 33bd
000001a0: 42b4 2fbd d4e1 a43c 38ab 1d3d 8b70 3c3d
000001b0: 3e05 003d 99cf a93c e028 cd3b 7d09 933c
000001c0: 2b89 3f3d 554b 393d 35e0 0f3d 3830 8aba
000001d0: b350 623b be8b 57bc 811a 863d 3005 833c
000001e0: e53b 84bc 7267 46bc aedf a9bc bbe9 f03c
000001f0: 9172 53bd a43c 833d 1944 083d 83a5 0a3d
00000200: d0ca 10bd 94a3 523c 85ad 83bd 1cd8 5f3d
00000210: c94e 7dbd bb2d 2dbc 594a 9e3d 10b4 07bc
00000220: 5ea2 31bc b245 e2bc 44a8 44bc 5dd5 4a3d
00000230: 62ad 213d 012f 013d 7594 24bd bfaa f03c
00000240: 8a16 ed3b 74df 3cbc 3053 5dbb 810d 91bd
00000250: dafa 95bd e934 4fbb d29d 47bd c158 1fbd
00000260: 13a0 143d 13ec a7bc e381 92bb 7aaa a9bd
00000270: febe e33c bc04 7839 2253 0d3d b0bd d4b9
00000280: fe27 63bd c1a1 193d 8745 02bd 8933 31bd
00000290: b767 88bd fc80 48bb 0b01 ec3c 8883 6b3c
000002a0: 9071 a2bc 388f 793d 3d7b 023d 8b22 793d
000002b0: b4b5 903d 7dda 39bd 6cd2 633d 1d71 273d
000002c0: 267b aa3c b586 853d 9ec3 623d 424f a03c
000002d0: 1e05 53bd 03b5 88bc db9c 273d d59a 0ebb
000002e0: fdf5 d23c e57f 063c 37d5 133d 6b7e 613d
000002f0: be3d 29bd b6ea 023d 123c 023c b22a 6abc
00000300: dd7f 663d 776a 18bd 3e84 b03c 4830 6ebd
00000310: 8e03 fcbc 2717 353b 3c21 d43c 3161 bfbb

weight f4 [200, 200]
-0.0003695727 0.009640224 0.021612547 0.038149208 0.0032828883 -0.027953098 -0.019376064 0.0018163833
-0.012440196 -0.018282887 -0.06324479 -0.0071644518 0.032970328 0.0033961763 -0.07954618 0.002038192
-0.008611082 -0.022412384 -0.0011741614 0.011412082 -0.013225112 -0.008757173 0.016284693 0.0023890878
0.036309864 0.07853921 -0.009008761 -0.002491929 -0.040307816 -0.0015205678 0.029582892 -0.03457103
-0.0027515972 -0.012342711 -0.017045027 0.020511474 -8.256132e-08 -0.03670078 -0.012739774 0.04597905
-0.011449367 -0.0037179505 -0.0003345909 0.022461258 -9.36381e-05 -4.0796585e-05 -0.06314352 -0.02412998
-0.012574732 0.0038418476 -0.009553336 0.023707343 0.019212862 0.0039665047 -0.02056119 -0.09189537
-0.00015097299 0.04038484 -0.009577704 0.06589489 -6.272115e-05 0.032970574 -0.06458634 -0.069638684
-0.035971306 0.023964379 0.03817473 -0.02079042 -0.11291922 0.008454285 -0.0035893158 -0.08712853
-0.019791937 -0.0020997082 0.03751736 -0.047207605 -0.026219504 0.0026401714 0.035652857 0.030048756
-0.03158171 0.10080003 0.0007375537 -0.028559199 -0.017764717 -0.0023254836 0.02740416 -0.056741867
0.010856567 -0.003600103 -0.016393278 5.4534735e-07 -0.008678906 0.0014524475 -3.202041e-05 -0.028501298
-0.008715781 0.016351908 -0.006559027 0.021465257 0.051116686 -0.00014664275 0.0036362011 -0.0118109025
-0.0034597884 2.1070537e-07 -0.013009476 -0.009154978 -0.0002593658 -0.011416022 0.02782933 -0.052790735
-0.018274307 -0.0006252136 -6.8978225e-05 0.028093966 -0.011495578 0.008436153 -0.07191967 -0.015089206
0.040826302 0.03930544 -0.007596131 0.06780092 0.050953906 -0.08299951 0.046841882 0.07948862
-0.026380729 0.04826522 0.109388195 -0.0023598487 -0.031596396 0.018779404 -0.00014687865 -0.03381749
-0.024189387 -0.0041366103 -0.106593564 0.038061053 0.019668123 -0.03154381 -0.03154492 0.043670252
-0.05531896 0.022381896 -9.658987e-05 -0.035385836 -0.00046256089 0.009075454 0.007926849 0.03138634
-0.04009553 -0.0072520147 -0.005932457 0.029007724 0.071025975 0.010700196 0.041641638 -2.9347873e-05
-0.005853864 -0.00032213528 -0.039601494 -0.07613059 -0.0003661701 -0.08186048 -0.01124831 -0.007864751
-0.027739532 3.56684e-06 0.0013422257 0.0009535605 0.008158927 0.054584816 0.04377989 -0.059003096
0.02081507 -0.04338536 0.0497789 0.000503123 -0.013671464 -0.011866174 -0.052286126 0.060533028
-0.009866094 0.045763798 -0.017300334 -0.000959347 -0.06414302 -1.1133112e-05 1.9454605e-05 0.0008967995
0.00010145996 -0.006806043 -0.023707276 -2.4320942e-05 -0.06565466 -0.018375296 -0.034143098 0.07091124
0.0012936511 0.028475842 0.042647157 -0.023769815 0.0078105195 -0.0047612805 0.029137326 -0.016078113
-0.0015632024 -0.05304218 0.06453541 0.031291652 -0.016200542 -0.10009281 -0.025674976 -0.00086504663
-0.019159691 -0.0772839 0.0013071668 -0.047716267 0.000299088 0.008017411 0.03321376 0.12249899
-0.0016902812 0.004001904 0.02497635 -0.030284967 0.014014095 0.0074864672 -0.022779342 0.04465314
-0.013098019 -0.019890144 0.015249898 -0.00030580038 0.00011530625 0.011287678 -0.0289811 0.05418953
-0.045732725 0.048360627 0.00686189 0.0060249767 0.02272193 -1.2438071e-05 -0.0077229193 2.5840094e-05
-0.0007058069 -0.003150526 -0.0076563107 -0.0025985464 -0.0004894889 -0.044290923 -0.06465999 -3.2296262e-05
00000000: 35c3 c1b9 08f2 1d3c cc0c b13c 5842 1c3d
00000010: ba25 573b e5fd e4bc 8dba 9ebc b613 ee3a
00000020: f7d1 4bbc fec5 95bc 7c86 81bd c7c3 eabb
00000030: e50b 073d 6292 5e3b 1ce9 a2bd 3093 053b
00000040: 7f15 0dbc 2d9a b7bc 52e6 99ba bef9 3a3c
00000050: 24ae 58bc 3f7a 0fbc 7a67 853c 3e92 1c3b
00000060: a7b9 143d 2ad9 a03d 7b99 13bc a24f 23bb
00000070: cf19 25bd ca4d c7ba d257 f23c 5a9a 0dbd
00000080: 2454 34bb 1539 4abc 03a2 8bbc ae07 a83c
00000090: 914c b1b3 8f53 16bd 7cba 50bc 8754 3c3d
000000a0: 2096 3bbc dca8 73bb 086c afb9 ac00 b83c
000000b0: 925f c4b8 001d 2bb8 6451 81bd 3cac c5bc
000000c0: 4006 4ebc 82c7 7b3b 9885 1cbc e735 c23c
000000d0: 4b64 9d3c 74f9 813b f16f a8bc a433 bcbd
000000e0: 814e 1eb9 936a 253d cdeb 1cbc e6f3 863d
000000f0: 2989 83b8 270c 073d d845 84bd ba9e 8ebd
00000100: a656 13bd f250 c43c 1b5d 1c3d ac50 aabc
00000110: 3142 e7bd d783 0a3c ba3a 6bbb 7170 b2bd
00000120: b322 a2bc 429b 09bb ceab 193d c35c 41bd
00000130: 49ca d6bc ba06 2d3b bb08 123d cf28 f63c
00000140: d35b 01bd 3f70 ce3d 6458 413a fbf4 e9bc
00000150: 5087 91bc 2467 18bb b07e e03c 296a 68bd
00000160: bedf 313c b5ef 6bbb 324b 86bc fc63 1235
00000170: f831 0ebc 0d60 be3a a74d 06b8 8e7b e9bc
00000180: a3cc 0ebc 70f4 853c 1bed d6bb e8d7 af3c
00000190: bb5f 513d 1dc4 19b9 554d 6e3b 8482 41bc
000001a0: 9ebd 62bb 403e 6234 b225 55bc c3fe 15bc
000001b0: 7dfb 87b9 440a 3bbc 56fa e33c 193b 58bd
000001c0: 00b4 95bc 60e5 23ba 67a8 90b8 5125 e63c
000001d0: f357 3cbc ca37 0a3c 9f4a 93bd b838 77bc
000001e0: 7b39 273d befe 203d f7e8 f8bb 35db 8a3d
000001f0: 0bb5 503d a6fb a9bd 46dd 3f3d eeca a23d
00000200: 661c d8bc c0b1 453d eb06 e03d b1a7 1abb
00000210: 396b 01bd 44d7 993c 7003 1ab9 3584 0abd
00000220: d228 c6bc 678c 87bb ba4d dabd e8e5 1b3d
00000230: 0b1f a13c 1534 01bd 3f35 01bd 94df 323d
00000240: 2296 62bd 3d5a b73c 4b90 cab8 bdf0 10bd
00000250: df83 f2b9 37b1 143c 9ddf 013c f68e 003d
00000260: 363b 24bd 4fa2 edbb 0e65 c2bb 9ba1 ed3c
00000270: 1176 913d e04f 2f3c 6c90 2a3d 1430 f6b7
00000280: c5d1 bfbb 44e4 a8b9 2d35 22bd 5bea 9bbd
00000290: 85fa bfb9 78a6 a7bd d54a 38bc 28db 00bc
000002a0: 043e e3bc d85d 6f36 9fed af3a 5df8 793a
000002b0: 05ad 053c 5494 5f3d 8b52 333d 3bad 71bd
000002c0: 5e84 aa3c d9b4 31bd f6e4 4b3d 03e4 033a
000002d0: 47fe 5fbc 576a 42bc fa29 56bd 7bf1 773d
000002e0: 66a5 21bc d272 3b3d 6eb9 8dbc b07c 7bba
000002f0: 6a5d 83bd 5ac8 3ab7 7232 a337 3217 6b3a
00000300: e7c6 d438 3a05 dfbb c335 c2bc d304 ccb7
00000310: f375 86bd ca87 96bc a2d9 0bbd ea39 913d
00000320: ba8f a93a 2b46 e93c c9ae 2e3d eab8 c2bc
00000330: 63ef ff3b 8404 9cbb 67b1 ee3c 3fb6 83bc
00000340: 5ee4 ccba c242 59bd 242b 843d ad2b 003d
00000350: 00b7 84bc 76fd ccbd 5454 d2bc 4cc4 62ba
00000360: c9f4 9cbc 0547 9ebd 3d55 ab3a 2272 43bd
00000370: e9ce 9c39 765b 033c 270b 083d c0e0 fa3d
00000380: 6d8c ddba 6722 833b 349b cc3c 2e18 f8bc
00000390: 609b 653c 0a51 f53b be9b babc 36e6 363d
000003a0: 1399 56bc a8f0 a2bc b5da 793c d553 a0b9
000003b0: 92d0 f138 f4ef 383c c669 edbc d7f5 5d3d
000003c0: 3d52 3bbd cb15 463d b5d9 e03b 2b6d c53b
000003d0: 5723 ba3c 1cad 50b7 8b10 fdbb 2ec3 d837
000003e0: e605 39ba 0e79 4ebb cae1 fabb 604c 2abb
000003f0: 0b51 00ba 666a 35bd 756c 84bd d975 07b8

bias f4 [200]
-0.059391458 -0.024557188 -0.08081346 0.043274093 -0.04784797 0.02638004 0.0018832494 -0.050398648
-0.030429477 -0.0012165443 0.023187326 0.021999756 0.020590283 -0.03684239 0.016407313 0.026105901
-0.07676871 -0.051526867 0.042013902 0.006030138 -0.061852884 -0.007915182 0.030225828 -0.051092125
0.0058348267 0.022104103 -0.04067379 0.015977098 -0.03404431 -0.044018496 0.06905447 -0.054366104
0.057952624 -0.028832728 0.0023640248 -0.006136158 -0.02935103 0.010447383 0.04527811 -0.03501068
0.079572745 0.051969875 0.06105059 0.04212392 -0.029682212 0.051453363 -0.061520953 -0.0773016
-0.06655131 0.014703252 -0.050854344 -0.0016116155 -0.006047087 -0.05447813 -0.012823115 0.081617154
0.049842354 -0.03110085 -0.03315134 0.019156741 -0.017579803 0.011964283 -0.06143074 0.051995236
-0.039335083 0.017168567 0.005923647 0.05568954 0.041452467 0.022282556 0.0017581144 0.006695844
0.0673514 0.01769227 -0.037031855 -0.013399843 0.011996527 0.05113998 0.05061607 -0.018403905
-0.024246886 0.045721278 -0.008224359 -0.010420328 0.039563566 -0.029310625 -0.017132496 0.01728003
-0.026232703 0.016710116 -0.016135521 -0.044862233 0.056261215 0.005563665 0.013373666 -0.039871007
0.0012985562 -0.021704761 -0.055247985 -0.039048985 -0.04804209 0.007204908 -0.01596782 -0.032888725
0.03205271 -0.030550618 -0.013699665 0.019411223 -0.03017121 -0.065948434 -0.03210432 -0.04247459
-0.03518289 -0.040456116 -0.074116565 0.06688653 0.03357201 -0.01429369 0.057020213 0.037623376
0.05936031 0.04983126 -0.057954505 0.023252837 -0.004883503 0.045243897 0.00900616 0.051096898
0.0041968664 -0.04260105 -0.080962874 -0.036223315 -0.037515767 -0.055199444 0.035916813 -0.027555732
0.056131836 -0.04440324 0.019469269 0.067361884 0.041138843 -0.03591755 0.022591773 0.019636171
0.0122256335 -0.011478048 0.030031 -0.05959489 -0.03599043 0.039892662 -0.0063226474 -0.04028273
0.0072984733 0.05132176 0.07367212 -0.08307023 0.024397373 -0.001942089 0.062112935 -0.029628266
0.008655284 -0.05287973 -0.022118742 -0.08287305 -0.035353076 -0.016997527 0.044160265 -0.013072393
0.044047758 0.0631385 0.03141849 -0.016347332 0.061764892 0.026866212 0.041565664 -0.01933849
-0.0818254 0.0062807617 0.06988516 0.005159908 -0.069303095 -0.010478842 -0.016573137 -0.010141541
0.01747056 0.006430822 -0.03591836 0.0031363121 -0.06862841 0.04885651 0.020906651 0.03358737
0.0575965 -0.07827559 0.073029295 0.03837026 0.046322793 -0.056675788 0.07555491 0.010522003
00000000: 7544 73bd 282c c9bc 8781 a5bd 2d40 313d
00000010: 3cfc 43bd f41a d83c 5dd7 f63a d06e 4ebd
00000020: 3d47 f9bc 7474 9fba 59f3 bd3c d538 b43c
00000030: f4ac a83c 0ce8 16bd a168 863c 0bdc d53c
00000040: ea38 9dbd d60d 53bd c516 2c3d 7798 c53b
00000050: 7359 7dbd aeae 01bc 289c f73c fa45 51bd
00000060: 1332 bf3b aa13 b53c 8f99 26bd 67e2 823c
00000070: 0c72 0bbd bd4c 34bd 6e6c 8d3d feae 5ebd
00000080: bb5f 6d3d 9d32 ecbc c1ed 1a3b d311 c9bb
00000090: 9271 f0bc 802b 2b3c 8a75 393d 5c67 0fbd
000000a0: 09f7 a23d 5dde 543d 2f10 7a3d 228a 2c3d
000000b0: 1c28 f3bc c3c0 523d 65fd 7bbd 4d50 9ebd
000000c0: 0e4c 88bd e9e5 703c a54c 50bd d83c d3ba
000000d0: a426 c6bb 7624 5fbd 0b18 52bc e526 a73d
000000e0: 7f27 4c3d 36c7 febc b3c9 07bd 99ee 9c3c
000000f0: 8503 90bc d705 443c cd9e 7bbd f5f8 543d
00000100: d31d 21bd 18a5 8c3c 271b c23b b71a 643d
00000110: 10ca 293d e889 b63c 8870 e63a cf68 db3b
00000120: 88ef 893d 61ef 903c b7ae 17bd 048b 5bbc
00000130: 158d 443c 2878 513d cc52 4f3d c9c3 96bc
00000140: 68a1 c6bc 3c46 3b3d 76bf 06bc 06ba 2abc
00000150: 680d 223d d61c f0bc 7359 8cbc d98e 8d3c
00000160: f7e5 d6bc a7e3 883c a42e 84bc 76c1 37bd
00000170: 2972 663d 684f b63b 391d 5b3c c84f 23bd
00000180: 5134 aa3a 2fce b1bc b64b 62bd d4f1 1fbd
00000190: c8c7 44bd 2617 ec3b f2ce 82bc 54b6 06bd
000001a0: b449 033d 4a45 fabc 8f74 60bc 4904 9f3c
000001b0: 9d29 f7bc f90f 87bd d27f 03bd d6f9 2dbd
000001c0: ef1b 10bd 50b5 25bd 6dca 97bd cefb 883d
000001d0: ce82 093d 1530 6abc 078e 693d f81a 1a3d
000001e0: cc23 733d dd1b 4c3d b461 6dbd bc7c be3c
000001f0: cb05 a0bb aa51 393d 938e 133c fb4a 513d
00000200: de85 893b 707e 2ebd ddcf a5bd e65e 14bd
00000210: 22aa 19bd d018 62bd 821d 133d 8fbc e1bc
00000220: 7fea 653d 2ce0 35bd 047e 9f3c 07f5 893d
00000230: 3481 283d 481e 13bd 6212 b93c 09dc a03c
00000240: 064e 483c 6c0e 3cbc 9203 f63c c519 74bd
00000250: b36a 13bd 7d66 233d 362e cfbb 81ff 24bd
00000260: 0828 ef3b c436 523d 69e1 963d ba20 aabd
00000270: 00dd c73c b18d feba 226a 7e3d fab6 f2bc
00000280: e4ce 0d3c 6a98 58bd 5d32 b5bc 58b9 a9bd
00000290: 63ce 10bd 663e 8bbc 65e1 343d 972d 56bc
000002a0: 6c6b 343d c24e 813d adb0 003d d7ea 85bc
000002b0: 2ffd 7c3d 8816 dc3c c240 2a3d c16b 9ebc
000002c0: 1394 a7bd d9ce cd3b f31f 8f3d 7214 a93b
000002d0: c8ee 8dbd 73af 2bbc 63c4 87bc b528 26bc
000002e0: 6b1e 8f3c a5b9 d23b 211f 13bd 968a 4d3b
000002f0: 0d8d 8cbd c41d 483d 6d44 ab3c e992 093d
00000300: 4fea 6b3d f44e a0bd 6290 953d 222a 1d3d
00000310: f8bc 3d3d df24 68bd 88bc 9a3d 7b64 2c3c
