pubmed_train/train/pretrained_han/decoder_g.pth (torch, 324640 bytes, 4 tensors)

weight f4 [200, 200]
-0.0026649637 0.028906137 -0.024182204 0.052982736 0.059234787 -0.032802586 -0.028455222 0.009408139
-0.001460281 -0.07916118 -0.00018829766 0.017904332 -0.034968413 0.025188757 -0.018529365 0.01856092
0.043374583 -0.029740663 -0.002153026 0.01314298 -0.03327538 -0.107310265 0.00027761995 0.009141734
0.035746746 -0.023099646 -0.025532758 0.0017498719 -0.028030083 -0.0012968421 0.03221436 0.023478018
0.0042919903 -4.4792963e-05 -0.00031697433 1.129882e-05 0.0037751696 -0.027244864 0.02173517 0.02723885
-0.0074043293 -0.009292539 0.009016352 -0.007202039 -0.00493386 -0.041814536 0.00683253 -0.02453634
0.0758006 -0.032927938 -0.009987518 -0.006135253 -0.017419493 0.008585612 -0.0016988858 0.0006726227
-6.177735e-07 0.0701228 -0.0046938458 0.008464422 -0.05281716 -0.030807221 -2.9793071e-05 -0.0014753673
0.10305924 -0.0073631774 -6.902571e-06 -0.0104709845 -0.04125943 -0.012334911 -0.022060495 -0.0074482257
-0.035770137 -0.12349369 -0.016085424 -0.024085267 -0.05926709 0.010835444 0.008911351 -4.5440767e-05
0.045423664 0.016716609 -0.037485898 -0.00244239 0.014849276 -0.00091117615 0.01292488 -0.006079686
-0.010465905 -0.01848949 0.05698063 0.016857546 -0.0023635584 -0.009864212 -0.059958085 -0.000100199504
-0.07655905 -0.030334624 -0.08042047 -0.009993653 -0.008548029 0.002092571 0.029467294 0.020799719
0.040763017 -0.047059644 -0.008743518 -0.015004672 0.015118014 -0.01059893 -0.034489457 0.04527122
-0.007068608 0.01620942 -0.049049698 0.013158552 0.008515807 0.03192833 0.012968876 0.016980454
0.06387901 0.05547978 -0.053144895 0.018459916 -0.009233866 0.0037229906 -0.06525754 -0.042706802
0.03709306 0.09290697 0.023991805 -0.0296672 -3.8073944e-05 0.111022316 0.01857846 -0.03247012
-0.075041 -0.003750683 0.06383635 0.09791596 -0.007996486 -0.13117202 0.019521248 -4.1771123e-06
0.049972292 0.0032756152 0.015641747 0.018092327 -0.033661757 -0.013197138 0.022722589 -0.028152192
-0.0036696356 -0.06688168 -0.028678441 -0.016307928 -0.034800194 -0.027690066 0.006622766 -0.0022595334
-0.009106559 -0.029948207 -0.0001625906 0.011456641 -0.031019922 -0.09540301 -2.1324611e-05 0.029733028
0.0012357427 -0.009148459 -0.0425615 0.0073769977 0.054835465 0.015741704 0.005092793 -0.011630998
0.043688886 -0.029041855 0.03819123 0.06426264 -0.038966 0.00020636943 -0.0097805755 0.027264772
0.020507371 0.006088355 -0.02798121 -0.030860323 -0.0066644354 0.03831154 -0.0020354798 0.017298803
-0.062276486 0.06894789 -0.07769502 -0.056280505 0.00096733414 0.09529958 -0.09550295 0.0040964326
-0.03573365 -0.012378515 -0.021501428 0.11542037 -0.0014893699 -0.037182532 0.017830385 0.028541999
-0.013491258 0.072499245 0.028779048 -0.044071637 -0.045461766 0.013598748 0.015692342 0.0055968426
-0.06603814 0.038283523 0.047943465 -0.08874492 0.015891945 0.014624884 -0.014532031 -0.029669091
0.03042376 0.003735563 0.0010805163 0.026265305 0.030090867 0.019992085 -0.04671581 0.012867873
-0.009786285 0.00019411904 0.0003066235 1.6131644e-05 0.0100035425 0.010899355 -0.013610267 0.012745085
0.025535326 -0.009462869 0.01419413 0.009689824 -0.029846428 0.011483406 -0.06162176 0.0032556616
-0.019452695 -0.006383669 0.031449653 -0.054391824 0.01726473 -0.006147083 0.018015394 0.04699708
00000000: aca6 2ebb 90cc ec3c c219 c6bc 6d04 593d
00000010: 2da0 723d 015c 06bd ed1a e9bc 9824 1a3c
00000020: e666 bfba 421f a2bd c571 45b9 1bac 923c
00000030: 0a3b 0fbd a758 ce3c e5ca 97bc 120d 983c
00000040: 8ca9 313d b1a2 f3bc c819 0dbb a755 573c
00000050: c44b 08bd 7cc5 dbbd 858d 9139 36c7 153c
00000060: 2e6b 123d 783b bdbc 132a d1bc f55b e53a
00000070: 589f e5bc cdfa a9ba 34f3 033d f954 c03c
00000080: d3a3 8c3b 14e0 3bb8 932f a6b9 1090 3d37
00000090: d668 773b 9f30 dfbc f50d b23c 0224 df3c
000000a0: 04a0 f2bb bc3f 18bc 52b9 133c 15ff ebbb
000000b0: 38ac a1bb b845 2bbd 6ae3 df3b 6f00 c9bc
000000c0: 583d 9b3d 72df 06bd b0a2 23bc 3b0a c9bb
000000d0: 53b3 8ebc abaa 0c3c 26ad deba f252 303a
000000e0: 12d5 25b5 8b9c 8f3d d5ce 99bb 5cae 0a3c
000000f0: ce56 58bd 6d5f fcbc 22ec f9b7 1d61 c1ba
00000100: b910 d33d cf46 f1bb a29c e7b6 7e8e 2bbc
00000110: a6ff 28bd 5e18 4abc 36b8 b4bc 3f10 f4bb
00000120: b583 12bd 42ea fcbd 94c5 83bc 774e c5bc
00000130: 0cc2 72bd 2587 313c ea00 123c a797 3eb8
00000140: 2a0e 3a3d 45f1 883c d08a 19bd 8110 20bb
00000150: 614a 733c ffdb 6eba e0c2 533c 1a38 c7bb
00000160: 3079 2bbc 4577 97bc 8564 693d d618 8a3c
00000170: eee5 1abb 819d 21bc 9c96 75bd 3322 d2b8
00000180: feca 9cbd 5180 f8bc 7db3 a4bd 6bbc 23bc
00000190: 080d 0cbc 8423 093b 6565 f13c 2c64 aa3c
000001a0: 1ff7 263d 9dc1 40bd f940 0fbc 28d6 75bc
000001b0: 8cb1 773c 22a7 2dbc d144 0dbd 516e 393d
000001c0: c89f e7bb 9ec9 843c 56e8 48bd f896 573c
000001d0: e285 0b3c 48c7 023d 697b 543c 981a 8b3c
000001e0: 00d3 823d c43e 633d 76ae 59bd 4039 973c
000001f0: a449 17bc 6bfd 733b bfa5 85bd 54ed 2ebd
00000200: e4ee 173d 0246 be3d 768a c43c a108 f3bc
00000210: 96b1 1fb8 ab5f e33d db31 983c 63ff 04bd
00000220: 19af 99bd 05ce 75bb a2bc 823d 2a88 c83d
00000230: b103 03bc f551 06be 06eb 9f3c 1f29 8cb6
00000240: bfaf 4c3d b4ab 563b 1f23 803c 5c36 943c
00000250: e9e0 09bd cf38 58bc b924 ba3c 6d9f e6bc
00000260: 457e 70bb 43f9 88bd 0def eabc 3498 85bc
00000270: a68a 0ebd 47d6 e2bc ca03 d93b ae14 14bb
00000280: ad33 15bc f155 f5bc 157d 2ab9 a3b4 3b3c
00000290: 7e1d febc a762 c3bd 41e2 b2b7 ae92 f33c
000002a0: a5f8 a13a 6be3 15bc f854 2ebd beba f13b
000002b0: 279b 603d bff4 803c 72e1 a63b f18f 3ebc
000002c0: 1ef3 323d 2fe9 edbc 686e 1c3d 229c 833d
000002d0: d09a 1fbd df64 5839 b53e 20bc 5f5a df3c
000002e0: 13ff a73c d380 c73b da38 e5bc cace fcbc
000002f0: 5661 dabb 90ec 1c3d af65 05bb 38b6 8d3c
00000300: a115 7fbd 8d34 8d3d 911e 9fbd 6386 66bd
00000310: b294 7d3a 6d2c c33d 0d97 c3bd 5e3b 863b
00000320: 735d 12bd 41cf 4abc c323 b0bc 8461 ec3d
00000330: f636 c3ba b64c 18bd 0711 923c e9d0 e93c
00000340: 700a 5dbc 7c7a 943d 0ac2 eb3c 7684 34bd
00000350: 1e36 3abd 48cd 5e3c 3a8d 803c b865 b73b
00000360: 013f 87bd 2fcf 1c3d 5e60 443d e6bf b5bd
00000370: d32f 823c 369d 6f3c c117 6ebc 980c f3bc
00000380: 403b f93c 59d0 743b 1ca0 8d3a 562a d73c
00000390: 1f81 f63c 71c6 a33c 1459 3fbd c5d3 523c
000003a0: a856 20bc 6f8c 4b39 4fc2 a039 7152 8737
000003b0: e6e5 233c 3593 323c 99fd 5ebc c3d0 503c
000003c0: 762f d13c 260a 1bbc 7f8e 683c 11c2 1e3c
000003d0: 7f80 f4bc e524 3c3c 1967 7cbd f05c 553b
000003e0: 425b 9fbc 192e d1bb 5ad1 003d f6c9 5ebd
000003f0: c36e 8d3c 786d c9bb 0595 933c 0380 403d

bias f4 [200]
0.048979312 0.08372836 -0.03551585 -0.052793555 0.023357296 -0.06927397 -0.03811053 -0.020369405
0.054249864 -0.01279659 -0.044537332 0.077105366 -0.028257381 0.06877962 -0.01679923 0.011309413
-0.019266734 -0.02928044 0.06379807 0.00038359937 -0.0034838144 -0.02502348 0.07925341 -0.021739502
0.040007126 -0.0644502 -0.08053366 -0.04004931 -0.05912793 0.012981626 -0.05737745 0.052641414
0.02648617 0.020429214 0.0008177982 0.06731589 0.036397126 0.011990891 -0.028833967 -0.045842446
-0.05066008 -0.044229276 0.053223312 -0.014734787 -0.06589596 -0.021072917 -0.04697434 0.03688644
0.034592133 -0.03549956 -0.028364949 -0.06011093 -0.01039359 0.024294596 0.02792463 -0.02507599
-0.07333228 0.007426593 0.017252771 -0.039720688 0.017960597 0.011136019 0.040420957 0.010475118
-0.0041390434 -0.028291263 0.039146516 0.061262053 -0.030528445 -0.023276096 0.02786667 0.06989817
0.04798456 -0.08244551 -0.029984506 0.060415663 -0.036504276 -0.047404665 -0.013897532 0.03614811
-0.06478244 -0.008468787 -0.06872622 -0.0021003217 0.020989452 0.031265553 0.05236165 0.041841336
-0.032789905 -5.2933533e-06 0.037290566 -0.0430487 -0.026499668 0.009430455 0.023248272 0.02282088
-0.024875289 -0.051236488 -0.018376432 -0.059806995 0.008583895 -0.060801886 -0.0019527881 -0.05986812
-0.0447046 -0.03459202 -0.04876063 -0.018766195 0.040234648 0.057246555 0.06636282 -0.06284554
0.00024687353 0.017561033 0.059980955 0.01602074 0.06784467 -0.037110113 -0.037537143 0.06623933
0.04991377 0.048901893 0.023260482 0.017149622 0.06449435 0.0005465314 -0.011249972 -0.03681314
-0.029492974 -0.052834254 0.038769953 -0.014517059 -0.07825338 0.060977917 -0.03824373 -0.021600429
-0.08391642 -0.028808942 0.05788646 -0.039007835 0.08294633 0.010941123 -0.008311962 0.019837676
-0.014435742 -0.0036940833 0.055522155 -0.022183774 -0.06469972 0.008018278 -0.06423319 -0.012164082
0.01809862 0.06693468 -0.05507967 -0.056883167 0.0029486727 0.06607964 0.038232975 0.051497754
0.049651463 0.019592868 0.010654212 0.024526635 -0.08596449 0.029272055 0.02614716 -0.03261988
0.05363335 0.004200838 -0.025497716 0.062446836 0.028823206 0.038342807 0.00680814 0.00011610139
-0.03315465 -0.043721005 0.015324869 -0.062257245 -0.051216777 -0.027138447 -0.022628313 -0.07114665
-0.03762769 0.05304908 -0.068181746 0.0074813887 0.021018429 0.04099253 0.029861301 0.06677028
0.008416668 0.01542535 0.028506054 0.048278056 0.083716705 0.028061416 0.036714695 -0.0073153973
00000000: 889e 483d c679 ab3d 1179 11bd 0e3e 58bd
00000010: cd57 bf3c 83df 8dbd c919 1cbd bddd a6bc
00000020: 1b35 5e3d caa8 51bc c76c 36bd 6be9 9d3d
00000030: 067c e7bc 54dc 8c3d 8a9e 89bc 1e4b 393c
00000040: 45d5 9dbc 89dd efbc 90a8 823d d61d c939
00000050: b550 64bb 0bfe ccbc 9d4f a23d 0a17 b2bc
00000060: 83de 233d 77fe 83bd d5ee a4bd bf0a 24bd
00000070: 2130 72bd e3b0 543c 9e04 6bbd 869e 573d
00000080: 86f9 d83c 2b5b a73c 8261 563a eadc 893d
00000090: 2715 153d 7175 443c 3635 ecbc 4ac5 3bbd
000000a0: f280 4fbd c229 35bd b000 5a3d 2d6a 71bc
000000b0: 76f4 86bd 1ca1 acbc 2a68 40bd 3c16 173d
000000c0: 7bb0 0d3d fd67 11bd 9c5d e8bc e136 76bd
000000d0: e049 2abc 7605 c73c 32c2 e43c 2a6c cdbc
000000e0: 3c2f 96bd c75a f33b af55 8d3c 29b2 22bd
000000f0: 1a22 933c d973 363c 7290 253d d49f 2b3c
00000100: d0a0 87bb 14c3 e7bc 1958 203d ebed 7a3d
00000110: ca16 fabc 83ad bebc a548 e43c c626 8f3d
00000120: 758b 443d 31d9 a8bd 11a2 f5bc 6a76 773d
00000130: 8285 15bd 652b 42bd 79b2 63bc 0a10 143d
00000140: a8ac 84bd abc0 0abc 55c0 8cbd 8da5 09bb
00000150: 12f2 ab3c 4f10 003d 2b79 563d d261 2b3d
00000160: b54e 06bd 8f9d b1b6 febd 183d d553 30bd
00000170: d515 d9bc 3282 1a3c 2973 be3c dbf2 ba3c
00000180: 43c7 cbbc 5add 51bd 2c8a 96bc 2ef8 74bd
00000190: 77a3 0c3c 660b 79bd b2f4 ffba 4638 75bd
000001a0: 2c1c 37bd 5db0 0dbd 3ab9 47bd 90bb 99bc
000001b0: 16cd 243d 5d7b 6a3d 3be9 873d 2ab5 80bd
000001c0: ce6e 8139 28dc 8f3c 97ae 753d ed3d 833c
000001d0: 25f2 8a3d c600 18bd 8cc0 19bd 7ca8 873d
000001e0: 6272 4c3d 5a4d 483d c48c be3c 5d7d 8c3c
000001f0: 9d15 843d 1a45 0f3a cd51 38bc 60c9 16bd
00000200: 409b f1bc bb68 58bd 3ecd 1e3d f5d8 6dbc
00000210: 4f43 a0bd fbc3 793d 75a5 1cbd 62f3 b0bc
00000220: 5fdc abbd bb00 ecbc 5a1a 6d3d aec6 1fbd
00000230: c4df a93d 6542 333c e52e 08bc 9f82 a23c
00000240: e483 6cbc 6f18 72bb 336b 633d bfba b5bc
00000250: 4981 84bd 185f 033c b18c 83bd dc4b 47bc
00000260: 8f43 943c 0d15 893d 389b 61bd 53fe 68bd
00000270: 853e 413b c354 873d 2e9a 1c3d 4fef 523d
00000280: 555f 4b3d 3981 a03c 018f 2e3c 15ec c83c
00000290: 270e b0bd f3cb ef3c 9232 d63c 6c9c 05bd
000002a0: a5ae 5b3d 2fa7 893b 96e0 d0bc 41c8 7f3d
000002b0: a51e ec3c 590d 1d3d d116 df3b 767b f338
000002c0: 2ccd 07bd cc14 33bd 2915 7b3c 7401 7fbd
000002d0: afc8 51bd 7351 debc 035f b9bc 56b5 91bd
000002e0: 7e1f 1abd fe49 593d dfa2 8bbd 7026 f53b
000002f0: d72e ac3c c8e7 273d b09f f43c dbbe 883d
00000300: 10e6 093c 9bba 7c3c 8785 e93c 36bf 453d
00000310: aa73 ab3d 0ee1 e53c 2662 163d 00b6 efbb

weight f4 [200, 200]
0.021456406 -0.001406803 -0.01415153 -0.05303728 -0.012725712 -0.017192245 0.0023174172 0.022747168
-0.0004901134 -0.052807532 -0.04009846 -0.004624643 0.038757995 0.0337511 -0.028543586 0.024116624
0.026443677 -4.300971e-07 0.022258397 -0.029539322 -0.008040381 -0.02300151 0.00011113735 0.00096060894
0.072157174 -0.017451223 0.015138057 -0.007059902 0.008225021 0.0626436 -0.004114613 0.010460236
0.040605962 0.027434336 0.014238776 -0.01677406 0.03620015 -0.0031643081 0.00039567603 -0.054829624
4.0661496e-05 0.044681642 -0.027998189 0.006784591 0.0399361 -0.013758202 -0.0015119077 0.011887349
0.017697994 -0.07409822 -0.007948692 -0.032128543 -0.029971074 -0.012128382 3.0856972e-05 0.014309671
0.04490198 0.0359655 -0.051593702 -0.00050841674 0.03517509 0.010325258 -0.055392586 -0.0034110441
0.03161138 0.10087051 0.0485691 -4.1081334e-05 -0.04753121 -0.037882764 0.0014488896 0.047050435
0.022240195 -0.0039288877 -0.0194344 0.017965775 0.03143362 -0.012123227 0.027564961 -0.098999195
0.025612097 2.4429994e-05 0.00016912406 0.07161889 -0.0070158974 0.042828962 0.013439042 3.5858146e-05
0.007663934 -0.017426798 0.07365822 0.00054021704 0.010045674 -0.0033807629 0.011733641 0.10206452
0.007094921 0.00057820184 0.016830636 0.08103843 0.024798144 -0.0073356037 -0.012307913 0.004763439
-0.039304134 -0.0026451147 0.0013669169 0.060277585 0.08085211 0.11096245 0.004033058 -0.033539794
-0.057308417 -0.040191907 -0.0029562854 -8.555582e-05 0.05573131 0.013446426 0.030146614 0.07772447
0.0008155997 -0.0014875538 0.0020690083 -0.019225707 0.020748677 -0.020054488 0.033706 -0.005402103
0.035453 0.0146355815 0.055560924 -0.0013422192 -0.011295567 -0.10328901 0.029140854 -0.027958125
-0.017933786 -0.018264968 -0.024746753 -3.784075e-05 -0.024444751 0.038347553 0.0029296908 0.07004123
-0.0651091 0.028598266 -0.0020502529 -0.014592283 0.061315794 -0.061034165 -0.004785498 -0.043160796
-0.01308837 -0.013569388 -0.015102093 -0.08409786 -0.012376888 -0.03514066 -0.0013557335 -0.010398618
0.0055254227 0.011380301 -0.00065045693 0.024854459 -0.011108396 0.0023605023 -0.08111362 0.036101922
0.012120539 -0.00036715655 -0.01305833 -0.09455046 -0.00075118215 0.0059261834 0.017583651 0.020347705
-0.01471238 -0.019443858 0.006135018 -0.022383971 0.03481005 0.0834312 0.0060368814 -0.055637173
0.08871703 -0.012032413 -2.1817126e-05 0.038197856 -0.0023083512 0.041866712 0.03414252 -0.08755418
0.019217307 0.0017222598 0.03347577 0.018766867 0.026745271 3.7903203e-06 -0.041691925 -0.018279742
-0.010018703 0.014103367 0.017324325 0.07230206 0.025751768 0.07780162 -0.07853238 -0.0006821296
0.0047848364 0.04536404 -0.0650224 -0.007741677 -0.05577161 -0.09064152 0.053457275 0.07925831
-0.04742735 -0.021525804 0.021972988 -0.023491813 -0.0029147312 -0.0031254375 -0.0075418176 -0.035035048
0.020891948 -0.08342184 0.008504708 -0.0031826727 -0.067988634 0.025013303 -0.022986282 0.012293156
-0.019945102 -0.08592314 0.0069948384 0.06060182 -0.049560506 -0.005814336 -0.0595315 -0.049847428
0.027472772 -0.022089643 0.013443617 0.023949703 -0.031066751 0.0062765763 0.08241951 -0.015080637
0.016513322 -0.008494169 0.026387902 -0.087805666 -0.06087833 0.010205493 -0.0033508858 0.028133556
00000000: 58c5 af3c 7a64 b8ba d2db 67bc 9e3d 59bd
00000010: 817f 50bc c0d6 8cbc cfdf 173b 4558 ba3c
00000020: f47a 00ba b64c 58bd 483e 24bd 518a 97bb
00000030: b4c0 1e3d 983e 0a3d 3dd4 e9bc 3a90 c53c
00000040: 69a0 d83c 18e8 e6b4 3e57 b63c 73fc f1bc
00000050: cdbb 03bc aa6d bcbc 6912 e938 60d1 7b3a
00000060: 24c7 933d def5 8ebc 9d05 783c c056 e7bb
00000070: 3dc2 063c 4a4b 803d e0d3 86bb 6961 2b3c
00000080: 7052 263d f9bd e03c c149 693c c169 89bc
00000090: 9c46 143d 4860 4fbb bd72 cf39 0795 60bd
000000a0: f38b 2a38 1904 373d 755c e5bc 4651 de3b
000000b0: 0994 233d 156a 61bc 342b c6ba 28c3 423c
000000c0: 62fb 903c cfc0 97bd 3b3b 02bc 3899 03bd
000000d0: e685 f5bc 1fb6 46bc 6c6c 0138 1c73 6a3c
000000e0: 23eb 373d 8f50 133d eb53 53bd 4547 05ba
000000f0: c113 103d 452b 293c 56e3 62bd d38b 5fbb
00000100: ef7a 013d 3395 ce3d 65f0 463d bf4e 2cb8
00000110: 16b0 42bd f52a 1bbd abe8 bd3a f5b7 403d
00000120: 1231 b63c e6bd 80bb e434 9fbc f62c 933c
00000130: 8ac0 003d 80a0 46bc eacf e13c 17c0 cabd
00000140: 76d0 d13c 03ef cc37 e556 3139 edac 923d
00000150: 9de5 e5bb 6c6d 2f3d 6d2f 5c3c 6466 1638
00000160: bd21 fb3b a5c2 8ebc 1fda 963d 5a9d 0d3a
00000170: 9c96 243c ca8f 5dbb 753e 403c 3407 d13d
00000180: 837c e83b 7892 173a 67e0 893c 7af7 a53d
00000190: 7a25 cb3c 815f f0bb 21a7 49bc 9f16 9c3b
000001a0: 5ffd 20bd a959 2dbb 1f2a b33a a1e5 763d
000001b0: cb95 a53d 4840 e33d be27 843b 0661 09bd
000001c0: 3bbc 6abd 45a0 24bd 3dbe 41bb 6e6c b3b8
000001d0: 8446 643d 664e 5c3c 08f6 f63c 022e 9f3d
000001e0: f8cd 553a 06fa c2ba 3398 073b 3b7f 9dbc
000001f0: 21f9 a93c 4f49 a4bc 4d0f 0a3d 2004 b1bb
00000200: 2a37 113d 14ca 6f3c da93 633d 67ed afba
00000210: 0b11 39bc 3089 d3bd cdb8 ee3c 7008 e5bc
00000220: e0e9 92bc 6aa0 95bc b4b9 cabc 32b7 1eb8
00000230: 5c40 c8bc 5312 1d3d 0e00 403b c771 8f3d
00000240: eb57 85bd e946 ea3c 895d 06bb 7914 6fbc
00000250: 4526 7b3d f6fe 79bd abcf 9cbb 60c9 30bd
00000260: 9a70 56bc 2352 5ebc c56e 77bc 803b acbd
00000270: 6ec8 4abc a7ef 0fbd deb2 b1ba f75e 2abc
00000280: 9b0e b53b 7174 3a3c 6d83 2aba 949b cb3c
00000290: fdff 35bc a8b2 1a3b e61e a6bd 9cdf 133d
000002a0: 3a95 463c eb7e c0b9 9bf2 55bc aca3 c1bd
000002b0: fbea 44ba 6e30 c23b 970b 903c 3bb0 a63c
000002c0: 320c 71bc ba48 9fbc 4308 c93b 975e b7bc
000002d0: fc94 0e3d fadd aa3d 08d1 c53b cee3 63bd
000002e0: 46b1 b53d 9923 45bc ec03 b7b7 5b75 1c3d
000002f0: b547 17bb 6e7c 2b3d 07d9 0b3d 9b4f b3bd
00000300: 9d6d 9d3c 73bd e13a e41d 093d f9bc 993c
00000310: e618 db3c 355d 7e36 27c5 2abd 66bf 95bc
00000320: 7c25 24bc cf11 673c beeb 8d3c 1a13 943d
00000330: 5ff5 d23c 7556 9f3d 96d5 a0bd f1d0 32ba
00000340: 1eca 9c3b a5cf 393d 772a 85bd e5ad fdbb
00000350: c670 64bd 43a2 b9bd 04f6 5a3d 2e52 a23d
00000360: 2e43 42bd e256 b0bc b200 b43c e771 c0bc
00000370: 1305 3fbb 24d4 4cbb 5a21 f7bb e980 0fbd
00000380: 9725 ab3c 12d9 aabd 5557 0b3c 6394 50bb
00000390: a03d 8bbd b3e8 cc3c ba4d bcbc 3c69 493c
000003a0: e963 a3bc 79f8 afbd f534 e53b 9d39 783d
000003b0: f5ff 4abd 2f86 bebb 4dd7 73bd d12c 4cbd
000003c0: 940e e13c 57f5 b4bc 9e42 5c3c 2b32 c43c
000003d0: b37f febc bdab cd3b 8fcb a83d c714 77bc
000003e0: f246 873c 212b 0bbc 712b d83c 75d3 b3bd
000003f0: 8e5b 79bd f134 273c 899a 5bbb 5878 e63c

bias f4 [200]
-0.03912846 -0.008314613 0.05688799 0.053146176 -0.050070338 -0.0609145 0.003469436 -0.07301054
0.03905255 -0.039294172 -0.030750297 -0.031055603 0.06189308 0.013648366 0.05192026 0.052798916
-0.05767486 -0.01222389 -0.023832299 -0.009745665 0.021147463 0.00084852526 0.049491014 0.03616107
-0.020466471 0.01713403 -0.023109408 0.052395765 -0.04417331 0.06733606 0.036777005 0.05844056
0.00033620093 -0.014124856 0.029237544 -0.024239043 0.075225405 0.0365055 -0.062954865 0.039132897
0.025660705 0.016223866 -0.034335475 -0.012944315 0.04095008 0.005403252 -0.004641481 0.043268334
-0.040428225 -0.06707462 0.019944664 0.026695302 0.023523102 -0.03165489 -0.051652715 -0.038393833
0.036681294 -0.01639038 0.024197144 0.059395242 0.020651212 -0.04246824 0.049628474 -0.048936874
-0.062324103 0.015413984 -0.060745943 0.025597753 0.011990858 -0.013232151 -0.02318215 0.03323812
0.036672305 -0.050439943 -0.05950239 0.041593198 -0.07621473 0.0323749 0.0003928658 -0.032241438
-0.031004513 0.04821929 -0.0025231321 -0.055436723 -0.021991026 0.01717679 -0.02377851 -0.048954256
-0.035056025 -0.0048469333 -0.058743365 -0.054748368 0.034485642 -0.059173554 -0.029128853 0.06894656
-0.048106745 0.035465244 -0.014891175 0.038442276 -0.015000941 0.031885922 0.0029668312 -0.011584728
0.04924208 -0.046729054 -0.028552132 -0.056090824 0.036531225 0.073150225 0.050335906 0.011751236
-0.03257776 0.04001027 -0.0152546335 0.029448513 -0.041467126 0.03632576 -0.03802401 -0.023385337
0.027918192 -0.010578787 0.057953004 0.05892106 0.057862684 -0.008998606 -0.013896356 -0.022326337
0.03736191 -0.025126005 -0.0065094517 -0.0142182475 -0.038670845 0.014833346 -0.037453413 0.05732714
-0.0052671586 -0.035961483 0.0265918 -0.055055235 -0.0077942195 0.010396803 -0.041866872 -0.025397241
-0.05187882 -0.03176451 -0.022758229 -0.00409785 -0.06575313 -0.04926363 -0.06552626 0.06011962
0.006733266 -0.020328404 0.014300251 0.011555118 -0.005577069 0.038105063 0.03177244 -0.018337071
0.016864685 0.00088391703 -0.057784617 0.017545074 -0.032935243 8.621149e-05 -0.037116185 -0.017154058
0.046455022 -0.06566648 0.059846245 0.016743686 -0.030022249 0.021464704 0.0014631258 -0.010021901
-0.027766107 0.0036447824 0.052094895 -0.018347016 -0.049569674 0.022362985 -0.033155233 0.009657004
0.024870621 0.02615157 -0.011004752 -0.02557072 -0.0087105585 -0.003264988 -0.017197004 -0.00648488
0.016604377 0.0059455372 -0.00037556505 0.019083688 -0.009251783 0.032787293 0.025210535 0.060783774
00000000: 2a45 20bd 043a 08bc 6203 693d ceaf 593d
00000010: 8e16 4dbd 7c81 79bd 7a5f 633b 8d86 95bd
00000020: 91f5 1f3d edf2 20bd 0ce8 fbbc 5268 febc
00000030: 9983 7d3d 659d 5f3c 57aa 543d ad43 583d
00000040: 793c 6cbd b646 48bc f43b c3bc 48ac 1fbc
00000050: 723d ad3c 916f 5e3a 17b7 4a3d a11d 143d
00000060: 4da9 a7bc aa5c 8c3c f14f bdbc f19c 563d
00000070: 13ef 34bd 7de7 893d 7ca3 163d 5e5f 6f3d
00000080: 2044 b039 f16b 67bc 9383 ef3c f590 c6bc
00000090: c70f 9a3d cb86 153d 7bee 80bd d149 203d
000000a0: 6636 d23c eae7 843c 5ba3 0cbd 6414 54bc
000000b0: 45bb 273d c30d b13b 9117 98bb 233a 313d
000000c0: 1198 25bd 6b5e 89bd fe62 a33c 1bb0 da3c
000000d0: 85b3 c03c 8fa8 01bd cc91 53bd da42 1dbd
000000e0: 203f 163d 1e45 86bc 1739 c63c 6d48 733d
000000f0: bb2c a93c 2df3 2dbd 3a47 4b3d 0872 48bd
00000100: 8f47 7fbd ef8a 7c3c bdd0 78bd 61b2 d13c
00000110: 4e75 443c aacb 58bc 7ee8 bdbc b224 083d
00000120: b335 163d 1d9a 4ebd c7b8 73bd a15d 2a3d
00000130: 7816 9cbd 8b9b 043d 8ef9 cd39 990f 04bd
00000140: 2dfd fdbc 9781 453d 225b 25bb 9e11 63bd
00000150: 8626 b4bc 57b6 8c3c 26cb c2bc 4284 48bd
00000160: e896 0fbd 06d3 9ebb e29c 70bd d33f 60bd
00000170: d140 0d3d f85f 72bd a29f eebc db33 8d3d
00000180: 940b 45bd 0144 113d 1dfa 73bc a675 1d3d
00000190: 82c6 75bc d09a 023d 2b6f 423b dfcd 3dbc
000001a0: 10b2 493d f766 3fbd 29e6 e9bc 7ebf 65bd
000001b0: c4a1 153d c9cf 953d 062d 4e3d 4288 403c
000001c0: 4270 05bd cfe1 233d 92ee 79bc 023e f13c
000001d0: 6fd9 29bd 52ca 143d 10bf 1bbd 9b92 bfbc
000001e0: b1b4 e43c a652 2dbc 2160 6d3d 3657 713d
000001f0: 6c01 6d3d e46e 13bc 8bad 63bc b9e5 b6bc
00000200: cd08 193d 0dd5 cdbc 3d4d d5bb a7f3 68bc
00000210: 5265 1ebd 9007 733c c068 19bd ddcf 6a3d
00000220: 2198 acbb 594c 13bd 0cd7 d93c 9981 61bd
00000230: a766 ffbb 5a57 2a3c 997c 2bbd e00d d0bc
00000240: e37e 54bd 811b 02bd 776f babc 4247 86bb
00000250: 94a9 86bd a9c8 49bd a232 86bd fe3f 763d
00000260: bba2 dc3b c187 a6bc 9a4b 6a3c ad51 3d3c
00000270: d8bf b6bb 0e14 1c3d d123 023d a037 96bc
00000280: cf27 8a3c abb6 673a 90af 6cbd b0ba 8f3c
00000290: 1be7 06bd 71cc b438 2407 18bd ab86 8cbc
000002a0: 9f47 3e3d 267c 86bd 5621 753d 0e2a 893c
000002b0: 38f1 f5bc bfd6 af3c 5bc6 bf3a e632 24bc
000002c0: bf75 e3bc 4ddd 6e3b 7561 553d 7b4c 96bc
000002d0: 9209 4bbd 9432 b73c c8cd 07bd 6938 1e3c
000002e0: 79bd cb3c d13b d63c 464d 34bc b079 d1bc
000002f0: bbb6 0ebc 69f9 55bb bbe0 8cbc 1e7f d4bb
00000300: e705 883c c8d2 c23b 7de7 c4b9 6555 9c3c
00000310: ca94 17bc f84b 063d 5386 ce3c 68f8 783d
