imdb_train/train/pretrained_hgnn/decoder_m.pth (torch, 135200 bytes, 4 tensors)

weight f4 [128, 128]
-0.011285821 0.05722802 -0.01812876 0.02106794 -0.088096194 0.086358346 -0.061916906 0.014878132
0.009339493 0.04387898 -0.0050096028 0.018458417 0.019675555 -0.0036372158 -0.04935387 0.07194588
-0.09702243 0.06847149 -0.09057349 -0.056340076 0.045497127 0.06361514 0.024654934 -0.01950633
-0.0048411433 0.06546536 0.014373454 0.016686529 0.01834655 -0.024691194 0.0956085 0.03318433
0.04326163 0.00063293107 -0.067097664 -0.026877815 0.09063184 0.012801355 0.020095011 -0.051910315
-0.0048628286 0.031378355 0.045459997 -0.11743447 0.02489715 -0.004571265 -0.06762678 -0.0057941577
0.00020856492 -0.06804752 0.11952224 0.028699098 -0.051821705 0.025694102 -0.020237798 -0.026288657
-0.0001937126 -0.03436912 -0.090008914 -0.056816503 0.043207455 0.027440384 0.07516258 0.14943267
-0.007336548 -0.043117285 -0.025950197 -0.037505858 0.082549505 0.05509555 0.008716388 0.021258617
-0.020908311 0.017225105 0.011342581 -0.0068469797 0.025605218 0.041522216 0.06706528 0.048111055
1.9185876e-07 -0.03200109 -0.07491017 0.0482553 -0.017117709 0.0915151 0.024385571 0.044814333
-0.011066859 -0.028821304 0.047121137 -0.0048913234 -0.06260269 0.014222615 0.046615873 -0.03765539
0.04491401 -0.0020111029 0.007010653 -0.0027926627 -0.019937752 0.08614517 -0.06623832 0.09379108
-0.002862276 -0.01594903 0.003453682 0.010707795 -0.016776318 0.0012589627 -0.06970464 0.00025514342
0.033759464 0.024236765 0.014400068 0.03288279 -0.00036534172 0.07263414 0.051551558 -0.071355596
-0.051405594 0.048564512 -0.006472532 -0.02512527 0.017772704 -0.027613869 0.051619135 0.0055743023
0.04038346 -0.14289239 0.08815489 -0.03572948 -0.01426566 0.028073294 0.09913647 -0.010521181
0.033770323 0.033277694 -0.0586867 0.0059008617 -0.014469046 0.021878252 0.0012214622 -0.018812105
-0.026000742 0.042251337 0.04721435 0.02748202 0.049162004 -0.05371107 -7.543538e-05 -0.013810947
0.00028520118 0.02107518 0.022091085 0.0057382644 0.008215472 0.06326666 0.032213334 -0.0001818714
7.9993e-05 -0.042573962 -0.008432243 0.031811073 0.0885505 -0.026181158 0.031013723 -0.01607614
0.034149118 0.0009002649 -0.050190166 0.028166423 0.0021322756 0.059634298 -0.00911559 0.00601924
0.010896728 -0.047250632 -0.05662581 -0.0025318481 0.0010478696 0.003532534 -0.03321179 0.0052142967
2.0777651e-07 -0.022119913 -0.012318101 0.083029546 -0.06324477 -0.10161777 -0.0586146 -0.023998803
-0.013815679 0.02499782 0.0286069 0.10078771 0.029318439 0.009975349 -0.017558536 -0.05026613
-0.021267029 -0.05197751 0.02653189 -0.018791424 -0.035497982 -0.059233904 -0.086581096 5.795761e-07
-0.0136857955 -0.04431222 -0.021604799 -0.019736426 0.029736552 -0.025772063 -0.018984031 -0.079523616
-0.050714385 0.032426313 0.11267814 -0.007457047 0.023167739 0.06026045 0.027172705 0.035569057
-0.03698146 -0.07422875 -0.018848412 -0.004903576 -0.03062864 -0.028735446 0.026791941 -0.055619698
0.0032987515 -0.00043829263 -0.00677744 -0.029023014 0.11877135 -0.007196509 0.029403094 0.0036923178
-0.024001736 0.0067821234 0.032086994 -0.018199189 0.019396447 -0.063274175 0.006057416 0.07769152
0.012774256 0.06310709 0.027917264 0.024721151 -0.00062410306 -0.00457793 -0.085154064 0.079575576
00000000: 2ae8 38bc ee67 6a3d c482 94bc ac96 ac3c
00000010: c76b b4bd a5dc b03d 959c 7dbd 69c3 733c
00000020: ac04 193c 72ba 333d 9827 a4bb 1b36 973c
00000030: a12e a13c 5b5e 6ebb 4927 4abd 5d58 933d
00000040: b2b3 c6bd c83a 8c3d 987e b9bd dac4 66bd
00000050: 325b 3a3d a848 823d 25f9 c93c bdcb 9fbc
00000060: 74a2 9ebb b412 863d a37e 6b3c 30b2 883c
00000070: 814b 963c 3045 cabc 64ce c33d 4bec 073d
00000080: 1b33 313d 49eb 253a 806a 89bd dd2e dcbc
00000090: 309d b93d c6bc 513c 4b9e a43c e99f 54bd
000000a0: 5d58 9fbb 9786 003d 4334 3a3d 7c81 f0bd
000000b0: 1cf5 cb3c 8dca 95bb e97f 8abd ebdc bdbb
000000c0: 38b2 5a39 805c 8bbd 13c8 f43d 5f1a eb3c
000000d0: ff42 54bd 707c d23c bdc9 a5bc 4f5b d7bc
000000e0: 551f 4bb9 a2c6 0cbd 9856 b8bd 6cb8 68bd
000000f0: 4dfa 303d a8ca e03c d7ee 993d e104 193e
00000100: 6d67 f0bb c09b 30bd 8295 d4bc be9f 19bd
00000110: b70f a93d dfab 613d 2ecf 0e3c 8d26 ae3c
00000120: e847 abbc aa1b 8d3c 3cd6 393c a15c e0bb
00000130: 09c2 d13c 3313 2a3d 8659 893d 1910 453d
00000140: bc01 4e34 9313 03bd 816a 99bd 59a7 453d
00000150: 703a 8cbc 456c bb3d 40c4 c73c 3c8f 373d
00000160: c551 35bc a81a ecbc 1802 413d 6547 a0bb
00000170: d735 80bd f905 693c 49f0 3e3d 8a3c 1abd
00000180: c1f7 373d b5cc 03bb 9fb9 e53b 1b05 37bb
00000190: 7f54 a3bc e16c b03d f5a7 87bd 8a15 c03d
000001a0: 0695 3bbb 8aa7 82bc 2b57 623b bf6f 2f3c
000001b0: 7d6e 89bc c703 a53a 4ec1 8ebd c5c4 8539
000001c0: 5d47 0a3d 2e8c c63c 43ee 6b3c 1bb0 063d
000001d0: 568b bfb9 35c1 943d ba27 533d e222 92bd
000001e0: ac8e 52bd 95eb 463d 8917 d4bb 83d3 cdbc
000001f0: 1098 913c 7b36 e2bc 966e 533d a3a8 b63b
00000200: 2069 253d 6252 12be 8d8a b43d 1359 12bd
00000210: 84ba 69bc f7f9 e53c 1008 cb3d 0861 2cbc
00000220: c052 0a3d 314e 083d 7761 70bd 045c c13b
00000230: 940f 6dbc 053a b33c 7819 a03a d81b 9abc
00000240: 82ff d4bc bd0f 2d3d d663 413d f921 e13c
00000250: 195e 493d 2400 5cbd 1033 9eb8 4f47 62bc
00000260: 0e87 9539 dba5 ac3c 5df8 b43c 0d08 bc3b
00000270: 309a 063c f391 813d 21f2 033d bbb4 3eb9
00000280: eac1 a738 0962 2ebd 6427 0abc 544c 023d
00000290: f759 b53d de79 d6bc 7e10 fe3c 1cb2 83bc
000002a0: f2df 0b3d c1ff 6b3a 3494 4dbd 45bd e63c
000002b0: a6bd 0b3b 1843 743d 8e59 15bc 0b3d c53b
000002c0: 3188 323c e189 41bd 77f0 67bd 5ded 25bb
000002d0: ab58 893a 1682 673b 1609 08bd b1dc aa3b
000002e0: 2c19 5f34 d234 b5bc dcd1 49bc 650b aa3d
000002f0: 7986 81bd fa1c d0bd dd15 70bd 2399 c4bc
00000300: 285b 62bc 3ac8 cc3c 0459 ea3c c969 ce3d
00000310: 392d f03c a56f 233c ebd6 8fbc dce3 4dbd
00000320: 3138 aebc 5fe6 54bd 6859 d93c 79f0 99bc
00000330: 5566 11bd 409f 72bd 6e51 b1bd 2b94 1b35
00000340: 633a 60bc bb80 35bd 8cfc b0bc 49ae a1bc
00000350: 129a f33c ef1f d3bc 6684 9bbc 47dd a2bd
00000360: e3b9 4fbd 74d1 043d ccc3 e63d 3e5a f4bb
00000370: 45ca bd3c a9d3 763d 4b99 de3c dcb0 113d
00000380: df79 17bd 3e05 98bd fc67 9abc 2dae a0bb
00000390: eae8 fabc 9966 ebbc c67a db3c 7bd1 63bd
000003a0: de2f 583b a4ca e5b9 4a15 debb acc1 edbc
000003b0: 653e f33d b1d0 ebbb c2de f03c d0fa 713b
000003c0: 4a9f c4bc 933c de3b a76d 033d 7716 95bc
000003d0: 4ce5 9e3c e495 81bd 4a7d c63b bb1c 9f3d
000003e0: 1d4b 513c 4a3e 813d bfb2 e43c 0384 ca3c
000003f0: d99a 23ba 7602 96bb 4165 aebd 85f8 a23d

bias f4 [128]
-0.017497567 -0.0032272276 -0.022511905 -0.07862807 -0.011397971 0.07606919 0.029079674 -0.005688967
-0.0072189975 0.045988996 -0.08043742 -0.09955636 -0.06646906 -0.04626763 0.038086284 0.01876024
0.06775758 -0.058843665 -0.065395564 -0.031432807 -0.031105094 -0.0035835817 -0.063136786 0.06714519
0.06532863 0.06211157 0.060852002 0.05084269 0.03709934 0.07989594 0.07891067 -0.024300506
-0.030251974 0.032813586 0.042394053 0.010698879 0.032861445 0.009368081 0.061918084 0.027446937
0.014025227 0.043270644 0.00074836 -0.04013683 -0.012101962 0.081656024 0.07708095 -0.023396274
-0.0012017668 -0.081337355 0.011663883 0.052073833 -0.10327359 0.081293106 -0.077518 -0.082029566
0.03410576 0.0097102 0.042421617 0.0745103 0.04503185 -0.03316729 -0.04362168 -0.101026565
-0.09066034 -0.07271207 0.0092649 -0.054945447 0.015389657 -0.06660533 0.0719571 0.09839368
0.007017765 0.021020833 -0.015367192 0.013389015 0.043022122 0.09356704 -0.053263202 -0.019862376
-0.009706103 0.022111181 -0.040228214 0.08412706 -0.009696645 -0.00056622433 -0.044144887 0.043463405
0.0069543794 0.034786712 0.02980867 0.016337857 0.07802063 -0.036541373 -0.09671855 0.015801856
0.010587845 0.04646778 -0.068576716 -0.024098398 -0.023129463 -0.051604908 0.021758325 -0.025361639
0.05268401 0.012368163 -0.033306424 0.029483711 0.08106995 -0.009497329 0.061584 0.07124228
-0.071552046 -0.028180437 0.029753106 0.018216347 -0.076353766 -0.0646733 -0.023956008 -0.049935367
-0.045450594 0.009861534 -0.06797671 -0.045077175 0.00870403 -0.009430836 -0.013183665 -0.059198245
00000000: 0f57 8fbc e57f 53bb e36a b8bc c107 a1bd
00000010: 8ebe 3abc 2aca 9b3d 7f38 ee3c 846a babb
00000020: 578d ecbb f55e 3c3d 60bc a4bd 34e4 cbbd
00000030: ee20 88bd 2083 3dbd 5d00 1c3d 13af 993c
00000040: 7cc4 8a3d 0e06 71bd 1cee 85bd b0bf 00bd
00000050: 1cd0 febc 86da 6abb dc4d 81bd 6b83 893d
00000060: 04cb 853d b468 7e3d f33f 793d 6d40 503d
00000070: 7af5 173d 7ca0 a33d eb9b a13d db11 c7bc
00000080: fdd2 f7bc 8a67 063d 63a5 2d3d 5a4a 2f3c
00000090: b999 063d 947c 193c d19d 7d3d 66d8 e03c
000000a0: 11ca 653c 8f3c 313d 972d 443a 8466 24bd
000000b0: 4f47 46bc 463b a73d 9edc 9d3d 8ba9 bfbc
000000c0: 9a84 9dba 3394 a6bd df19 3f3c 5f4b 553d
000000d0: 1b81 d3bd 007d a63d c2c1 9ebd 1eff a7bd
000000e0: 7bb2 0b3d 8817 1f3c 4ac2 2d3d db98 983d
000000f0: 5173 383d 6dda 07bd a6ac 32bd 04e7 cebd
00000100: 21ac b9bd 11ea 94bd cfcb 173c 7a0e 61bd
00000110: e624 7c3c 6068 88bd 3e5e 933d a082 c93d
00000120: 48f5 e53b e233 ac3c adc6 7bbc 995d 5b3c
00000130: f737 303d 14a0 bf3d 842a 5abd 6cb6 a2bc
00000140: 5906 1fbc 8222 b53c 57c6 24bd cf4a ac3d
00000150: adde 1ebc ac6e 14ba 45d1 34bd af06 323d
00000160: 90e1 e33b 837c 0e3d 5031 f43c f8d6 853c
00000170: 48c9 9f3d 68ac 15bd 6014 c6bd e572 813c
00000180: a478 2d3c 0055 3e3d f371 8cbd 016a c5bc
00000190: 007a bdbc ab5f 53bd 843e b23c 36c3 cfbc
000001a0: 30cb 573d d6a3 4a3c 516c 08bd d387 f13c
000001b0: 0008 a63d af9a 1bbc 813f 7c3d 79e7 913d
000001c0: e189 92bd a9da e6bc c9bc f33c 733a 953c
000001d0: 5d5f 9cbd 6f73 84bd 643f c4bc 0789 4cbd
000001e0: 672a 3abd 4692 213c 6037 8bbd d8a2 38bd
000001f0: 599b 0e3c cb83 1abc 4d00 58bc dc79 72bd

weight f4 [128, 128]
-0.0008615741 0.0062344857 -0.06581052 0.039141707 -0.05995787 0.024256935 -0.06415318 0.032943584
-0.032095827 -0.021548867 -0.05990613 0.024885561 -0.008627062 -0.012668478 -0.025846412 0.014702782
0.015701035 -0.0009882362 -0.044639405 -0.044019796 0.103096135 0.026652416 -0.04083455 0.01331412
-0.00011000052 0.007625819 0.07262877 -0.0155025525 0.02794911 -0.037055217 -0.008459288 0.00034371534
-0.00076532195 -0.03387323 0.07808567 -0.020507745 0.12232542 -0.07027761 0.026073653 0.030175108
0.040071547 -0.0161332 -0.008403332 0.007496183 0.008049101 -0.0029324482 0.02761112 0.017611828
1.0778171e-08 -0.033300575 -0.09546221 0.012224441 -0.009643888 0.030803178 0.075933985 0.006152224
-0.01671167 -0.049223874 0.0048566344 0.06641867 0.004123415 0.05450324 0.053217266 0.049449116
-0.015475009 -0.0026562377 -0.024994154 -0.023485152 -0.07483948 0.08431778 -0.0017885509 0.016845468
0.0027276813 -0.057095964 0.009055525 -0.024860982 -0.028588675 -0.02752961 -8.035248e-05 0.012779093
-6.9461805e-08 0.069302484 -0.02261491 0.090418845 0.020878468 -0.085809484 0.020870507 -0.0045345714
0.012136937 0.003826793 -0.001108778 0.05153138 -0.0701201 -0.0064448323 -0.028677018 -0.035039403
0.017360786 -0.03573731 -0.030043928 0.057532776 -0.07303522 0.011458425 0.04852514 0.08023395
0.002149372 -0.040174615 0.012167686 -0.022999661 0.012029047 0.02828685 -0.035041872 -0.019850975
0.046876036 -0.0833122 0.009177936 0.046638854 0.05784945 -0.031369377 -0.011461141 0.009513696
-0.030243145 0.060901687 0.0680468 -0.018719712 -0.0375293 0.09378021 0.0770334 -0.055928666
0.064969085 0.00034590097 0.026572714 -0.075684205 -0.00035664154 0.015470796 0.036712836 -0.031267148
-0.012408565 0.004858013 0.032606106 0.022881238 0.019206943 0.06149127 -0.036213037 -0.08225257
0.055059902 -0.0399472 8.5625055e-05 -0.0026076492 0.04304331 -0.099566326 -0.01260114 0.0008974421
0.024681704 -0.090454765 0.02928794 0.015619258 -0.025903128 0.052811373 0.027649663 -0.029253524
-0.020426068 -0.03478621 -0.053761754 0.032646444 0.037711415 0.035727542 0.053182337 0.083845004
-0.065068364 0.040380225 -0.072472624 0.08092888 0.10610524 0.09448761 -0.027542146 0.032095063
-5.8086255e-07 -0.050976895 -0.03420353 -0.004000221 -0.0009992325 -0.0012786345 -0.050944466 0.009473286
-0.037852433 0.041836932 0.06483364 -0.010101381 -0.049987957 -0.09720915 -0.07816935 -0.046344135
0.0030376448 -0.005664017 -0.030630779 -0.019270899 0.08507513 0.011048624 0.054781374 -0.046064004
-0.05048364 -0.01631648 0.07203191 0.058941845 -0.033984326 -0.09388057 -0.07209218 -0.005335356
-0.028021054 -0.012395275 0.070233226 -0.06509697 0.06305923 0.026949301 -0.03321423 -0.038899694
0.08179169 0.018795053 0.03894909 -0.03154336 0.0427756 -0.022336494 0.048015162 0.036514465
0.059438303 0.0034569346 0.008059263 -0.012801212 0.0013630341 -0.08918813 -0.051863085 0.020115554
0.0009372221 -0.047306947 0.000898003 -0.012799524 0.017421333 -0.0023791587 -0.066763565 0.07314836
0.009273622 -0.08558422 -0.0018779536 0.014370692 0.011947508 -0.08371298 -0.02325334 0.009092166
0.07234746 -0.0131741315 0.00029348838 0.007997655 0.0017481338 -0.058043137 -0.09799933 -0.0055161053
00000000: 42db 61ba a84a cc3b aac7 86bd 0e53 203d
00000010: 6296 75bd 7bb6 c63c be62 83bd daef 063d
00000020: ea76 03bd 4087 b0bc 2160 75bd cedc cb3c
00000030: 8558 0dbc 738f 4fbc dbbb d3bc f0e3 703c
00000040: 759f 803c b487 81ba cfd7 36bd 1a4e 34bd
00000050: 1124 d33d 2b56 da3c 2142 27bd 7723 5a3c
00000060: 14b0 e6b8 02e2 f93b 64be 943d 6bfe 7dbc
00000070: 88f5 e43c 36c7 17bd d398 0abc b134 b439
00000080: e39f 48ba a8be 0abd 61eb 9f3d dcff a7bc
00000090: c085 fa3d b5ed 8fbd 6a98 d53c ca31 f73c
000000a0: 1022 243d c629 84bc 21ae 09bc 8aa2 f53b
000000b0: 60e0 033c 512e 40bb b730 e23c ae46 903c
000000c0: e62a 3932 2f66 08bd b181 c3bd 0649 483c
000000d0: 6601 1ebc f256 fc3c 4783 9b3d 9898 c93b
000000e0: eae6 88bc f99e 49bd 6724 9f3b 8306 883d
000000f0: b61d 873b ca3e 5f3d 59fa 593d 288b 4a3d
00000100: e48a 7dbc 4614 2ebb 8ac0 ccbc ef63 c0bc
00000110: 7145 99bd cdae ac3d cf6d eaba 82ff 893c
00000120: e6c2 323b 75dd 69bd a05d 143c 42a9 cbbc
00000130: cc32 eabc c785 e1bc e982 a8b8 675f 513c
00000140: 082b 95b3 76ee 8d3d e742 b9bc 842d b93d
00000150: 5209 ab3c e2bc afbd a0f8 aa3c be96 94bb
00000160: 01da 463c efca 7a3b 6a54 91ba 9112 533d
00000170: 219b 8fbd 2c2f d3bb 11ec eabc 7a85 0fbd
00000180: 3538 8e3c 4961 12bd af1e f6bc 7da7 6b3d
00000190: 7d93 95bd 1ebc 3b3c 4cc2 463d b251 a43d
000001a0: 7adc 0c3b 238e 24bd f95a 473c c969 bcbc
000001b0: 7b15 453c d3b9 e73c 1188 0fbd 839e a2bc
000001c0: 1601 403d 969f aabd 0e5f 163c 6208 3f3d
000001d0: 8bf3 6c3d 2d7d 00bd 82c7 3bbc 55df 1b3c
000001e0: 79c0 f7bc 0c74 793d 1f5c 8b3d 155a 99bc
000001f0: 53b8 19bd d70f c03d b0c3 9d3d 7515 65bd
00000200: 830e 853d 0b5a b539 05af d93c 5200 9bbd
00000210: 9efb bab9 3979 7d3c 3360 163d fb11 00bd
00000220: 4b4d 4bbc f72f 9f3b fb8d 053d 6f71 bb3c
00000230: e157 9d3c 45de 7b3d 1f54 14bd 0974 a8bd
00000240: 7e86 613d ad9f 23bd 9a91 b338 18e5 2abb
00000250: 2f4e 303d 6ee9 cbbd 0375 4ebc 5242 6b3a
00000260: 4931 ca3c 5940 b9bd 43ed ef3c ebe7 7f3c
00000270: cc32 d4bc bd50 583d 8c81 e23c 16a5 efbc
00000280: 9254 a7bc fc7b 0ebd 4935 5cbd 47b8 053d
00000290: 4977 1a3d 0b57 123d b9d5 593d eeb6 ab3d
000002a0: 9042 85bd bc65 253d 876c 94bd 0abe a53d
000002b0: b44d d93d b882 c13d 11a0 e1bc 1d76 033d
000002c0: 92ec 1bb5 26cd 50bd 0019 0cbd 4914 83bb
000002d0: aef8 82ba db97 a7ba 25ab 50bd d735 1b3c
000002e0: 270b 1bbd 345d 2b3d 80c7 843d 4380 25bc
000002f0: 2cc0 4cbd 9715 c7bd 4117 a0bd 59d3 3dbd
00000300: 3913 473b 3899 b9bb 66ed fabc 01de 9dbc
00000310: df3b ae3d 4a05 353c 6f62 603d 9cad 3cbd
00000320: efc7 4ebd 23aa 85bc 7785 933d 016d 713d
00000330: 2633 0bbd 7544 c0bd 11a5 93bd 36d4 aebb
00000340: 698c e5bc 8d15 4bbc 70d6 8f3d 8f51 85bd
00000350: 3325 813d c8c4 dc3c a50b 08bd 4955 1fbd
00000360: 6782 a73d 15f8 993c 1589 1f3d 9c33 01bd
00000370: 7835 2f3d 06fb b6bc 8cab 443d 3190 153d
00000380: 9475 733d bd8d 623b 000b 043c 2dbc 51bc
00000390: d6a7 b23a 44a8 b6bd 636e 54bd 60c9 a43c
000003a0: e9af 753a eec4 41bd f667 6b3a 18b5 51bc
000003b0: 2fb7 8e3c a9eb 1bbb 56bb 88bd cfce 953d
000003c0: 64f0 173c c846 afbd ab25 f6ba 0d73 6b3c
000003d0: 7bbf 433c b671 abbd ca7d bebc 4ff7 143c
000003e0: e82a 943d 50d8 57bc 58df 9939 9908 033c
000003f0: a321 e53a a4be 6dbd dfb3 c8bd 72c0 b4bb

bias f4 [128]
-0.033867836 -0.01443462 -0.048845775 0.012293489 0.023742197 -0.062208965 0.05562347 -0.064093575
0.08836547 -0.02825072 -0.04227673 0.05748297 0.09547264 0.08041437 -0.0092283245 -0.026688728
0.026702099 0.057824653 0.0781689 0.0028619573 -0.0073897596 -0.046197396 -0.06412831 0.07566006
-0.012479159 -0.07601124 0.04701793 0.03006054 0.01860752 -0.033213794 0.0011363517 -0.07035796
-0.004738072 0.054620516 -0.06588099 0.06655569 -0.051276483 0.03313322 -0.0973934 0.08470421
-0.0023050392 0.04068653 -0.062007353 -0.019184133 -0.034473583 0.06624769 -0.050589282 0.05176284
-0.06960731 0.05065475 -0.06322259 -0.06104269 -0.01673382 -0.031444225 0.094039805 0.05861394
0.006188078 0.07549059 0.057999775 -0.08400991 -0.08759089 0.060082808 0.029650113 0.031532466
-0.0086299665 0.06862907 -0.06510278 0.087427355 0.07471189 -0.051482458 0.058585882 -0.007814065
0.07042369 -0.00049829617 -0.01868201 -0.09570934 -0.10064732 -0.076403566 -0.021923881 -0.042891063
0.046170164 -0.1003855 -0.07161493 -0.06550021 0.06173645 -0.024700828 -0.063257776 -0.04678264
-0.09054899 -0.056682438 0.06553229 -0.048186682 -0.08382246 0.042398293 0.08509381 -0.06191841
-0.036954705 0.0011227813 0.050942834 0.032168865 0.026146617 0.023311993 -0.016589796 0.009166583
-0.024840558 0.072756335 0.09209798 0.039036393 0.031246569 -0.029439634 -0.08402868 -0.029355261
0.07958771 -0.04117354 0.023760244 -0.0005389737 0.0007475951 0.09101886 0.07430203 -0.039132845
0.008995448 -0.024818508 0.09812729 0.01503701 -0.0033699227 -0.0029283816 0.038098294 -0.012972775
00000000: 00b9 0abd 2f7f 6cbc 8212 48bd a16a 493c
00000010: ff7e c23c d4ce 7ebd 70d5 633d 7e43 83bd
00000020: f5f8 b43d 0e6e e7bc 5d2a 2dbd 4373 6b3d
00000030: 2987 c33d 4ab0 a43d 6632 17bc 52a2 dabc
00000040: 5cbe da3c 8bd9 6c3d 0417 a03d ad8f 3b3b
00000050: cc25 f2bb 7b39 3dbd b455 83bd a9f3 9a3d
00000060: 6375 4cbc c8ab 9bbd df95 403d 8641 f63c
00000070: cc6e 983c 300b 08bd a3f1 943a d617 90bd
00000080: d441 9bbb c3b9 5f3d 9dec 86bd 594e 883d
00000090: 4a07 52bd b3b6 073d 3176 c7bd 6779 ad3d
000000a0: 2410 17bb eba6 263d 6cfb 7dbd 0b28 9dbc
000000b0: 2c34 0dbd deac 873d b536 4fbd 4605 543d
000000c0: 478e 8ebd 5b7b 4f3d d87a 81bd e607 7abd
000000d0: 5d15 89bc a9cb 00bd f197 c03d 2c15 703d
000000e0: 5cc5 ca3b cf9a 9a3d 2c91 6d3d 630d acbd
000000f0: da62 b3bd 6419 763d cbe4 f23c 3028 013d
00000100: b464 0dbc 668d 8c3d 9b54 85bd 1d0d b33d
00000110: 8c02 993d 45df 52bd c0f7 6f3d 9006 00bc
00000120: 4c3a 903d 17a0 02ba 040b 99bc 4203 c4bd
00000130: 2f20 cebd 7979 9cbd b699 b3bc 8aae 2fbd
00000140: ed1c 3d3d ea96 cdbd d9aa 92bd f924 86bd
00000150: 5cdf 7c3d 6459 cabc 4b8d 81bd 279f 3fbd
00000160: c071 b9bd d82b 68bd cb35 863d 665f 45bd
00000170: 1cab abbd d5a9 2d3d aa45 ae3d 299e 7dbd
00000180: d15d 17bd 4a2a 933a 6fa9 503d 80c3 033d
00000190: 6e31 d63c cbf8 be3c 53e7 87bc 702f 163c
000001a0: 6d7e cbbc 4601 953d de9d bc3d a0e4 1f3d
000001b0: cef8 ff3c 632b f1bc 3b17 acbd 727a f0bc
000001c0: e2fe a23d 96a5 28bd d8a4 c23c ea49 0dba
000001d0: 42fa 433a 1968 ba3d aa2b 983d c349 20bd
000001e0: a561 133c 2f50 cbbc f6f6 c83d cb5d 763c
000001f0: ecd9 5cbb 17ea 3fbb f50c 1c3d c38b 54bc
