imdb_train/train/pretrained_hgnn/decoder_a.pth (torch, 135200 bytes, 4 tensors)

weight f4 [128, 128]
00000000: 4811 21bd a2b2 bdbc 1809 c83b 0859 2cbc
00000010: b713 fabc 159f b7bd 6f8e 843d 00b6 88bd
00000020: e3ea a73d 248c 3b3c 4911 89bc 6b34 05bc
00000030: f64f 14bc d1e1 2abd 4c3d 6b3d 5c1d 5fbd
00000040: 5452 9b3c 7e60 993a 7dd7 903d 88d8 0e3d
00000050: ca93 57bb afc2 90bd 2689 623d ab68 0aba
00000060: b053 183d c1de d13c 504a a8bd f9f5 fdbb
00000070: 19f3 faba 5bb0 69bd 8cec f03c eb9d 013d
00000080: 2187 3cbd 4618 113d 61bb 2f3c a06d ad3b
00000090: 1422 03bc ec45 39ba 1967 62b7 0d94 613d
000000a0: 59c4 adbc 172f 263c 543f 193c 7ba6 bdba
000000b0: 635f 98ba 341e 033d 9828 d0bd 63c9 d6b9
000000c0: 5cb9 20bc 450e 20bb 0da3 b8bc 00a8 873d
000000d0: 71a3 e6bc 1c02 383d ee89 b4bd a51a 533b
000000e0: e392 17bd 6f9b d3bc 9b58 d53a 7b0f 49bd
000000f0: 4de4 2f3d 654e 3ebd 2978 24bc 6f97 74bc
00000100: 3c18 093d 2058 0b3d da2e 623c e299 cbbb
00000110: d170 a13d 2c3b 87bc 109e 073b ac21 b4bc
00000120: 25ac 61bc 4763 de3c 01a9 4dbd de93 1bbd
00000130: d581 85bc 77b6 ea3c 07e8 4abb 03ef 6bbb
00000140: b7ee 89bc d24b d3bb 1208 be3d cdbf 863c
00000150: 3048 fc39 cd45 543c f147 a6bb 3353 b6bd
00000160: f8e1 36bd 2925 27bd b670 503d e09e 29bd
00000170: 03f0 8cbd 2147 06bd 285c 163c 218c 80bc
00000180: 052d 8ebd 42a0 1ab6 cb78 2cbd b330 91bd
00000190: 0589 20bc 89ac a23c 3898 09bd 5435 16bd
000001a0: 2990 7fbc 7f43 9c3c d70e 8bbb 817e 29bd
000001b0: 0268 dfbc 16d0 e1bb d4fc 7fbd 8308 54bc
000001c0: f038 4fbb a315 86bc 793a 3a3d e950 043c
000001d0: 938a 0d3e db77 973c 116d 463d 60c0 a63c
000001e0: 376f 5abd e483 93bd dfe3 d1bd de55 b03c
000001f0: bb2e 5abd 88a4 eebc 6500 b5bc 097e 823d
00000200: ebaa 453c 12bc 9fba 851c 213c 2b77 7b3d
00000210: d958 7fbd f842 6ebd 9c44 a63d 9dfd af3b
00000220: e6f6 253c e5f7 533b b00b 50bb f256 723c
00000230: 256b 54bb 5e47 033d 91f5 1ebc 1bad 1b3c
00000240: 7a9b fd3c faa3 f6bc a79a c03c 1dac b3bb
00000250: 3712 743d 6b79 603c 4904 943d f3cb a43d
00000260: b2bd 2cbd 9ddb 893d 5e37 053d 62c5 6fbd
00000270: 63a5 b33b 4170 ec3d de89 ce3c 014f 023c
00000280: 4da7 d53b 7599 933b 4e77 293c 8010 073d
00000290: 6cac a13d 0ddf c73c 404b 8abc 0ca1 b83d
000002a0: f3b1 023d 64ee 74bd c422 993c 79b1 753d
000002b0: a3fa 0e3b 56f2 063c 8213 583d 8936 81bd
000002c0: 1f18 37bd a1dc 783c 3021 ad3c c9ae e13b
000002d0: e4ca 793c 322e 66b4 d87f 613d 4de4 f33c
000002e0: a258 1dbd 1313 2f3d 3079 87bd be9d abba
000002f0: 5310 0b3d 2fa4 a33c 6e1c a4bc ee3c 163d
00000300: cb10 81bd 3377 dabb 9c56 863c b612 98bd
00000310: 3e19 433c 435a cd3c 39ed 2537 8f0e 9d3c
00000320: 8340 91bc 9829 90bd 30b1 89bd 517a 53bc
00000330: 8691 b43c 0ce4 1ebc 7626 213d 9a70 163d
00000340: a563 9e3d 044c d4bb e31c 693c cb64 cf3d
00000350: ffd4 403b 0510 5a3d c34e 493c 73cb 073c
00000360: a5bf 953c 1775 2d3d 5cba 0d3d a000 d13c
00000370: aede 743d 9840 e13d cc58 4b3d 4bd2 6e3d
00000380: fc6f 55ba 7e54 b537 97f3 88bc 5de7 d73b
00000390: 898c 063d 8d80 cdbc 8913 753c 2ce1 463c
000003a0: 4037 4a3d 8bc9 523a 1303 303b 5b29 53bc
000003b0: 883b 1e3d deb7 5d3d 7742 163b f5e9 66b9
000003c0: 3aef a3bb b1e7 11bc 9784 ff3c 013a ba3c
000003d0: af2d fc3d 355a e13c 4aad ec3b 936b 88bd
000003e0: 8eaf 70bc eadd 22bd 79ff 6cbc e0ab 69bc
000003f0: 4614 353c 89c6 683c 2dc5 993d a3a3 31bb
-0.03932312 -0.023156468 0.0061045997 -0.010519274 -0.030526979 -0.08965889 0.064724796 -0.06675339
0.08199098 0.011446986 -0.016731875 -0.008130173 -0.009052267 -0.04171926 0.057431504 -0.05447136
0.018960156 0.001170173 0.07072351 0.03487447 -0.0032894486 -0.07068383 0.055306576 -0.0005279879
0.037189186 0.025618913 -0.08217299 -0.0077502695 -0.0019145935 -0.05705295 0.02940967 0.031644743
-0.046027306 0.03542354 0.010725827 0.0052926093 -0.00800373 -0.0007067609 -1.3494654e-05 0.055072833
-0.02121179 0.010143063 0.0093534775 -0.0014469171 -0.0011625107 0.032011226 -0.10163993 -0.00040967306
-0.009809818 -0.0024422568 -0.022538686 0.0662384 -0.028154107 0.044923887 -0.088153705 0.0032211926
-0.037005316 -0.025830952 0.0016277017 -0.04908703 0.042942334 -0.04646148 -0.010038414 -0.014928683
0.033470377 0.03401959 0.013805116 -0.0062134126 0.07882846 -0.016507708 0.0020693578 -0.021988712
-0.013773953 0.027146949 -0.050210003 -0.037982814 -0.01629726 0.02865146 -0.0030961053 -0.0036000616
-0.01683746 -0.0064482475 0.09278883 0.01644888 0.0004811897 0.012956095 -0.005074494 -0.08902588
-0.044649094 -0.040806923 0.05088874 -0.04141128 -0.06881716 -0.032782678 0.009177245 -0.015691819
-0.069421805 -2.304107e-06 -0.042107385 -0.07089367 -0.009798293 0.019857662 -0.033592433 -0.03667195
-0.015598335 0.019075153 -0.0042437124 -0.04138041 -0.027271274 -0.006891261 -0.062496975 -0.0129414825
-0.003161963 -0.016367739 0.04546592 0.008075931 0.13822393 0.018489769 0.048443858 0.020355403
-0.05332872 -0.072028905 -0.10248541 0.02152532 -0.053267222 -0.029131189 -0.022094915 0.063716955
0.012064676 -0.0012186787 0.00983346 0.061392944 -0.06234059 -0.058169335 0.08118555 0.005370809
0.010129666 0.0032343802 -0.0031745248 0.014791237 -0.0032412496 0.032050483 -0.009702102 0.009501721
0.030957926 -0.030107487 0.023511244 -0.005483164 0.059587684 0.013700823 0.0722738 0.08046713
-0.042173095 0.06731341 0.032523505 -0.05853785 0.005482362 0.11544848 0.025212225 0.007953406
0.006520188 0.0045043775 0.010343386 0.03297472 0.07894215 0.024398351 -0.016881585 0.09015092
0.031907987 -0.05979766 0.018693335 0.059983704 0.0021816872 0.008236488 0.05275298 -0.0630923
-0.044700738 0.015189321 0.02113399 0.006887291 0.015246127 -2.1437225e-07 0.055053562 0.029771948
-0.038414605 0.0427428 -0.066149116 -0.0013093275 0.033951115 0.01997575 -0.020033088 0.0366792
-0.06302031 -0.0066670417 0.01639872 -0.07425444 0.011907874 0.025067454 9.889999e-06 0.019171981
-0.017730957 -0.070391834 -0.06723249 -0.0129075805 0.022042047 -0.009697925 0.03934332 0.03672848
0.077338494 -0.0064787883 0.014228079 0.101266466 0.002942383 0.053237934 0.012286845 0.008288252
0.01827986 0.042347994 0.034601554 0.025512993 0.059782676 0.109986484 0.04964523 0.05830602
-0.0008141992 2.1616226e-05 -0.016717715 0.00658886 0.03284887 -0.025085712 0.014958271 0.012138646
0.049369097 0.00080408965 0.00268573 -0.012888278 0.038630992 0.054130428 0.00229278 -0.00022021665
-0.0050028833 -0.008905337 0.031191153 0.022732737 0.12313401 0.027508834 0.007222806 -0.06661143
-0.014690293 -0.039762415 -0.014465206 -0.01426217 0.011052197 0.014207491 0.075083114 -0.0027105592

bias f4 [128]
00000000: 0723 21bd 6284 793d 13b1 d43b 426e 8a3b
00000010: daad da3c 1fd9 98bd f67b 0f3c 52d3 28bd
00000020: 92b6 983d 3d48 bfbc 857a cb3d 7038 79bd
00000030: 2f29 80bd 47b9 4cb9 8e3f 7fbd 0c32 973d
00000040: 0d69 493d 7868 003d 45cc 0a3d e580 6dbd
00000050: d6ef 97bd fdac ae3d bff5 66bd 84cb a4bd
00000060: b5c0 a2bd 4166 54bd ec3b 323d d287 c83b
00000070: 20ef 833d 0c10 a03d 49b5 33bd cf68 653d
00000080: 11ca 3d3d 99c7 adbd accb abbd a042 bd3d
00000090: 9c29 8ebd 9e9c 083c f3cb 8c3d ffa1 1abd
000000a0: 162b 063d 9145 a2bd 8423 b43d e6e9 cc3d
000000b0: d09b 9dbb ae8e 8a3c 2ca6 aabd 04f3 773d
000000c0: e9ed f33c 6d0d 023d b035 85bd b6a3 c0bd
000000d0: f0d3 78bd f05a 053d 6120 2c3d 82c8 723d
000000e0: 91fc a43d 435f d3bd bc1c e1bb 0ce8 a7bd
000000f0: 510c 88bc bd14 513d 7c59 cfbd 5b96 9a3c
00000100: 699e b5bd 4676 6f3d c58e 63bd 2d65 a7bd
00000110: 2c82 2dbd 383a c0bd cbbd b03c bf67 c7bd
00000120: f4fd ac3d 861f 20bc f461 dfbc 93a4 d23d
00000130: e2c2 0d3d 88d5 483d 9bea b7bd be73 37bd
00000140: 82f1 943c 7eef 263d a939 2b3c 9307 263d
00000150: 5f76 cdbd 5f15 3abd 3357 873d f92f 1d3d
00000160: e720 c33c 4904 28bd 6a64 bbbd 76f5 0dbd
00000170: b072 ce3d 339d 3b3d 521c 6c3d 479b d5bd
00000180: fada 5dbb 31f4 193d d56f c13c 0849 bd3c
00000190: 8ff0 953d eaa4 033d 6539 d6bd bd07 a23c
000001a0: 6451 71bd 1202 013d 3587 9b3d 22df d33d
000001b0: 5b06 c33c 3795 173c cc48 0bbc 5d15 ba3b
000001c0: 1595 aa3d 863e 663b bdc8 d23d f89f a3bc
000001d0: ef1a 6a3d 6f18 873d 0164 43bb 3113 c83d
000001e0: a5f9 5a3d 39c9 5fbc 843e 0dbd 6755 a9bd
000001f0: d199 0b3c 6bce afbc fe79 2b3d 75f2 c13c
-0.039340045 0.060917266 0.0064908355 0.0042245695 0.026694227 -0.074632876 0.008757582 -0.041217156
0.074566975 -0.023349876 0.09935478 -0.06084484 -0.06257855 -0.00019523977 -0.06231647 0.073825926
0.04917245 0.03134963 0.033886213 -0.05798425 -0.07418792 0.08529089 -0.056386705 -0.0804663
-0.07946912 -0.05185533 0.043514177 0.0061197067 0.06442094 0.07815561 -0.04387406 0.056008156
0.046335284 -0.08485336 -0.08388457 0.09241223 -0.0694153 0.008338122 0.06874838 -0.037752148
0.032755934 -0.07923425 0.087958366 0.1000555 -0.004809834 0.016913738 -0.08332476 0.060534492
0.02977653 0.031751085 -0.06504381 -0.094062254 -0.060748994 0.032557428 0.042023066 0.05927325
0.08055986 -0.10320904 -0.0068698805 -0.08198556 -0.016607435 0.05104517 -0.1012449 0.018870523
-0.08868105 0.058462404 -0.055556078 -0.081735946 -0.04236047 -0.09386104 0.021574875 -0.09736585
0.08446875 -0.009773141 -0.027268387 0.10285296 0.034609683 0.049031764 -0.08980294 -0.044788115
0.018181566 0.04075574 0.010450759 0.040534567 -0.10032343 -0.045430537 0.06608429 0.03837583
0.0238194 -0.04101971 -0.09150012 -0.034657918 0.10080469 0.045804214 0.057644196 -0.104300074
-0.0033852444 0.037586395 0.023612896 0.023106113 0.073212735 0.032139696 -0.10460166 0.01977908
-0.05891551 0.031496115 0.07594148 0.103452936 0.023806741 0.009251884 -0.008501243 0.005678816
0.083292164 0.0035132482 0.10292194 -0.01997374 0.057154592 0.06596457 -0.0029814246 0.097692855
0.053460736 -0.013658815 -0.034483448 -0.08268242 0.008520559 -0.021460732 0.041864388 0.023675183

weight f4 [128, 128]
00000000: 29da 273d 169e 1dbd 2c2d 00bb 63b4 debc
00000010: e0f8 2ebc bf49 063d b8b5 8fbc f972 903d
00000020: dc92 d737 c04c a8bd 2876 1bbd c5a8 46bd
00000030: e065 e1bd fb18 903d 0134 84bc 8ecc 8abd
00000040: 9783 1ebc 292b 1fbd a5c3 0839 126f 17bd
00000050: de5a 793d 827c 883d 46a4 133d 1e43 d2bd
00000060: 606c 843d 19d4 07bd a681 d4bb deda 993d
00000070: 52a9 883d 3768 c4bc dfdc 023d 39d6 a23b
00000080: 52a5 a53d 8cca 5abd 2b19 d7bc 84fc 79bd
00000090: 9af6 823c d558 11bc 5ea4 663c dfa9 2ebc
000000a0: b8fa b83c 8eed aa3d f14d 0f3d 32e6 d4bc
000000b0: be34 f9bb 106e 643b 88e2 25bc 9948 863b
000000c0: d99a 4ebb e25c 143b c364 fabc 0d06 be3c
000000d0: 63d6 ebbc 8e89 9ebc 5621 9ebc 0d6a 673c
000000e0: d7d0 53bc 4823 bcb9 b13f 10bd a8f9 59bc
000000f0: bc0a 81bd a7be 483c 0910 2d3d 812c 6b3d
00000100: c3b0 973b 952e 063d bb81 8cbb 26fc 4d3c
00000110: 4dd9 6cbd 99a3 0d3b 6c1d 383d 3fa5 7f3c
00000120: ddb2 ecbc 126d 103d fdef dc3c 067b df3c
00000130: 1a59 8ebd 1565 143d 77ca 293d fc6a 463d
00000140: c063 ac3b 46d6 80bb 2662 683c 9579 e1bc
00000150: 7aa4 92bd 0bea f0bc 360a 81bd f2cb 213c
00000160: 3c86 4f3d 9e65 aa3c 4985 c33c 8e66 09bb
00000170: cd2f 3f3d 8d80 443d 1ebb 4fbc 047a 0fbd
00000180: df2e 45bd 503c a2bc e898 ca3b 2172 693d
00000190: fc24 76bc 0f01 e3bc d81a 85bd e33d 27bc
000001a0: 2997 09bd 534e 08bd 3f20 4b3c 1b11 8f3b
000001b0: dca0 e1bb 8626 533d cc5d 113d 0de1 5b3d
000001c0: eeab b4bc 0a87 783c a9b5 97bc 1fd7 ce3c
000001d0: f89c 5633 ea21 34bd 440f f23c d5f3 933d
000001e0: 1763 253d e1dd a33c d8d0 d03b c3aa 24ba
000001f0: c738 953d 0c19 913b 648d 85bc f241 a6ba
00000200: eaab 693d b4d2 2bbc 4f8a e83b eb26 b7bc
00000210: 9312 b8bb b049 c6bc d194 583c 63fe 033b
00000220: 1d84 d6b0 5b4a 31bd bbcd 7c3c b799 f23c
00000230: 3a47 d8bc 73d2 1c35 992f 6a3d 7437 11bd
00000240: af12 02bb 5afe a3bd de18 983c 67e0 393d
00000250: ec0b 9ebd 5761 1d3c af0a b43b 1730 913d
00000260: 158e 493d 17a9 3b3d 42b1 623c e9d0 a43b
00000270: ec63 0ebd e31c 013d 4be0 52bb 8c3e b53a
00000280: b178 1fbc b332 c23c 970a d43d 32fd 003d
00000290: 2dcb 473c fe2a 65bd e04d b73b 9e5d 943b
000002a0: 155a f9bc 7624 4fbd d175 6cbd c890 173d
000002b0: 7e15 5fbb 089e 593b 97db 613d 6be3 11bd
000002c0: f163 5bbd 2a66 b7bd b3d4 143d f04a a3bd
000002d0: 9579 0e3d b5f4 d03b e0aa 96bc bc6e 94bd
000002e0: 9579 1bbd 51f7 ffbc e27c edbc 4bc8 933c
000002f0: 9f0a ef3c 3806 21bd c2bd 44bd 206e 83bc
00000300: df98 89bc e481 e23c cf41 d53b 06fc d5bc
00000310: 3b1e 6b3d bc18 dfbb 542b 98bd bb00 51bd
00000320: b658 123d b077 d63c 7e98 6ebd ef3a 9d36
00000330: 1c0d c53c 434a 87bc a705 e13c c925 9cbd
00000340: 8c8d 3cbd e8ea b33c 0330 23bd d257 1f3c
00000350: de23 38bd f34d 323c 0100 853c 62bb d13a
00000360: 02ae b7bb a7db cc38 c8a6 b2ba 5d18 18bd
00000370: 8cf1 1e37 fc35 433c 5106 50bd 8753 9bbc
00000380: 6150 9fbd 102d d2bc f0fc 24bd da98 7dbc
00000390: b7f8 4e3b 0f2a c0bd 5d4d 3b3d 592f 35bd
000003a0: 5f7e 73bc bc44 1b3d 797d 0c3c 039e 9ebd
000003b0: c3dc 4bbc 2961 27bd 892d 10bd 178c 483d
000003c0: b221 d6bc 872f 403d b460 abba 957b 0e3c
000003d0: 5f70 d7b4 b6ec 863c 74de 033d 7be5 8d3c
000003e0: 3e8b 33bc ef54 0abd c044 2dbd 1487 113c
000003f0: 10f7 6cbc 3046 193c 8242 4a3d 2c2f 69bd
0.040979538 -0.03848084 -0.0019558175 -0.027185624 -0.010679454 0.032785174 -0.017542705 0.07053179
2.5698384e-05 -0.08217764 -0.03795448 -0.048500795 -0.11005759 0.07036015 -0.016138079 -0.06777297
-0.009674928 -0.03885952 0.00013042854 -0.03697116 0.060877673 0.06664373 0.036045335 -0.10266708
0.064659834 -0.033161256 -0.006485182 0.07512449 0.0667292 -0.023975475 0.03194892 0.004969385
0.08088173 -0.05341582 -0.026257118 -0.061031833 0.01598673 -0.008871277 0.014077274 -0.010660618
0.02258049 0.08346091 0.03498644 -0.025988672 -0.0076051643 0.0034855641 -0.01012481 0.00409801
-0.0031525402 0.002263837 -0.030565625 0.023196245 -0.028788751 -0.0193527 -0.019303005 0.014124406
-0.012928209 -0.0003588444 -0.03521699 -0.013304152 -0.063008755 0.012252486 0.04225162 0.05741549
0.004629226 0.032759268 -0.004287926 0.012572324 -0.05782442 0.0021612404 0.044949934 0.015603363
-0.028893882 0.035260268 0.026969904 0.027280342 -0.069505885 0.03622921 0.04145285 0.048441872
0.0052609146 -0.0039317934 0.014183557 -0.027523795 -0.07160278 -0.029408475 -0.06300776 0.0098752845
0.050665125 0.020800408 0.023867266 -0.0020965668 0.046676446 0.047974158 -0.01267889 -0.035028473
-0.048140403 -0.01980415 0.0061827786 0.056993607 -0.015023466 -0.027710466 -0.06499261 -0.010207626
-0.033591423 -0.03327782 0.012397825 0.004366053 -0.006885631 0.05155041 0.035489842 0.053681422
-0.022054639 0.015168915 -0.01851924 0.025249062 4.996852e-08 -0.043977655 0.029548295 0.07224242
0.040377703 0.020003261 0.0063725524 -0.0006281549 0.0728622 0.0044280346 -0.016302772 -0.0012684448
0.057048716 -0.010487247 0.007096566 -0.022357425 -0.0056174486 -0.024205059 0.013219074 0.002014064
-1.5608098e-09 -0.0432838 0.015429909 0.029614313 -0.026401151 5.842077e-07 0.0571743 -0.035453275
-0.0019847562 -0.08007498 0.018566545 0.045380022 -0.07717118 0.009605727 0.0054944376 0.070892505
0.049207766 0.045815554 0.013836207 0.005029787 -0.03476326 0.03152169 -0.0032177146 0.0013827845
-0.009733365 0.023705816 0.10353582 0.031491466 0.012194437 -0.055949204 0.005594 0.0045277616
-0.030438462 -0.05057188 -0.057729546 0.03700331 -0.003403991 0.0033205766 0.055141058 -0.035617273
-0.05356211 -0.08955033 0.03633566 -0.079732776 0.03478392 0.0063768276 -0.018392026 -0.072476834
-0.037957747 -0.03124586 -0.028990213 0.018039843 0.02917987 -0.03931257 -0.04803253 -0.016043723
-0.016796527 0.027649827 0.006508089 -0.02612115 0.057401877 -0.0068083685 -0.07430139 -0.051026087
0.035729133 0.026180118 -0.058250897 4.6858254e-06 0.024054103 -0.016514903 0.027468516 -0.076243944
-0.046033427 0.021962598 -0.03984071 0.009725528 -0.04495608 0.010882842 0.016235353 0.0016001279
-0.00560546 9.7683915e-05 -0.0013630027 -0.03713261 9.473773e-06 0.011914726 -0.050787274 -0.018960727
-0.07779003 -0.025656253 -0.040280282 -0.015478337 0.003158135 -0.09383022 0.045728076 -0.044234607
-0.014861672 0.037907347 0.008574837 -0.07744982 -0.01244277 -0.040864144 -0.035199676 0.048961725
-0.026139114 0.046920326 -0.0013075084 0.008696456 -4.0128631e-07 0.016470294 0.03219457 0.017321339
-0.010958491 -0.033772405 -0.042301893 0.008882303 -0.014463201 0.009355113 0.049379833 -0.056929752

bias f4 [128]
00000000: 4106 253d b78d 84bd 087f 23bd 43de 8d3d
00000010: 9dfd b0bd fa26 a73c 5dfe 3d3d 872a 1cbb
00000020: e232 65bd 4b1c 97bd 10fc d83b e724 9f3d
00000030: 5282 91bd 4d88 34bd fda5 633c 8de1 0f3a
00000040: ab03 69bd c0de 9dbc 8e2a 433d b01e 8f3d
00000050: b957 713d ffbc 4bbd a17e b43c e3d9 77bd
00000060: 2ed6 84bd 3801 e83b eedf b3bd 49fa 5a3d
00000070: dcf9 91bc b467 06bd 3f74 ae3d 2436 603d
00000080: c863 80bd 045a c7bc 8eb0 703d e656 2bbd
00000090: 6b9a 4abd 90fe 783b 7ecf 8cbd 0196 503d
000000a0: 05bf 283c 0197 4ebc 316a 353d b9bb 35bd
000000b0: dc0a 413b f358 07bd 94dd 1c3d a762 793d
000000c0: 3400 ddbd ad60 14b8 0cf7 87bd 4330 5c3c
000000d0: 9c7d 2dbd bc2b e1bd ca79 8ebd 9dc0 713d
000000e0: 0978 bebd d44a 343c 0c72 893d 8c64 82bd
000000f0: cf1f cbbc 26dd 58bd 8aa2 eb3c 981f 423d
00000100: f9b4 0cbd 4e1d 10bd 703b 58bc 9006 123b
00000110: 1d52 c4bb b702 e43c d4f6 5139 37a3 8abd
00000120: 9a8a 79bd f41f 49bd d06d a93d cf12 6fbc
00000130: 7dd2 50bd fd25 71bd 660b c9bc c000 973b
00000140: 2a83 e3bc f7b2 c2b9 62d3 c3bd 39ab 3abd
00000150: 39e1 d1bb f5b7 41bd 0afa 823d 5554 ad3c
00000160: 8a41 27bd b0f9 b1bd a751 793d 5596 dd3c
00000170: d88d 86bc 8f90 883d f4b7 933d f8a0 503d
00000180: 02b8 5cbd c447 753d 4415 2e3d c3b6 45bd
00000190: 47f6 c4bd 0a28 03bd 1af6 653c 7fff 18bd
000001a0: 84ff aabc dd17 9cbc a398 823d 6863 69bd
000001b0: 3a73 20bd b7a1 7f3d 790b 83bd a00a ff3c
000001c0: 2583 7d3d ad55 733c e620 14bd d03c 1fbd
000001d0: b6f8 223d 80d0 3bbc b73f a13d 3e3a 5ebd
000001e0: 11e3 81bd 3615 f1bc bb11 2e3d 58c4 8e3d
000001f0: ba05 d23b d0d9 6f3d f3ce d73c 98bd afbc
0.040289167 -0.064723425 -0.03991607 0.06927159 -0.08642123 0.020404328 0.046385158 -0.002382906
-0.05595673 -0.07378443 0.006621845 0.077707104 -0.07104935 -0.0440753 0.013894555 0.0005488627
-0.056888264 -0.019271255 0.047648005 0.06988275 0.05892155 -0.049740788 0.022033038 -0.060510527
-0.06486164 0.0070802234 -0.087829456 0.053461347 -0.017819338 -0.032813743 0.08518266 0.054739133
-0.06269032 -0.024334915 0.058762126 -0.04183092 -0.04946367 0.0037993528 -0.068755135 0.050924305
0.010299449 -0.012609244 0.044290725 -0.04436848 0.0029455936 -0.033043813 0.03829725 0.060885098
-0.10791054 -3.5375986e-05 -0.06638917 0.013439241 -0.04235612 -0.1099467 -0.06956823 0.05902158
-0.09300239 0.011004169 0.06711206 -0.06366834 -0.024795441 -0.05294528 0.028764028 0.04739341
-0.034352276 -0.035184197 -0.013197765 0.0022281744 -0.005991234 0.027833326 0.00020023744 -0.06769412
-0.060923196 -0.04910274 0.08272898 -0.014591887 -0.050981987 -0.05887412 -0.024541568 0.0046082437
-0.027772505 -0.00037135903 -0.095618024 -0.045573447 -0.0064050225 -0.047294576 0.063953474 0.021158377
-0.040833987 -0.08690202 0.060868885 0.027049223 -0.016425058 0.06668197 0.07212821 0.05093476
-0.05388642 0.059882894 0.04250075 -0.04827 -0.09617286 -0.032020606 0.014035726 -0.037353035
-0.020873792 -0.019054348 0.063767694 -0.056979567 -0.03917239 0.062410083 -0.063986726 0.031132996
0.061892647 0.01485197 -0.036164187 -0.038876355 0.03978797 -0.0114632845 0.07873481 -0.054254763
-0.063421376 -0.02942906 0.042497378 0.06971043 0.006409374 0.05855733 0.026343798 -0.02145271
