imdb_train/train/pretrained_hgnn/decoder_d.pth (torch, 135200 bytes, 4 tensors)

weight f4 [128, 128]
000000 0f 38 ca 3d 92 cd 59 bd 32 0c 91 bc 4d d3 3b bd
       0.098739736 -0.053174563 -0.01770601 -0.04585581
000010 5d 2c b1 3c b4 0d e4 bc 1c 13 87 3d fa bc cc bc
       0.0216276 -0.027838565 0.06595442 -0.024992455
000020 7d da 4b bc 6a fc 6b 3a f9 77 f9 ba f4 3b b6 bb
       -0.012442228 0.0009002151 -0.0019032947 -0.005561346
000030 7a 43 0f bd 56 cc 3e 3c b7 5d 3c 3d a4 cf c3 3d
       -0.03497646 0.011645397 0.04598781 0.09561089
000040 58 d4 9e 3c fe 18 ec bc 54 e6 9f 3c ba 93 20 bc
       0.019388363 -0.028820511 0.019519009 -0.009800846
000050 e0 eb 6b bc 31 46 35 bc 9b 03 ec bc ef c0 dc 3b
       -0.014399499 -0.011064098 -0.028810313 0.0067368667
000060 9a e0 6e 3c f8 5b c4 bc 37 26 af bd 4c 78 7b ba
       0.014579916 -0.023969635 -0.08552211 -0.0009592816
000070 20 6d 67 3d f1 b9 c3 bc 83 af b4 3c 43 bf 39 35
       0.056500554 -0.023892375 0.022056347 6.9196193e-07
000080 41 ac 00 3d 3c 64 b8 b8 5e c6 e3 bd 9f 8d 68 39
       0.031414274 -8.792474e-05 -0.1112182 0.00022178002
000090 7b 71 9f bc 45 9d a9 3c cc 80 42 3d 10 5d d1 3b
       -0.019463291 0.020704875 0.04748611 0.0063892677
0000a0 cc 98 8f bc a4 b2 87 bd 1d 96 75 bd 0b 97 b4 3c
       -0.017528914 -0.0662587 -0.059957612 0.02204468
0000b0 f4 2d 3c b8 11 56 15 bd e3 26 07 bd 92 83 56 ba
       -4.486549e-05 -0.036459032 -0.03299607 -0.00081830577
0000c0 45 21 a9 3c 59 cc cb ba 3b 4e 1a 3d f6 b9 e6 3c
       0.020645747 -0.0015548571 0.037672263 0.028164845
0000d0 0c 50 6c bd 25 3c 7f bd 62 6f 37 bc 5d 5c 04 bc
       -0.057693526 -0.062313218 -0.011195989 -0.008078662
0000e0 49 66 14 3c af d7 a8 bc 70 51 4d 3c e5 5e 2b bb
       0.00905759 -0.020610658 0.012531623 -0.002614909
0000f0 cb 3a 0e bd ff 9c 62 3b 19 90 e9 bc 8b 43 c2 3c
       -0.034724038 0.003457844 -0.028511094 0.023713848
000100 64 dc 9f 3b 39 49 2e 3d 9d 09 14 3d 30 63 b7 bd
       0.0048785675 0.0425503 0.03614198 -0.089544654
000110 75 3d b2 bd 29 61 94 bc 8b e9 0c 3a f1 db 18 bc
       -0.08703128 -0.018112736 0.0005375377 -0.009329782
000120 6f 8b 5d bd 09 51 4e 3d 44 70 c4 bd fb 6c 7e bd
       -0.054088052 0.05037025 -0.095917255 -0.06211565
000130 0f b1 a8 bd 32 c3 45 3d 83 fd 09 bd 1d 22 c9 bc
       -0.08236896 0.048281856 -0.033689033 -0.0245524
000140 cd f9 1c 3a a3 d4 2e bd 43 87 e9 3c 53 3c c4 3c
       0.0005988151 -0.042683255 0.02850688 0.023954546
000150 c7 69 01 bc 51 87 b7 bc a4 4a 29 bc 34 a7 0a bd
       -0.007898754 -0.022403391 -0.010332737 -0.033850864
000160 37 99 27 bd a9 b6 0e 3d 19 8b 8e 3c 29 8e ae bd
       -0.0409176 0.034842167 0.017400311 -0.08523209
000170 17 d3 d9 bc 8a 90 6f bc 38 5d 3c bc fd 5a 0a bc
       -0.026589913 -0.014621863 -0.011496834 -0.008444545
000180 71 28 d7 3c c7 bc df 3c 14 46 02 bb 29 96 ec bc
       0.026264401 0.027311696 -0.0019878196 -0.028880196
000190 b4 1b 1a bd 68 c1 84 bc b0 d3 fb 3a a7 28 82 bc
       -0.037624076 -0.016205505 0.0019212868 -0.015888525
0001a0 8b 67 19 bd fe 2c 1f 3d df 8b 51 bc 66 c9 48 3c
       -0.037452262 0.038861267 -0.0127896955 0.012255048
0001b0 eb 67 db bb 5c 8d 8c bb 23 8e b9 3c a9 c5 26 b7
       -0.0066957376 -0.0042893123 0.022650784 -9.940392e-06
0001c0 4b d0 c0 bd 59 63 49 3c 2a 86 a0 3c 84 fa cb 3b
       -0.09414729 0.012291753 0.019595224 0.006224932
0001d0 ad 95 63 3d 20 9f fa bc 49 69 8d 3c f0 17 47 3c
       0.055562664 -0.030593455 0.017262118 0.012151703
0001e0 f2 89 9e 3c 62 14 e5 bc c7 12 19 bd d2 81 e9 3c
       0.019352887 -0.02796382 -0.037371423 0.028504286
0001f0 9b fd 4f bd 3e 5d 41 bc 85 31 1f 3c 12 9a b0 bc
       -0.050778966 -0.011802016 0.009716396 -0.021557841
000200 ed 8a 61 3d 7f 9f 37 bd 59 68 fa 3b 70 d3 55 3b
       0.05506413 -0.04482984 0.0076418337 0.0032627247
000210 2a 1e e5 bc 16 60 24 3d 6f 99 7b bc a0 9c bd bc
       -0.027968485 0.040130697 -0.015356406 -0.023145974
000220 c7 52 89 3d c9 38 e1 bc ae e9 dc 3b 4a e9 4f 3c
       0.06705242 -0.027492898 0.006741724 0.012689898
000230 10 7a 2b 3b a4 77 fd 3c 3f e4 df bc d9 dd ad bd
       0.0026165284 0.030940838 -0.027330516 -0.0848958
000240 8d d5 93 3c c1 24 e5 bc 64 e8 6e bd b4 d0 cf 3b
       0.018046165 -0.027971627 -0.058327094 0.006342018
000250 62 72 77 3c df 03 49 bc 8b 7f bd b6 12 01 61 3c
       0.015102955 -0.012268989 -5.647487e-06 0.013733165
000260 01 83 b9 bc bf cc 80 bd d5 30 7e 3d ff 99 5f bc
       -0.022645475 -0.06289052 0.06205829 -0.013647555
000270 fc 61 7c bd f5 fb fb bc 94 99 29 3d 85 a2 93 37
       -0.061616883 -0.03075979 0.04140623 1.7599445e-05
000280 5b 03 93 bd 4c 93 19 3d f9 51 bc bd fd 8f 49 3c
       -0.071783744 0.03749399 -0.091953225 0.012302396
000290 44 47 10 3d ac a5 0d bd e2 bd 3b 3d 2e a2 c1 bc
       0.035224214 -0.034581825 0.045835383 -0.023636904
0002a0 34 ea 22 bc c3 f9 f2 ba 19 aa 16 3d 12 95 05 bd
       -0.009943534 -0.001853757 0.03678331 -0.032612868
0002b0 50 31 86 39 a2 12 74 bc 71 f8 04 3d 5b ec 4b 3a
       0.00025595212 -0.0148970205 0.032463495 0.0007779055
0002c0 19 86 ac 3a 36 d0 fc bc c7 a9 01 3c dc bc aa bc
       0.0013162523 -0.030861001 0.007914013 -0.020842008
0002d0 07 cf 61 bc f3 de ee 3c 84 a8 bd 3c 5c 14 b2 3d
       -0.013782269 0.029159045 0.023151644 0.086952895
0002e0 a3 5a c3 3c 5a 4e fe bc 24 23 b6 bc c3 6c fc bc
       0.02384693 -0.03104322 -0.022233553 -0.03081358
0002f0 6b bf d0 3b 10 f4 b5 bc f0 d0 e1 3b 35 87 ef 3c
       0.006370475 -0.022211105 0.0068913624 0.029239276
000300 53 38 1e 3c 1b eb 06 bc 7a e5 b1 bb a7 b1 38 bb
       0.009656983 -0.008234764 -0.005428967 -0.002818206
000310 48 5e 50 3d 06 cd 6b 3d c0 3d 9e 3b 7d 94 b5 3c
       0.050871164 0.057568572 0.0048291385 0.022165531
000320 93 3a 84 3c c3 2a a0 3c 68 f1 61 3d 7c 44 a0 3c
       0.016141212 0.01955164 0.055161864 0.019563906
000330 ca bc 80 3c fc 47 56 3c dc 89 87 bd 02 ad ab bd
       0.015715022 0.013078686 -0.066180915 -0.08382608
000340 ec 50 1b b2 09 bc 3f 3d 6e 7b 88 bc d4 b5 ae 3c
       -9.040587e-09 0.046810184 -0.016660418 0.021326937
000350 7d 74 ab 3c 7d 27 42 3c 4c 5c ae 3c 19 54 1c 3d
       0.02092957 0.011850235 0.021284245 0.03816614
000360 01 de 7b 3d 1d 3f c9 3c 89 5e 93 3d 5b aa 3a 3d
       0.061491016 0.024566228 0.071957655 0.04557262
000370 30 2e c3 bc 51 4a d3 3c de 93 90 bb 36 40 b8 3a
       -0.023825735 0.025792273 -0.0044121584 0.0014057222
000380 ee ff b6 bc 55 e0 31 bd 73 b5 6d 3d 4e 82 fb bc
       -0.022338834 -0.04342683 0.05803437 -0.030701783
000390 a8 28 cc bc 80 bc 0d 3d b5 03 20 3d d2 0f 8a 3d
       -0.02492173 0.034603596 0.039066035 0.06741299
0003a0 b9 29 93 3c a6 78 93 bc 68 e0 04 3b 5e b0 21 bc
       0.01796423 -0.018001866 0.0020275358 -0.009868709
0003b0 ed c9 9e bb 1a b6 ed bc 3f f4 52 bc 80 2b 87 3d
       -0.004845849 -0.029017497 -0.012875616 0.06600094
0003c0 d6 98 ed 3c f1 2a 10 bc ec fc b6 bc d1 64 a3 3c
       0.029003542 -0.0087993005 -0.0223374 0.019945534
0003d0 91 08 1c 3d a3 99 40 bb a8 90 6c bb dd 5e b0 bc
       0.038094107 -0.002938845 -0.0036096964 -0.02152961
0003e0 8d be 31 bd b4 3c 8b 3d dc 0c 63 bb 71 a4 a6 3c
       -0.043394614 0.067986876 -0.0034645116 0.020342084
0003f0 59 9f 35 3d 98 3d 01 bc f3 b2 02 3c 04 ed 89 3d
       0.04434142 -0.00788822 0.007977235 0.0673466

bias f4 [128]
000000 28 6f 13 3c 8f 51 cb 3d 94 7f c1 3d 2c ad a8 bc
       0.00899867 0.099276654 0.09448162 -0.020590387
000010 e7 07 15 3d a5 9f 3e 3d 63 d3 b6 bd 98 bd a3 3d
       0.03638449 0.046538968 -0.089270376 0.079951465
000020 fe c1 6c 3c a4 cf ae bd 69 dd b5 3c 0d 7c 49 3c
       0.014450548 -0.08535698 0.022200303 0.012297642
000030 43 dc 3e 3c c2 cc c5 bd c2 51 74 3d 5b f3 96 3c
       0.011649194 -0.09658195 0.059648283 0.018426588
000040 7c c7 d1 bd 70 63 74 bd 72 9e 45 3d 2f 4a a9 bd
       -0.10243127 -0.059665143 0.04824681 -0.082661025
000050 73 5d 77 3d fa 31 f4 3c d6 be 99 bd e0 6f ae bd
       0.060391854 0.029808987 -0.07507102 -0.08517432
000060 b1 1b 64 3d ce 2e 42 bc 49 61 8b 3d 8a a0 1c 3c
       0.05569047 -0.011851979 0.06805665 0.00955976
000070 32 33 c4 bb 81 2a 57 3d 93 84 12 bd 5b fb cd 3d
       -0.0059875483 0.05253077 -0.035770964 0.10057708
000080 d2 5d 0c 3d ee df 14 bd b3 d9 c8 3c 5b 7f da 3a
       0.03426916 -0.03634637 0.02451787 0.0016670035
000090 9d ea dd bc 0b a8 53 bd bb f6 13 bd b0 a6 23 3d
       -0.027089411 -0.05167393 -0.036123972 0.039953887
0000a0 49 a8 9c bd 87 6a 93 3d 7a c8 3c 3d d3 bd 75 3d
       -0.07649285 0.07198053 0.046089627 0.059995484
0000b0 09 1f b5 3d 71 c5 d6 bd 46 72 c3 bc 7c ed 95 bd
       0.0884381 -0.10486878 -0.0238582 -0.07320687
0000c0 2a 88 12 3d db 36 d9 3c 37 70 bb ba b8 40 88 bd
       0.035774387 0.026515415 -0.001430041 -0.06652969
0000d0 86 00 ad bd d9 40 36 bd e3 24 36 bd b9 d7 80 bc
       -0.084473655 -0.044495437 -0.04446877 -0.015727865
0000e0 07 d5 ad bc 3d 1f 66 3d 8a f3 09 bd 91 90 4d bd
       -0.021219743 0.056182135 -0.033679523 -0.050186697
0000f0 99 7b ac bd f6 d5 3e bc 1d 4e 8f 3d aa 18 8e 3d
       -0.08422012 -0.011647692 0.06997321 0.06938298
000100 7c a4 5c 3d 17 0b 6d bd 5d 15 0f 3d b6 ad 31 3d
       0.053867802 -0.057871904 0.034932483 0.043378554
000110 4e f9 05 bd 3c 04 f8 bc c6 e8 ae 3c 85 e5 25 bd
       -0.03270846 -0.030275457 0.02135123 -0.04050209
000120 16 fa 9d bd 6c 43 e1 3c 61 36 a1 3d 51 4a 2f 3c
       -0.07713716 0.02749797 0.078717 0.010698871
000130 4a 1e bc bd 74 96 71 bd f9 8a ef 3b d4 fa e3 3c
       -0.09185465 -0.058981374 0.007310268 0.027829565
000140 ad b3 43 bd 65 70 af 3d 34 0b 85 3c c7 12 69 bd
       -0.047778774 0.085663594 0.016240694 -0.056902673
000150 92 53 92 bd 0b ef bf 3d 46 95 d1 bd 2b ec a9 bd
       -0.07144846 0.09371766 -0.1023355 -0.082969986
000160 23 33 6e bd 8d 23 a3 3d ad 78 d8 bd f7 07 26 3d
       -0.058154237 0.07965765 -0.10569892 0.04053494
000170 4c 40 c1 3d 6b 0e 75 3d 3c df 80 3d f8 f8 bf bc
       0.09436092 0.059828203 0.062925786 -0.023434147
000180 da e4 8d 3c 2a 92 3d 3d 82 ee 74 3d a8 91 8d bd
       0.017321039 0.04628197 0.05979777 -0.06912547
000190 e9 4f 7d 3d 7d 64 6e 3b 5e f8 6e bd 0e bb 20 bd
       0.061843786 0.0036375814 -0.05834233 -0.03924089
0001a0 43 4c 91 bd 5d 4e 3d 3d 94 55 a1 3d 17 0f 7d 3d
       -0.07094624 0.04621731 0.07877651 0.06178197
0001b0 84 d4 1d bb 13 d4 5b bd 06 6d ef 3c a2 43 44 bd
       -0.0024082968 -0.053669047 0.029226791 -0.047916062
0001c0 7f 8a 8b bd 14 2c 89 3d d1 cc 12 3c 50 6f 32 bd
       -0.068135254 0.0669786 0.008959965 -0.043563187
0001d0 9d 10 c7 bd f9 3a ba 3d 6b 7d 57 bd 9a 98 b9 3d
       -0.097199656 0.090932794 -0.052609842 0.090623096
0001e0 4c 33 a2 bd 8e cc 9c 3d cf 78 48 bd 95 f2 8a 3d
       -0.0791994 0.07656203 -0.048943337 0.0678455
0001f0 d7 ed ee bc f9 5e 54 3a 75 0c 98 3d 72 e7 9f bc
       -0.029166145 0.000810131 0.07424251 -0.019519541

weight f4 [128, 128]
000000 9a c2 e1 3c 1f c7 06 3b 6a 99 19 3d 6c 6b ef bc
       0.027558614 0.0020565463 0.037499823 -0.029226027
000010 38 5a 8c 3d 6d 7b 2f bd 24 48 8c 3d 7f d8 76 bc
       0.06853145 -0.042842317 0.06849697 -0.015066265
000020 53 05 fc 3c 02 e9 d0 3c b4 ed 89 3d f8 c5 1c 3c
       0.030764258 0.025501732 0.067347914 0.009568684
000030 88 a3 45 3d 91 c7 53 3c a3 5f bc bb 32 dc 5d ba
       0.04825166 0.012925998 -0.0057487055 -0.00084632926
000040 6e a3 0b bd 2d 8e fb bb 74 42 a2 3c a2 30 a7 b9
       -0.034091406 -0.007676861 0.019807078 -0.00031888956
000050 1e 19 ce bb 89 f1 f1 bb f2 b3 f1 3c 5d dc 5e bc
       -0.0062896153 -0.0073835296 0.02950475 -0.013602343
000060 1d 5d 87 3d d6 c1 27 b6 5a 2a f4 3b cc 56 da bd
       0.06609557 -2.4997767e-06 0.0074513378 -0.106610864
000070 21 43 92 3d 9a d4 99 3b aa d4 a8 bc 23 3f d0 3d
       0.0714171 0.0046945335 -0.020609219 0.101682924
000080 41 c7 8f bd 26 97 4c bd 3d 40 2e 3d 1e 99 d4 bb
       -0.070204265 -0.049948834 0.04254173 -0.0064879796
000090 b6 44 c1 3a ca f7 e1 bb 54 66 75 bd 4a 6e 34 ba
       0.0014745209 -0.006895994 -0.05991204 -0.00068828894
0000a0 fb c5 00 be 9a 80 b6 bb 06 79 cd 3c 79 d8 17 bd
       -0.12575524 -0.0055695297 0.025082123 -0.03707168
0000b0 79 e5 ce 3c 07 6b fc 3b 34 a8 19 bc 39 fe 3c 3c
       0.025255905 0.0077031883 -0.009378482 0.011535221
0000c0 40 a6 b8 bc b5 c0 a0 3d fd 73 56 3c 92 40 8c 3c
       -0.022540212 0.07849256 0.013089177 0.017120633
0000d0 f7 be d1 3c 74 4c 96 3c 85 55 0f 3d 33 1b 2d bd
       0.025603754 0.018347003 0.034993667 -0.042262267
0000e0 13 4e 07 bc f4 de 4e 3c 6d 4f 76 3d 4e e2 23 3d
       -0.00825836 0.012626398 0.06013434 0.040010743
0000f0 91 59 a5 b9 27 35 90 bc fd 85 eb bc c2 c8 e1 bc
       -0.00031537985 -0.01760347 -0.028750414 -0.02756155
000100 18 e6 1c bd 2e 95 b8 3c 83 40 5a 3d b0 76 78 bc
       -0.038305372 0.022532072 0.05328418 -0.015165016
000110 fc e2 db 3c 68 ab d9 3c 95 3b 43 3c 49 a8 08 be
       0.026841633 0.02657099 0.011916061 -0.13345446
000120 f7 6f 92 bc e7 07 39 3d 09 09 23 bb 2f 46 e3 3c
       -0.017875655 0.045173552 -0.0024877212 0.027743427
000130 bd 44 65 3d c4 2f b0 3c 6b 9f 3e bd 18 84 34 3d
       0.055973757 0.021507151 -0.04653875 0.044071287
000140 5e dd 62 bd ab a0 38 bd 6e 88 e8 3d 23 21 15 3d
       -0.055386893 -0.0450751 0.11354147 0.036408555
000150 c6 b0 0e bc d6 ce 18 bd b4 6b 55 38 e0 bf f9 39
       -0.008709138 -0.03730663 5.0883464e-05 0.0004763594
000160 f9 9c 53 bd bd 6e 81 3b c2 94 d0 b9 2f 50 ee bc
       -0.051663373 0.0039499686 -0.00039783685 -0.029090969
000170 e4 1a 71 3d 41 e1 a4 bc 20 f4 1f 3d 1c 42 d4 3c
       0.058863536 -0.02012694 0.039051175 0.02591043
000180 89 c3 3e bd 24 d0 42 38 d5 9d c0 bc 85 ec cc bb
       -0.046573196 4.644705e-05 -0.02351276 -0.0062537813
000190 48 70 ef bc c6 cc 9d b9 78 a8 91 bb e2 e6 e6 3c
       -0.029228345 -0.00030097942 -0.004445132 0.028186265
0001a0 0c de 3d 3c 93 36 d5 bc 97 1a d3 3c 78 63 e4 bc
       0.011588585 -0.026027 0.025769515 -0.027879462
0001b0 d8 ee 2a 3b 3e b0 f2 bc bb 0b ac 3c 00 9d 9a 3c
       0.0026082303 -0.029625054 0.021001687 0.018873692
0001c0 11 63 c2 3c 23 56 07 3b 25 ee 31 bd f5 e7 89 bc
       0.02372888 0.0020650707 -0.043440003 -0.016834239
0001d0 5c ad ca 3c 81 45 4c b7 10 e8 8b b8 49 2b a4 bc
       0.024740867 -1.217553e-05 -6.6712615e-05 -0.020040171
0001e0 29 05 31 bd 90 b7 8b bc b9 98 ef 3b 91 29 d9 3c
       -0.04321781 -0.017055303 0.007311907 0.026509078
0001f0 f5 ee 71 3c 93 d4 5a 3d 18 bf e6 3c 72 2c 47 3d
       0.014766444 0.053425383 0.028167292 0.04862637
000200 b8 c2 4b bd b6 9c eb bc 85 2a aa bc 65 df c9 3c
       -0.049746245 -0.028761249 -0.020772228 0.024642656
000210 57 eb 7d 3d 39 d1 d7 3b 50 71 06 bd e1 e3 91 3d
       0.061992016 0.0065862206 -0.032822907 0.071235426
000220 69 08 33 3d fb 5d 38 3d 57 b3 d6 bc 96 85 91 36
       0.043709192 0.0450115 -0.026208563 4.336888e-06
000230 29 95 29 b9 0b a0 96 bd 59 5d 90 3b de de 8c 3a
       -0.00016172662 -0.073547445 0.004405659 0.0010747572
000240 f9 65 c2 3a ea 23 92 3c da ef 8b 3a 2e 1b 16 3c
       0.0014831416 0.01783939 0.001067634 0.009161754
000250 be 8c 00 bc e0 6b 27 3b dd 2b f4 3b c9 43 22 bb
       -0.007846056 0.0025546476 0.007451518 -0.0024759641
000260 39 07 7e bb 50 6f 95 bc 55 11 30 bd 9d 48 91 3c
       -0.003876163 -0.018241554 -0.04298528 0.01773482
000270 7c 62 7d bd 39 46 34 3b 94 6c 2b bd f5 67 a4 3d
       -0.0618615 0.0027507676 -0.041851595 0.08027641
000280 34 00 33 3a 77 92 08 3c 5c 6e 18 bb 60 19 41 3b
       0.00068283384 0.008335701 -0.0023259139 0.0029464588
000290 eb fa a5 ba b9 80 8b 3c fb 63 c3 3c 66 f5 32 3d
       -0.001266328 0.017029153 0.023851385 0.04369106
0002a0 4e cd e4 3c 18 89 44 3d 5e 1b 72 3d 7d 72 c6 3c
       0.027929928 0.047982305 0.05910813 0.024224514
0002b0 2f 19 6c bb 07 a7 c4 bd 5c 91 b5 bd c1 7d 41 bc
       -0.0036025753 -0.096021704 -0.08865616 -0.011809767
0002c0 25 33 4a 3c 74 57 54 bd 5e 8e 13 bc c4 19 c2 bc
       0.012341295 -0.051841214 -0.009006111 -0.023693927
0002d0 67 ba 2d 3a bd 39 1f bd 35 2b f5 bb 4d 74 80 3c
       0.00066272024 -0.038873423 -0.0074819573 0.015680457
0002e0 62 a9 5c bd 8d 63 cd 3b 21 8b 43 3c 4b 08 92 bc
       -0.053872474 0.006267971 0.011935026 -0.01782622
0002f0 53 d8 0c 3a ef 4e 0c 3c f4 93 da bb e3 70 92 36
       0.0005372811 0.008563741 -0.0066704694 4.364281e-06
000300 ca 32 22 3d 39 d1 ce 3c a6 7f 41 37 2c cb 31 bb
       0.039599217 0.02524625 1.1533417e-05 -0.0027129157
000310 a4 a7 a1 bc 31 e2 0d bd 1a 9f 12 3d 74 8b 3a bd
       -0.019733258 -0.03463954 0.035796262 -0.04554315
000320 83 fb 34 bd 7e 77 c7 bc 65 bb 34 39 49 1a d2 bc
       -0.044185173 -0.02434897 0.00017235948 -0.0256473
000330 56 ba 68 bd 3e c8 e0 bc 01 10 10 3d 69 1e 34 bc
       -0.05681833 -0.027439233 0.035171513 -0.0109935785
000340 27 d9 89 3d fd 41 8f 3c 7f 42 7f 3d 38 71 17 3d
       0.06730872 0.01748752 0.062319275 0.03697321
000350 7f 11 9d bc 58 43 c8 3d 7f 84 26 3c bb 16 76 bd
       -0.019173382 0.0977847 0.0101634255 -0.06008027
000360 f5 e7 53 3d 49 d9 6e bc b5 11 a2 3c a0 65 1a bd
       0.051734883 -0.014578172 0.019783834 -0.037694573
000370 6a 6d 86 3b d6 7e e4 3c a8 80 7e bb fd 30 18 bd
       0.0041023986 0.027892511 -0.003883401 -0.037156094
000380 e1 47 62 bc d1 54 88 3c 13 94 13 3c e6 2a c6 bc
       -0.013811083 0.016642006 0.009007472 -0.024190377
000390 de a7 95 bc 18 ed 36 3a b4 43 0f 3c 47 e4 d0 3c
       -0.018268522 0.0006978079 0.008744169 0.025499476
0003a0 90 86 27 3d 37 3c 20 3d 80 7a 5d 3d 01 2e 38 bc
       0.040899813 0.039119925 0.054071903 -0.011241437
0003b0 f2 b6 19 3b 59 29 73 3c 96 0b 86 3c 60 a0 5b bc
       0.0023454991 0.014841401 0.016362946 -0.013404936
0003c0 5f 79 d4 3b 8a 9e b0 bc 6c 7f ba bc 8d 16 b0 bc
       0.006484195 -0.021559972 -0.022765838 -0.021495128
0003d0 78 ff 7e bd 44 ff 00 3c 31 55 07 35 51 92 84 bd
       -0.062255353 0.00787336 5.041539e-07 -0.0647322
0003e0 09 51 4b 3d 05 2d 78 3d 36 24 b7 3d dc 5b 96 bc
       0.049637828 0.06058981 0.089424536 -0.018354349
0003f0 d7 77 0a 3d c9 c1 ac bc f5 60 c8 b7 98 1c e9 3b
       0.033805694 -0.021088498 -2.3887007e-05 0.0071140043

bias f4 [128]
000000 54 8e 2c 3c ca 76 0c 3d cb 30 af 3d 24 a7 2b bd
       0.010531981 0.034292974 0.085542284 -0.041907445
000010 b6 98 81 3d 43 87 5d 3c f0 d6 eb 3c e6 ba a2 bb
       0.063279554 0.013521018 0.028789014 -0.0049661277
000020 e8 7c 05 bd 66 98 c2 bc 62 f7 92 bd c3 63 8b 3d
       -0.032589823 -0.02375431 -0.07176091 0.068061374
000030 36 77 b7 bb 40 5c 44 bd d9 fa ea bb af 17 56 bd
       -0.005598928 -0.04793954 -0.0071710167 -0.05226868
000040 aa 1d 43 bc 04 50 ab bd 50 b0 63 3d 82 32 fb bc
       -0.011908928 -0.08364871 0.055588067 -0.030663732
000050 0f fe 2d bc c5 48 25 3c b5 47 1c 3d f6 d5 97 bd
       -0.010619654 0.01008815 0.038154323 -0.07413857
000060 43 4f 2b bd 0d 45 4c 3d d2 01 ce 3a cc f5 1a 3d
       -0.041823637 0.04987054 0.0015717095 0.037832066
000070 32 87 06 bd 26 f5 90 bd 7f c6 68 3d 0a 5e 8f ba
       -0.032843776 -0.07078008 0.056829926 -0.001093806
000080 ac 4d a8 38 71 c7 81 bd 3d f9 e7 3c 61 a3 e4 3c
       8.025332e-05 -0.063368686 0.028317088 0.027909936
000090 bd 3d 3e 3d ab a9 23 bc 9b ac 51 3d 65 b6 8a 3d
       0.046445597 -0.009989182 0.05119 0.0677307
0000a0 03 46 9a bd 16 7c 5d 3d e1 90 29 bd d0 2f a3 3d
       -0.07532885 0.054073416 -0.041397933 0.07968104
0000b0 1f 2d b1 3d 69 7b b6 bc a8 3c c9 3c a9 79 26 bd
       0.08651184 -0.022275643 0.024565056 -0.040643368
0000c0 d3 d7 8b 3d 74 79 7c 3c 61 55 ba bc 8f c6 97 3d
       0.068282746 0.015409816 -0.02274579 0.07410919
0000d0 4c 38 9a bd 73 74 90 bd f6 b8 0b 3d 40 46 a1 3d
       -0.07530269 -0.07053461 0.03411194 0.07874727
0000e0 3d ec 88 3d 66 21 3d 3d 1b 25 f8 bc 8a dd d2 bc
       0.06685684 0.04617443 -0.03029113 -0.025740404
0000f0 74 28 69 3c 65 c8 a7 3d 89 b8 89 3d 15 6e 63 3d
       0.014230836 0.08192519 0.067246504 0.055524904
000100 23 c4 97 bd c8 57 55 3c 5e 6d 3c 3d e5 a6 b9 bc
       -0.07410457 0.013021417 0.04600274 -0.02266259
000110 44 f2 ed bc b7 97 37 bc 8f f1 a8 3a 49 b5 e6 3b
       -0.029046185 -0.011205605 0.0012889373 0.007040654
000120 61 5e 2c 3d 82 4b 10 3c b0 e0 62 3d ae 02 47 bd
       0.042082194 0.008807065 0.05539006 -0.04858654
000130 35 08 90 bd 0a 00 22 3c 13 01 6b bd 48 aa f9 3b
       -0.07032815 0.009887705 -0.05737407 0.007619176
000140 30 18 86 3d 29 55 67 bd c2 19 3a bd 3b f6 03 3c
       0.06547582 -0.0564777 -0.04543472 0.008054311
000150 e2 44 a2 3d 48 c5 25 3d c8 5d b2 bd de 28 6f bd
       0.079232946 0.040471345 -0.087092936 -0.058388583
000160 60 42 cf bb 3b 9c 1e 3d e0 87 0c bd d9 d4 bc bd
       -0.006325051 0.03872321 -0.034309268 -0.09220285
000170 97 fd 46 3c 81 65 85 3d 73 2d 78 3d 92 ef 9a 3d
       0.0121454215 0.06513501 0.06059022 0.07565226
000180 21 94 a7 bd 12 17 14 bd 5b fd 4c bb 1d 51 8f 3d
       -0.0818255 -0.036154814 -0.0031278941 0.06997893
000190 03 fc 8f 3d 71 4f 2a bd 56 f4 88 3d 18 82 a4 bd
       0.07030489 -0.041579667 0.066872284 -0.08032626
0001a0 80 28 7e 3d a6 cd b9 3d 07 4c 8c 3b 4b aa 26 3d
       0.062050343 0.090724275 0.004281524 0.040689748
0001b0 4d d2 4c 3d b4 07 82 3d b8 be 57 3d 38 27 ee bc
       0.050005246 0.063491255 0.052672118 -0.029071435
0001c0 af b0 85 bb 73 35 28 3d 2c 38 8c bc 79 75 5f bd
       -0.0040799 0.0410666 -0.017116629 -0.05455539
0001d0 f2 4a af bc e4 fa b2 3c 73 a2 dd bc b5 e5 6f bd
       -0.021398041 0.02184815 -0.027055 -0.058568675
0001e0 c6 a7 32 bd 85 5b 9e 3d 36 f0 f0 3c 6a ca b8 bc
       -0.043617032 0.077323 0.029411417 -0.022557456
0001f0 d0 77 63 bd 49 cd 71 3b e9 9b b3 3d b3 a6 aa 3a
       -0.055534184 0.003689604 0.08769972 0.0013019651
