aminer_train/train/pretrained_magnn/decoder_a.pth (torch, 135200 bytes, 4 tensors)

weight f4 [128, 128]
000000 6d 78 8a bc cd 03 a2 3d 3d 4c f4 ba 27 f3 1b bd
       -0.016903127 0.07910881 -0.0018638443 -0.038073685
000010 d0 a2 c6 bd 77 a5 fa 3b e2 2c 18 bd 8a fa 58 3d
       -0.09699023 0.0076491195 -0.03715218 0.052973308
000020 2f 32 79 3b f4 07 60 3b b5 55 a4 b6 cc 07 97 3c
       0.0038024297 0.0034184428 -4.8975585e-06 0.018436335
000030 82 b3 07 bd 94 83 cb bc 8a 7f 75 bd 42 ef c2 bc
       -0.033130176 -0.024843015 -0.059936084 -0.023795728
000040 a9 48 3f 3d 66 57 58 39 2a da 1e bb ef 51 c4 bb
       0.046700153 0.00020631924 -0.0024238923 -0.0059912126
000050 e5 a2 84 bd 7c f7 13 bc 89 b0 bd b8 cf b5 59 3c
       -0.06476382 -0.009031173 -9.0451045e-05 0.013287975
000060 a4 78 34 3d 24 7f 9c bc 03 3b ea bc 58 4c d2 39
       0.044060364 -0.019103594 -0.028592592 0.00040111202
000070 cc 55 8a 3d 90 38 0f bd 18 51 a4 3c 9b aa 92 bc
       0.06754646 -0.03496605 0.0200582 -0.017903617
000080 48 55 5f bd f7 72 ad ba 78 b8 cb bb cd 15 b9 3b
       -0.05452469 -0.0013233115 -0.0062170587 0.005648351
000090 1c 76 be 3b 45 2d 10 bb 32 e7 d8 bd 0b d4 21 3b
       0.0058124196 -0.002199964 -0.10590972 0.0024693038
0000a0 01 ab 00 3d 4d 2f 28 38 ce 3f 9b 3b 82 01 60 3b
       0.031413082 4.0098374e-05 0.0047378307 0.0034180586
0000b0 fc 50 ba bb 9c f3 9a bc 09 65 c0 3d 80 be c1 bc
       -0.0056859236 -0.01891499 0.09394271 -0.023650408
0000c0 e3 b4 56 3c 75 81 c6 39 20 13 13 bd e7 78 4c 3c
       0.01310465 0.00037861956 -0.03590691 0.012479997
0000d0 a5 a4 32 bd da f6 2f bc 8e 6e 5b 3a 67 e2 e7 bc
       -0.04361405 -0.010740006 0.0008370661 -0.0283062
0000e0 6e 95 7f 3d e4 8d c8 bb d8 16 57 bc 29 17 1e bc
       0.062398367 -0.0061204303 -0.013128005 -0.0096490765
0000f0 80 b6 3e b3 67 96 8f 3a a9 eb c3 bc f7 b7 c2 3b
       -4.4403805e-08 0.0010954858 -0.023916082 0.0059423405
000100 e4 47 1f bc 98 bf 41 39 51 49 b5 bd f3 1d 82 3c
       -0.00972173 0.00018477289 -0.088518746 0.015883422
000110 90 6a 96 bd 12 c3 3e 3c c1 4b b9 3c e1 15 34 3d
       -0.07344544 0.011643188 0.02261913 0.043966178
000120 df 95 ba bc 2a 86 34 3a 2f 77 8f bd e5 25 b2 bc
       -0.022776542 0.0006886447 -0.07005154 -0.021746585
000130 50 a8 84 39 3e 9a 26 bd af d7 01 bb 31 e0 19 3d
       0.00025302405 -0.04067444 -0.0019812395 0.03756732
000140 5c 22 f4 3b 78 ce 5d 3d ed d8 16 3c 63 68 46 38
       0.007450385 0.054151982 0.009206993 4.7304096e-05
000150 65 c7 8b bd 93 97 b6 3c 63 04 88 3c 81 63 59 bd
       -0.06825141 0.022289073 0.016603654 -0.05307341
000160 3e 8c 03 bd 64 9a aa bd c4 cf f2 3d 40 94 f9 b5
       -0.032116167 -0.08330229 0.118560344 -1.8595092e-06
000170 87 80 89 bd 03 a9 56 bc 5b f9 18 39 d7 b4 e0 39
       -0.06713968 -0.013101819 0.00014588742 0.00042859346
000180 b8 c6 96 b6 8b 03 68 3d 68 4d 36 3d 1c f7 fc 3c
       -4.4934823e-06 0.056644004 0.044507414 0.03087955
000190 39 60 9f bc 4f c1 59 3d ea 4d 46 bb a4 47 e8 3c
       -0.019455062 0.05316287 -0.0030258843 0.028354473
0001a0 ca f9 91 3d b0 0d d3 3b eb 4d 5b 39 58 c3 98 bc
       0.071277216 0.0064408407 0.00020914494 -0.018647835
0001b0 91 ac 5f 3b ab 8f 8f 39 f0 63 0f 3a d7 d7 61 39
       0.0034129957 0.00027382126 0.0005469909 0.00021538079
0001c0 c8 22 a0 bc b9 76 9e bc 63 1c b3 bc 5a 1f 9d 3b
       -0.019547835 -0.01934372 -0.021864122 0.004794997
0001d0 aa 20 3e bd e7 23 81 3d c8 15 22 bd ed 78 e7 bc
       -0.04641787 0.06305676 -0.039571553 -0.028255904
0001e0 e8 5a 5b 3d 6a 66 24 3b 9f 2f 89 3d 92 cc 2b bd
       0.05355349 0.0025085458 0.06698536 -0.04194314
0001f0 32 1c 60 bb ae 93 ab bd c6 6b 3a bc 2e 88 79 3c
       -0.0034196493 -0.08377777 -0.011378234 0.015230222
000200 a7 38 93 b9 52 79 44 bd 13 d3 2f b9 60 d6 7f 3d
       -0.00028080234 -0.047967263 -0.00016767932 0.062460303
000210 91 98 24 3b a6 f2 b3 bb 98 38 e9 3b 9e 2d fc b7
       0.002511535 -0.0054915724 0.007117342 -3.0061983e-05
000220 6a f1 a0 3c 72 20 23 bb bd 15 68 bb 16 60 a6 38
       0.019646365 -0.0024891165 -0.0035413348 7.933394e-05
000230 a5 ad e9 3c 4c ab d5 bc ba ff 8f 38 2d e9 78 3c
       0.028525183 -0.026082657 6.866404e-05 0.015192312
000240 e6 fb cf bb 20 72 48 ba 52 2d 4d bd 33 46 49 bc
       -0.0063471673 -0.00076464005 -0.05009205 -0.012284803
000250 9d e5 54 3c c8 05 85 39 bf e5 4b bc 79 91 a8 b7
       0.012994197 0.00025372044 -0.012444912 -2.0094902e-05
000260 22 b8 cd bc 59 d1 17 3d cb e4 56 b9 56 9d 2e 3d
       -0.025112215 0.037064884 -0.00020493862 0.042630516
000270 d8 65 1b 3d 37 a5 23 bd 47 13 1e bd c2 da 09 b9
       0.037938923 -0.039952483 -0.038592603 -0.00013146832
000280 08 62 07 3d c0 c0 32 3d 50 cc 24 3d ac d7 ad b9
       0.033052474 0.043640852 0.04023391 -0.0003315782
000290 34 d5 49 3d e3 31 6e 3c 95 59 2e bd b9 0d e1 3b
       0.049275592 0.014538261 -0.0425659 0.006868091
0002a0 32 e2 ea b6 c0 a8 4c 3b 35 a8 ca bc b6 71 87 bc
       -7.000076e-06 0.0031228513 -0.02473841 -0.016533714
0002b0 dc bb 7a 3d 8e d1 24 3d 29 48 f5 3b e6 e6 43 3c
       0.061214313 0.04023891 0.007485409 0.011956906
0002c0 b2 70 b0 3d 1c 97 d0 bc 5c 58 a7 38 00 68 6a b9
       0.08615245 -0.02546268 7.979639e-05 -0.00022354722
0002d0 32 3a 29 3a e8 9b 77 bc 7b 7c e9 bc d6 1c ca bc
       0.000645551 -0.015112855 -0.02850174 -0.024671953
0002e0 b4 ec 41 3c d4 f3 5c bd 7d 78 8b bd 4e eb 5f b9
       0.01183622 -0.05394347 -0.06810091 -0.00021354595
0002f0 88 19 95 34 29 39 ba b9 10 b3 f4 b8 64 e2 30 bd
       2.777199e-07 -0.00035519272 -0.0001166818 -0.043184653
000300 55 f2 c9 bb 83 0c a1 bc fc 4a 1a 3c 80 b7 ec 3a
       -0.0061629214 -0.019659286 0.009417292 0.0018060058
000310 07 64 35 b9 40 df bb 3c 6a 0f 52 3d 2a 21 e4 3d
       -0.00017298768 0.022933602 0.05128423 0.11139138
000320 a9 64 12 3c 2f 10 29 3d 74 64 99 ba 94 fa 7e bc
       0.008935132 0.0412752 -0.0011702911 -0.015562672
000330 45 f6 55 3d 0b 8c d6 bc 5e ef 93 bc 76 a8 12 bd
       0.052236814 -0.026189825 -0.018058475 -0.035805188
000340 4b 8c 76 bd 87 c4 93 bd f4 78 29 bc 76 fa 54 3d
       -0.060192388 -0.07215219 -0.010343779 0.05199667
000350 83 12 89 bc aa f4 27 b9 88 1d 70 bd fe ce ad 3c
       -0.01673246 -0.00016017506 -0.058621913 0.021216866
000360 76 00 28 3c e7 bc 7a 3c b7 53 a2 3d ad 33 24 b8
       0.010254016 0.015303827 0.079261236 -3.9148774e-05
000370 e0 a2 07 3d e3 fa cc 3b eb 71 63 3d 32 ca ec 3c
       0.033114314 0.006255494 0.055528563 0.028905008
000380 30 b2 26 bd 57 f4 aa 3d 7d b4 41 bb 85 79 d6 3c
       -0.040697277 0.083473854 -0.0029557042 0.026180992
000390 01 b2 8d ba 5d cc 71 39 b5 72 79 b8 0e 67 e0 3c
       -0.0010810496 0.00023059682 -5.9473055e-05 0.02739289
0003a0 c5 89 d1 bc 07 9d 8b 3d c5 a8 17 bd 7e af 54 3b
       -0.025578389 0.0681706 -0.037026186 0.0032453234
0003b0 b9 de e9 b8 dd 0d 8b b8 de 6b 28 bd 1b d3 10 39
       -0.00011151791 -6.630619e-05 -0.041118495 0.00013811553
0003c0 d9 62 8b b8 2b ac 0e 3d a3 79 91 bd 65 49 9a 38
       -6.646448e-05 0.03483216 -0.071032785 7.356963e-05
0003d0 a1 35 8f 3c 85 4b a2 b9 ea 4a 0e bd ee ed 76 3d
       0.017481627 -0.00030955314 -0.034739412 0.0602855
0003e0 68 4e a6 b8 76 d9 15 bb e6 7d a2 bc 66 2d ef 3b
       -7.930101e-05 -0.0022865213 -0.019835424 0.007299113
0003f0 a2 cb bd bc cb 2c dd bc 83 31 d8 b8 f6 5b 0c 3e
       -0.023168389 -0.026998898 -0.00010308905 0.13706955

bias f4 [128]
000000 8b 0f 4c 3c d8 ea 5d 3d 71 cb 64 bc 61 a7 84 bc
       0.012454878 0.054179043 -0.01396452 -0.016193094
000010 9a a1 5e 3d cd 92 d2 3c 2c 5e a2 bc 80 89 00 bb
       0.054353334 0.025704766 -0.019820295 -0.0019613206
000020 78 40 08 bd 8c 57 21 bb fd 44 67 bc be f3 cd 3c
       -0.033264607 -0.0024618832 -0.014115569 0.02514064
000030 43 c3 52 ba bc e6 90 bc 77 bf 94 3c 02 5c 0c bd
       -0.00080399605 -0.017688148 0.018157704 -0.034267433
000040 a8 24 e0 3b c6 e2 1b 3d be ed f8 3c a1 f5 63 bc
       0.0068403073 0.038058065 0.030386802 -0.013913543
000050 1a fc d6 3c 2c 31 5c bd 3a 26 89 3a 1b 2b bb 3c
       0.026243258 -0.05375783 0.0010463663 0.022847703
000060 46 e0 51 bd 2d 68 87 bc 9e 43 5e ba 9c 23 23 bc
       -0.051239274 -0.016529167 -0.00084787037 -0.00995722
000070 11 94 3c bd 6e 2c 89 3d 50 f5 12 3c 34 4a 73 bd
       -0.046039645 0.066979274 0.00896962 -0.059396937
000080 5b 32 45 bd 81 f0 3e bd 7a d8 60 bb a4 7c 26 3b
       -0.048143726 -0.04661608 -0.0034308718 0.0025403881
000090 6d 04 53 3d bc 56 6d 3c ce 96 15 3b 32 dc 17 3d
       0.051517893 0.014486011 0.0022825482 0.03707523
0000a0 53 3f 42 bc fd 0c 84 3c 54 32 56 3c 07 92 29 3d
       -0.011855918 0.016119475 0.013073523 0.04139903
0000b0 ae 20 cd ba 81 96 5d 3d 32 e1 03 bd fb ce 35 3d
       -0.0015649998 0.05409861 -0.032197185 0.044386845
0000c0 d9 84 fc 38 62 19 c4 3a 62 cf dd 3b 93 fe 43 3d
       0.00012041041 0.0014961178 0.0067691067 0.047850203
0000d0 a2 1c 9c 3a 61 3e 5c 3d 07 6a 70 bd 1d 65 58 3d
       0.0011910389 0.053770427 -0.058694866 0.052830804
0000e0 32 0e bc bb 57 a7 a8 3b 30 90 19 3c b4 bd 0b bd
       -0.005738997 0.0051469016 0.009372756 -0.034116462
0000f0 5b 3d 88 bd c5 fe bd 3c 46 1a 78 bd d2 8b 9a 39
       -0.066523276 0.023192773 -0.06057193 0.00029477343
000100 1f f3 89 bc 34 5f df bb 21 31 27 37 86 56 7e 3d
       -0.016839562 -0.006816769 9.965414e-06 0.062094234
000110 51 eb c0 3a 67 dc 95 ba d7 e9 75 bd 93 4e 3c bd
       0.0014718567 -0.0011433483 -0.06003746 -0.04597337
000120 3c 59 1b bd af a2 9b 3b 42 a3 31 3d 3e ae e3 3c
       -0.037926897 0.004749618 0.043368585 0.027793046
000130 a3 53 6d bd 05 16 c0 ba 12 c8 7b bd 8c ca 09 bd
       -0.05794109 -0.0014655 -0.0614701 -0.03364043
000140 e3 75 33 bd 10 a4 8b 3d 21 81 e3 3c 19 ec ab 3b
       -0.043813597 0.06818402 0.027771534 0.005246651
000150 85 7c 79 3d 46 82 74 3c 63 af e4 bc 37 a8 4f 3d
       0.060909767 0.014923638 -0.027915662 0.05069753
000160 01 5e 99 3b 1f 32 57 bc 4f f0 73 bb 1c 72 8e bd
       0.0046803956 -0.013134508 -0.0037222093 -0.069553584
000170 4e c8 b8 3c 86 05 40 3d 57 16 85 3d 04 d1 09 3c
       0.02255645 0.046880268 0.064984016 0.00841165
000180 3b 06 e6 39 bf 34 35 bd d1 93 ef 3c 26 a7 e7 bc
       0.0004387366 -0.044239756 0.029245289 -0.028277945
000190 ca d7 36 3b 13 0e 63 bd 22 24 57 bb 8b e3 df ba
       0.0027899616 -0.055433344 -0.0032827933 -0.0017081363
0001a0 26 32 25 bd 63 e0 ef 3c 1f d9 12 bd 3b 05 96 bc
       -0.04033103 0.0292818 -0.035851594 -0.018313041
0001b0 06 15 76 bd 3f 25 85 bd e7 fb 5e 39 50 93 8e 3b
       -0.060078643 -0.06501245 0.00021265411 0.004351057
0001c0 20 77 a8 3b c7 de f6 3a 3d 45 71 3d eb 8c 4b bd
       0.005141154 0.0018834703 0.05890392 -0.049694937
0001d0 d4 d1 8f 3c ca be 77 bd c8 93 04 3d 49 a1 81 3d
       0.017556109 -0.060484685 0.032367498 0.06329591
0001e0 e1 73 b3 bc b2 85 82 3d aa d2 fd 3c 74 b0 73 bd
       -0.021905841 0.063731566 0.030984242 -0.05949445
0001f0 b3 e5 90 3c 52 11 ff bb d9 d7 2e ba 71 b2 6f bd
       0.017687654 -0.007784047 -0.0006669737 -0.058519784

weight f4 [128, 128]
000000 30 ff 4b b9 1e aa 1e 3b 87 98 30 b8 39 c9 f9 bb
       -0.00019454653 0.0024210284 -4.2103722e-05 -0.0076228646
000010 b7 2f 17 bd 27 c2 74 bc 4d e7 44 3d ef e8 0c 3c
       -0.03691074 -0.014938868 0.048072148 0.008600458
000020 53 8d 43 b8 74 a3 48 bd 84 bd 17 b7 f5 c0 a1 bc
       -4.662324e-05 -0.048984006 -9.044426e-06 -0.01974533
000030 dd cc 85 3d e6 5c a5 bd f3 14 57 3d f2 81 1f bc
       0.06533215 -0.080743596 0.052510213 -0.009735571
000040 34 57 bd bc 62 ff f5 b5 10 7e 3d 3d c5 74 da 3b
       -0.02311287 -1.8328249e-06 0.0462628 0.006666752
000050 d6 fa 8e 3b 26 43 44 3c 39 c5 82 b8 ba 07 09 bd
       0.004363398 0.0119789 -6.235619e-05 -0.033454634
000060 05 42 b8 ba 43 6c 5a 37 20 3e aa bb 40 0d a7 bd
       -0.0014057761 1.3019019e-05 -0.005195394 -0.08156824
000070 ab b6 0a bd f8 22 62 b7 95 11 4d bc c7 49 72 b8
       -0.033865612 -1.34787915e-05 -0.012516399 -5.7766007e-05
000080 8f 5f b0 3b e9 88 4b bb 3d f1 9b bc ff 4e 23 3c
       0.005382485 -0.0031056947 -0.01903593 0.009967565
000090 2f a5 ae bd ce 36 ab bb 0a 16 2a bc c4 90 0a 3d
       -0.085276 -0.005225039 -0.010381231 0.033829466
0000a0 ef ff 9b bc 25 d0 39 3d 6a 2d 9c bc 4d c0 5b bd
       -0.019042937 0.045364518 -0.019064624 -0.05365019
0000b0 56 69 db bb 7c ce a8 bc 6b 49 c2 3b 5f 5a 3e 3c
       -0.0066959066 -0.020606272 0.0059291623 0.011618226
0000c0 c7 62 1a bd 6b bf 62 3b f7 52 0b 3b ea a7 3c bd
       -0.037691858 0.0034598957 0.0021259168 -0.046058573
0000d0 c2 d7 33 bd 7a 4c 03 3e ed 71 95 3c ab a6 bc 3c
       -0.043906935 0.12822142 0.0182428 0.023028692
0000e0 4c 2e 09 bb c5 97 62 3d bf 57 82 bd 14 b4 94 bc
       -0.0020932136 0.05532052 -0.063643925 -0.018152274
0000f0 03 7a 91 3d fd f2 22 b9 0c ec 91 bc 40 ce 0b bc
       0.0710335 -0.00015540044 -0.017812751 -0.008533061
000100 a2 f6 0e 39 74 6b 0b 3c 11 a3 e9 ba 76 46 4c bd
       0.00013634053 0.008509506 -0.0017825087 -0.049871884
000110 ae 06 bb b8 bc b2 5b bc b9 a8 59 bc 68 63 65 3a
       -8.918099e-05 -0.013409313 -0.0132848555 0.00087504694
000120 78 04 a0 bc fc 12 45 3a af 61 89 3c f1 2b 57 b8
       -0.01953338 0.00075177825 0.016770212 -5.1300918e-05
000130 3b b3 56 3d ba 60 b2 3a b2 42 5a bd 4c 12 70 bd
       0.05241702 0.0013609149 -0.05328626 -0.0586112
000140 62 3f 4a bd 21 43 b6 3c 5f cd c6 3c 20 3c 81 3c
       -0.049376853 0.022248806 0.02426785 0.01577574
000150 29 df 06 3b b5 2d 00 3b 3f 37 86 3d 67 2b fd bc
       0.002057979 0.0019558494 0.06553506 -0.030904485
000160 71 ee e6 3d ee 59 13 bd 11 ed 50 b8 78 f1 c2 3d
       0.11275948 -0.035974436 -4.981185e-05 0.09518713
000170 25 00 20 b8 30 e1 09 bc 39 1d 15 3d 2d 0d b8 bd
       -3.8147107e-05 -0.008415505 0.036404822 -0.08986888
000180 a1 a1 39 bd 4e f5 70 bc 87 b8 94 3c eb 44 8c 3d
       -0.045320157 -0.014706923 0.018154396 0.068490826
000190 f2 9a d2 bc b7 c8 31 bd 7b b8 f5 bb d6 d1 07 bd
       -0.02570865 -0.043404307 -0.0074987984 -0.0331591
0001a0 c9 6a c0 bd 1a b1 ab b8 5d dc 3b 3d 88 09 49 bd
       -0.09395368 -8.186903e-05 0.04586445 -0.049081355
0001b0 83 12 89 bd 96 fa cd b8 ea 76 c6 bb 2b aa 15 3c
       -0.06692984 -9.821837e-05 -0.006056656 0.0091348095
0001c0 05 91 a0 3d b9 cf 60 3d 62 9f ab 3c 15 4a fe b8
       0.0784016 0.0548856 0.020950023 -0.00012125463
0001d0 1b 3d 1d 39 0d c3 d8 3a 7a 88 2d bd 38 09 90 bd
       0.0001499545 0.0016537622 -0.042366482 -0.07033008
0001e0 00 83 2d b8 fc 1a 5e 3b cc 49 82 3d c6 14 77 bd
       -4.1368417e-05 0.0033890596 0.06361732 -0.060322545
0001f0 cd a3 78 bd fe cf fe b8 ad f6 31 3d d8 70 3f 3d
       -0.060703088 -0.000121504054 0.04344814 0.046738476
000200 4a 9d 21 ba d4 93 c1 3d 2c 8f b5 bb e2 9c 07 bd
       -0.00061651005 0.09452024 -0.005540749 -0.0331086
000210 6b 57 dc 3b ea 6e 50 3d 5a 52 1f bb 15 0f 9f 3b
       0.006724288 0.050887026 -0.002431056 0.004854093
000220 ce 36 7f 3d a8 24 a8 3c 37 d9 b4 3c 8b 7b 80 3a
       0.062308125 0.020525292 0.022076232 0.0009802444
000230 c9 90 8b 38 ce 52 00 3d e8 5e 21 3d 75 96 2d bd
       6.655005e-05 0.03132897 0.03939715 -0.042379815
000240 87 89 a7 bc 11 d5 0b ba be b1 ed 3c f4 ce 7e ba
       -0.02045132 -0.00053341786 0.029015418 -0.00097201695
000250 3a fc 0b 3c 79 ae 8c bc 40 f5 08 bd 3c 20 a7 ba
       0.008544022 -0.017173039 -0.033437014 -0.0012750695
000260 b6 e5 da 3c 99 2c 27 bd ad b3 64 3c 2b e8 8b bc
       0.026720863 -0.040814016 0.013958854 -0.01707848
000270 7b ab 92 bd 97 a9 64 3d c8 c8 85 bc 2d e4 a0 39
       -0.071616136 0.055825796 -0.016331092 0.00030687582
000280 a6 bc 55 3d 35 62 7f 3c 75 90 c1 bd 04 fe 30 bc
       0.052181862 0.015587379 -0.09451381 -0.01080275
000290 99 5c 14 3d fb 50 20 bd 8d db 20 bd af 81 81 3c
       0.03622112 -0.03913973 -0.03927188 0.015808908
0002a0 cd 26 ec 3a 00 bf e0 bc 2f f9 b2 bd bb dd 57 3d
       0.0018016935 -0.027434826 -0.08738934 0.052701693
0002b0 7d 8d 05 b7 c0 b0 5d bc af f2 85 bc 19 f5 b9 bc
       -7.960361e-06 -0.01353091 -0.016351072 -0.02269988
0002c0 fe 23 37 bb 16 d8 9a bd 8e 70 9c 3b 92 d1 11 bd
       -0.0027945037 -0.07560746 0.0047741598 -0.035600252
0002d0 8b 42 59 3d 3d 36 0c bd 10 3e 7a bc 36 21 79 3d
       0.053041976 -0.034231413 -0.015273586 0.060822688
0002e0 aa 94 2b 3c f5 55 aa bc 5b 34 e1 bd be f5 e3 3a
       0.010472456 -0.02079294 -0.10996314 0.0017391962
0002f0 79 90 df 3c 9b 75 b7 39 08 42 ef bd 67 11 8e bc
       0.02729057 0.00034992103 -0.11682516 -0.017342282
000300 d2 e6 82 3c 0c 35 72 3c f5 2c 68 3d 80 98 3c 3d
       0.015979204 0.014783155 0.0566835 0.046043873
000310 80 9f 1d bd 37 85 6a bd 17 1e f7 3d 0f 3f 7c 3d
       -0.03848219 -0.05725595 0.12066286 0.061583575
000320 0c ca d2 3c 0b f2 0a 3d 5e dd d9 bc b6 de 10 bd
       0.02573111 0.033922236 -0.026594814 -0.035368644
000330 79 48 81 3c 55 47 0a 3b ad 6a 8a b9 45 35 d3 3c
       0.015781628 0.0021099646 -0.0002640089 0.025782237
000340 68 ce 1e 3d e8 cd 43 38 79 58 6b 3c 37 34 72 bb
       0.038771063 4.6683388e-05 0.014364355 -0.0036957392
000350 0f 8e bd 3c f4 c3 1e b8 8d ef f6 ba d4 bd 1f bd
       0.023139028 -3.785263e-05 -0.0018839702 -0.038999394
000360 b7 74 89 bc a2 00 10 b9 0d f5 a3 bc 3b 15 ba bd
       -0.016779287 -0.00013733146 -0.02001431 -0.09086081
000370 8f 7d 22 bc 6d cc 4c 3d 81 7c 93 ba 93 01 f8 b8
       -0.009917631 0.049999643 -0.0011252315 -0.00011825855
000380 a0 11 15 bb b7 9c 99 3d 06 69 f5 bc bb 87 ae bd
       -0.00227461 0.07500594 -0.029957306 -0.08521982
000390 19 67 75 3d b7 69 42 3d 93 59 16 b9 c5 5a 99 bd
       0.059912775 0.0474641 -0.00014338484 -0.07488016
0003a0 a0 e9 01 3c c7 3e 24 3d 12 e6 b1 3c 75 e6 c6 bc
       0.007929236 0.04009893 0.021716151 -0.024279812
0003b0 0b c3 7b bd 42 85 91 b9 7e 81 d6 3c f9 1e 61 bd
       -0.061465304 -0.0002775584 0.026184794 -0.05496118
0003c0 de 86 ce ba 2e e8 3d bd 55 ff d6 b4 38 7e 23 bd
       -0.0015756746 -0.046364002 -4.0046385e-07 -0.039915293
0003d0 57 a6 4c bc da da 1c 3d 72 e7 01 b9 2d fc 77 b9
       -0.01249083 0.03829465 -0.00012388619 -0.00023649698
0003e0 fc 6a 53 3d 0a 04 f7 3d e8 ca e9 39 48 ca bd 36
       0.0516157 0.12061317 0.000445924 5.6561876e-06
0003f0 dd 6d 17 3d 5d 88 7e bd 71 26 4c b9 5a fe a7 bd
       0.03697001 -0.062141765 -0.00019469277 -0.082028106

bias f4 [128]
000000 0f 1a 3e bd cb 51 8e 3d f0 06 67 bc b4 d0 19 bd
       -0.04641157 0.069491945 -0.014100775 -0.03755255
000010 1a 5e 54 3d 55 cb 83 3c 72 cc d6 bb 7b f2 2b bb
       0.051847555 0.016088167 -0.0065551335 -0.002623706
000020 fc 9d 0e bd 5b c6 c7 bc 2a fd 5a bc 62 ca 8a 3c
       -0.034818634 -0.024386575 -0.013366023 0.016942207
000030 ed 24 70 3d 9e 1f 50 3d d2 d4 68 bb a1 85 0c 3d
       0.058628965 0.050811402 -0.0035527241 0.034307126
000040 05 f6 4f bd 4d fe 82 3d 6f 68 36 bd bd 66 dc bc
       -0.050771732 0.0639616 -0.04453319 -0.026904458
000050 57 ee fd bb 6f 67 cf 3a c3 4b 9c 3c 86 39 d9 bb
       -0.0077493596 0.0015823672 0.019079095 -0.006629172
000060 55 75 52 bc 2b e9 2b 3b b2 2a b7 3c d9 4e 1e 3a
       -0.012845357 0.0026231508 0.022359226 0.0006038971
000070 0f d1 06 bd 13 32 53 bc 9f 36 26 3d 9c d7 df 3c
       -0.032914218 -0.012890357 0.040579434 0.02732449
000080 ce f3 85 bd af c0 0a 3d 60 80 cd ba 94 f3 11 3b
       -0.06540643 0.033875164 -0.0015678518 0.0022270428
000090 ff fb 4a bb 4c cc 2c 3d c7 47 68 bd bb 1e 82 3d
       -0.0030972955 0.04218702 -0.056709077 0.063535176
0000a0 79 08 57 3d f7 c1 22 3c d3 fc 72 bd 38 f9 76 bd
       0.052498315 0.00993394 -0.059323143 -0.060296267
0000b0 fc 94 80 bd 50 c9 11 3d cb 71 81 bb ed 64 8d 3d
       -0.062784165 0.035592377 -0.0039503328 0.06904016
0000c0 48 22 90 bc 50 47 4e bd cd c7 63 bd 82 46 2d bb
       -0.017594472 -0.050360978 -0.055610467 -0.002643973
0000d0 7c ce 00 bc 43 bc 6f bc e3 06 67 bc 8d 7e 64 bd
       -0.00786173 -0.014632287 -0.014100763 -0.05578475
0000e0 e9 b5 50 3d 51 9f 45 3d 9e 93 24 3d 69 fe 15 bd
       0.050954733 0.04824764 0.04017984 -0.036619578
0000f0 be 64 91 3b e5 a6 1d bc f2 c2 cf 3b 59 72 1f ba
       0.004437058 -0.00962231 0.006340378 -0.0006082408
000100 20 f7 57 3d 84 39 26 bc 62 23 94 3c d8 74 26 bd
       0.05272591 -0.010145549 0.018083278 -0.040638775
000110 02 ba 6a 39 6c 0d c5 bb 30 29 db bc 17 f5 dc bb
       0.00022385272 -0.006013563 -0.026753038 -0.006743084
000120 bd 2e a4 3c 96 b6 7d bc c2 66 32 3d 94 7d 20 bd
       0.020041818 -0.015485426 0.04355503 -0.03918226
000130 4c 02 17 3d 41 da 73 bd 87 56 43 3c 45 4f b8 3c
       0.036867425 -0.059534315 0.011922485 0.022498736
000140 5b c8 6f bd 78 cd f8 bc c1 37 06 3d 71 f1 8a bd
       -0.058540683 -0.030371413 0.032768015 -0.067843325
000150 52 03 5d 3d a7 de 6d 3d 12 eb 2f 3c 3c dc b5 ba
       0.053958245 0.058073666 0.0107371975 -0.0013874839
000160 11 e9 6f ba ba 61 8e 3c 5e 16 0c 3d 1f 87 5a 3b
       -0.0009151856 0.017380584 0.03420102 0.0033344699
000170 2c d2 f1 bb f1 aa ff bc 60 97 5f 3c 9b 1c 7c 3d
       -0.007379791 -0.03120944 0.01364693 0.061550718
000180 bf e0 04 3d d0 82 d9 bc 8b 19 82 bd 7e c4 00 3b
       0.032440897 -0.026551634 -0.06352528 0.0019648368
000190 e4 ed 83 bd 93 00 87 bd c4 cc 28 ba e3 1e 84 bb
       -0.064418584 -0.065919064 -0.0006439204 -0.0040320023
0001a0 01 2e 43 bd 6d ca 81 bb 67 e1 a4 ba 87 d4 d8 3c
       -0.047651295 -0.0039608986 -0.0012579382 0.026468528
0001b0 e8 41 b5 3c 0c f0 02 bb a7 78 69 bd 4c 96 1b bd
       0.022126153 -0.0019979505 -0.05699983 -0.03798513
0001c0 c3 7b 66 bd ec 9a 35 bd f1 f9 80 3d 6c 46 c7 bc
       -0.056270372 -0.0443372 0.062976725 -0.024325572
0001d0 2b 36 82 bd 81 7e e6 bb 25 a5 cb bc b3 3f 8a bd
       -0.06357988 -0.0070341234 -0.02485902 -0.06750431
0001e0 2c 2a 40 bc bb 61 2b 3c da a5 35 3d ba 35 3e bd
       -0.011728805 0.0104603125 0.04434762 -0.046437956
0001f0 eb 94 3e 3d 95 07 3b 3d 25 c4 18 3c 2d 87 89 bd
       0.046528738 0.045661528 0.009324108 -0.06715236
