aminer_train/train/pretrained_magnn/decoder_p.pth (torch, 135200 bytes, 4 tensors)

weight f4 [128, 128]
0.08482512 0.0051947394 0.022852313 0.0043716617 0.0027938564 0.03943648 0.0039586583 0.016916946
0.0026302424 -0.002356672 -0.02935889 0.0034875895 0.002968616 -0.051200006 0.110994585 -0.0041867793
0.046579294 -0.017858272 -0.00031914312 0.008600246 0.0034471115 -0.013911413 0.007138496 0.0017365245
0.012631798 0.0028579503 0.0022904812 0.0019702583 0.0015129038 2.1213878e-06 0.025090646 0.0014426744
-0.03061087 0.006728717 -0.007471263 0.01113591 -0.06189459 0.006998045 0.016269501 0.05518193
-0.010490232 -0.019226184 -0.06651543 0.07716171 0.044251 0.029216459 0.0025535761 0.00017204019
-0.025625885 -0.015252062 0.0030415875 0.011982914 -0.0045943307 0.01328749 -0.02872592 -0.009377265
-0.07147077 0.017014232 0.008471786 0.030654827 0.052952196 0.010538092 0.0016106212 0.016801199
0.0020178838 -0.03456637 0.032053377 0.04517173 0.018323192 0.007841753 -0.019700294 0.0058202874
0.0704207 -0.04658344 0.038502693 0.11432605 0.033129666 0.001775901 -0.052622747 0.117789485
0.0034386166 -0.0062216576 0.05742354 -0.04444098 0.0023671715 -0.013606047 -0.0219174 -0.048429023
-0.00067559903 -0.11339527 0.0045522633 5.0127714e-05 0.0034938066 0.030225247 -0.0008544362 0.0022684983
-0.016023124 -0.0356685 0.0034592529 0.00426983 0.0003368059 -0.017839583 0.007394705 -0.015735324
0.027225563 0.10007836 0.048500814 0.022656541 -0.0068289586 0.07552937 0.011666969 -0.07600525
0.02592684 0.03633 0.008005918 -0.074084885 0.0076839454 -0.13506496 0.00020980513 0.0024790082
-0.037201572 0.05336769 -0.016818063 0.032797635 6.536327e-05 0.0029086466 0.020866657 0.027922304
0.079102054 -0.0034379477 0.011947952 0.02041695 -0.056173153 -0.0839025 -0.028468972 0.017302714
0.005668032 -0.003810562 -0.018324226 0.0008003633 -0.00529365 0.060072675 -0.0024025314 -0.040066898
-0.1726207 0.04395891 -0.016948996 -0.024977036 0.023141598 0.07110192 0.04652679 0.006252289
-0.04047088 0.08551348 -0.0013172332 0.01822226 -0.012635604 -1.0783161e-06 -0.018130742 -0.011294883
-0.005589504 0.038230352 -0.001050269 -0.07984546 0.026136668 0.06001989 0.03376813 0.013753822
-0.0018808735 -0.021349961 0.08322593 -0.055644434 -0.00081313256 -5.256822e-05 -0.063682295 -0.019369053
-0.06661431 -0.008418106 0.06379504 0.001146974 -0.0009587838 0.0037290314 -0.0117662605 -0.020365609
-5.000545e-06 -0.03604713 -0.03198518 0.054418314 0.003162 -0.029531833 0.013365683 0.045546725
-0.002000193 -0.039653964 -0.062321823 -0.013556455 0.0071897027 -0.03768707 -0.0003999897 -0.003320673
0.0019549853 -0.0019121441 -0.0038395924 0.05365719 -0.003727105 0.013122637 -0.025117606 -0.038373437
0.044241995 -0.0036401963 -0.0018718623 0.05689682 -0.0014662216 0.0452219 -0.0019173375 0.05326666
0.10291867 0.0001688484 -0.071708106 -0.022769107 -0.007690643 -0.054842617 -0.0022139102 0.109720886
0.02990955 0.011706649 -0.00045453402 -0.002289468 4.8945483e-05 0.034609556 -0.0060923314 -0.0014758222
-2.63442e-05 -0.049420103 0.057672687 -0.0028438151 -0.0008722377 -0.0050486918 -0.014692521 0.09072375
-0.016931418 0.021126477 -0.0050422796 -0.0685589 0.011482462 -0.0112217795 -0.076705635 -0.027552363
-0.0006195293 -0.051967375 -0.045922168 0.010174143 -0.009950608 -0.030841127 0.050017837 -0.0034380094
00000000: cbb8 ad3d a238 aa3b c634 bb3c 2840 8f3b
00000010: 2219 373b 2588 213d a2b7 813b 6895 8a3c
00000020: 2560 2c3b 6572 1abb 0e82 f0bc 0b90 643b
00000030: 1d8d 423b 19b7 51bd 2151 e33d 4031 89bb
00000040: eec9 3e3d 834b 92bc aa52 a7b9 0ce8 0c3c
00000050: efe8 613b b2ec 63bc 0bea e93b 189c e33a
00000060: 9af5 4e3c 734c 3b3b e61b 163b 731f 013b
00000070: a14c c63a 2a5d 0e36 e68a cd3c 1f18 bd3a
00000080: a6c3 fabc 927c dc3b 7fd1 f4bb 6473 363c
00000090: 2e85 7dbd db4f e53b 9e47 853c 7306 623d
000000a0: 39df 2bbc 3b80 9dbc 3e39 88bd f506 9e3d
000000b0: 8940 353d 5b57 ef3c e659 273b b065 3439
000000c0: 60ed d1bc c9e3 79bc 5f55 473b fc53 443c
000000d0: 0a8c 96bb c6b3 593c 9f52 ebbc 1aa3 19bc
000000e0: 445f 92bd 6e61 8b3c 3fcd 0a3c d51f fb3c
000000f0: 67e4 583d f6a7 2c3c 7b1b d33a aba2 893c
00000100: 793e 043b 7795 0dbd 674a 033d fe05 393d
00000110: 851a 963c b27a 003c 8362 a1bc 1cb8 be3b
00000120: ba38 903d 47ce 3ebd 00b5 1d3d c723 ea3d
00000130: f9b2 073d 59c5 e83a f38a 57bd 9d3b f13d
00000140: 6a5a 613b 0cdf cbbb f234 6b3d bf07 36bd
00000150: 8c22 1b3b e6eb 5ebc 1f8c b3bc 835d 46bd
00000160: af1a 31ba c83b e8bd 272b 953b 3940 5238
00000170: 59f8 643b f09a f73c 3efc 5fba 16ab 143b
00000180: ed42 83bc 2219 12bd a2b4 623b eee9 8b3b
00000190: 5395 b039 5124 92bc 484f f23b 5ee7 80bc
000001a0: 2508 df3c e2f5 cc3d caa8 463d 369a b93c
000001b0: 75c5 dfbb 24af 9a3d d126 3f3c a4a8 9bbd
000001c0: 8664 d43c c4ce 143d 412b 033c d1b9 97bd
000001d0: 9bc9 fb3b 784e 0abe 23ff 5b39 db76 223b
000001e0: ad60 18bd 1498 5a3d 09c6 89bc d056 063d
000001f0: a313 8938 fe9e 3e3b 8df0 aa3c 51bd e43c
00000200: 4200 a23d 314f 61bb 58c1 433c 7341 a73c
00000210: d215 66bd 13d5 abbd c337 e9bc 6cbe 8d3c
00000220: e6ba b93b 9fba 79bb b01c 96bc 79cf 513a
00000230: 5b76 adbb c40e 763d ca73 1dbb 301d 24bd
00000240: 7bc3 30be 420e 343d 9fd8 8abc a49c ccbc
00000250: 7393 bd3c e29d 913d e092 3e3d 00e0 cc3b
00000260: cbc4 25bd b121 af3d 03a7 acba d946 953c
00000270: 9005 4fbc a9ba 90b5 ec86 94bc 2c0e 39bc
00000280: 2828 b7bb 6e97 1c3d 2ea9 89ba 0486 a3bd
00000290: 911c d63c 6bd7 753d 7350 0a3d b657 613c
000002a0: a487 f6ba 1de6 aebc 5b72 aa3d 6beb 63bd
000002b0: 6728 55ba b27c 5cb8 dd6b 82bd d9ab 9ebc
000002c0: 156d 88bd 18ec 09bc f9a6 823d 1056 963a
000002d0: e456 7bba c462 743b 46c7 40bc c7d5 a6bc
000002e0: 5bca a7b6 28a6 13bd e402 03bd bde5 5e3d
000002f0: 8f39 4f3b beec f1bc bdfb 5a3c 348f 3a3d
00000300: ac15 03bb 326c 22bd 2b45 7fbd e51b 5ebc
00000310: 9997 eb3b c25d 1abd b5b5 d1b9 a69f 59bb
00000320: 361f 003b e9a0 faba aca1 7bbb a4c7 5b3d
00000330: 7242 74bb 5400 573c 70c3 cdbc 772d 1dbd
00000340: 1837 353d 5c90 6ebb 4759 f5ba a40c 693d
00000350: 3c2e c0ba 993a 393d 2c4f fbba 242e 5a3d
00000360: 06c7 d23d e60c 3139 b3db 92bd 4786 babc
00000370: ca01 fcbb a7a2 60bd 4017 11bb 58b5 e03d
00000380: df04 f53c 3fcd 3f3c 864e eeb9 e60a 16bb
00000390: d04a 4d38 c0c2 0d3d 2ea2 c7bb 6070 c1ba
000003a0: bdfd dcb7 bc6c 4abd 323a 6c3d 4d5f 3abb
000003b0: e2a6 64ba 7f6f a5bb e6b8 70bc 60cd b93d
000003c0: c2b3 8abc 6f11 ad3c b539 a5bb 9c68 8cbd
000003d0: f020 3c3c 8edb 37bc d817 9dbd 7eb5 e1bc
000003e0: e867 22ba bedb 54bd e218 3cbd 73b1 263c
000003f0: e007 23bc 88a6 fcbc 81df 4c3d 3a50 61bb

bias f4 [128]
0.061312288 0.07155479 0.023552746 0.014148272 0.005754056 0.018387608 0.09363523 0.07309986
-0.04760162 0.005478942 0.014107978 0.052385397 0.06102224 0.012465344 -0.051609576 -0.03300495
0.05267571 0.076970875 -0.058227967 -0.071389966 0.04932947 -0.04092827 0.06689476 -0.0396667
0.003517458 -0.037467342 -0.06333832 0.02958932 0.06402433 0.069298714 0.0055872966 0.0048216996
0.010650122 0.04441761 0.03075241 -0.019108249 -0.014229721 0.03761528 0.06959983 -0.054037698
-0.005247293 -0.028252063 0.00064235687 -0.085513204 0.02294779 0.10058963 0.08886587 0.040587693
-0.087884925 -0.0864619 -0.07915977 0.03931142 -0.063068226 -0.008494801 -0.057117175 0.0055140443
-0.067113906 -0.033731595 0.097768396 0.05351353 0.03888768 0.04224912 0.014305141 -0.0097053675
-0.025863081 -0.09302578 0.046110924 0.04761287 -0.081552945 -0.064515166 -0.033579245 0.0034558305
-0.008970699 -0.009197131 0.048972595 -0.030223984 0.045151826 0.043810323 0.061893966 0.01869198
-0.05855548 0.052406065 0.048587866 0.011348045 0.059373 -0.015327925 0.035993006 0.036355834
0.06467375 -0.018721329 0.01393261 -0.052687444 0.058804795 -0.0601342 0.08105622 -0.0570274
-0.024627807 -0.051283855 0.00086402055 -0.0131483935 0.05882937 0.03365372 -0.006627469 -0.0059016636
0.05030159 0.058789838 0.03284388 0.044505946 0.061346933 -0.017280616 -0.05806722 0.020273032
-0.039280415 -0.0021757965 0.08845665 -0.023226412 0.038747344 0.06157489 -0.011193565 0.058085702
-0.03600709 -0.00130765 -0.029365886 0.062324896 0.06588447 0.048845693 -0.022307212 0.02984624
00000000: 9822 7b3d 518b 923d b0f1 c03c 27ce 673c
00000010: 858c bc3b 9ca1 963c d4c3 bf3d 61b5 953d
00000020: ebf9 42bd b288 b33b 2625 673c 1292 563d
00000030: 75f2 793d 713b 4c3c 9064 53bd 3330 07bd
00000040: 7cc2 573d e8a2 9d3d 7380 6ebd e734 92bd
00000050: b30d 4a3d 67a4 27bd 1f00 893d 8d79 22bd
00000060: 2785 663b 5b77 19bd 85b7 81bd 4d65 f23c
00000070: 301f 833d 7cec 8d3d a415 b73b 59ff 9d3b
00000080: d97d 2e3c 3def 353d 7aec fb3c e788 9cbc
00000090: c723 69bc 7b12 1a3d 5b8a 8e3d a256 5dbd
000000a0: 7cf1 abbb df70 e7bc d763 283a 8c21 afbd
000000b0: 01fd bb3c f001 ce3d 4fff b53d 483f 263d
000000c0: 03fd b3bd f012 b1bd 841e a2bd 0305 213d
000000d0: ea29 81bd c72d 0bbc b3f3 69bd 28af b43b
000000e0: 0473 89bd 242a 0abd cc3a c83d 0131 5b3d
000000f0: b048 1f3d 6a0d 2d3d 1c60 6a3c 4303 1fbc
00000100: d0de d3bc 4d84 bebd cfde 3c3d b605 433d
00000110: 3b05 a7bd 8720 84bd 648a 09bd 377b 623b
00000120: d7f9 12bc 90af 16bc 7d97 483d 4a98 f7bc
00000130: 1ff1 383d 7472 333d 8784 7d3d ec1f 993c
00000140: dfd7 6fbd bea7 563d 1204 473d 27ed 393c
00000150: 1a31 733d fa21 7bbc 676d 133d dbe9 143d
00000160: ac73 843d 795d 99bc 9a45 643c cace 57bd
00000170: 4cdd 703d 474f 76bd ce00 a63d 9095 69bd
00000180: 41c0 c9bc 050f 52bd 707f 623a 5c6c 57bc
00000190: 11f7 703d 7cd8 093d 3d2b d9bb be62 c1bb
000001a0: 0a09 4e3d 9dcd 703d 4e87 063d de4b 363d
000001b0: ec46 7b3d 1490 8dbc e5d7 6dbd a113 a63c
000001c0: 80e4 20bd cf97 0ebb c328 b53d 5145 bebc
000001d0: 89b5 1e3d f435 7c3d 3765 37bc 46eb 6d3d
000001e0: 2c7c 13bd 7465 abba ba90 f0bc 6448 7f3d
000001f0: 70ee 863d 6c12 483d 9dbd b6bc 1a80 f43c

weight f4 [128, 128]
0.0044806045 0.0045428304 0.0052870316 -0.080418065 0.012261171 0.009220832 -0.041818332 0.0006348289
-0.05390212 -0.0030965966 -0.0514486 0.023642108 0.02974309 -0.011804199 0.010884802 0.023918252
0.022812318 0.017554933 -0.0011918526 0.05508743 -0.01371703 0.013583363 0.0047696196 0.058726855
0.019537725 -0.058231182 -0.015210149 0.03492569 -0.060600206 0.010084399 -0.0028644188 0.013478931
0.01295263 0.031009633 0.009634187 -0.0063314126 0.0038295356 -0.0007413277 0.11207442 -0.06548754
0.011056034 0.0019393741 0.00059003837 0.0032431246 -0.04321557 0.010278824 -0.007872343 0.006788323
-0.06912638 0.008486059 0.03981923 0.019744692 -0.0445366 0.0091136955 -0.002958377 1.9042362e-06
0.029624622 -0.026622249 0.0043325685 0.03459175 -0.046080332 0.0105398735 -0.0015138666 0.0032491463
-0.0869465 0.0039770883 0.009684272 0.04052372 -0.053918995 -0.07544845 0.033798117 -0.030932087
0.065182425 0.004461216 0.007056644 0.0020826438 0.0017000115 -0.008506806 -0.10324908 0.059656195
0.0032775544 -0.032299187 -0.01888593 0.0037655649 -0.009154172 -0.034377184 0.021355873 -0.0071696606
-0.01119652 0.0015874797 0.0031521842 0.023754118 0.0945822 -0.039450273 0.032442827 0.06211747
-0.03529347 -0.03992581 3.8878654e-05 0.030189399 -0.004106305 -0.07283546 -0.00055735715 0.04010635
-0.0211762 0.052946433 -0.0117771365 0.0014602491 5.709749e-05 -0.06433156 0.014135108 -0.0005867863
0.010751262 -0.11719473 0.013426898 -0.017862732 -0.0038265423 -0.037897445 -0.034633957 0.02786607
0.017559713 0.075663425 0.004744218 -0.11728676 0.039342258 -0.040283516 -0.0951022 0.029389473
4.179577e-05 0.0010353564 0.023833988 -0.04899707 0.058992773 -0.043931223 0.05673845 0.00064231944
0.01532386 0.008156216 0.011057001 0.0040954193 -0.029406179 0.042696718 -0.005852467 0.0035244983
0.018354647 0.00284719 0.00049415976 -0.014621518 -0.07974399 0.0010457543 0.005137726 -0.0062990375
-0.030384928 0.044648375 0.0071861837 0.007393476 0.01956068 0.0033030757 -0.08241899 0.020913547
-0.015185312 0.00023345534 -0.0022778988 0.071116686 0.01085352 0.0003896023 -0.03341109 -0.032267857
0.020634301 0.0035530361 0.010195023 0.0036956081 0.0011748865 -0.006238591 0.02473986 0.021649105
0.0009237789 0.017886296 -0.00073179125 -0.03366592 0.004826798 0.03235258 -0.004409946 0.054299742
0.008417443 0.021818817 0.011434146 0.0009726539 -0.054959327 0.027703974 0.025616739 0.0031175616
5.1297204e-05 0.012838844 -0.08881293 -0.057376478 0.0009792979 0.029673599 0.005846482 -0.009174886
0.0028881175 0.005551984 -0.000121948324 0.035928722 0.057538368 0.08198221 0.0049442025 0.0039525297
-0.020810608 -0.021807112 -0.041128423 -0.009365726 0.0026004922 -0.0036936414 0.039507598 0.042599134
0.08704579 0.0007249431 0.003694637 -0.05650447 0.027555209 -0.029762946 -0.011733148 0.006069273
0.035682134 -0.014471865 -0.032531556 -0.04416158 0.013885607 -0.018867021 0.07370516 0.006078915
-0.0591034 0.038285885 0.034592565 -0.00018945722 0.03639499 0.005191762 0.02470249 0.0001992235
0.023590975 -0.01938381 -0.042612154 0.0011426214 -0.02925086 -0.020570526 0.005275671 -0.041397896
0.022551972 0.03440917 0.0423612 0.013997123 -0.008278419 0.0008251578 0.0048435214 0.07821414
00000000: 09d2 923b 06dc 943b d63e ad3b 3ab2 a4bd
00000010: 14e3 483c f912 173c b349 2bbd a56a 263a
00000020: 78c8 5cbd 45f0 4abb c4bb 52bd 18ad c13c
00000030: c8a7 f33c 6666 41bc 2b56 323c 36f0 c33c
00000040: e6e0 ba3c 5dcf 8f3c f037 9cba 5ba3 613d
00000050: 65bd 60bc c18c 5e3c 784a 9c3b 928b 703d
00000060: 940d a03c d283 6ebd fd33 79bc 3e0e 0f3d
00000070: ec37 78bd 0939 253c f9b8 3bbb bcd6 5c3c
00000080: 4537 543c ea07 fe3c b6d8 1d3c bd77 cfbb
00000090: f2f8 7a3b a955 42ba 4687 e53d 551e 86bd
000000a0: 5e24 353c 9932 fe3a ceac 1a3a 9a8a 543b
000000b0: cf02 31bd 8368 283c 00fb 00bc 9570 de3b
000000c0: 2292 8dbd 1c09 0b3c 7d19 233d 9fbf a13c
000000d0: 036c 36bd 9c51 153c 54e1 41bb 0f95 ff35
000000e0: 56af f23c e716 dabc 38f8 8d3b 14b0 0d3d
000000f0: bbbe 3cbd 6faf 2c3c ef6c c6ba a1ef 543b
00000100: 0211 b2bd 3c52 823b c8aa 1e3c 33fc 253d
00000110: 2ada 5cbd b884 9abd e56f 0a3d 4a65 fdbc
00000120: 5d7e 853d 642f 923b 6c3b e73b f77c 083b
00000130: ecd2 de3a 2160 0bbc 4174 d3bd 0e5a 743d
00000140: 3dcc 563b 274c 04bd aab6 9abc b2c7 763b
00000150: 61fb 15bc 17cf 0cbd 83f2 ae3c 79ef eabb
00000160: 9c71 37bc fb12 d03a e094 4e3b ff97 c23c
00000170: 50b4 c13d 9c96 21bd c5e2 043d e36e 7e3d
00000180: e38f 10bd 3f89 23bd a311 2338 c24f f73c
00000190: 2f8e 86bb c22a 95bd 9b1b 12ba 8e46 243d
000001a0: b679 adbc 5cde 583d e4f4 40bc d465 bf3a
000001b0: f77b 6f38 44c0 83bd f196 673c 90d2 19ba
000001c0: 1026 303c ca03 f0bd 7efc 5b3c dd54 92bc
000001d0: bac6 7abb 5a3a 1bbd 56dc 0dbd 6247 e43c
000001e0: 63d9 8f3c 6df5 9a3d 6375 9b3b 0a34 f0bd
000001f0: 5925 213d 5400 25bd f1c4 c2bd 31c2 f03c
00000200: de4d 2f38 ccb4 873a 7f3f c33c 27b1 48bd
00000210: 68a2 713d 3af1 33bd 9466 683d 5461 283a
00000220: ed10 7b3c a6a1 053c 6c28 353c de32 863b
00000230: 3ae5 f0bc c1e2 2e3d 0dc6 bfbb 45fb 663b
00000240: 7c5c 963c ec97 3a3b 808a 013a 178f 6fbc
00000250: d150 a3bd b111 893a 5f5a a83b 2868 cebb
00000260: d0e9 f8bc 37e1 363d 147a eb3b f944 f23b
00000270: b83d a03c 6a78 583b 4acb a8bd e352 ab3c
00000280: d1cb 78bc b1cb 7439 cd48 15bb a0a5 913d
00000290: f6d2 313c 8943 cc39 11da 08bd 4d2b 04bd
000002a0: 4409 a93c 0eda 683b 0709 273c 0432 723b
000002b0: a6fe 993a 186d ccbb 3fab ca3c 7759 b13c
000002c0: c129 723a 4886 923c aed5 3fba 47e5 09bd
000002d0: 1e2a 9e3b 2484 043d 4f81 90bb 6869 5e3d
000002e0: 51e9 093c 60bd b23c 4956 3b3c b3f9 7e3a
000002f0: 081d 61bd 72f3 e23c 32da d13c 0150 4c3b
00000300: f427 5738 045a 523c 8ee3 b5bd 9903 6bbd
00000310: c95b 803a 0c16 f33c d893 bf3b 4352 16bc
00000320: 9246 3d3b 6bed b53b 82be ffb8 ff29 133d
00000330: 5aad 6b3d 4ae6 a73d fa02 a23b 3984 813b
00000340: 027b aabc d4a4 b2bc 4776 28bd b472 19bc
00000350: 056d 2a3b 0511 72bb b8d2 213d 6e7c 2e3d
00000360: 1045 b23d 1c0a 3e3a b921 723b 3b71 67bd
00000370: 76bb e13c 6cd1 f3bc 643c 40bc c1e0 c63b
00000380: 6e27 123d 671b 6dbc cf3f 05bd c6e2 34bd
00000390: 7580 633c 038f 9abc bbf2 963d a331 c73b
000003a0: 6816 72bd a9d1 1c3d efb0 0d3d 09a9 46b9
000003b0: ea12 153d a81f aa3b e05c ca3c a7e6 5039
000003c0: dc41 c13c ccca 9ebc 158a 2ebd 03c4 953a
000003d0: 809f efbc 8583 a8bc 89df ac3b d790 29bd
000003e0: eabe b83c a1f0 0c3d f082 2d3d 3054 653c
000003f0: 35a2 07bc 674f 583a 67b6 9e3b bc2e a03d

bias f4 [128]
0.07659726 -0.03643354 0.01889352 0.001962468 -0.06849827 0.070120044 0.07564267 0.04633679
-0.015894827 0.03597082 -0.0151932165 -0.03631116 0.09287469 0.012861237 -0.06929299 -0.020245597
0.01497001 0.051120207 0.059615403 0.017986352 0.07840156 0.00825496 -0.03612983 0.047791313
0.044134952 0.010570732 -0.09607094 0.050247643 -0.0149523 0.09092405 0.011638381 0.053655658
0.06687097 0.04669003 0.08851762 0.06873949 0.038758118 0.053062607 0.025905307 0.041824695
0.04751779 0.009820571 0.034768745 -0.09160624 -0.06427529 0.09816907 0.08174167 0.07175499
-0.07773501 -0.051830772 -0.0949757 -0.052126016 -0.061620925 -0.010887968 -0.043597747 0.063630454
-0.061476517 -0.07850243 0.08320435 0.06885791 0.06708783 -3.315769e-05 0.049096145 -0.054823138
-0.031590786 -0.0715483 0.07540694 0.02348526 -0.09453108 -0.079030685 -0.0060852664 -0.0056078336
0.027467387 -0.027425269 0.07266922 0.0019836281 0.041236784 -0.073027514 -0.024844427 -0.067281134
-0.0760469 -0.029499808 -0.0349451 0.03411157 0.049470667 -0.019397872 0.10154598 0.041142337
-0.035720646 0.011049284 -0.009109569 -0.09060903 -0.0024315615 -0.02266827 0.09958812 0.04559802
-0.09410724 -0.09641091 0.02542685 -0.05168898 0.09785288 0.04164024 -0.018226065 0.011481745
0.0102281505 -0.0006031605 0.043482814 -0.013081267 0.06724536 -0.074761875 -0.03097086 0.009352951
0.024412919 0.07060447 0.04121236 0.054657277 0.053465318 -0.027108805 -0.018681772 0.07162719
-0.0034248824 0.04296376 -0.049072128 0.04776354 0.020897286 0.08380547 -0.058488548 0.021690242
00000000: 06df 9c3d 563b 15bd 95c6 9a3c c09c 003b
00000010: d248 8cbd 199b 8f3d 8bea 9a3d a5cb 3d3d
00000020: de35 82bc 2356 133d f8ec 78bc 03bb 14bd
00000030: 1635 be3d f0b7 523c 7ce9 8dbd 18da a5bc
00000040: c644 753c 6c63 513d 482f 743d 1d58 933c
00000050: ff90 a03d d03f 073c dffc 13bd d3c0 433d
00000060: dac6 343d dd30 2d3c d7c0 c4bd 79d0 4d3d
00000070: 7efa 74bc 6336 ba3d e8ae 3e3c 09c6 5b3d
00000080: a6f3 883d 0b3e 3f3d ba48 b53d 4ac7 8c3d
00000090: d5c0 1e3d 2d58 593d 5e37 d43c 5f50 2b3d
000000a0: 04a2 423d 76e6 203c ac69 0e3d 0d9c bbbd
000000b0: c3a2 83bd de0c c93d 2d68 a73d 48f4 923d
000000c0: 8833 9fbd 814c 54bd 9f82 c2bd 1782 55bd
000000d0: 3966 7cbd 7363 32bc 8d93 32bd af50 823d
000000e0: cdce 7bbd e2c5 a0bd 0b67 aa3d 6005 8d3d
000000f0: 5865 893d cc12 0bb8 0a19 493d 3a8e 60bd
00000100: 5765 01bd ea87 92bd f46e 9a3d 2964 c03c
00000110: 8399 c1bd d7da a1bd ea66 c7bb ebc1 b7bb
00000120: 4903 e13c f5aa e0bc 9ad3 943d c2ff 013b
00000130: e7e7 283d 738f 95bd 8a86 cbbc b1ca 89bd
00000140: 7abe 9bbd 95a9 f1bc 9822 0fbd 93b8 0b3d
00000150: c1a1 4a3d 49e8 9ebc 57f7 cf3d de84 283d
00000160: d04f 12bd 0e08 353c 4d40 15bc 3a91 b9bd
00000170: d55a 1fbb cfb2 b9bc dbf4 cb3d fdc4 3a3d
00000180: 4cbb c0bd 1573 c5bd f84b d03c d3b7 53bd
00000190: 1767 c83d f58e 2a3d d44e 95bc ee1d 3c3c
000001a0: f993 273c 6a1d 1eba 091b 323d cf52 56bc
000001b0: efb7 893d c11c 99bd 9ab6 fdbc 1f3d 193c
000001c0: 9afd c73c 1499 903d 4bce 283d 4fe0 5f3d
000001d0: 73fe 5a3d 4913 debc 840a 99bc 47b1 923d
000001e0: fe73 60bb c5fa 2f3d dbff 48bd b4a3 433d
000001f0: c930 ab3c 34a2 ab3d b091 6fbd bcaf b13c
