aminer_train/train/pretrained_magnn/encoder2.pth (torch, 609136 bytes, 21 tensors)

att_vec f4 [3, 128]
000000 e7 00 ec 3b a3 90 ec bc 99 bc 7f 3d b7 c3 a8 bc
       0.007202256 -0.028877562 0.06243572 -0.020601137
000010 a0 74 fa 3d de 96 1f 3e fc a7 d7 bc a9 d2 b0 bd
       0.12229276 0.15584895 -0.026325218 -0.0863393
000020 bf e1 59 bc b5 b7 89 3d b4 93 c3 3d 34 9e 04 3a
       -0.013298451 0.067244925 0.095496565 0.00050589745
000030 f4 21 15 be dd e3 28 be 77 c3 93 bd af f3 92 3d
       -0.14563733 -0.16493173 -0.07215016 0.07175385
000040 8f 8f 5c 3d 4d 46 da 3d bd 39 54 3d 24 a6 62 3c
       0.053847846 0.1065794 0.051812876 0.013833556
000050 01 2d 0a bd f5 19 c7 ba 24 4c f2 3c 42 ee 00 3e
       -0.033734325 -0.0015190231 0.029577322 0.12590888
000060 81 8c e0 ba 7d 60 0f be 54 1f bf bb b1 ff 93 bd
       -0.0017131717 -0.14001651 -0.005832592 -0.07226504
000070 20 e0 26 bd fb e5 2b 3e 7f 8c 2b 3e 2f a7 c5 bd
       -0.040741086 0.1678695 0.16752814 -0.09651028
000080 27 b5 3d be 5b c7 02 3e 8f a2 30 3e 78 a0 f2 3d
       -0.18526135 0.1277136 0.17249511 0.11847013
000090 e4 4f dd 3d f1 24 7a 3d e1 2c 2d 3e c4 6f 23 3e
       0.108062536 0.061070386 0.16911651 0.15960604
0000a0 5f cb 0c be 47 31 26 bd 42 51 c8 3c 0b b7 15 3e
       -0.13749455 -0.04057434 0.02445281 0.14620607
0000b0 b0 6e 57 3d 87 d4 a4 3b 64 16 83 3d e7 b7 85 bc
       0.052595794 0.005030218 0.06400755 -0.016323043
0000c0 44 b2 b5 3d 61 a9 13 3d f1 c4 02 3e 2b 01 16 be
       0.08871892 0.036050204 0.1277044 -0.14648883
0000d0 51 f5 77 b9 72 32 11 bc 2f 50 0d be 91 ff e4 3c
       -0.00023647143 -0.008862125 -0.13800119 0.027953895
0000e0 d8 7b c1 3d bf f5 f6 3d d7 4b f1 3d 24 6d e2 bd
       0.094474494 0.12058591 0.117820434 -0.11055973
0000f0 39 f7 cb bd 33 bb 01 be 9b 8d bb bb b0 60 a0 bc
       -0.09959263 -0.12669067 -0.005723668 -0.019577354
000100 da 54 ba 3d a5 76 fe 3c 0f 50 32 be 45 58 ca bd
       0.090982154 0.031062433 -0.17413352 -0.09880117
000110 8b 84 2b 3c b1 c8 a0 bb 55 28 f4 3d 8a 36 fa bd
       0.010468612 -0.004906737 0.11921755 -0.12217434
000120 b5 13 73 bb 3f 43 1e bd 84 62 3e be 84 3b 17 3e
       -0.0037090604 -0.03863835 -0.18592268 0.14768797
000130 42 dd 67 3d b0 bc 46 3e 68 76 25 3e 9c 4d 32 3e
       0.056607492 0.19407916 0.1615845 0.17412418
000140 0a 0e 4d 39 af 2c fa bd 87 56 16 3e 36 3b 8d bd
       0.00019555553 -0.12215554 0.14681445 -0.06896059
000150 eb 08 04 be 98 69 2d 3e 29 8a af 3d 5d 57 03 be
       -0.12894027 0.16934812 0.08571274 -0.12826295
000160 b8 b1 12 be 5d 9e 3a be 4f 9b af bd e6 b1 d1 3d
       -0.14325607 -0.18224473 -0.08574545 0.102390096
000170 10 48 2c 3e eb 63 19 3d 1c 2c 2c bd f2 b3 f7 3d
       0.16824365 0.037448805 -0.042034253 0.12094869
000180 6a 72 fa 3b 8d 01 8a bc 5d 11 29 3e b1 b6 74 3c
       0.0076430338 -0.016846443 0.1651053 0.014936135
000190 e7 9f 00 3d 58 a8 13 bd 20 11 d1 3d c2 a4 89 bd
       0.031402495 -0.036049217 0.102083445 -0.06720878
0001a0 23 dc 3e 3d b2 43 d3 3c cb 97 8c bc d5 4f d2 bd
       0.046596657 0.025789116 -0.017162224 -0.10269133
0001b0 33 47 15 bc f6 7e d8 3d 2c 4d b8 39 a9 63 50 3c
       -0.0091112135 0.10571091 0.00035152712 0.012719073
0001c0 d6 38 92 bd 2a 91 dd bd a1 fc 39 3e fc e3 78 ba
       -0.07139747 -0.108187035 0.18162777 -0.00094944215
0001d0 ff e2 b7 3d b2 e2 fb 3d bb 7c 3e b8 b8 ef 1a b6
       0.08978843 0.12299098 -4.5415694e-05 -2.3087323e-06
0001e0 87 66 40 be d4 c1 97 3d 8c 51 ae bd 3c de 42 be
       -0.18789111 0.07410017 -0.085116476 -0.19030088
0001f0 13 97 3e be c3 34 d3 bc aa 97 eb 3c 87 4f a0 3d
       -0.18612318 -0.025781995 0.028758842 0.07827669
000200 6b c8 cc 3c b2 cb 7f bd b8 9b 3f be 59 72 20 bd
       0.02499791 -0.06245012 -0.18711746 -0.03917155
000210 53 7a 29 be 3d 95 23 bd 49 4b 78 bd 8f 6a 08 3d
       -0.16550569 -0.039937247 -0.060618673 0.033304747
000220 e6 b7 c4 3d 84 26 33 3e d3 20 cd 3d 77 0d 1e bd
       0.09605388 0.17495161 0.10016026 -0.03858706
000230 e2 e0 bc bc 06 d8 0b be 68 6c 25 3e c1 56 07 3d
       -0.023056451 -0.13656625 0.16154635 0.03304172
000240 47 81 0a b6 4d 3e 29 be e0 5a eb 3d 85 14 1f 3d
       -2.0638852e-06 -0.16527672 0.114919424 0.03883793
000250 a3 52 4b bd ba d8 9e 3d 96 f5 82 bd 65 b1 29 bd
       -0.049639355 0.07756181 -0.06394498 -0.041428942
000260 05 64 4a bc 6e b2 3e bd 46 f1 75 b1 ff 36 fd 3d
       -0.012352948 -0.046556883 -3.578934e-09 0.12364005
000270 01 4a a4 bd ea 09 c4 bd c6 4f 88 3d be f2 db bd
       -0.080219276 -0.095722035 0.066558406 -0.10739659
000280 11 a6 0d 3e cd f1 f1 3d e3 aa db 3d c2 40 13 be
       0.1383288 0.11813698 0.107259534 -0.14380172
000290 c3 bc 13 be 05 98 be bd 3a b4 18 be d7 32 05 3e
       -0.14427476 -0.09306339 -0.14912501 0.13007675
0002a0 dc 04 fd 3c de 17 9c 3c 06 ac e5 3d 3b 4b a2 bc
       0.030886106 0.01905435 0.112144515 -0.019811263
0002b0 6c 86 0d be 38 71 10 bd 06 e4 06 3d 98 17 d0 bc
       -0.13820809 -0.035264224 0.032932304 -0.025401875
0002c0 2f 5b 92 bd 8a d8 e1 bb 61 be c4 bd f1 d5 12 3e
       -0.07146298 -0.0068922685 -0.096066244 0.14339425
0002d0 1a cb 50 bc e3 65 b8 39 a4 b1 e6 bc e8 b7 32 bc
       -0.012743736 0.00035171126 -0.028160878 -0.0109081045
0002e0 29 c3 81 3d 65 5c 11 be 48 3f e3 bc bf 2c 20 be
       0.06336052 -0.14195402 -0.027740136 -0.1564207
0002f0 d2 88 4e 3d fb 0e c5 bd a6 c4 a3 bd 85 e1 fe 3b
       0.05042345 -0.09621998 -0.07996492 0.007778349
000300 b4 36 35 be ae c0 d9 3d 6a f9 a0 bd 61 68 63 bd
       -0.17696649 0.10632454 -0.07860072 -0.055519465
000310 75 df 5a 3d 02 8b f7 bc 53 c7 08 be 87 5d 4d bb
       0.05343576 -0.030217651 -0.13357286 -0.0031336264
000320 d7 15 e5 bc dc 2a f8 bd 3b fe 8e ba 8a d3 30 be
       -0.027964516 -0.1211755 -0.0010909507 -0.17268196
000330 5b 83 3c be 84 51 23 be 81 42 c1 ba cd 81 17 be
       -0.18409483 -0.15949064 -0.0014744551 -0.14795609
000340 a0 08 21 3e f8 f1 54 bb 53 af 25 3e 55 92 5b bb
       0.15725946 -0.0032492857 0.16180162 -0.0033503969
000350 ae f2 31 3e 32 e4 15 3e 0d 0c e6 3c a6 92 c1 3d
       0.17377731 0.14637831 0.028081918 0.09451799
000360 42 cf cb 3d 21 26 2b 3d b9 84 40 be 41 9c 0c be
       0.09951641 0.04178441 -0.1880063 -0.13731481
000370 14 14 8a 3c 55 84 09 be 3a dc 20 be 7b 60 c6 bd
       0.016855277 -0.13429387 -0.1570901 -0.09686371
000380 bf 31 4f bd 5a 12 46 bd 16 93 c6 3d a5 ac c9 bd
       -0.05058455 -0.048357345 0.09696023 -0.098473825
000390 69 ae f6 3d 70 73 1f 3e a1 2a 1a bd 5d d6 11 35
       0.12044985 0.1557138 -0.03763831 5.432865e-07
0003a0 bd e1 02 be 69 0b 2f 3e 96 a0 08 be 21 42 82 bd
       -0.12781425 0.17094196 -0.13342509 -0.06360269
0003b0 2c 60 85 bd fd c9 2c 3e a8 8c 06 be d7 12 0b 3c
       -0.06512484 0.16873927 -0.13139594 0.0084883785
0003c0 8c cd ba bb 94 45 f5 bd cd 3f 0d b6 ea 01 b8 bb
       -0.0057007726 -0.119761616 -2.1047774e-06 -0.0056154625
0003d0 ec cf c4 bb 7e ae b0 3d e4 71 d7 3c 3c 89 d2 3d
       -0.0060062315 0.08627032 0.026299424 0.10280082
0003e0 96 bc 97 bd 0d a4 3e be 0d 91 d2 bd 79 45 0c be
       -0.07409017 -0.18617268 -0.102815725 -0.13698377
0003f0 35 84 2e bd cb e2 38 be 9a bc 2f bd 88 2d ad 39
       -0.04260655 -0.18055265 -0.042904474 0.00033031055

weight f4 [128, 128]
000000 cd 67 97 3c 7f 64 31 bd 22 97 81 bd b8 d5 39 bd
       0.018482113 -0.04330873 -0.063276544 -0.045369834
000010 08 a9 40 3d 86 26 6f 3d 74 d1 28 3d ea 3a 2f bd
       0.0470362 0.05838635 0.041215375 -0.042780794
000020 d0 d7 80 3c a2 16 50 3d ca 46 88 3c b3 67 d9 3c
       0.015727907 0.050802834 0.016635317 0.026538705
000030 c0 da 8e 3b 20 dd 2f bd e2 7c 27 3c 57 19 cc 3c
       0.004359573 -0.04293549 0.0102226455 0.024914427
000040 ea 72 91 3c ee 4e 82 3c f5 36 ef bc bf c1 52 3d
       0.01775499 0.015906777 -0.02920101 0.051454302
000050 80 35 7a 3c 8a 09 2d 3d 91 4b bf 3b d1 a5 8d bd
       0.015271544 0.042245425 0.0058378656 -0.069163926
000060 b9 fa 0e 3c 4f 81 97 3b ff 19 31 3d e8 95 70 3b
       0.008726769 0.004623569 0.043237682 0.0036710445
000070 a6 d7 6d 3d d8 79 a0 3c 14 b6 4d bc fa 60 79 3d
       0.058066987 0.01958935 -0.012555618 0.0608835
000080 56 53 31 3d 2f 81 86 3d d7 3f fc 3c 13 d7 cb bc
       0.043292366 0.065676086 0.03079216 -0.024882829
000090 83 09 d1 3c 4d ba 63 bd 62 bf 2c 3b f3 6f 98 bc
       0.02551723 -0.055597592 0.002635919 -0.018608069
0000a0 1b 23 2b 3d b0 78 51 3b 2b 14 3e 3d 63 73 61 3d
       0.041781526 0.0031962804 0.046405952 0.055041682
0000b0 be 39 eb bc 01 52 a1 3c 09 67 65 bc b2 c5 7d 3d
       -0.028714057 0.019692423 -0.014001616 0.061956115
0000c0 bf 87 20 3d 83 bb 48 bd a1 c8 1c bc 56 44 34 3d
       0.039191958 -0.04900695 -0.009569318 0.044010483
0000d0 a5 c7 c6 bb b1 f3 d7 ba 82 83 46 3d 0c 6e 3d bd
       -0.00606628 -0.0016475824 0.04846526 -0.046247527
0000e0 8b ab 7e bd e0 1e 82 bd c4 68 e2 bc 26 80 3d bc
       -0.062175315 -0.06353545 -0.027637847 -0.0115661975
0000f0 67 e6 4b bc f1 b2 16 bd 5b df 3a 3d a6 5c 2e bd
       -0.012445069 -0.036791746 0.045623165 -0.042568825
000100 21 d1 f7 3c 76 b6 58 3d 4c 6d bf 3c ad f9 46 3c
       0.030251088 0.052908383 0.023367546 0.012144488
000110 07 d6 30 3a 0a 8c 5e bd 88 d0 cf 3c a1 f7 7d 3d
       0.000674576 -0.05433277 0.02536799 0.062003735
000120 0b 9c 8a bd 20 b8 b7 3b 57 5b 2d 3d 1e 8b 3b 3b
       -0.06768044 0.005606666 0.042323437 0.0028616856
000130 eb 4c fb 3c 9d 13 79 3c fd 65 40 bd d3 6d 83 3c
       0.030676326 0.01520243 -0.046972264 0.01604358
000140 5b d1 05 bc f6 93 40 3d 44 31 0a 3d 09 a3 96 3a
       -0.00816759 0.047016107 0.03373839 0.001149268
000150 1b d8 fa 3c 5e 32 15 3d 98 05 97 3b 80 4a 99 bc
       0.030620625 0.036424987 0.004608821 -0.018712282
000160 e1 b7 05 bc 12 ec a1 3b 15 ec 18 bd 46 68 21 3d
       -0.008161516 0.004941472 -0.03733452 0.039406084
000170 b2 84 5e 3d 2f 52 7a 3c 08 2e 06 bd 1e f6 61 3d
       0.054325767 0.015278383 -0.032758743 0.055166356
000180 45 4d 7b bc 68 88 76 bd 87 3f 90 bb 39 8e 53 3d
       -0.015338247 -0.06018868 -0.0044021043 0.051649306
000190 f4 26 31 3d f6 84 10 3d 87 39 dc 3c c3 ca a2 bc
       0.04325004 0.03528305 0.0268829 -0.019872075
0001a0 11 4c 5b 3d c4 4c a5 3c 20 2c 73 bd f5 0d 3d bd
       0.05353934 0.020178206 -0.059368253 -0.04615589
0001b0 ca 0f 4c bd 89 cd 03 3d bb fb 36 3d 49 81 88 bd
       -0.049819745 0.032178435 0.044673663 -0.06665284
0001c0 25 f5 8d 3c a8 99 73 3d d6 7e b6 3c 1b f0 14 3c
       0.017328808 0.05947271 0.022277277 0.009090449
0001d0 ce 26 09 3c ed 69 31 bd 7d da 9f 3c f2 4c 4b bc
       0.008371068 -0.04331391 0.019513363 -0.012408482
0001e0 20 d6 9e 3c 2c 35 de 3b 64 57 6a bd 47 71 47 bd
       0.019389212 0.006781241 -0.05721225 -0.048692014
0001f0 3a 52 7a bd dd f4 8d 3c ec 46 84 bd 93 01 69 3d
       -0.061113574 0.017328674 -0.0645884 0.056886267
000200 57 cd 2c 3b d1 38 89 3d 29 b3 02 3c 4a 6a c8 3b
       0.002636751 0.0670029 0.007977285 0.0061161863
000210 2c a9 87 3c e4 e2 8b bc 31 b0 31 bd bc 33 08 bd
       0.01656016 -0.017075963 -0.04338092 -0.033252463
000220 82 d2 31 3a e6 b6 5a 3d f6 fc 37 3d 98 95 6e bd
       0.0006783382 0.05339708 0.044918977 -0.058248132
000230 bd 5d 9d 3c 98 0b 1d 3b 64 4c 93 3b 0c 88 76 bd
       0.019209737 0.002396321 0.0044951905 -0.06018834
000240 11 21 58 3c 60 e6 74 bb 8a 8f 1d bb 96 cd f5 3c
       0.013191477 -0.003736876 -0.0024041855 0.030005258
000250 3f 75 b6 3c e9 c3 cb 3c 2a 90 df ba 8a e0 06 bd
       0.022272704 0.02487369 -0.0017056514 -0.03292898
000260 19 6b 58 3d 7a e9 48 bc b7 25 19 3c 65 06 85 bc
       0.05283651 -0.012262696 0.009347371 -0.0162384
000270 dd dc 06 bd ea e2 f3 3b 91 98 4f bc 67 fb 7e 3c
       -0.032925475 0.0074428217 -0.012670652 0.015562869
000280 98 01 16 bc ab ad 28 bc 5c 70 46 bd e1 7c 80 3d
       -0.009155653 -0.010295312 -0.048446998 0.06273819
000290 8b 1c 04 3d e8 dc c0 bc 60 ec 3a 3d 6d ed 49 bd
       0.032253783 -0.023542836 0.04563558 -0.049298692
0002a0 03 0a c3 bc 81 81 b8 bc 53 13 48 3b ff db 86 bd
       -0.023808485 -0.02252269 0.0030529096 -0.0658493
0002b0 b0 e5 e1 3c 35 2a 28 bc da 2d 41 3d 37 82 4d 3b
       0.027575344 -0.010263969 0.047162868 0.0031358132
0002c0 80 be 48 3b 33 6f 85 3a b9 42 20 3a e8 d3 6e 3b
       0.0030631125 0.0010180235 0.0006113458 0.0036442224
0002d0 34 88 5b bd fa 3c 17 3d 7b 36 13 3c d9 9b 5b 3d
       -0.05359669 0.036923386 0.008985157 0.053615425
0002e0 27 5c 89 3d 49 86 03 3d cd 22 26 3c 69 d8 1c 3d
       0.0670703 0.032110486 0.010140133 0.038292322
0002f0 25 96 50 bd 02 49 78 bc 5c 41 66 3d 55 75 38 bc
       -0.05092444 -0.015154125 0.056214675 -0.011258443
000300 61 12 b8 bc e0 a2 bf 3c 28 22 e7 3c 35 94 8a 3c
       -0.022469701 0.023393095 0.02821453 0.016916374
000310 c4 a2 3f 3d ed 3b 89 3d c1 ad 21 3c b6 ca 0f 3d
       0.046786085 0.06700883 0.009868086 0.03510543
000320 43 93 3b bd 51 c5 17 b9 be c9 61 3d c3 86 03 3b
       -0.045794737 -0.00014473988 0.055124037 0.0020069338
000330 b5 8b 87 bc d4 0a 1f 3c 40 5d c3 bc 83 11 53 3d
       -0.01654611 0.0097071715 -0.023848176 0.051530372
000340 7d f5 80 bd c6 bc 4e b9 62 14 35 3c 6d a6 18 3c
       -0.06296823 -0.00019716015 0.011052223 0.009317023
000350 3d 23 44 3b 97 4e 6a 3d 36 81 65 bd e5 e8 e5 3c
       0.002992823 0.057203855 -0.05603143 0.028065154
000360 d1 6f 36 3c 95 fa 81 bb a7 ea 84 3d ac ed 70 3c
       0.011135058 -0.0039666393 0.06490069 0.014705103
000370 a9 54 38 bd 13 94 41 3c 43 c0 13 3c 25 89 4e bd
       -0.045002613 0.011815089 0.009018007 -0.05042376
000380 4a 53 ab 3c a6 00 eb 3a 34 42 38 bd 23 ed 21 3d
       0.020913739 0.001792927 -0.04498501 0.03953279
000390 97 4c be bc 88 89 18 3d 63 e9 9f 3c 5d 11 2d 3d
       -0.02322988 0.037240535 0.019520467 0.042252887
0003a0 ad 7c ab 3c 32 8b 1d 3d 80 b2 b3 bc 26 d0 22 3d
       0.020933473 0.038462825 -0.021935701 0.039749287
0003b0 65 4a bb 3a ae 82 6c bd 8f 13 0a ba 79 63 4f bd
       0.0014289139 -0.057741813 -0.00052671967 -0.050631974
0003c0 a3 9b b2 3a 33 c8 eb bc be 7f 5e 3b e7 7f 2c bd
       0.0013626706 -0.028781986 0.0033950652 -0.042114165
0003d0 c6 5e e3 3c 5a ff 88 3d ba 01 8a bb f6 b5 86 3d
       0.027755152 0.066893294 -0.0042116316 0.06577675
0003e0 9a 56 82 bd 75 bb 84 3b a6 49 10 3c 22 43 fd 3c
       -0.06364174 0.004050667 0.008806622 0.0309158
0003f0 fe c1 6b bc 2c 76 70 3d 57 b7 6e 3b 92 99 04 3d
       -0.014389513 0.058706447 0.0036425197 0.03237302

bias f4 [128]
000000 af 15 cc bc a6 50 cb ba 47 c8 4c bd f2 e6 90 35
       -0.024912683 -0.0015511706 -0.049995687 1.079605e-06
000010 3b 61 03 3d 9f 78 31 3b a5 99 35 bd 2b 3a 3e 3d
       0.032075148 0.0027079952 -0.04433598 0.046442192
000020 46 ca 82 3d 3d f6 ae bc 42 39 7b bd 61 16 a2 bc
       0.06386237 -0.02135765 -0.061333902 -0.019786062
000030 65 aa 1d 3d 1b 03 7e bc 22 2e 5d 3d 12 bd 38 3d
       0.03849258 -0.01550367 0.053999074 0.045102187
000040 3c 7d 8e 3b 90 6e bc 3d 0f 31 24 3d 40 61 01 3d
       0.004348425 0.092007756 0.04008585 0.031586885
000050 4c 5a 11 bd f0 7c 4a bd 45 8e c9 bb 56 7a 62 3d
       -0.035486504 -0.049435556 -0.006150993 0.05529245
000060 a5 16 24 3c 91 dd 2b 3d 18 f0 76 3c 3d 5f b7 bc
       0.0100151645 0.04195935 0.015071891 -0.02238428
000070 c5 f1 d2 bc 96 ee 90 bc ef 4c bd bc 8c 4b f6 bc
       -0.02575005 -0.017691892 -0.023107974 -0.03006532
000080 aa 3d 64 bd 25 14 85 3c 99 0b 82 bb ba 9e 40 3c
       -0.05572287 0.016244957 -0.0039686677 0.011756593
000090 09 47 8e 3a bd 64 88 3d e4 36 3a bd 9a c6 f2 3c
       0.001085491 0.06659839 -0.045462504 0.029635716
0000a0 4f 48 ec bc 59 27 5e bd ef cc 0b 3d be a3 a4 bb
       -0.028843073 -0.054236744 0.034130987 -0.0050244024
0000b0 97 22 59 bd 55 1e db bc 12 02 82 bd 19 8f 8d bd
       -0.053011503 -0.026747862 -0.06348051 -0.06912059
0000c0 ed ed 20 3c 78 2f 94 3d a8 74 58 3d 0b be 90 3d
       0.009822351 0.072356164 0.052845627 0.07067498
0000d0 51 45 ab bc b7 2f 5b 3d 90 f8 ce 3d 41 d2 ca 3a
       -0.020907076 0.0535123 0.10106003 0.0015474038
0000e0 56 d6 b7 bc 40 45 26 bd 13 fb 78 bd 0a 77 8f 3d
       -0.02244107 -0.040593386 -0.060786318 0.07005127
0000f0 89 b9 f5 bb 08 86 dc 3d fd d6 90 3d c7 d8 4b bd
       -0.007498924 0.10767752 0.07072256 -0.04976728
000100 58 1c 2c bd 65 f6 eb 3d c0 9b 62 bd db d2 08 bb
       -0.04201922 0.115216054 -0.055324316 -0.0020877633
000110 b9 95 8d 3d 97 db 66 bc a0 80 19 bd 1e ec 09 3d
       0.06913323 -0.01409044 -0.037476182 0.033672445
000120 8d 8b 07 3d 22 68 26 3c a7 26 e3 3c 81 5a 20 bd
       0.03309207 0.010156663 0.027728392 -0.03914881
000130 28 62 8c bd 55 f4 40 3c 0c 1e 38 bb 37 52 27 bd
       -0.06854659 0.011777003 -0.0028094081 -0.04084989
000140 b6 ae f8 3b 5c 36 93 3d 14 8e 8a bc 77 f8 64 bd
       0.0075891865 0.071881026 -0.016913451 -0.055901017
000150 9a 4d 86 bd 59 36 77 3c d4 d4 07 3c f1 7e a1 3c
       -0.0655777 0.015088641 0.008290488 0.01971385
000160 6e dc 3f 3d bc 7b 15 bc c1 29 06 bd f1 19 43 3d
       0.046841078 -0.009123739 -0.032754663 0.04763216
000170 a7 d3 8b 37 4e d2 44 bc 33 ef 1b 3d bd 9e 75 bd
       1.666865e-05 -0.012013031 0.038069915 -0.059965838
000180 9d 67 8c 3d f4 18 fb 3b e9 4a 49 3d 77 8b ac 3b
       0.068557 0.0076628868 0.049143706 0.005265649
000190 90 6d 45 bd 2b 55 55 3d 25 6b 82 3d c1 e2 9c 3d
       -0.04820019 0.052083176 0.063680924 0.076604374
0001a0 a4 57 65 bc f7 31 56 3d c7 7d 46 3d 5b fa 3e 3c
       -0.013997946 0.052293744 0.048459794 0.011656369
0001b0 fb 74 45 3d b8 f0 89 bd 62 e5 7e bd 0a b7 9f 3d
       0.048207264 -0.067353666 -0.062230475 0.07798584
0001c0 c1 7b db bc ea 73 c8 bc ee 12 42 bc 19 0c 53 bc
       -0.026792409 -0.024469335 -0.0118453335 -0.012881302
0001d0 51 59 c3 3d 32 5a d4 3d 94 d0 a2 bb a6 40 5b bd
       0.0953852 0.10368766 -0.004968712 -0.05352845
0001e0 03 57 26 b4 f2 f5 6d 3d f4 74 78 bd f5 dc 41 bc
       -1.549161e-07 0.05809588 -0.06065841 -0.011832465
0001f0 f9 19 2e bb 1f e9 fe bb 5b cc fc b9 d8 cf ba ba
       -0.0026565774 -0.007779255 -0.00048217442 -0.0014252616

weight f4 [128, 128]
000000 34 e9 97 3c be ca 59 3d 56 76 81 3d 03 dd a7 3c
       0.018543817 0.053171866 0.06321399 0.020491129
000010 cc a7 78 bc 0c 04 76 3d 6b 99 be 35 62 15 a2 3a
       -0.015176725 0.060062453 1.4200754e-06 0.0012365992
000020 f9 80 78 bc 09 b6 a7 bc 15 33 ea bb b0 e1 7a bc
       -0.015167468 -0.020472543 -0.0071472027 -0.015312597
000030 e9 78 16 bd 52 9f 81 bc df 25 64 bd be 68 e0 b8
       -0.036736403 -0.01582304 -0.05570018 -0.00010700662
000040 95 65 4b bc 11 82 91 3c 5a 35 9b bc a4 33 5f 3b
       -0.012414356 0.017762216 -0.018946338 0.003405788
000050 40 49 2c 3b 9b 70 ea bc 42 7b 2c bb 1e 2b 5e bb
       0.0026288778 -0.028618148 -0.0026318585 -0.0033900212
000060 2a 2d ab b9 5c 91 75 3d be 57 9f bc 01 88 39 bd
       -0.00032649311 0.05995308 -0.019451018 -0.04529572
000070 fa 06 8c 3d f7 2a e3 3b 43 ed 41 3d 60 10 56 bc
       0.06837268 0.006932612 0.04734541 -0.013065428
000080 93 36 3d 3d fe a3 62 3d 90 64 d3 39 08 5c 75 3a
       0.046194624 0.055332176 0.0004031998 0.0009359722
000090 08 08 f1 b9 f9 9d ba bc b5 59 9a bc 7f 0f 61 bd
       -0.00045973086 -0.022780405 -0.018841604 -0.05494642
0000a0 05 e1 24 bd df df 0a bc 83 0b 28 bd d6 42 82 32
       -0.040253658 -0.008476227 -0.041026603 1.5164385e-08
0000b0 fa 82 bf bc 09 ea 4e 3d 31 e6 b3 bc fc c3 8e 34
       -0.023377884 0.050516162 -0.02196035 2.6592159e-07
0000c0 06 b1 c3 3c 38 e4 0b 3c e7 cd c6 bb 6c d4 5e 3c
       0.023888122 0.008538298 -0.006067026 0.01360045
0000d0 9f 6d 9e bc 5a ab 35 bd 41 85 86 bd 47 50 7c bd
       -0.01933938 -0.044352867 -0.06568385 -0.061599996
0000e0 31 cd 96 3c f4 2d 7d bd ef a7 28 3c 06 21 29 bd
       0.01840839 -0.061811402 0.010293945 -0.04129126
0000f0 00 40 d7 3b 50 e7 e8 34 d3 c1 8c 3d 73 0b f7 3c
       0.0065689087 4.338167e-07 0.068729065 0.030156827
000100 78 f4 88 3c 81 00 39 3d d8 d7 6a bd f0 33 0e 3c
       0.016718134 0.045166496 -0.05733475 0.008679375
000110 80 a7 0a bd e5 15 1a 3d 8f 26 0c 36 75 c6 08 3d
       -0.033851147 0.037618537 2.088407e-06 0.03339239
000120 61 e0 23 3d f3 8b 43 bd 09 f4 b4 bc 23 5a a1 b2
       0.040008906 -0.047740888 -0.022089021 -1.8783856e-08
000130 d9 02 84 3c 71 4a 85 b9 50 0d 48 3c 2e 83 c8 35
       0.01611464 -0.000254232 0.012210205 1.493934e-06
000140 bc 9a 2b bc 5b 41 b1 3c c4 fc 1f ba 71 2e 6e bd
       -0.010473903 0.02163761 -0.00061030337 -0.05814976
000150 67 4d 40 3c bb 0d 87 3b a0 ab 81 3d 36 3d 1b b5
       0.011737204 0.00412151 0.06331563 -5.7831073e-07
000160 03 84 64 bd 98 d8 0f 3a 49 23 7a 3d fa c0 bf 3c
       -0.05578996 0.0005487292 0.061068807 0.023407448
000170 b2 f1 7a 3c 25 26 82 39 5e 3c 1f bd 6a bc 0f bd
       0.015316414 0.00024823952 -0.03887593 -0.035091795
000180 72 47 64 bd 1f 0a 7d bd 05 b5 91 bc fd a7 b3 bc
       -0.055732198 -0.06177723 -0.017786512 -0.021930689
000190 b4 69 1a 3d 61 00 26 b2 65 8e 86 3b 44 0d ec bc
       0.037698463 -9.662558e-09 0.00410633 -0.02881492
0001a0 41 3a 89 32 0a f2 d8 bc 01 6b 8b bc d8 69 53 bd
       1.597539e-08 -0.0264826 -0.017018797 -0.051614612
0001b0 06 58 7d bd e7 11 4b 3d 95 78 23 3d e3 b8 8c bd
       -0.061851524 0.04957762 0.039909918 -0.06871202
0001c0 6f 69 8a 3d 24 89 10 bd 85 74 34 b4 87 15 56 bd
       0.06758391 -0.035287037 -1.6806196e-07 -0.052266624
0001d0 5d 70 cb 3c 17 d8 27 bd e1 aa ce bc ec 3f 58 3d
       0.024833852 -0.040977564 -0.025227966 0.052795336
0001e0 16 75 8a 3d f9 0b 45 bd e8 74 4f 3c 82 31 82 3d
       0.067606136 -0.04810712 0.01266215 0.06357099
0001f0 a3 63 3a bd 80 88 d1 3c fb 4a c9 3b db 77 a1 3c
       -0.045505177 0.025577784 0.0061429716 0.019710472
000200 e6 52 ae bc 5f ed 4b 3d d5 e4 fa bc 98 b6 35 bc
       -0.021279763 0.04978692 -0.030626694 -0.011090897
000210 b0 87 a6 bb e5 81 2c bd 10 f1 9c bc cd 2a 15 bc
       -0.005082093 -0.042116065 -0.019157916 -0.009104443
000220 d3 b6 2c bb db 55 a5 3c d8 7b c3 3b f2 2c 09 3d
       -0.002635409 0.02018254 0.005965691 0.03349013
000230 16 cd e6 3c dd 71 0e 3c 72 a5 4e bd 52 89 2c 3d
       0.028173964 0.008694139 -0.05045075 0.042123146
000240 3a c0 03 bd 5c 9a 08 bd a8 bb 25 ba 3d 70 94 3c
       -0.032165743 -0.033350334 -0.00063222134 0.018119926
000250 3a a1 8a 3d c7 dc bd 3c ae 7c 2e 3c 9d fa 51 3c
       0.06769033 0.023176564 0.010649843 0.0128160985
000260 a0 9f 08 3c ac f2 45 3b 2b ed 8d 3d 83 2a a1 bc
       0.008338839 0.0030204458 0.06930002 -0.019673591
000270 7e 28 3d 3d 5f bd af 3c b3 3b 8e bb 3d e4 1e 3c
       0.046181194 0.021452604 -0.004340613 0.009697971
000280 22 af f0 bb 42 3a 0b 38 aa 6f c4 bc 90 1c 77 3b
       -0.007345096 3.319444e-05 -0.023979027 0.0037706234
000290 eb 19 1b bd 5a 54 42 bc d6 fa 95 bb 9e 7d 52 bd
       -0.037866514 -0.011860931 -0.004577021 -0.05138933
0002a0 da 76 d7 3c bc b8 a8 bc e4 f5 3b 3b d1 96 c1 bc
       0.02630179 -0.0205959 0.0028680498 -0.023631485
0002b0 ca 32 ac bb 7f b8 0e 3c a1 11 cd bc d3 f1 4d bd
       -0.005255078 0.0087109795 -0.02503282 -0.05027945
0002c0 4b 24 8c 3c e7 38 56 3d b5 0e b2 3b 55 88 46 3d
       0.01710715 0.05230036 0.005433882 0.04846986
0002d0 d0 70 de 3a 46 bb 0a 3d c5 4a 5c 3b 9d 55 32 3d
       0.0016970877 0.033870004 0.0033613902 0.04353868
0002e0 70 87 18 bd 70 29 32 bc 98 79 69 bd f8 5a 38 bd
       -0.03723854 -0.010874137 -0.057000726 -0.04500863
0002f0 bc e5 98 bc ae 74 83 bd 38 8d 25 bd d8 50 5d 3d
       -0.018664233 -0.06418739 -0.04041788 0.054032177
000300 be 2a 63 bd 99 57 8f bc 7e a1 c9 3a ca 65 94 bb
       -0.055460684 -0.017497825 0.0015383211 -0.0045287358
000310 e9 36 63 3d 5b ab 5f 3d ae 8a 52 bc bb ea c6 bc
       0.05547229 0.054606777 -0.012850447 -0.02428185
000320 71 b8 61 bd 0e 87 4f 3b de 0a c9 b9 41 23 15 3b
       -0.055107538 0.0031666192 -0.00038345804 0.0022756609
000330 25 63 8b bd a7 73 88 bd 55 98 0b 3d d1 c9 db 3c
       -0.0680602 -0.06662684 0.034080822 0.026829632
000340 f6 f9 a2 3b ce 5a a6 3c a9 bd 04 3c 66 9a 90 3c
       0.0049736453 0.02030697 0.008101859 0.017651748
000350 4f 84 45 3c 53 0b 73 3d 26 63 4c bc 7f 52 48 3d
       0.012055471 0.05933697 -0.012474811 0.0489068
000360 d5 2c 86 3c e2 66 94 3b bc 02 e3 bc c5 a7 4d bd
       0.0163788 0.004528866 -0.027711265 -0.050208826
000370 c3 a8 47 3d f1 24 32 3d 59 d7 68 3d c3 df 15 3c
       0.048744928 0.04349226 0.056845997 0.009147587
000380 5c 3e 0b 3d 86 f1 75 bc 70 bb 3c bd 5f 1d 85 3d
       0.033995017 -0.015011197 -0.04607719 0.06499743
000390 da 0d 87 3d 94 02 d9 bc b1 b5 1a bd 72 e7 86 3d
       0.06594439 -0.026490487 -0.03777093 0.065871134
0003a0 15 fb 7a 3d 88 0c 4d bc 16 44 d1 3c f0 9e ce 3c
       0.061274607 -0.012515195 0.025545161 0.025222272
0003b0 4f db 15 bd ff 8c e3 bc 03 7a a6 3c c6 0f 1b 3d
       -0.036586102 -0.027777193 0.020321852 0.03785684
0003c0 46 fc 27 3d f2 79 5e 3d 62 87 70 3d 73 41 77 bd
       0.04101207 0.054315515 0.05872286 -0.06036515
0003d0 76 04 50 3d e6 af c9 bb 48 4b 5d bd d3 56 0d 3b
       0.050785504 -0.006155002 -0.054026872 0.0021566644
0003e0 32 d3 67 bd 7e 25 46 bd 33 97 8b bb 86 ec 91 3c
       -0.056597896 -0.0483756 -0.0042599677 0.017812978
0003f0 89 f3 2d 3d 43 8e 8d 3c 77 97 92 bc 72 d0 5c 39
       0.04246858 0.01727975 -0.01789449 0.00021058487

bias f4 [128]
000000 4a d1 c0 bc 1e 87 c1 3c 73 d7 85 3d 56 bd 77 3d
       -0.023537297 0.023624 0.06535234 0.0604833
000010 30 9c cf 3a 85 15 7d 3d ca 3d 81 3d 8a 33 57 bd
       0.0015839394 0.0617881 0.063106135 -0.052539386
000020 7e cb 05 3c 87 96 8f 3d 60 ef 13 bd 3a 63 64 bc
       0.008166192 0.07011133 -0.036116958 -0.013939673
000030 68 47 9e bc 23 46 7a 3c df 86 df bb 05 67 48 ba
       -0.019321159 0.015275511 -0.006821498 -0.00076447456
000040 71 dd 4e bd 7e 8a 43 bd 1f 87 cb 3d ba 1a e3 3c
       -0.05050415 -0.0477395 0.09937882 0.027722705
000050 0e 46 e2 3c fa d8 4f 3b af 88 15 3d 08 7f 41 bd
       0.027621295 0.0031715021 0.036507305 -0.047240287
000060 de 2b 1d 3d b7 a7 90 3d 7e a1 f7 bc 2f bd 9a 3c
       0.038371913 0.07063239 -0.030228373 0.018889038
000070 04 76 8f 3d f6 ae 1b bd 51 fb 52 bd 96 b0 1e bc
       0.070049316 -0.038008653 -0.051509205 -0.009685656
000080 a8 0a 7a 3d c1 6f 8d 3d 39 a0 cd 39 c3 be 95 3d
       0.06104532 0.06906081 0.00039220022 0.073117755
000090 27 28 a0 3c 8b 19 61 bd f2 7a 9e b4 62 52 57 3c
       0.019550396 -0.054956 -2.9519248e-07 0.0131422
0000a0 3b 19 53 bd 29 9f 93 3c e8 32 36 3d 2a 17 64 bd
       -0.051537734 0.01802023 0.04448214 -0.055686153
0000b0 c7 ae d4 ba 4d 58 bf bc 1e 47 8d bd 1c 36 94 bc
       -0.0016226404 -0.023357535 -0.0689833 -0.018092208
0000c0 5a c5 61 bd 1a 32 b0 bc 6e 90 63 bc 2e 63 67 bd
       -0.05511985 -0.021508265 -0.013889415 -0.05649107
0000d0 9b b4 8a 3d 5a e8 2c 3d 3d 6a da 3d ac a8 40 3d
       0.06772729 0.042213775 0.106647946 0.047035858
0000e0 23 83 cc bc 63 76 93 3d b6 1a 8b b9 36 98 5c 3d
       -0.024964875 0.07200315 -0.00026532047 0.053856097
0000f0 f3 0f 40 bd 8b 3f 88 3c 43 5a 63 bd 44 01 55 3c
       -0.04689021 0.016631862 -0.055506002 0.01300079
000100 58 f7 95 3c 21 b0 83 3d 86 1f 4b bb 29 2d 95 3d
       0.01830642 0.06430078 -0.0030994131 0.07284004
000110 d4 6f 47 bd a4 6c 3b bd ec d6 64 3c c0 fa d4 3c
       -0.048690632 -0.045757905 0.013967257 0.025998473
000120 f5 c6 e3 3c d5 71 48 3d 66 8d 63 bd b4 5a b7 bc
       0.027804831 0.048936684 -0.05555477 -0.022382118
000130 22 b0 62 bc b6 84 e8 bc 45 dd 1e 3d a2 2a 8a bc
       -0.013835939 -0.028383594 0.038785238 -0.016866032
000140 9c bc f4 ba 39 31 df 3c 80 7d 26 bd 41 52 ad 3c
       -0.0018671933 0.02724515 -0.04064703 0.021157386
000150 6e 61 0f bd 70 d1 eb bc 10 a1 79 bb a9 97 86 3b
       -0.035005026 -0.028786391 -0.0038090385 0.004107435
000160 19 79 1e 3d d5 7c 06 3d ec aa 29 3d 2d da 8a 3d
       0.038689706 0.032833893 0.04142277 0.06779895
000170 93 1e 7d 3c 10 03 b4 bc a4 b1 10 bc 2f 0d 94 3d
       0.015449184 -0.021974117 -0.008831415 0.07229077
000180 7f 61 39 3c 75 b6 87 bd 6f cd 44 bd 39 4e 44 3c
       0.011314749 -0.06626598 -0.04804748 0.01198154
000190 c1 45 19 bd 40 d1 33 bd 90 3d 05 bc f2 62 89 bc
       -0.037420038 -0.04390073 -0.008132353 -0.016770814
0001a0 39 49 65 bc 9a c2 85 3d 0f 52 be 3d 16 3c 9f 3d
       -0.013994508 0.06531258 0.09292995 0.07775132
0001b0 74 53 ef bc 3c 06 93 3d e8 12 93 3b bb a4 64 3d
       -0.029214598 0.071789235 0.004488338 0.05582116
0001c0 56 cf 3d 3d ea 98 ff 3c 5a 60 e8 bc 84 c5 70 3c
       0.04634031 0.031200845 -0.028366257 0.014695529
0001d0 c3 57 43 3d 6a 6f a7 3d fa 92 62 3c 26 5c 12 3d
       0.047691118 0.081755474 0.013828987 0.03573241
0001e0 61 0b a5 3d 9e c0 5e bd 0c 64 7b bd cc 5a 4a 3d
       0.08058811 -0.054382913 -0.06137471 0.049402997
0001f0 d7 4f 9b bb 08 c4 1f 3d 1c 2b b3 3d e3 26 80 bd
       -0.0047397423 0.03900531 0.08748457 -0.06257417

weight f4 [128, 128]
000000 16 96 99 bc 73 42 8c 3c 4c cf d5 3c 42 b9 9b bc
       -0.018748324 0.01712153 0.026099823 -0.019009236
000010 8d bd 24 bd 15 53 6a 3c d5 26 8c 3d 31 97 a5 3b
       -0.040219832 0.014302035 0.06843344 0.005053424
000020 88 c9 b4 3b 81 d6 70 bd ea d1 e7 3c 34 1e ba 3b
       0.0055171885 -0.058798317 0.028298337 0.00567987
000030 05 37 55 bd a2 94 53 3d 78 ac 45 3b d4 ed 14 3d
       -0.052054424 0.05165542 0.0030162614 0.036359623
000040 7f 9e cf bc 7c 9a da 3a eb 30 57 bd 6f ff b2 bc
       -0.025344132 0.001667812 -0.052536886 -0.021850316
000050 a6 e4 f1 bc 72 6b 08 3d a1 72 38 3d dc 07 ee bb
       -0.029527973 0.033305593 0.045031194 -0.0072641205
000060 3b 5e d7 3c 4f 3c 55 bd 81 e7 50 bd 2b 51 8a 3d
       0.02629005 -0.052059468 -0.05100203 0.06753763
000070 33 14 2a bc 1a c5 eb 3b 64 13 c7 bc c1 12 00 3c
       -0.010380792 0.007195127 -0.024301238 0.007816971
000080 3d 3e 06 3b 19 f5 c1 3c 94 6b 57 3d e2 8d 61 3d
       0.0020483874 0.023676442 0.05259283 0.05506695
000090 42 76 5d bd 7e 40 7c 3d 82 12 33 bd 6d 94 76 bc
       -0.054067858 0.061584942 -0.043718822 -0.015050036
0000a0 88 79 2c bc c5 ba 5e bb b5 f3 bd bc 16 99 e2 3c
       -0.010527022 -0.0033985835 -0.023187498 0.027660888
0000b0 64 7e 74 bd 27 f2 68 3c c0 b3 c8 3b be bf 41 3c
       -0.059690848 0.01421789 0.0061249435 0.0118255
0000c0 6e 3f 69 3c 81 98 8f 3a 25 03 4b 3d 5e 12 13 bd
       0.014236314 0.0010955484 0.049563546 -0.03590619
0000d0 d9 d0 18 bd 62 4e 61 3d 19 d3 81 bd b9 2e 83 bc
       -0.037308548 0.055006392 -0.06339092 -0.01601349
0000e0 9a 7a 99 bc 31 de 97 bc 59 62 84 bd df 2d df 3b
       -0.018735219 -0.018538566 -0.06464071 0.006810888
0000f0 74 91 35 3c 40 1a 8b bd 8b 64 d8 3c 31 84 63 bb
       0.011082042 -0.06792116 0.02641513 -0.0034716243
000100 77 83 98 bc da d0 1a 3c 61 09 ab bb 14 83 88 3d
       -0.018617375 0.009449208 -0.005219624 0.06665626
000110 43 34 80 bd 3a a9 69 bc 21 6e 15 bd b1 e2 65 3b
       -0.06259968 -0.014261538 -0.03648198 0.0035077746
000120 e6 a4 88 3d 0f de 8e 3b a7 1e 2f bd a2 c5 4a 3b
       0.06672077 0.0043599675 -0.04275384 0.0030940552
000130 01 c2 5b 3d 13 d8 7a bd f4 60 5c bd 49 7e 40 ba
       0.053651813 -0.06124122 -0.0538034 -0.00073430367
000140 b6 a9 ad 3b d2 74 18 3d 92 de 05 bd 95 20 05 bd
       0.005299772 0.037220784 -0.032682963 -0.032501776
000150 ef ed f2 bc 28 7c 56 bb 2b f9 7b 3d e6 d0 76 3d
       -0.029654471 -0.0032727811 0.061516922 0.060257815
000160 a2 e5 70 bd a5 ce 45 3b b2 74 2e 3d 38 97 7a bd
       -0.058812745 0.0030182984 0.042591758 -0.06117937
000170 18 7f a5 bc a7 7c 6c 3d 1f 81 05 3c 71 00 26 3c
       -0.020202205 0.057736065 0.008148461 0.010131941
000180 65 15 78 3d 20 91 60 bd 6f fc 72 3d f7 7e 67 bb
       0.06056728 -0.054825902 0.05932277 -0.003532348
000190 6c cf 28 bd 3b db 87 bc 99 a9 e5 bc 91 53 30 3d
       -0.041213438 -0.01658403 -0.028034972 0.043048445
0001a0 4b 94 cf 3a 19 2d 86 bd 83 05 65 3a 7e a4 f9 3c
       0.0015837041 -0.065515704 0.0008736478 0.030473944
0001b0 e0 d3 46 bc 1b d5 8c 3d da 64 5e 3d 56 15 3a 3d
       -0.012135476 0.06876584 0.0542954 0.045430504
0001c0 e5 0e 75 bd be 17 47 bc 47 4c 1a 3c 74 57 5e 3d
       -0.059828658 -0.012151657 0.0094176 0.05428262
0001d0 a5 64 ec 3c 7c 85 72 bd 8d 54 8d bd 6f 80 13 3d
       0.028856585 -0.059209332 -0.069008924 0.036011156
0001e0 fb 06 ed 3a eb 1b 72 bd b6 e5 41 bd ee b3 82 bd
       0.0018083745 -0.059108656 -0.04733821 -0.06381975
0001f0 64 c3 ca bc 5d 80 83 3d 8c 9e f3 bc 38 0d 24 3d
       -0.024751373 0.06420968 -0.029738687 0.04005167
000200 17 e2 fc 3a 68 f9 7f 3a e4 7c 4b bd 9c 4e 41 bd
       0.0019293454 0.00097646425 -0.04967965 -0.04719411
000210 6c b7 18 3d 8a 94 86 bc a7 43 70 3d b9 8e 67 bd
       0.0372843 -0.01642825 0.05865827 -0.056532595
000220 44 d3 2e 3d e5 5e 89 bb fc e3 0e 3d 38 ff 7f 3c
       0.042681947 -0.0041922205 0.03488539 0.015624814
000230 ae 39 dd ba 14 a9 b8 bc db 63 1d bd 25 92 d5 bc
       -0.0016878152 -0.02254156 -0.038425308 -0.026070664
000240 84 35 db 3b 5f 9e 00 bd ae e7 60 3b 60 7f e6 3b
       0.006689729 -0.031401034 0.003431778 0.0070342273
000250 8b ec 48 3b 06 eb 6e bc 66 cb 62 bd 5a a4 27 bd
       0.0030658569 -0.014582401 -0.055369757 -0.040928222
000260 fa 2f ae bc fe b8 65 bd 1c 0d 28 3c dd 54 03 3d
       -0.021263111 -0.056084625 0.010257032 0.032063354
000270 3d 31 9a 3c 53 d9 83 3d 8e 81 4f 3d 87 49 6b 3d
       0.018822307 0.06437936 0.050660662 0.057443168
000280 96 15 d0 bb 2e 41 8c bd 7d a6 63 bb 25 86 42 3d
       -0.0063502295 -0.068483695 -0.0034736686 0.04749121
000290 47 17 0f bd 7e 72 19 bc f0 31 ea 3c 6d 9c 9b bc
       -0.03493431 -0.009365676 0.028588265 -0.018995488
0002a0 cb 64 3a 3b d6 b1 19 3b d0 ac 41 3b 63 31 4c 3d
       0.0028441425 0.0023451946 0.0029552467 0.049851786
0002b0 c0 34 cd bc a3 ac 63 3d b1 f8 13 3d 73 42 12 bc
       -0.025049567 0.05558456 0.036125842 -0.008926976
0002c0 a3 c5 02 3d 8e 06 47 bd 0f d8 ee bc 87 b5 20 3c
       0.031926762 -0.048590235 -0.02915576 0.0098089045
0002d0 d7 49 51 bd 95 6d 39 bd 05 4a a0 3b 0e c7 ba bb
       -0.05109581 -0.04527052 0.0048916363 -0.0056999987
0002e0 39 33 c0 3a da 9c 28 3c 6a ef a3 3c 86 90 51 bd
       0.0014663703 0.010291303 0.020011622 -0.05116322
0002f0 1a 6d 00 3c f3 fb fb 3c 4a 51 5b 3d 27 4c 31 3d
       0.007838512 0.030759787 0.05354432 0.043285515
000300 9b 59 f9 bc b3 11 61 bd c9 38 ac 3b 23 46 8c 3d
       -0.030438235 -0.05494852 0.0052557928 0.06849315
000310 31 23 1f bd d0 51 cb bc c3 b7 07 3d 2e f5 5d bd
       -0.03885192 -0.024819285 0.033134233 -0.0541889
000320 78 ec 2e bd c6 8f 75 bd d6 55 d7 39 64 a8 46 bd
       -0.042705983 -0.059951566 0.00041071948 -0.048500434
000330 19 f8 98 3c 18 2a b7 3c 45 43 e2 3c 48 bd 5a 3d
       0.01867299 0.022358939 0.027619967 0.05340317
000340 5b dc 5e 3b 93 84 4d 3c d9 28 c6 bc 99 b8 92 3c
       0.0034005854 0.012543815 -0.0241894 0.017910289
000350 25 b2 79 3a 79 6b e9 3b fb fd f5 bc b0 5b 4c 3a
       0.0009525142 0.0071234074 -0.030028334 0.0007795645
000360 8f ed a0 bc 52 46 e8 bc 31 ee 9d bc 45 13 15 3c
       -0.019644527 -0.028353844 -0.019278618 0.0090988325
000370 36 26 2c bd 77 e4 63 3b f0 fb a4 3b 3e cb 82 3d
       -0.04202863 0.0034773627 0.005034916 0.063864216
000380 1f 67 7a 3d c9 4e 49 3d 2f 15 6e 3d ea 3b bf 3c
       0.0611335 0.0491474 0.05812567 0.023343999
000390 e3 33 04 3d 02 c2 68 3b 85 2b 2c 3c 1d c1 82 3b
       0.032276046 0.0035516028 0.010508423 0.003990306
0003a0 3d 96 85 bd ce b1 fc 3b 9b 8d 10 bd 8c 7c 5b 3d
       -0.06522796 0.0077116257 -0.035291295 0.053585574
0003b0 7e af 4b 3d 00 cd af 3c bf 76 5d 3c 22 04 49 3d
       0.04972791 0.021460056 0.013517081 0.049076207
0003c0 f1 42 93 bb 7e 79 2c 3d d7 35 7a bd cd cf 85 bd
       -0.004494064 0.04210805 -0.061086502 -0.065337755
0003d0 eb 6f 86 3c ca b9 fe bc 11 72 30 bd 1a 4a 19 3c
       0.016410789 -0.03109445 -0.043077532 0.009356046
0003e0 34 91 8b bc bb 0e 13 3b 01 65 84 3d d2 0a 6e 3d
       -0.017037012 0.00224392 0.064645775 0.058115788
0003f0 81 af 8d bd bf 8b 7a bd 64 05 e2 bc 7d b4 12 3d
       -0.0691824 -0.06116843 -0.027590461 0.03581666

bias f4 [128]
000000 23 3f bd 3d 40 c7 9f 3d 1e bf 54 3d 00 53 b6 3c
       0.09240558 0.07801676 0.051940076 0.022256374
000010 c3 93 fe b6 7a f8 18 bc 02 af 2e 3d 81 e6 1b bd
       -7.5869916e-06 -0.009336585 0.04264737 -0.038061623
000020 2a 19 43 bd e3 7b 6f 3d 7d 98 8c bb fc 49 07 bc
       -0.04763142 0.058467757 -0.004290639 -0.008257385
000030 61 90 0c bd ea a1 ae 3d 74 01 82 3d a7 c5 fb 3c
       -0.034317378 0.085269764 0.063479334 0.030733896
000040 80 a5 5c bc e9 3e 5c 3d d0 cd bb 3d b2 a9 7b bd
       -0.013467193 0.053770933 0.09170115 -0.06144113
000050 cd 1f 4f bc 09 fd 87 bd b4 3e fa bb f3 03 d4 bc
       -0.012641859 -0.066400595 -0.0076368693 -0.02588079
000060 ae 16 cc 3d 60 35 52 bd f3 c2 c6 3c 98 ea 15 3d
       0.09965263 -0.051320434 0.02426288 0.03660068
000070 4b da 60 3d 55 22 ae 3c 1f 7e 48 3b 1c 77 71 bd
       0.05489568 0.021256605 0.0030592752 -0.058951482
000080 b6 20 75 bd 8e 2f 39 3d f3 4b 4c bd 7f 3d d0 3d
       -0.05984565 0.045211367 -0.04987712 0.101679794
000090 3d bf 21 3d 65 47 92 3c 37 fa 60 bd 39 89 bd 3d
       0.03948902 0.01785631 -0.054926123 0.09254689
0000a0 0a d0 42 3c 2c 44 83 3d b5 cc 50 3d f5 62 40 bd
       0.011890421 0.06409487 0.050976474 -0.046969373
0000b0 83 88 e7 3c ca b4 7c bd 7d 5b 0d 3d f4 bb 5e bc
       0.028263336 -0.06169585 0.03451108 -0.013594616
0000c0 1a 62 e8 bc 7e 6a 29 3d ec e8 59 bb 37 8e b6 3d
       -0.028367091 0.041361324 -0.0033250405 0.08913844
0000d0 62 54 1c 3d 35 b7 74 bd e1 0a c5 3d c3 02 ea bb
       0.03816641 -0.059745032 0.096212156 -0.0071414425
0000e0 71 32 8c bc f6 80 f8 3c e0 b9 23 3d f1 b4 d1 bc
       -0.017113896 0.03033493 0.039972186 -0.025598975
0000f0 1a 69 c1 bc 09 41 c0 3c fd 8f 86 bd 05 cc 73 3d
       -0.023609687 0.023468511 -0.06570432 0.05952074
000100 b5 b3 d3 bc 49 39 37 bc 60 44 ad bc 69 d8 d4 bc
       -0.025842527 -0.011183091 -0.021150768 -0.025982099
000110 fe ed 99 3d 88 92 2b bc 59 27 0e bd cd 6e 56 3d
       0.075160965 -0.0104719475 -0.034705494 0.05235176
000120 92 66 fd bc e4 78 b3 3c eb 07 46 bd 0d 2e 5d bd
       -0.030932698 0.021908231 -0.048347395 -0.053998996
000130 73 c8 75 3d 3c f3 8b 3d ab b0 70 3d 65 3c 4e bd
       0.060005616 0.06833503 0.058762234 -0.050350565
000140 99 9e 5f bd ef 0d 00 bd 91 8f 80 3d 7e 50 b1 3d
       -0.05459461 -0.031263288 0.06277383 0.08657931
000150 ed 57 2f 3d cf 5f 58 3d 46 30 a8 bc 8a f2 d0 bc
       0.042808462 0.052825745 -0.020530831 -0.025506277
000160 70 40 8d bd 46 ed 55 bb 01 2c 24 3c 43 7d 7b bd
       -0.06897056 -0.0032642647 0.010020257 -0.061398756
000170 dd 65 b2 bb 25 1e 25 bd ed fc a5 3d 34 26 24 bd
       -0.005444272 -0.04031195 0.081048824 -0.040075496
000180 29 c0 88 34 88 48 ff ba e5 72 18 bd 4b d0 c8 3c
       2.547179e-07 -0.0019476572 -0.037218947 0.024513384
000190 30 c2 ca bc f7 55 82 bd 55 5d 16 3d 1c 5d 89 3d
       -0.024750799 -0.06364053 0.036710102 0.06707212
0001a0 32 b6 38 b4 7f 72 49 3d b9 78 77 3d a8 04 40 bc
       -1.7202618e-07 0.049181458 0.060417864 -0.01171986
0001b0 c8 76 9f 3c 73 ff 17 3d 2b 90 7b bd 68 4b 06 3d
       0.019465819 0.03710885 -0.061416786 0.032786757
0001c0 77 ae 81 bd a6 f7 85 bc 46 c9 24 bd b2 ed fd bc
       -0.06332105 -0.01635344 -0.04023101 -0.030997131
0001d0 fd 24 a3 bc 7a e3 82 bd b5 53 6d 3c e5 0f 87 bd
       -0.019915098 -0.06391044 0.014485289 -0.065948285
0001e0 17 d2 1a 3d 80 10 92 bc 22 90 5a bd 1b b8 8b 3d
       0.037798014 -0.017830133 -0.053360112 0.06822225
0001f0 fc c3 13 3c 98 ce dd 3c ef d9 17 3c aa f6 48 3d
       0.009018894 0.02707605 0.009268268 0.049063362

att_vec f4 [3, 128]
000000 f5 52 9b bd 27 28 fb 3d a8 47 b7 3a c9 d4 46 3d
       -0.07584182 0.12263518 0.0013983147 0.04854277
000010 b7 a1 bc bd 71 2c 28 be 24 40 c9 bd 7f 13 2f 3e
       -0.09210532 -0.16423203 -0.09826687 0.17097281
000020 68 5e 27 be 31 3a 85 bc 23 0d f6 bd 41 d0 a2 bd
       -0.16344607 -0.0162631 -0.120142244 -0.079498775
000030 92 46 3d b6 db d6 2f 3e f9 45 13 bd 8d b8 11 3d
       -2.8204272e-06 0.17171805 -0.035955403 0.035576392
000040 5d 84 06 be 72 7d 22 3e 86 a1 18 be 02 0d 65 bd
       -0.1313643 0.15868166 -0.14905366 -0.05592061
000050 1c 97 f8 3d bb 74 e3 bd 6f c6 00 be 43 68 01 3b
       0.12138197 -0.11106249 -0.12575696 0.0019745983
000060 d4 c9 03 be e1 4a 3a bc 40 99 62 3d 50 3d 16 b5
       -0.1286996 -0.011370392 0.05532193 -5.5968576e-07
000070 9b 1f 18 ba 81 df 96 bd 1f 48 40 bd 03 00 18 3e
       -0.00058030494 -0.07366849 -0.04694378 0.14843754
000080 4b a6 ce bd b2 55 11 bd 0b f5 47 bd 4a f2 b3 bd
       -0.100903116 -0.035482116 -0.048817676 -0.08786447
000090 e2 42 27 bb 8f 63 8f 3c 64 69 ce 3c 9d 8c 36 3e
       -0.0025522043 0.017503528 0.025196739 0.17827077
0000a0 ab b8 1d 3e 1e 84 15 3e 6f 7a e9 3d 5a 4e 02 3b
       0.15402476 0.1460118 0.114003055 0.0019883127
0000b0 d1 c7 fd 3d 10 e0 2f be 7e 8d 33 3e b3 9e 9b bc
       0.123916276 -0.17175317 0.17534444 -0.018996572
0000c0 b5 88 ec bd f7 b2 be 3d b9 d7 2d 3e 9d 59 96 bd
       -0.11549512 0.093114786 0.16976823 -0.07341311
0000d0 6b d1 a5 b8 8c 5c f2 3d 5c e0 e2 3d 47 6a f9 3d
       -7.90682e-05 0.11834058 0.110779494 0.12178474
0000e0 d5 86 92 3d 86 97 42 3e 6d 58 91 3d 23 1f dc 3d
       0.071546234 0.19003114 0.07096944 0.10748126
0000f0 61 00 d5 3b e1 23 f3 bd be 65 25 b7 e2 f3 67 bd
       0.0065002893 -0.11872078 -9.858455e-06 -0.05662907
000100 05 f9 94 3d 4a f0 07 3e 91 f9 13 b9 08 41 e1 bd
       0.07274059 0.13275257 -0.00014111983 -0.10998732
000110 38 72 30 be 18 a6 27 be bf 8f 3f be fd 9b 92 bd
       -0.17231071 -0.16371953 -0.18707179 -0.07158659
000120 87 5f 89 bd a3 7d fc 3c 7b 54 2f 3e f3 5d 38 3e
       -0.067076735 0.030821627 0.1712207 0.18004589
000130 ef 50 9f 3c b2 e9 d8 bd 31 19 3b 3e 37 52 25 be
       0.019447772 -0.10591449 0.18271329 -0.16144644
000140 1f ea 32 b9 40 c7 8d 3d a3 21 da bd 10 6d e8 3d
       -0.0001706262 0.069227695 -0.10650947 0.11348927
000150 07 6b c1 bd 45 f6 40 be 23 5c 10 bd 32 de 27 be
       -0.09444242 -0.18843944 -0.03524412 -0.16393355
000160 ac c9 c0 bd 24 89 37 be 50 f4 a3 3d 00 ca e3 3b
       -0.09413466 -0.17923409 0.08005583 0.0069515705
000170 75 47 29 3d 40 54 c8 bd d3 69 77 3d f2 18 05 be
       0.041327912 -0.097816944 0.060403656 -0.12997797
000180 fb 30 2d be 4d 43 2d be e8 87 d7 3d f1 2b e7 bd
       -0.16913216 -0.16920204 0.10523969 -0.11287678
000190 e1 1d 9e b6 ad 07 1e be 2f ea 97 bc a4 1c cc 3c
       -4.7122453e-06 -0.15432616 -0.018544285 0.024916
0001a0 c4 15 fe bc 4b 63 18 34 7f 5c 04 be 85 c3 a3 3d
       -0.031016238 1.4192226e-07 -0.1292591 0.07996277
0001b0 df c2 27 bb ad 88 a5 bc f9 88 08 be b6 7a c8 3d
       -0.002559833 -0.020206774 -0.13333501 0.0978903
0001c0 36 02 b5 3d ab fd 36 be 0f f0 c2 39 46 32 92 bd
       0.08838312 -0.17870204 0.0003718142 -0.07138495
0001d0 3d 9b 22 be 4e c6 92 ba 9a 26 87 bc 93 03 02 3e
       -0.15879531 -0.0011198015 -0.016497899 0.12696676
0001e0 d9 cc 05 3e 8c 45 24 be cd a9 b9 3d ff b9 30 3c
       0.13066424 -0.16042155 0.0906559 0.010786532
0001f0 6b 82 12 3d 56 39 38 be cd 28 3f 3e 2c d6 95 3c
       0.035768908 -0.17990622 0.18667908 0.018290602
000200 c7 5f c8 39 3a 45 18 3e 75 6f 8c bb 1e 13 52 bc
       0.00038218332 0.14870158 -0.0042857477 -0.012821941
000210 ac c2 1b 3e 7b 75 44 bd f7 a8 33 3d 37 00 29 be
       0.1521098 -0.0479636 0.04386231 -0.16503988
000220 2d 5b d3 3d c9 74 d0 3d a8 44 0d bd b2 71 9f bc
       0.10320125 0.10178525 -0.034489304 -0.019463394
000230 84 c1 9f 3d c6 99 48 bd dc 56 3c bb db 28 e7 bd
       0.07800582 -0.048974775 -0.0028738296 -0.112870894
000240 13 58 e5 bc 58 3e fa bb dd 2f c3 3b 99 c9 3a be
       -0.027996099 -0.0076368265 0.0059566335 -0.18240966
000250 12 24 92 bd 7e 89 07 3e 14 5a 6a 3c 03 a4 dc 3d
       -0.07135786 0.13236043 0.014303703 0.1077347
000260 25 58 13 3e 2f 6e 95 bd 19 65 13 3e dd 67 be 3d
       0.14389093 -0.072964065 0.14394034 0.09297154
000270 ba 54 cf 3d 05 15 8f bd bc 1f 9f 3d ef 42 af 3c
       0.10123582 -0.06986431 0.07769725 0.021394221
000280 95 3d d6 3d a0 6e 63 3d 1b fd 1b be 26 e6 b0 bd
       0.104609646 0.055525422 -0.15233271 -0.08637647
000290 00 c7 f8 bd 2b 5b e2 38 46 57 2d 3d 8b d2 28 be
       -0.12147331 0.00010793501 0.04231956 -0.16486566
0002a0 91 39 c7 bc 7d 16 62 bd 89 d8 c8 3d 6d 3c 2d 3e
       -0.024319442 -0.055197228 0.09806926 0.16917582
0002b0 17 53 7b bd 81 e6 35 bd ac da db 3b 3c 6a cd bd
       -0.061358538 -0.04440928 0.0067094173 -0.10030028
0002c0 db 2b b3 bd 08 91 06 be 08 58 29 3e 0a 6a 2a 3e
       -0.08748599 -0.13141263 0.16537488 0.16642013
0002d0 d2 6a 3d be b7 cb 57 3c 0d f7 06 be c3 5a ab bb
       -0.1849778 0.013171128 -0.1318018 -0.0052293255
0002e0 da 42 36 3e c0 b6 a6 3c cb 38 1e 3c 70 cd c0 3d
       0.1779894 0.020350814 0.009657095 0.09414184
0002f0 df 86 ef bc 40 02 ee 3d a0 92 01 3e c0 15 4a 3d
       -0.029239116 0.11621523 0.12653589 0.04933715
000300 b2 82 f0 bd 71 25 b3 3d fe 16 e1 3d bc 22 4c 3d
       -0.11743678 0.08747376 0.109907135 0.049837813
000310 3d 60 3a be 1f b9 08 3e 7c 36 e8 bd f3 9d 07 3e
       -0.18200774 0.13351868 -0.11338517 0.13243847
000320 81 44 2e be a2 9f 0e 3e ad dd 95 bd 6e 3d 26 3e
       -0.1701832 0.13928083 -0.07317672 0.16234371
000330 7b 37 2b bd 8d 82 05 3c 09 e7 df 3d df 7e 3a be
       -0.041800957 0.0081488015 0.10932738 -0.1821246
000340 84 4a c1 bc 70 65 25 3e 79 1d 26 3e ec 94 a5 bd
       -0.023595102 0.16151977 0.1622218 -0.08085045
000350 ff 03 51 3c d8 0b 8a bd 6d cf 4a 3c 4a 4d 08 3e
       0.0127573 -0.0674054 0.012378556 0.13310733
000360 56 e8 8d 3c c6 6b 2a 3d 6b 9a 73 38 a8 e9 fc 39
       0.0173227 0.041606687 5.8079528e-05 0.00048239273
000370 51 f8 55 bd 13 6f b3 bd bd df b6 3d 3b 15 84 bc
       -0.052238766 -0.0876142 0.089293934 -0.016123405
000380 45 3b 48 3d b3 e3 56 ba 86 af 4c bd 84 a8 9c bd
       0.04888465 -0.0008197382 -0.04997208 -0.07649329
000390 3d c9 17 3e aa b3 37 3d 4e 33 0c bd 1e 79 1f bd
       0.1482286 0.044849075 -0.034228615 -0.038933866
0003a0 b3 f2 f0 bd 15 8f 67 bd 38 53 04 3e 1f 69 d3 bb
       -0.11765041 -0.056532938 0.1292237 -0.0064517404
0003b0 80 c1 56 3d df fb db bd 71 a1 e8 3c 3f 99 46 be
       0.05243063 -0.107414 0.028397294 -0.19394396
0003c0 39 38 f4 3d d9 d6 9c 3d 3b 18 83 3d d3 1a bd bd
       0.11924786 0.076581664 0.06401106 -0.09233632
0003d0 43 47 d3 bc ad 85 c0 bd 61 cd 54 ba f0 84 9a 3d
       -0.025790816 -0.09400497 -0.0008117762 0.07544887
0003e0 4e 63 c5 3b d9 a1 07 3e 36 cd 83 3d 22 a3 ed 3d
       0.006023801 0.13245334 0.06435625 0.11603381
0003f0 d1 10 32 be f5 66 ee bc da fd b0 bb c7 1f 30 3b
       -0.17389227 -0.029101828 -0.005401355 0.002687441
