dblp_train/train/pretrained_han/decoder_p.pth (torch, 529440 bytes, 4 tensors)

weight f4 [256, 256]
000000 9e 7e 6b 3b 3d b7 06 3d 7f b4 8d bc 9c b6 f7 bd
       0.0035933624 0.032889593 -0.017297981 -0.12095377
000010 13 33 13 bd 27 96 8b 3b 0d 2b 80 bc 18 0a 1a 3d
       -0.03593738 0.004259843 -0.015645528 0.037607282
000020 0f 30 3c bc d9 1b 5c 3d 5a 0a 46 3c 3f 31 4a bd
       -0.011486067 0.053737495 0.012087429 -0.04936337
000030 72 08 0a bd 8a 23 9e bc be 0a 83 3d 45 e4 5d bd
       -0.03369946 -0.019304056 0.06398533 -0.054172773
000040 84 85 5e bc 17 4b 10 bd 4c 60 33 bc 0f 8d 42 3a
       -0.013581637 -0.03522786 -0.010948252 0.0007421532
000050 da 0e 96 bd 46 ce 9c bd 49 1b 6e bc 8f 3d 74 bd
       -0.073270515 -0.07656531 -0.0145328725 -0.05962902
000060 5e 2a 93 3c 36 f0 7f 3c b6 6a 37 3d 2c d6 89 bd
       0.017964538 0.015621236 0.0447795 -0.06730303
000070 c2 3b c1 bb e7 03 4e 3d e3 22 81 3d c0 10 2d 3d
       -0.0058970163 0.05029669 0.06305482 0.042252302
000080 5e 6a e7 3c f0 5d 0c bd a0 a9 85 3b a3 56 03 3d
       0.028248962 -0.034269273 0.0040790588 0.032065045
000090 b0 db 9d 3b 7f 71 c3 bc a4 6a 3f 3d 94 04 a9 3c
       0.0048174486 -0.02385783 0.04673256 0.020632066
0000a0 d0 f6 b7 bb 57 64 5c 3c 8c ee 10 bb 5e 27 19 3d
       -0.005614139 0.013451657 -0.0022114841 0.03739106
0000b0 59 f7 fc bb f0 52 20 bd 03 a5 e0 3c 4f d5 45 bd
       -0.007719916 -0.039141595 0.027422434 -0.04829913
0000c0 37 e0 e5 3c c9 a8 95 3d b1 2e 06 bb 99 cf 9c bc
       0.028061016 0.07307584 -0.0020474608 -0.019141959
0000d0 af 95 c9 bc a3 f3 c7 bc 6a 40 33 3b 1e 46 0c bd
       -0.024607508 -0.024408167 0.0027351626 -0.034246556
0000e0 09 89 f9 bc 29 df 90 bd 28 a9 35 bd a5 56 5b 3d
       -0.030460851 -0.070738144 -0.044350773 0.053549428
0000f0 f4 60 cc 3d 4b 67 d0 3d 75 b6 4c 3b dd 7c ec bd
       0.0997943 0.101759516 0.0031236683 -0.11547253
000100 68 11 6d 3d c6 59 43 bd a7 d8 d8 3c 06 a4 2f 3d
       0.057877928 -0.047693036 0.026470495 0.042881034
000110 7b d4 38 3d 51 9c 43 3c 84 f3 6d bd dd cb c9 3d
       0.045124512 0.011939124 -0.058093563 0.09853337
000120 74 48 16 bd 07 d9 6e 3d b6 ab 28 bc dc 64 f3 bc
       -0.03669019 0.058312442 -0.010294845 -0.02971118
000130 21 6d a5 3d a9 5a 42 bd 39 8d 12 bc f1 45 16 bd
       0.08077455 -0.04744974 -0.008944803 -0.036687795
000140 10 e1 99 bb fe 5b 0a 3c 3a 8f 23 bd b9 c9 bc bc
       -0.004696019 0.008444784 -0.039931513 -0.023045408
000150 df c4 ce 3c 49 55 e9 3b 68 0b 92 3d 38 76 6e 3d
       0.02524036 0.0071207625 0.07131082 0.05821821
000160 31 01 a3 3c 95 bc 69 bd 3a 38 b8 bc c0 6e 70 3d
       0.019898029 -0.05706461 -0.022487748 0.05869937
000170 08 8e e9 bd b2 d8 3c 3d 94 1b 2e 3c a3 2c 6f bd
       -0.114040434 0.046105094 0.010626692 -0.05839218
000180 d3 df f8 bd 4a d6 ea bd 32 7d bc ba ba ef 41 bd
       -0.12152066 -0.11466654 -0.0014380573 -0.04734776
000190 83 f8 a2 bc 6d 06 8b bd 69 91 42 bd cd e3 c5 bd
       -0.01989389 -0.06788335 -0.047501955 -0.0966259
0001a0 9d 0d 4c bd 03 4f 91 bc 98 4e 67 3d 42 6c 11 bc
       -0.04981767 -0.017737871 0.056471437 -0.008875908
0001b0 d6 3f d5 bc b6 04 14 bd 8c f9 02 be e3 af 50 3b
       -0.026031416 -0.036137305 -0.12790507 0.0031843118
0001c0 e9 f7 2f 3c 38 37 33 bd 11 57 a4 ba 32 08 55 3d
       0.010740259 -0.043753833 -0.0012538155 0.05200977
0001d0 2d ea 57 b9 b7 6c 6f 3d b4 02 5a 3c 62 40 a7 3c
       -0.00020591235 0.058453288 0.013306309 0.020416442
0001e0 d2 de e7 39 ae c0 3c 3d 4b 91 51 3d c5 ac c6 bc
       0.00044225767 0.04608219 0.051163953 -0.024252305
0001f0 85 7e f1 bb cd 60 e5 bd bb eb 5b 3c 42 63 11 be
       -0.0073698186 -0.11200104 0.013422902 -0.1419802
000200 84 de 4e bc e8 08 e1 3c 51 b8 2d 3c ac ed e4 3c
       -0.012626294 0.027470067 0.0106030265 0.027945362
000210 4e 12 de bd 95 b6 ff 3c f3 dd 6c bd 0a eb 51 3b
       -0.10843335 0.031214992 -0.057828855 0.0032030963
000220 a9 8e aa 3d a6 3c 30 3d 5d 5c 14 bc 31 48 a8 3b
       0.083279915 0.04302659 -0.009055224 0.005135559
000230 5e 84 af 3c bf 89 7d 3d 48 dc a3 3b 95 de 3e 3c
       0.021425422 0.061898943 0.005000625 0.011649747
000240 b7 d6 21 3d 29 43 39 3b 33 c4 07 3d 3b e5 ea bc
       0.03951141 0.002826879 0.033146095 -0.028673759
000250 63 3d 1a 3c 0a b3 bf ba db e6 69 3d f3 cd 88 bd
       0.00941405 -0.0014625501 0.057104927 -0.06679907
000260 af be 0b bd 02 e9 31 bd c8 72 90 3c 2a 6f 5f bb
       -0.034117397 -0.043435104 0.017632857 -0.0034093359
000270 ce 21 77 bd c4 ca 5e bc 78 92 9a 3b 27 35 fa bc
       -0.060334973 -0.013598148 0.0047171675 -0.030542923
000280 ae de 91 3d e8 83 bd 3c e6 c3 5e bb 68 22 b7 bd
       0.07122551 0.023134187 -0.0033991276 -0.08942109
000290 51 a8 99 bc c6 74 45 bd 98 eb 9f 3d 7b 91 b6 3c
       -0.018757017 -0.048207067 0.07808608 0.022286167
0002a0 1f 61 0e bc cc 43 03 3d f1 8e 80 bb 6b 95 46 bd
       -0.008690148 0.032047078 -0.00392329 -0.04848234
0002b0 4b c8 a2 3c f2 78 4a 3d f0 54 2b 3c 20 a0 f9 bc
       0.019870898 0.04943175 0.010457262 -0.030471861
0002c0 98 19 b2 3c c9 37 ac 3d bd 9d 47 3c 7b 4d 3f bd
       0.02174072 0.08409078 0.012183604 -0.04670475
0002d0 ab 3a 8e bc 61 e1 33 bd 8d e7 2b 3b 7b 48 19 bd
       -0.01736196 -0.04391611 0.0026230544 -0.03742264
0002e0 51 58 da 3a 30 69 6b 3d 96 33 93 bc 13 22 0a 3d
       0.00166584 0.05747336 -0.017968934 0.033723902
0002f0 20 05 f0 3c e5 98 05 3d 04 71 49 be f2 b4 d6 3c
       0.029299319 0.032616515 -0.19672018 0.026209328
000300 cb 53 15 bc b2 9f 2d 3d 92 6d 6e 3d 45 f2 80 bd
       -0.009114216 0.042388625 0.058209963 -0.06296209
000310 01 35 7f bd e2 cb 93 bc 4d 1c 03 bd 57 d8 91 bc
       -0.062306408 -0.018041555 -0.03200941 -0.017803354
000320 7a ca d3 3c 1b d3 56 bd fe 2a b2 3c a9 04 96 bd
       0.025853384 -0.05244742 0.021749016 -0.073251076
000330 6d 21 02 bd 6c ed 37 3c 22 00 8b 3c 65 94 ba 3c
       -0.03177016 0.011226039 0.016967837 0.022775838
000340 15 76 9f 3d b3 07 8e 3d e5 75 1d bc 9f 88 53 3d
       0.07786194 0.06935062 -0.009610628 0.051643964
000350 ac f8 ba bc 7b 0a 83 bd ba 10 9d bc cd a3 c7 3b
       -0.022823654 -0.06398483 -0.019173015 0.0060925246
000360 e8 24 9a bd c0 30 04 bd ca 8f 6e bd de 39 2d 3d
       -0.075265706 -0.032273054 -0.058242597 0.042291515
000370 ab b7 d4 3d ee 73 3a bd c7 08 06 3d 2b f1 a1 3d
       0.103865944 -0.045520715 0.032723214 0.07907327
000380 b4 71 31 bd e1 ae fd bd c9 57 bc bd a1 c0 87 bd
       -0.043321326 -0.12386871 -0.09196431 -0.06628538
000390 fb 59 94 bd 57 ab 11 bd b7 da 95 bd cc 5c 25 bd
       -0.07243725 -0.035563793 -0.07317107 -0.0403717
0003a0 d1 5b 8f bd 54 55 c0 3b d6 68 1a 3d b5 eb d5 3c
       -0.069999345 0.005869547 0.037697636 0.02611337
0003b0 a0 7c 52 3d 55 1d e4 3b 78 0b 9d ba 21 bf 56 3d
       0.051388383 0.0069615045 -0.0011981567 0.05242837
0003c0 01 89 56 3c cf 8d 00 3d fa 8d 38 3d b2 73 ef 39
       0.013094188 0.03138524 0.045057274 0.00045671832
0003d0 55 ef 95 bb 6a 9d 8e bd 90 60 89 3d 69 0c 3f bd
       -0.0045756497 -0.06963618 0.06707871 -0.046642695
0003e0 18 99 a2 bc 14 ea 93 3c f4 77 14 3d 31 a8 db bd
       -0.019848391 0.018055953 0.03624721 -0.10725439
0003f0 da 02 f1 bd 22 b4 e9 bc d9 a5 1f bd d3 62 d9 3b
       -0.11768122 -0.028528277 -0.038976524 0.006634095

bias f4 [256]
000000 d8 9d 96 3b 55 94 80 bd 8e 28 3e bd df e8 31 bc
       0.004596453 -0.06278292 -0.046425395 -0.010858743
000010 40 9f e0 3b d0 93 61 3d 4d 40 45 bd 34 12 33 bc
       0.0068549216 0.055072606 -0.048157025 -0.010929633
000020 ef a8 81 bd 1f 6f 5d 3d 3b 27 4b 3d cf 59 54 bd
       -0.0633105 0.05406105 0.04959796 -0.05184346
000030 0e e0 ef bb 86 0c f5 3b 55 b5 23 3a 49 55 27 3d
       -0.0073204106 0.0074782996 0.0006244977 0.04085282
000040 6c f0 80 bc 21 da 32 3d 74 5a 7f 3d 95 1c fe 3c
       -0.015739642 0.043665055 0.062342122 0.031019488
000050 89 4c 68 3d 67 f1 a9 3c 5b 37 f6 3b 73 e2 df bb
       0.056713615 0.020744992 0.007513923 -0.006832415
000060 99 19 4f bd 55 d0 7e 3d 6f f7 3b bc 78 c0 26 bd
       -0.05056152 0.0622104 -0.011472567 -0.040710896
000070 1f 61 2f 3d df db 80 bd c8 b5 06 3c 1a c4 97 3b
       0.04281723 -0.06291937 0.008222051 0.0046315314
000080 1a 1a 7d 3d 39 b7 db 3c a1 51 ee 3c 05 d7 f3 3c
       0.06179247 0.026820766 0.029091658 0.029765615
000090 a5 69 7a bd a0 3a a3 bb cb 80 72 bd 6c cb 55 3c
       -0.061135907 -0.004981354 -0.059204858 0.013048988
0000a0 7d 49 f0 bc b8 12 91 bc 31 64 74 bd 0b 89 37 bb
       -0.029331917 -0.017709121 -0.059665862 -0.0028005268
0000b0 a3 3d 26 3d b7 70 3b 3d 69 c7 4f bd 10 2a 7b bc
       0.040586125 0.04576179 -0.05072728 -0.015329853
0000c0 21 64 21 3c 65 d0 37 bd fa 19 d8 bc 8e f5 14 bd
       0.009850533 -0.044876475 -0.026379574 -0.03636699
0000d0 1d a2 9f bc 01 7e 1a 3d 03 8e 44 3d 24 c0 db 3c
       -0.019486481 0.037717823 0.047986995 0.026825018
0000e0 59 37 83 3d 76 1b 86 3d f5 2e 26 3c 0b 47 3d bd
       0.06407041 0.065482065 0.010143031 -0.04621033
0000f0 01 1c 12 3d e1 52 b0 3c 43 e5 6e bd 7d 82 58 3d
       0.035671238 0.021523895 -0.05832411 0.05285882
000100 b5 ee 58 3b f7 c5 42 3d 0f e7 82 bc b5 6f 69 3d
       0.0033101265 0.047552075 -0.015979318 0.056991298
000110 b6 dc a8 3c 4e af 53 3d a6 55 76 3c a6 45 83 3d
       0.020613056 0.051680855 0.015035069 0.06409769
000120 3a 23 70 bc 40 1c 31 3d 5b 1a a0 bc 09 bd 46 bd
       -0.014656836 0.043239832 -0.019543817 -0.04852012
000130 92 94 00 ba e4 55 56 bc 95 57 32 3b ff 33 29 3b
       -0.0004904951 -0.013082001 0.0027212847 0.0025818346
000140 5b f1 f3 3b 3a 04 78 3d 4e ba 32 bd 7d 9f 24 bd
       0.0074445433 0.060550906 -0.043634705 -0.040191162
000150 b4 1e 33 bc a1 d5 80 bc d8 c8 4a bd 20 05 67 3d
       -0.010932613 -0.015726866 -0.049507946 0.056401372
000160 af cf 58 3c 71 d9 2d 3d dd 0f 75 3d 57 f6 30 3d
       0.013233109 0.042443696 0.05982958 0.043203678
000170 af 8f 0d 3d b3 32 0d 3b be 94 df bc 19 bc 13 3c
       0.034560855 0.0021545112 -0.027292605 0.009017014
000180 63 2f 1e bd 61 37 7e 3c 03 7c 22 bd 6b ca f0 bb
       -0.03861941 0.015516133 -0.039669048 -0.007348349
000190 7c 53 e7 bc 08 9c 2e 3d d2 ce b6 3c 99 e8 ce 3c
       -0.02823805 0.04262927 0.022315416 0.025257396
0001a0 8b 00 40 3d 4c 4c 8a 3c 60 6f e3 bc 08 ee 4b 3d
       0.046875518 0.016882084 -0.027763069 0.04978755
0001b0 65 bd c2 bc b3 5e 57 bd 4b 6b ae bc 94 61 25 3d
       -0.023771951 -0.052580547 -0.021291396 0.04037626
0001c0 b1 89 49 bd eb c2 ee bc 01 5f 6d bd f8 09 18 3d
       -0.04920358 -0.029145679 -0.05795193 0.037118882
0001d0 bb b3 de 3b c4 a9 f0 3c 0b e4 35 3d 66 c5 28 3d
       0.006796328 0.029377826 0.04440693 0.04120388
0001e0 92 05 8a ba d6 85 fc bc 52 61 1c 3c 95 18 33 bb
       -0.0010530225 -0.030825537 0.009544687 -0.0027327884
0001f0 06 be 3b bd 26 d1 df bc e8 46 58 3d 6d eb 90 3c
       -0.045835517 -0.02732141 0.052801996 0.017690385
000200 21 17 a6 bb 3d ef 4c 3d 6d 09 71 bc 8e 98 e4 bc
       -0.005068675 0.050032843 -0.01471172 -0.027904775
000210 93 f3 81 3c ce f9 30 3d e6 fb 06 3d 49 b4 0c bd
       0.015863216 0.043206982 0.032955073 -0.03435162
000220 ec 4d 68 3d ed 53 5c 3d 68 9a 38 bd 00 08 9f bc
       0.056714937 0.053790975 -0.04506913 -0.019412994
000230 83 27 2a 3d 0c 04 2b bc a4 38 6a 3c f1 72 6b bd
       0.041541588 -0.010437977 0.014295731 -0.057482664
000240 8b 03 2f 3d 98 fc d9 3c 5d 39 a8 3b 86 d8 de 3c
       0.04272799 0.026609704 0.0051337914 0.027202856
000250 23 03 7a bb 16 3f 1d bc 8e 7f a7 ba bd 95 1c bc
       -0.0038148842 -0.00959756 -0.0012779103 -0.009557185
000260 a6 ef a9 3c 88 a1 94 bc 93 f5 68 bd a9 90 ee bc
       0.020744156 -0.01814343 -0.056874823 -0.029121714
000270 e1 53 5d bd c4 c5 c5 bc 76 84 14 3d 4c 82 23 3d
       -0.05403507 -0.024142154 0.036259137 0.039919183
000280 24 26 d8 3c 16 da 17 bd 7e b8 50 bd 3d 2e 41 bd
       0.026385374 -0.037073217 -0.050957195 -0.047163237
000290 d5 1f 62 3d b0 e1 18 3d 17 b6 07 bd 18 f0 82 bc
       0.05520614 0.037324607 -0.03313264 -0.015983626
0002a0 b4 df 90 3c 1b 6c 4c 3c 4a 82 ba bc 63 31 0d 3d
       0.017684795 0.012476946 -0.022767205 0.034470927
0002b0 85 b3 db 3a f4 9b b8 3c 1b 16 c2 ba 14 ab be 3a
       0.0016761875 0.022535302 -0.0014807613 0.0014546835
0002c0 70 f9 e8 bc da 74 6f bc f0 e3 1e bd 64 54 5f bd
       -0.028439254 -0.014615262 -0.038791597 -0.05452384
0002d0 5e c2 e3 3c d5 51 a0 3c 71 a6 91 bc 4c b3 b6 bc
       0.027802642 0.01957027 -0.01777956 -0.022302292
0002e0 c0 5d cf bc 97 0e 1e bd 4d 24 77 bd 4d f0 4d 3d
       -0.025313258 -0.038588133 -0.060337353 0.050277997
0002f0 15 56 1f bd 9a 40 31 3b ab 6f 00 bd 3b ab ed 3c
       -0.038900454 0.0027046562 -0.031356495 0.029012313
000300 27 32 61 3d 6b 32 85 bb a4 2e d2 bc 97 98 4b 3d
       0.05497947 -0.004064848 -0.025657006 0.049706068
000310 fb 6a 49 3d b4 ac 0b bd d6 76 8a bc 71 82 ac ba
       0.04917429 -0.03410025 -0.016902369 -0.0013161433
000320 2e fe 34 3d db 1e bb 3c a3 df 31 3d f9 f4 50 3d
       0.044187717 0.022841861 0.043426167 0.051014874
000330 24 01 0b 3d 9a 03 47 bd 93 e8 2e bd d5 d7 84 bd
       0.033936635 -0.04858742 -0.04270227 -0.06486479
000340 97 e5 b4 3b 07 91 69 3d 1f 21 3b bd 41 2f ab bc
       0.0055205333 0.057023074 -0.045685884 -0.020896556
000350 6a ad e6 3b ae 10 fc 3b b1 8a 05 3d 52 61 5a 3d
       0.0070397155 0.007692418 0.03260297 0.053315468
000360 f9 cc 38 3d 82 40 6e 3d 29 ff 96 bc 1d 00 89 bc
       0.045117352 0.05816699 -0.018432217 -0.016723687
000370 19 0b ad 3b 2f bf 6d 3d 9a d9 4e bd 6e 42 3b 3d
       0.005280864 0.058043655 -0.05050049 0.04571765
000380 3f 72 fa bc 47 a6 9a 3c 02 22 8f bc 2e 6e 04 bd
       -0.030572055 0.018878115 -0.01747227 -0.032331638
000390 37 0e 45 ba 7d f0 64 3d 28 51 03 bd d9 82 4c 3d
       -0.0007517072 0.05589341 -0.03205982 0.049929474
0003a0 7f 38 13 3c 6a 6c 78 bd 5a cb 97 bb fe ee 37 bd
       0.008985638 -0.060650267 -0.0046323957 -0.044905655
0003b0 bf 78 95 bb f5 10 df 3c 2a 36 1f 3d 94 12 23 3d
       -0.004561513 0.027229765 0.038870014 0.03981264
0003c0 dd a3 a7 3c 81 9d b0 3c 09 24 7a 3d d9 d6 62 bd
       0.020463878 0.021559479 0.061069522 -0.055380676
0003d0 35 c5 ab bc cc 73 91 3c fd c7 02 3d ab 5c 9c 3c
       -0.02096806 0.017755412 0.031929005 0.019087156
0003e0 c3 b9 9e 3c a6 78 39 bb 3b 10 4c bc 8f ad 04 bd
       0.019375687 -0.0028300672 -0.0124550415 -0.03239208
0003f0 a4 f8 05 bb 7a 73 d0 3b 53 3e 09 3d 4a 2e e5 bb
       -0.002044239 0.006361422 0.033506703 -0.0069940435

weight f4 [256, 256]
000000 9a fb 19 bc fe 74 98 bc 08 0e cb 3c 9a 92 3a bd
       -0.009398365 -0.018610474 0.024786964 -0.045549966
000010 01 22 e9 bd 79 7f 0a 3d 4e f8 22 bd 51 1a 82 3d
       -0.11383439 0.033812974 -0.039787583 0.06352676
000020 56 01 03 bd 77 a4 0f bd 17 57 18 3d 85 be d5 3a
       -0.031983696 -0.035068955 0.03719243 0.001630739
000030 d3 6c ab 3d 40 81 19 bd 10 f7 71 3d fb df 1a bd
       0.08370366 -0.037476778 0.059073508 -0.03781126
000040 3f 39 2b b7 21 68 fc 3d 4a 06 38 bd c8 76 3b 3d
       -1.0205723e-05 0.123245485 -0.044927873 0.045767576
000050 22 81 e7 bb e1 e6 05 3d 77 17 8d bc 3e a3 43 3c
       -0.0070649544 0.032690886 -0.017223103 0.011940775
000060 23 2b 5f bd 09 a6 d8 bc 3b fa c6 ba 3f 6f 03 3d
       -0.054484498 -0.02644636 -0.0015180776 0.032088514
000070 5d a1 9c 3c 6e 45 6d 3d 98 3b 00 bd 04 42 f7 bb
       0.019119913 0.05792754 -0.031306833 -0.0075457115
000080 5f 0b 7c 39 f6 8a d5 3d 74 8a 57 3d 9d 2d fe bb
       0.00024036829 0.10426895 0.052622274 -0.0077569024
000090 bf 0c c5 3b bd af 19 3d f3 57 4a bd cc 38 4d bd
       0.0060134823 0.037521113 -0.04940028 -0.050102994
0000a0 85 2c 7c bc a5 18 a7 bb 3a b8 a7 bd 25 57 0f bd
       -0.015391474 -0.0050993734 -0.08189435 -0.034995217
0000b0 26 c6 19 3e 80 1c e2 3c 7a 74 bd 3c 84 0a 6e 3d
       0.15016994 0.02760148 0.02312683 0.058115497
0000c0 c4 03 ed 3c 9e 48 42 3d 04 e7 f2 3c 35 32 bf ba
       0.02893246 0.047432534 0.029651172 -0.0014587106
0000d0 ad 16 ec 3c 96 ef 4d bc ac 5e 73 3c f0 7a 1a 3d
       0.028819406 -0.012569329 0.0148541145 0.0377149
0000e0 fd d1 7e 3c 26 dd 2c 3c 83 16 01 bd 1a 2d 5d 3d
       0.015552995 0.010550773 -0.03151561 0.05399809
0000f0 54 55 fd 3d cb 9e 94 bd 22 4a 79 3c 6f ba 0b bd
       0.12369791 -0.0725685 0.015215429 -0.034113344
000100 40 d6 c7 3d 34 56 ea 3c 69 24 58 bc bb 83 97 3d
       0.09757662 0.028605558 -0.013192275 0.073981725
000110 6b 9c 6f 3b 78 8b 15 bb 76 8b bf 3c fe 43 ee bb
       0.0036561738 -0.0022818726 0.02338193 -0.007271289
000120 30 75 d5 bb 7f 1d ba bb c0 a0 22 bd eb 8f b9 3c
       -0.006514214 -0.0056797857 -0.039704084 0.022651633
000130 5d e8 f1 bb 1b 3a 76 bb 42 49 39 3d ae b4 11 bd
       -0.007382436 -0.0037571255 0.04523588 -0.0355727
000140 c4 d2 35 3d 58 c1 a4 bd b3 31 67 b9 e4 d8 fc 3c
       0.044390455 -0.0804469 -0.00022048391 0.03086514
000150 8b d6 0b bb 9d cf af 3a 09 9a 6c bd 14 0f c5 3c
       -0.0021337594 0.0013413314 -0.057764087 0.024055041
000160 6c 3d c6 3c 76 c5 b6 3b f9 68 ab bb 9f 90 8b 3c
       0.02419921 0.0055777384 -0.0052310196 0.017036734
000170 8a 12 be 3b de 9f 01 bc a9 e1 4a bc 14 73 37 3d
       0.00580055 -0.00791165 -0.012382903 0.04478748
000180 cf 0a 5e bd 5f 94 0b 3d d7 e9 a7 bd c6 a0 94 bc
       -0.054209527 0.034077045 -0.08198898 -0.018143069
000190 5e c6 88 bc 46 fc 3f bc 4b 66 70 bd de 4a 50 3d
       -0.016696151 -0.0117178615 -0.058691304 0.05085265
0001a0 37 0a 1f bd 4c a0 42 bd 53 5f 51 bd 4d 48 4c 3d
       -0.0388281 -0.047516152 -0.0511163 0.04987364
0001b0 bb da 14 bd ed 52 ba 3c 7e 80 35 bd b1 b0 cf 3c
       -0.03634141 0.02274462 -0.044311993 0.025352808
0001c0 2f f1 10 3d a9 9e cc 3d 3d 0d 23 3d 47 34 7a bc
       0.03538626 0.099911995 0.039807547 -0.015271253
0001d0 55 ef 1e 3d de ac 6b 3b f3 16 2d bd f6 6d 98 3d
       0.038802464 0.0035961191 -0.042258214 0.074428484
0001e0 09 ef a9 bb c1 4e 6f 3c 9a 77 34 3d 3e 34 5d bd
       -0.005185966 0.014606179 0.044059373 -0.0540049
0001f0 57 a8 c5 bc a3 c2 6b 3b 71 11 b7 3c a7 8d d2 3d
       -0.024128122 0.0035974167 0.022347184 0.10280924
000200 0f fc b0 bd 4e a2 83 bc 0e 70 8b 3d bb c1 57 3d
       -0.08641826 -0.016068604 0.06808482 0.05267499
000210 06 27 cb bc ce a0 3f 3d e7 bf 5d bd bc bc 2e bd
       -0.024798881 0.046784215 -0.05413809 -0.04266046
000220 a6 0a be 3c 2a bf 91 bd ec de 8d b5 6e b8 25 ba
       0.023198437 -0.0711654 -1.0570197e-06 -0.00063217327
000230 d7 ba 82 bd 00 e5 14 bd 6c d4 1f bd 72 d8 51 bc
       -0.06383293 -0.036351204 -0.03902094 -0.012807952
000240 74 bb 51 3d 31 0d 33 3a 58 0c 74 3d ff b8 16 bd
       0.05120416 0.0006830274 0.059582084 -0.03679752
000250 ab 8e 02 bd 8f 83 18 3d 72 f0 8f 3c 90 e2 ff 3b
       -0.03187434 0.03723484 0.017570708 0.007808991
000260 0e 5d bd bc 4b d4 e0 3a ee 83 06 b6 60 f7 e6 3c
       -0.023115661 0.0017153112 -2.004435e-06 0.02819413
000270 68 05 65 bd 2a 8d ca bc c5 97 42 3d 49 47 3c bc
       -0.05591336 -0.024725515 0.04750802 -0.011491605
000280 43 db 19 bd 26 1c bd bc 65 ee 84 b8 0a 29 db bc
       -0.03756262 -0.023084711 -6.338655e-05 -0.026752967
000290 24 a5 32 3c 6c 63 35 3d 40 83 17 3d 91 56 4a 3b
       0.01090363 0.04428427 0.036990404 0.0030874352
0002a0 68 8f 31 3d 3e c9 c7 ba 50 1f 9a bc e7 70 04 3d
       0.043349653 -0.001524247 -0.01881376 0.032334235
0002b0 d8 e5 a2 bc 31 11 e5 bc 31 5a 81 3d 65 c3 37 3d
       -0.019884989 -0.027962299 0.06316031 0.044864077
0002c0 b3 11 00 3d 4c 48 9f bc db 5b a2 bd 5f a9 be 3c
       0.03126688 -0.019443654 -0.07927676 0.023274122
0002d0 71 2e 42 bd 40 cb 17 3d cc 17 b7 bd 7b 57 08 bc
       -0.04740757 0.03705907 -0.08940086 -0.008321638
0002e0 c9 89 2a 3c 59 97 ba bc 30 46 b4 3c 14 ee e9 3c
       0.010408827 -0.022777246 0.022006124 0.028555907
0002f0 8a 22 86 bd 1e de 00 3d d3 3e e6 3c 92 d6 a1 bd
       -0.065495566 0.031461827 0.028106129 -0.07902254
000300 24 76 a2 3c 23 f6 06 3d 97 ec c0 3d f7 0b 87 bd
       0.019831724 0.032949578 0.09420126 -0.06594079
000310 5c f1 36 bc 5a cf ad 3c 2b 7e 0e 3d 9e f4 ea bc
       -0.011165943 0.021217037 0.034788292 -0.028681096
000320 8e b0 e2 3c 08 78 a4 bc 1e d0 09 3d e2 e3 85 3d
       0.027672078 -0.020076767 0.03364574 0.06537606
000330 ac 3b 17 3e 73 63 84 bc 5f ef 86 bc 1a e7 7d 3b
       0.14768857 -0.016160702 -0.016471563 0.0038742484
000340 93 46 90 bd 34 db 47 bc 82 7e 02 3d 76 57 fd bc
       -0.07044711 -0.012198258 0.03185893 -0.030925494
000350 a2 b8 16 3d ca 36 8c bd d6 0d d2 bc 53 8c b7 3d
       0.036797173 -0.06846388 -0.025641363 0.089623116
000360 59 6f 5b 3d 48 86 07 bd b9 d5 a3 3d 7f 1a 70 bc
       0.053572986 -0.033087045 0.07999749 -0.014654755
000370 f0 2a 44 bd 32 4e c2 3d e2 7a 91 3d 6b 89 9c 3c
       -0.04789251 0.09487571 0.07103516 0.019108495
000380 89 3a 27 3d 72 92 dc bc 57 d9 d7 3c 80 c6 32 3d
       0.040827308 -0.0269253 0.026348753 0.043646336
000390 76 06 6c 3d cc 6a 0f 3c 71 90 ed bc e4 52 f6 3c
       0.05762335 0.00875349 -0.02899954 0.030068822
0003a0 8f d9 5f bc 11 99 9a bc 11 fd 12 bd e7 cc 57 3b
       -0.01366271 -0.018871816 -0.035885874 0.0032928528
0003b0 83 33 32 bd cf ed 38 bd b4 82 f9 3b fb 29 f9 3b
       -0.043506157 -0.045148667 0.007614458 0.0076038814
0003c0 50 72 e3 bc 02 c8 db bc c4 99 af bc 8f c6 99 3b
       -0.02776447 -0.02682877 -0.021435626 0.0046928595
0003d0 15 cf e3 bd 53 8d 89 3c 25 13 6a 3b fb 61 a0 3d
       -0.11123482 0.016791021 0.0035716977 0.07831188
0003e0 d2 ac fb 3c f7 49 10 3d c7 e2 ab bd 67 f8 4d 3c
       0.030722056 0.03522679 -0.08392864 0.012571431
0003f0 a6 35 28 bc f0 2b 76 bd df ba b1 bc 6d 9f 6a bc
       -0.010266697 -0.060100496 -0.021695552 -0.014320237

bias f4 [256]
000000 88 3d 81 bc eb 3a 76 bd 9d c5 60 bd c3 31 1b 3d
       -0.01577641 -0.060114782 -0.05487596 0.037889253
000010 81 7f f9 bc 04 95 56 3d 6d 42 ce ba 63 44 2c bd
       -0.030456306 0.052388206 -0.0015736349 -0.042057406
000020 d1 88 f2 3c d6 de b9 bc a5 a4 60 bd 59 b8 69 bd
       0.029606255 -0.022689264 -0.054844517 -0.057060573
000030 1e fe 45 3d 3e b6 92 bc 22 60 66 3d a0 ae c7 bc
       0.04833805 -0.017909165 0.056244023 -0.02437526
000040 30 74 6d bd f2 0b 29 3d bd cc 4e 3c b3 0a 5e 3c
       -0.057972133 0.041271158 0.012622056 0.013552356
000050 42 72 31 bd 67 9c 2e bd 34 27 ef bc d9 4d 00 3d
       -0.043321855 -0.042629626 -0.029193498 0.03132424
000060 21 13 6f 3d 09 e8 d7 bb cb c3 8d bc 1c 5a 6c 3b
       0.058367852 -0.00658894 -0.017305275 0.0036064452
000070 48 ae 13 3d 64 f2 67 bd 59 66 cd bc ea 23 16 bd
       0.03605488 -0.056627646 -0.025073217 -0.036655344
000080 09 cd 78 bb b4 f5 81 bd 79 de 42 3c 46 b4 73 3d
       -0.0037964007 -0.06345692 0.011893862 0.059498094
000090 bf 77 7a bc 83 70 39 3c ac d4 45 3d 39 52 84 bd
       -0.015287339 0.011318329 0.048298523 -0.06460995
0000a0 82 84 80 bd 72 89 1d bd 48 0e 8c bb 8e 1a 40 3d
       -0.06275274 -0.038461156 -0.0042741634 0.046900325
0000b0 6f 89 99 3c 8c ad be 3b ad c3 ff 3c f3 cb 6e 3c
       0.018742291 0.0058190282 0.031221235 0.0145749925
0000c0 c6 f5 13 3a 20 16 81 3d 96 f6 d4 3c 94 da be bc
       0.0005644228 0.06303048 0.025996488 -0.023297586
0000d0 2d 3a 45 bb 23 5d be ba 0c 37 94 bc c9 3e 9b bc
       -0.003009449 -0.0014523607 -0.018092655 -0.018950837
0000e0 c5 44 46 3a 8c 0b 5e bd 6d fb 37 3d ae e7 5f 3d
       0.0007563348 -0.05421023 0.044917513 0.054664306
0000f0 8e a6 f8 3c 62 c4 38 bd 0f ef 83 bc 77 7b 3e 3d
       0.030352857 -0.04510916 -0.016105203 0.046504464
000100 20 42 71 3d a8 5d 37 bd cf 85 8d bc 83 50 58 bd
       0.058900952 -0.044767052 -0.017275719 -0.052811157
000110 93 68 80 3c a5 8f bd bc 60 ee 0c bd dd 4c 15 bd
       0.015674865 -0.023139784 -0.03440702 -0.036450256
000120 92 07 99 3c ed b7 94 bc 20 d0 ff 3c 75 f7 04 3c
       0.018680368 -0.018154109 0.031227171 0.008115639
000130 55 e4 65 bd fd 54 79 bc 1d 6d a3 3a 74 94 d0 3c
       -0.056125958 -0.015218017 0.0012468431 0.025461413
000140 d5 b1 47 3d e6 c9 30 3d 77 2c 0e bd 04 4c 39 bd
       0.04875358 0.043161295 -0.034710374 -0.04523851
000150 f9 6f a7 3b cf d0 24 bd 5c b0 35 3b ff 52 26 bd
       0.0051097837 -0.040238198 0.0027723527 -0.040606495
000160 ad f3 55 bd 89 91 2b bd 65 75 99 3c 57 4f 46 bd
       -0.05223434 -0.04188684 0.018732736 -0.048415508
000170 23 12 a1 3c 1d ed 0d bc a4 f4 0d bd 72 83 fd bc
       0.019661969 -0.008662489 -0.034657136 -0.030946467
000180 da 5f 3b 3d 78 84 76 bd 47 2b 21 3d e4 7e ec 3c
       0.045745708 -0.060184926 0.039347913 0.0288691
000190 66 0a 4e 3d c2 d2 08 bd d0 33 57 3d d2 bd c5 ba
       0.050302885 -0.03340412 0.052539647 -0.0015086478
0001a0 f4 30 c7 3b 17 54 22 3d bb a8 0b 3d e0 ca 37 3d
       0.0060788337 0.039630976 0.03409646 0.04487121
0001b0 81 ad 27 bd 2d a3 21 3d f3 ce 1e 3b 54 e9 d8 3c
       -0.04093695 0.039462257 0.0024232238 0.026478447
0001c0 2d 6f 95 bc 9c 85 cb 3b 69 6f 2a 3d 6e 59 0e 3c
       -0.01824149 0.006210996 0.041610155 0.008688314
0001d0 e4 c3 d9 bc 36 1c 49 3d 72 9c e8 3c 91 62 cb bc
       -0.026582666 0.04909917 0.028394911 -0.024827274
0001e0 60 bc 3b bc 82 6a 98 3c 21 c3 b3 bc 0e 1f a8 3c
       -0.011458486 0.018605474 -0.02194363 0.02052262
0001f0 dc 9d d0 3b 90 3a 61 bd 04 94 80 bd 86 b5 17 3d
       0.0063664746 -0.05498749 -0.06278232 0.03703835
000200 45 81 1c 3d b1 d4 bf 3c 7b c9 39 3d 67 c1 b4 bc
       0.03820922 0.023416849 0.045358162 -0.022064878
000210 54 db 08 3c 1d e1 d8 bc cf 1a 84 bc 75 9b 63 bd
       0.008353073 -0.02647453 -0.016126065 -0.055568177
000220 03 fc f4 3c 42 7a 80 bc 8a ae ea bc c7 8f f0 bc
       0.029905325 -0.015683297 -0.02864768 -0.029365433
000230 f4 e3 5a bc 20 1d 9e 3b 46 87 70 3d e4 1c f0 bc
       -0.013360012 0.0048252493 0.058722757 -0.029310651
000240 8e 6d eb 3c b7 c6 a2 bc 7e 2c a5 bb cc 92 83 3d
       0.028738763 -0.019870145 -0.0050407043 0.06424484
000250 02 9c 0d 3a 71 2b 26 ba 4d 08 2a 3c 87 a2 1d 3d
       0.000540197 -0.0006338871 0.010377956 0.038485076
000260 7b 45 1a 3d 74 03 12 3c c3 aa b6 bc ab 5e 5c bd
       0.037663918 0.008911956 -0.022298222 -0.05380122
000270 d6 1e 4e 3d 7c 54 fc 3c dd f3 2f 3d a3 d8 6e 3d
       0.050322376 0.030802004 0.042957176 0.05831207
000280 a5 17 7c bc 7e aa 9c bb 05 ac 7e bc cc 54 89 3b
       -0.015386497 -0.0047810664 -0.015543942 0.004191017
000290 d9 32 79 bc 73 f7 1c bd 93 db 49 bc 28 92 29 3d
       -0.015209877 -0.038321923 -0.012320417 0.04139915
0002a0 0f ca 68 bd 2b 52 9c 3b ae d9 78 3d c9 17 dc bb
       -0.056833323 0.0047705374 0.06075447 -0.0067167026
0002b0 24 a8 af 3c 52 dc 21 bc df 3a 03 bd be 46 00 3d
       0.02144248 -0.009879189 -0.032038566 0.031317465
0002c0 e5 af 1a 3d 4e a0 65 bd 52 70 49 3c aa 3d 63 3d
       0.037765402 -0.05606108 0.012294846 0.05547873
0002d0 5d da c7 bc 89 a0 f4 3b 32 c7 0a 3d d0 f1 aa bc
       -0.024396116 0.0074654263 0.033881374 -0.020867258
0002e0 fd 0e de bc 7c ca d2 3c f0 e8 66 bd 3e 60 16 bd
       -0.027106756 0.025731318 -0.05637449 -0.036712877
0002f0 cf af ca bc a4 b3 c3 bc 74 13 ec 3c b4 cd 1e 3d
       -0.024742035 -0.02388937 0.02881787 0.038770393
000300 43 e8 80 bd a5 8d 4b 3d 33 4a 68 bc b3 61 4b 3c
       -0.062943004 0.04969563 -0.014177847 0.01241343
000310 b0 fb 55 3d 5b 9c 0b 3d 65 db 66 3d 0d 27 7d bd
       0.05224198 0.03408466 0.056361575 -0.06180482
000320 14 f6 04 bd e4 9a 27 3b 75 5e 5e bc 77 0e 2f bd
       -0.03246124 0.00255745 -0.013572325 -0.042738404
000330 4a 30 46 3d e0 96 57 bd d7 8a 5e bd 26 db 58 3d
       0.048385896 -0.05263412 -0.054331627 0.05294337
000340 9d 1e f7 bc 24 37 30 bc f3 6b 74 bd 3a e2 a6 3c
       -0.030165965 -0.010755334 -0.05967326 0.020371545
000350 bc a8 28 bd 09 00 67 3a c1 47 f3 3b b0 1a c4 bc
       -0.041176543 0.0008811956 0.007424325 -0.023938507
000360 a1 ba df 3c 80 25 b8 3c 53 cb 1a 3c 95 20 3f 3b
       0.027310671 0.022478819 0.00944789 0.0029163708
000370 e9 f4 25 bb 20 eb 3d bc 26 76 a5 bc 49 82 26 bd
       -0.002532298 -0.011591703 -0.02019794 -0.040651593
000380 f7 0c a6 3c 34 ad 15 bd 65 9b cf bc d8 34 25 3d
       0.020269854 -0.036542132 -0.025342653 0.0403336
000390 db bf ce bc e0 7e 19 bb 16 20 d9 bc 76 54 c2 bc
       -0.025237968 -0.002342157 -0.026504558 -0.023721915
0003a0 b0 e3 23 3d bd 41 73 3d 55 70 90 bc 25 85 55 bd
       0.04001206 0.059388865 -0.01763169 -0.05212893
0003b0 57 ad 31 3d 92 26 0a bc c4 84 3b 3d 00 10 8c 3c
       0.0433782 -0.008432047 0.045780912 0.017097473
0003c0 ca e6 0d 3d 0e 31 2b 3d c8 30 5e 3c fd 56 05 bd
       0.034643926 0.04179483 0.013561435 -0.03255366
0003d0 6d a9 97 bc 31 3b 4a bd e8 9f ee bc 0e cd 10 bd
       -0.018513406 -0.049372856 -0.029128984 -0.035351805
0003e0 93 4a 2b 3c 46 4d 26 bd 02 39 0f 3d 21 ea 3e bd
       0.010454792 -0.040601037 0.034966476 -0.04661
0003f0 c0 7c f3 bb be dd 8c bb c0 27 af 3c 6e 1c 0a bd
       -0.007430643 -0.0042988947 0.021381259 -0.03371852
