dblp_train/train/pretrained_han/decoder_c.pth (torch, 529440 bytes, 4 tensors)

weight f4 [256, 256]
-0.018130446 0.033708706 -0.007228523 -0.051520992 0.008209514 0.032363847 -0.063420475 0.002895187
-0.024278872 -0.00024993543 0.0054413793 0.019333 -0.037297927 0.017627617 0.029695705 0.00013516964
0.006771696 0.0059397356 -0.05132466 -0.01934675 -0.027627923 -0.0072648413 -0.048659973 -0.048331644
-0.06411204 -0.04480226 0.00050328684 0.010576861 -0.00865343 -0.096800424 -0.063838005 0.00020871233
5.901629e-05 0.007895003 0.019402042 -0.02071266 0.0734559 0.017331861 0.030801332 0.027853986
-0.016684178 0.024847286 9.581345e-05 3.0287452e-05 0.00093904417 -0.0018773231 -0.16789372 0.014102927
0.0026471673 0.022277206 -0.013435056 -0.021686062 0.009645048 0.011342627 0.020095306 0.106286824
0.0015282478 0.0048398213 0.025422214 -0.023178812 -0.05249526 0.008088992 0.0013536174 0.09033675
0.032048214 -0.023421537 0.03239909 5.4277778e-05 0.022800175 0.0014384605 -0.00911623 0.017056521
-0.10338151 -0.042593934 -0.011438362 0.039499596 4.8682963e-05 0.013613827 -0.0028834455 0.058078993
-0.043189093 0.013579181 0.0011986921 1.6652902e-07 -0.0065702843 -0.055050295 -0.011649802 -0.0009965005
0.10196599 0.08595827 0.025084153 0.009092484 -0.06138872 0.009893606 -0.0030675104 0.018669585
0.011992268 0.014111363 0.00047323958 -0.014868828 -0.008945522 0.0030957842 -0.033167947 -0.003926648
-0.012567117 -0.025116837 0.034824885 -0.031492896 0.023066413 0.007604982 -0.051872756 -0.019907981
-0.02469089 0.02419652 -0.0014687417 -0.00012573948 0.01985341 0.05385731 -0.009995965 0.05935254
-0.049867935 -0.018398965 9.074313e-05 -0.006864012 -0.0051983315 0.035728544 -0.035830963 0.00042826694
-0.008103799 -0.0848211 -0.050425634 0.009454637 0.009061499 -0.035461396 -0.00545728 -0.024868319
0.005777782 6.1310193e-06 0.00880654 0.09656935 -0.016054012 0.0032405204 -0.02519079 0.013409181
0.0013602986 -0.017206589 -0.017133465 3.025425e-07 0.0030391302 0.077813126 -0.000722579 0.08242279
0.0060476917 -0.0023736295 0.028185729 -0.031957082 0.025934247 0.013227828 -0.048986927 -0.035741642
-0.01276425 0.034735806 0.08061039 -0.02514899 -0.018868003 -0.013805462 0.04683988 0.029767456
0.005875806 0.07351119 -0.09728269 -0.09849739 -0.0005298923 0.035647325 0.0728648 0.0164693
0.0060002217 0.00011682841 0.014174979 0.0015135274 0.013357109 0.037091084 -0.013366979 -0.011450754
0.026379934 0.02202339 -3.753424e-08 0.0006646844 0.04435234 -0.0039785057 -0.0058360253 -0.03274207
-0.015908778 0.033536557 -0.014316922 0.024857383 0.0022328931 0.0008317179 -0.005012971 0.014300836
-0.0029177691 0.0064793136 -0.035816714 -0.020084508 0.073607914 0.00042469118 0.022017933 0.01632976
-0.009923213 -0.02583631 -0.015850835 0.009699414 0.02431907 0.012705734 0.009908692 -0.050741732
0.016821992 0.0055543375 -0.013839746 -0.055337675 0.0033241047 0.0014545184 -0.055134673 0.06806236
0.019943949 0.016083231 -0.027763838 0.02799555 -0.045190025 -0.042775627 0.041867208 0.0018527211
0.01904369 0.069827765 -0.038971532 -0.11211713 0.039752413 0.05121046 0.06592602 -0.0041119107
-0.0032706007 -0.01542381 0.042898852 -0.09765145 -0.0067052357 0.008499558 0.0042743534 0.0073988033
-0.07637683 0.006572061 0.02356753 0.057110783 0.0068186154 -0.069246165 -0.016043786 0.013609212
00000000: 4d86 94bc 2412 0a3d 3fdd ecbb ad07 53bd
00000010: 3381 063c f48f 043d 98e2 81bd 2dbd 3d3b
00000020: 7ce4 c6bc c409 83b9 994d b23b 3d60 9e3c
00000030: b6c5 18bd cb67 903c 6844 f33c 53bc 0d39
00000040: 1ae5 dd3b 1da2 c23b cf39 52bd 137d 9ebc
00000050: f453 e2bc e80d eebb ae4f 47bd 67f7 45bd
00000060: 2c4d 83bd 9382 37bd 02ef 033a 924a 2d3c
00000070: 1ec7 0dbc 4d3f c6bd 80bd 82bd cad9 5a39
00000080: 4288 7738 0b5a 013c 08f1 9e3c 99ad a9bc
00000090: 0c70 963d 8cfb 8d3c 1353 fc3c 0b2e e43c
000000a0: 42ad 88bc 898c cb3c 74ef c838 cf11 fe37
000000b0: 302a 763a 8310 f6ba 55ec 2bbe f70f 673c
000000c0: 197c 2d3b b07e b63c b61e 5cbc f8a6 b1bc
000000d0: 4306 1e3c 6dd6 393c e99e a43c e8ac d93d
000000e0: 7d4f c83a 5d97 9e3b 3f42 d03c 7ee1 bdbc
000000f0: 4505 57bd b187 043c dd6b b13a 7902 b93d
00000100: fd44 033d 86de bfbc e8b4 043d 52a8 6338
00000110: 6fc7 ba3c ba8a bc3a 3d5c 15bc 1eba 8b3c
00000120: afb9 d3bd fa76 2ebd f867 3bbc 54ca 213d
00000130: ef30 4c38 870c 5f3c 30f8 3cbb 3de4 6d3d
00000140: 0ce7 30bd 377b 5e3c 6f1d 9d3a 26cf 3234
00000150: 8a4b d7bb 6b7c 61bd d0de 3ebc 029d 82ba
00000160: 8cd3 d03d e40a b03d 487d cd3c a4f8 143c
00000170: bd72 7bbd cb18 223c 4908 49bb f5f0 983c
00000180: 387b 443c 5933 673c 241d f839 629c 73bc
00000190: 3d90 12bc a4e2 4a3b 1ddb 07bd 1cab 80bb
000001a0: 4fe6 4dbc d3c1 cdbc 8aa4 0e3d b2fe 00bd
000001b0: c6f5 bc3c 3633 f93b 8778 54bd 1016 a3bc
000001c0: 8d44 cabc c837 c63c cb82 c0ba efd8 03b9
000001d0: 9ea3 a23c 7c99 5c3d 1ec6 23bc a61b 733d
000001e0: 5242 4cbd 6db9 96bc 594d be38 82eb e0bb
000001f0: c456 aabb 1858 123d 7dc3 12bd 0489 e039
00000200: ccc5 04bc afb6 adbd 1c8b 4ebd 9fe7 1a3c
00000210: ae76 143c f83f 11bd fcd2 b2bb a5b8 cbbc
00000220: 8c53 bd3b 0eb9 cd36 4e49 103c 27c6 c53d
00000230: b483 83bc e95e 543b ea5c cebc 2eb2 5b3c
00000240: 0c4c b23a d5f4 8cbc 7b5b 8cbc 206d a234
00000250: 252c 473b 7d5c 9f3d 756b 3dba 48cd a83d
00000260: b72b c63b e58e 1bbb c2e5 e63c 6ee5 02bd
00000270: 0f74 d43c 88b9 583c 84a6 48bd d465 12bd
00000280: 2521 51bc 2247 0e3d 0f17 a53d 4105 cebc
00000290: 1291 9abc 4e30 62bc 2ddb 3f3d e1da f33c
000002a0: d589 c03b 098d 963d 263c c7bd 00b9 c9bd
000002b0: 78e8 0aba ee02 123d 243a 953d a0ea 863c
000002c0: 829d c43b c601 f538 2c3e 683c 8d61 c63a
000002d0: c7d7 5a3c d2ec 173d 2c01 5bbc f19b 3bbc
000002e0: bb1a d83c 656a b43c 5535 21b3 373e 2e3a
000002f0: cdaa 353d 205e 82bb 213c bfbb 8c1c 06bd
00000300: 2053 82bc a15d 093d 8691 6abc b6a1 cb3c
00000310: bb55 123b a507 5a3a d943 a4bb 0e4e 6a3c
00000320: 0b38 3fbb 6c50 d43b 8cb4 12bd 4488 a4bc
00000330: bfbf 963d 16a9 de39 f45e b43c fdc5 853c
00000340: f994 22bc aba6 d3bc 9cd9 81bc 4aea 1e3c
00000350: c938 c73c b62b 503c 1158 223c 90d6 4fbd
00000360: 46ce 893c 2901 b63b 1ac0 62bc c2a9 62bd
00000370: 39d9 593b 8aa5 be3a e5d4 61bd 4764 8b3d
00000380: 7e61 a33c fbc0 833c fd70 e3bc ec56 e53c
00000390: 2d19 39bd 7f35 2fbd f37c 2b3d 01d7 f23a
000003a0: 8301 9c3c dc01 8f3d 9da0 1fbd aa9d e5bd
000003b0: 6dd3 223d 0fc2 513d 3904 873d 35bd 86bb
000003c0: 9357 56bb 26b4 7cbc b5b6 2f3d 7cfd c7bd
000003d0: 98b7 dbbb bb41 0b3c e00f 8c3b a971 f23b
000003e0: 756b 9cbd 725a d73b b110 c13c ffec 693d
000003f0: b16e df3b efd0 8dbd 426e 83bc 2cf9 5e3c

bias f4 [256]
0.0717726 -0.033371735 0.04373039 0.05044084 -0.03647921 0.028157152 -0.030755565 -0.017930388
0.06925536 0.049741395 0.043346763 -0.033259466 -0.0044894335 0.009911514 0.035397105 -0.022643842
-0.05748781 -0.027586019 0.021285634 0.0562953 0.017899394 -0.05683904 -0.002062254 0.01180367
-0.051634185 0.018339181 0.0064102593 -0.010522559 0.00032468323 -0.020582639 -0.012095286 0.041075677
-0.01117859 -0.04591766 -0.014205727 -0.0047593596 -0.016757388 -0.072548464 -0.03224832 0.040716235
0.03790155 -0.014396245 0.0003502906 -0.042185094 0.034376886 -0.016815549 -0.047038738 -0.012550987
-0.01006261 -0.05551414 0.04022939 0.06481903 -0.023779955 0.031482317 -0.022963775 0.021353802
0.056424238 0.02534958 0.0044380906 0.015066999 -0.03560966 0.016276833 -0.049435608 0.015993634
-0.039006345 0.065228045 0.06992775 -0.057320923 -0.011662277 0.036968146 0.026884865 -0.02806068
-0.024983872 -0.029722905 0.027920092 0.0102849 0.05683946 -0.038971778 0.05465613 0.030058559
-0.0559197 -0.040414795 -0.046534035 -0.020791607 0.060558833 0.04669112 -0.019075383 -0.0033196767
0.01771888 0.05736704 -0.028610675 -0.015161213 -0.016813504 0.036499176 -0.049656395 -0.033173535
-0.062328145 0.042217094 0.02997797 -0.059731454 -0.034718487 0.022939092 0.038009543 -0.0029404229
0.0045998283 -0.017849406 0.04108895 0.009472156 0.045902476 0.060045633 0.034361046 -0.0109550515
0.020554587 -0.004004552 0.048860673 -0.06825526 0.019421482 0.049936414 -0.02808025 0.04103343
0.02696961 -0.029381502 -0.04310926 -0.041617256 0.004983709 -0.014576312 0.058313884 -0.034680318
0.044234075 0.054980975 -0.0052120425 0.0238305 0.019610291 0.041680455 0.013011469 -0.0030339027
0.051064696 -0.049133353 0.046587713 0.008725596 0.062026903 0.03680808 0.0076751728 -0.024758257
0.046179604 0.030386321 -0.017956205 -0.04030009 -0.024257232 0.048498124 -0.026448632 0.030776957
0.038791012 0.00026214682 0.019636834 0.063190736 -0.020976627 0.051210057 0.063264884 0.023260774
0.04169788 -0.04593059 -0.020473659 0.005957609 -0.059538852 -0.05234753 -0.0050859638 -0.05919489
-0.035250336 -0.03372158 -0.04764828 -0.011121243 0.007725942 0.045054656 -0.007829674 -0.030453416
0.045945857 -0.0387808 0.03034367 0.023916343 -0.038097497 0.07422133 -0.03205583 -0.06311687
-0.021946976 -0.010683832 0.015239338 -0.049884416 0.026480312 -0.046197526 0.036010336 0.053366933
0.017748836 0.019273536 -0.0430509 0.06981383 -0.036701784 -0.06234046 0.027814794 0.013092385
-0.07073795 -0.03793536 -0.055699106 -0.065120205 0.041586354 0.00038834137 0.046008933 0.002948754
-0.017548246 -0.032381497 -0.06882409 0.011325384 -0.0067331954 -0.04856819 0.01995481 -0.009197438
-0.04823199 -0.03013824 0.029993916 -0.013353025 0.05665249 -0.021957543 0.0314011 0.028173462
-0.005703345 -0.034262102 -0.054073814 -0.008987645 0.063269995 -0.014484119 0.020821316 -0.028474735
-0.010272634 -0.056470726 0.04375466 0.023388226 0.005369757 -0.029098926 0.0050701997 -0.03726141
0.03691223 -0.008697076 0.003931204 0.07006321 -0.017032227 0.039271235 -0.051746864 0.0353405
0.033944175 0.01199832 0.058213376 0.0495545 -0.0034940871 -0.00087959546 0.022117231 0.021298135
00000000: 83fd 923d cdb0 08bd a31e 333d 0e9b 4e3d
00000010: 396b 15bd d4a9 e63c 18f3 fbbc c0e2 92bc
00000020: c1d5 8d3d a2bd 4b3d 608c 313d 143b 08bd
00000030: 191c 93bb e763 223c 8efc 103d 947f b9bc
00000040: 5678 6bbd 13fc e1bc 365f ae3c e795 663d
00000050: c0a1 923c 0ed0 68bd e126 07bb 2e64 413c
00000060: 5e7e 53bd 0d3c 963c 270d d23b d066 2cbc
00000070: 3f3a aa39 ec9c a8bc 4e2b 46bc f83e 283d
00000080: 6826 37bc 2814 3cbd 23bf 68bc 67f4 9bbb
00000090: ca46 89bc 4a94 94bd d016 04bd 11c6 263d
000000a0: a83e 1b3d 3ade 6bbc 35a7 b739 47ca 2cbd
000000b0: c7ce 0c3d c3c0 89bc b1ab 40bd a8a2 4dbc
000000c0: a5dd 24bc cb62 63bd 93c7 243d d7bf 843d
000000d0: 2ece c2bc 9af3 003d 871e bcbc 2bee ae3c
000000e0: 1a1d 673d eca9 cf3c 676d 913b 93db 763c
000000f0: 6fdb 11bd fe56 853c fe7c 4abd 1505 833c
00000100: 1ec5 1fbd 4896 853d 4836 8f3d 58c9 6abd
00000110: 2313 3fbc e96b 173d a63d dc3c 83df e5bc
00000120: faaa ccbc 737d f3bc adb8 e43c ff81 283c
00000130: 7ed0 683d dfa0 1fbd 1bdf 5f3d 5e3d f63c
00000140: 0e0c 65bd fc89 25bd 799a 3ebd 2953 aabc
00000150: 8a0c 783d 303f 3f3d fa43 9cbc ef8e 59bb
00000160: 2f27 913c b4f9 6a3d ef60 eabc bd66 78bc
00000170: 79bc 89bc 2980 153d 8164 4bbd f9e0 07bd
00000180: cc4b 7fbd d5eb 2c3d 5c94 f53c f8a8 74bd
00000190: f934 0ebd c3ea bb3c e5af 1b3d 1cb4 40bb
000001a0: 28ba 963b eb38 92bc e34c 283d 1a31 1b3c
000001b0: 3c04 3c3d 69f2 753d 2bbe 0c3d d17c 33bc
000001c0: 1862 a83c 9e38 83bb 2122 483d 6ac9 8bbd
000001d0: cd19 9f3c 208a 4c3d 8d08 e6bc ab12 283d
000001e0: 5fef dc3c 7ab1 f0bc 5693 30bd db76 2abd
000001f0: 624e a33b 7cd1 6ebc 8ada 6e3d f30c 0ebd
00000200: ca2e 353d bb33 613d c8c9 aabb 2e38 c33c
00000210: c3a5 a03c 20b9 2a3d 0e2e 553c 71d4 46bb
00000220: 3729 513d 0e40 49bd c2d2 3e3d cdf5 0e3c
00000230: ec0f 7e3d 12c4 163d 0480 fb3b d4d1 cabc
00000240: d326 3d3d bcec f83c e418 93bc b511 25bd
00000250: 1ab7 c6bc f8a5 463d cdaa d8bc f51f fc3c
00000260: 53e3 1e3d c070 8939 6ddd a03c 256a 813d
00000270: 2dd7 abbc a3c1 513d 0591 813d 618d be3c
00000280: 65cb 2a3d b721 3cbd 60b8 a7bc 0c38 c33b
00000290: 03df 73bd 5d6a 56bd 28a8 a6bb 5776 72bd
000002a0: a862 10bd a41f 0abd d82a 43bd e035 36bc
000002b0: e629 fd3b 3b8b 383d 0848 00bc 7179 f9bc
000002c0: b931 3c3d 9ed8 1ebd 4a93 f83c 35ec c33c
000002d0: 1f0c 1cbd 5a01 983d f94c 03bd 6b43 81bd
000002e0: 25ca b3bc 3d0b 2fbc 6bae 793c 9a53 4cbd
000002f0: 3ded d83c 9e39 3dbd 937f 133d 4997 5a3d
00000300: 0266 913c 89e3 9d3c 2456 30bd 8efa 8e3d
00000310: 9c54 16bd b658 7fbd dadb e33c 7181 563c
00000320: 0fdf 90bd 1c62 1bbd bf24 64bd be5d 85bd
00000330: 7456 2a3d 4c9a cb39 dd73 3c3d e23f 413b
00000340: 57c1 8fbc 76a2 04bd a5f3 8cbd 1a8e 393c
00000350: 23a2 dcbb 70ef 46bd 4578 a33c dab0 16bc
00000360: e88e 45bd 78e4 f6bc cdb5 f53c a5c6 5abc
00000370: 710c 683d 4ee0 b3bc 719e 003d 08cc e63c
00000380: 20e3 babb 6b56 0cbd 817c 5dbd ea40 13bc
00000390: b393 813d cc4e 6dbc 7791 aa3c d943 e9bc
000003a0: 8d4e 28bc d94d 67bd 1638 333d aa98 bf3c
000003b0: c9f4 af3b df60 eebc eb23 a63b 6c9f 18bd
000003c0: 4731 173d 2e7e 0ebc 54d1 803b 4d7d 8f3d
000003d0: 2b87 8bbc e0da 203d 85f4 53bd 33c1 103d
000003e0: 0c09 0b3d 9a94 443c 2671 6e3d a9f9 4a3d
000003f0: 0efd 64bb a794 66ba 322f b53c 6d79 ae3c

weight f4 [256, 256]
-0.06555969 -0.014961959 2.4816507e-05 -0.03574123 -0.01266634 0.0023484475 -0.02273143 -0.0067246016
0.070213534 -0.06166107 -0.040762138 -0.03884002 0.00036442705 0.03778584 -0.026221192 0.008953259
-0.028740281 -0.04550409 0.01687624 -0.080668494 0.0060455403 0.076082 -0.055239405 0.030924484
-0.01744746 0.0019879641 -0.010243581 0.0046847803 -0.040457178 0.013500282 0.004483192 -0.00722543
-0.014311869 -0.06512444 0.021767797 -8.250733e-09 0.002712794 -0.014181523 -0.031069929 -0.054740872
-0.07909307 -0.00027653668 0.0025148848 -0.014529167 0.018280186 -0.0012818034 -0.06278859 0.0007057716
0.0043937694 -0.0367253 -0.010743755 -0.09303321 0.038961157 -0.033304453 -0.06972975 0.00018777249
0.043809433 -0.018316165 0.0081804255 -0.05770975 1.6727633e-06 -0.01510639 0.019362785 -0.054791547
-0.048634794 -0.03393937 -0.031151911 -0.015859796 -0.029955262 0.056321427 0.03362581 0.006607861
0.034091946 0.00011611991 0.056384653 0.005943244 0.063731045 -0.05357302 0.017338112 -0.040680412
-0.00053086074 8.972673e-05 0.00038424152 0.02850222 -0.004328175 0.064545184 -0.05387838 0.02130071
0.0048551774 0.034151677 -0.022010112 0.003240037 0.030055486 -0.00410549 3.1750082e-07 -0.03536997
0.013683987 -0.012761716 0.0033415605 0.027775323 -0.050386608 0.017877517 0.0002330149 0.05282949
0.05331292 0.020306239 0.012770507 -0.0117178615 -0.08590685 0.001231569 0.015789144 0.0005339824
-0.0070997104 0.0135517055 -0.07559574 0.015717834 0.0104883695 0.012560126 0.011381897 0.043926165
0.036920276 0.0010383225 -0.021318203 -0.052872147 0.054620758 0.0021086524 0.053124905 -0.031328373
0.03508582 0.027738232 0.0018195731 0.022865877 -0.008692209 0.029397307 -0.07965099 0.0047338167
8.1935046e-05 0.0246255 0.007202505 0.0020407757 0.03262179 0.007000286 -0.02726095 1.3068495e-07
-0.04484663 -0.009998659 0.03425594 -0.07723854 -0.004288634 -0.033738267 -0.025969373 0.039797492
-0.06896306 0.015100887 0.004657432 0.0010201649 -0.0043404344 -0.08148911 0.049255554 0.040257055
0.0012600377 0.012812744 0.015363588 1.7107506e-05 0.009791125 -0.0012159125 0.063942984 -0.0029346857
0.00078812975 0.020453509 2.5831128e-05 0.00016653872 -0.00047420495 0.018877815 0.02411235 -0.059780613
0.00036291062 -0.02580525 -0.006079563 -0.010274139 -0.021657718 0.030585365 0.0003010213 0.034300886
0.012408746 0.00096198334 0.011204006 -0.06296476 0.020875443 0.04557573 0.015485564 -0.014517763
0.07030311 -0.04853223 0.002011639 0.012269968 -0.05058514 0.022806622 0.049019624 0.025371993
-0.020039186 -0.053808898 0.0079848645 -0.059992556 0.07908197 -0.006748625 0.0049418383 -0.023582986
1.11501595e-05 0.0041134604 0.01517066 -0.046044666 0.0031125073 -0.02449896 -0.02512903 0.05787863
-0.02994183 -0.033418696 -0.018103657 -0.014919599 0.013992693 -0.0014466589 -0.06248152 -0.012612704
0.01115856 0.020641044 0.028511345 0.009880598 0.0117267305 0.059734568 -3.285091e-08 -0.009840156
-0.026594438 1.4960042e-07 0.046188403 0.006555545 -0.021062931 0.058138855 0.004740361 -0.025226545
-0.020426054 -0.014119007 0.03156281 0.012975243 -0.0038632574 -8.8699825e-10 -0.021580208 0.08050653
0.0022752206 -0.010410903 0.010149753 0.043540347 -0.025516614 0.012970669 -0.020021271 0.06961996
00000000: 2944 86bd 0123 75bc 0b2d d037 6565 12bd
00000010: 7b86 4fbc 69e8 193b 4437 babc 0c5a dcbb
00000020: 1dcc 8f3d 5190 7cbd 33f6 26bd b616 1fbd
00000030: 9210 bf39 53c5 1a3d d3cd d6bc b1b0 123c
00000040: bd70 ebbc 7f62 3abd 0a40 8a3c 8635 a5bd
00000050: ab19 c63b e1d0 9b3d b742 62bd 5855 fd3c
00000060: faed 8ebc 8148 023b b1d4 27bc c982 993b
00000070: 6db6 25bd 4930 5d3c bee7 923b 4dc3 ecbb
00000080: 547c 6abc f65f 85bd 6152 b23c 1cbf 0db2
00000090: 22c9 313b 9e59 68bc 5d86 febc f737 60bd
000000a0: 8cfb a1bd 20fc 90b9 c4d0 243b be0b 6ebc
000000b0: 54c0 953c 2f02 a8ba 4e97 80bd 8803 393a
000000c0: 9cf9 8f3b 456d 16bd 9306 30bc 3288 bebd
000000d0: bc95 1f3d 406a 08bd 79ce 8ebd cbe4 4439
000000e0: 8571 333d c80b 96bc 3107 063c 0f61 6cbd
000000f0: b683 e035 cb80 77bc b49e 9e3c 1a6d 60bd
00000100: 4735 47bd 0204 0bbd 4b32 ffbc 67ec 81bc
00000110: bd64 f5bc 4cb1 663d 38bb 093d c186 d83b
00000120: ffa3 0b3d 6785 f338 98f3 663d 8bbf c23b
00000130: 6c85 823d 626f 5bbd a808 8e3c 81a0 26bd
00000140: 7629 0bba ac2b bc38 0674 c939 7d7d e93c
00000150: 5dd3 8dbb 4430 843d 94af 5cbd d47e ae3c
00000160: 2e18 9f3b a1e2 0b3d 8d4e b4bc cd56 543b
00000170: ec36 f63c 5987 86bb fb74 aa34 1ae0 10bd
00000180: cd32 603c 8416 51bc 15fe 5a3b 1389 e33c
00000190: 3062 4ebd df73 923c 7655 7439 bc63 583d
000001a0: a65e 5a3d 4559 a63c 633b 513c 46fc 3fbc
000001b0: eeef afbd 996c a13a 3c58 813c f4fa 0b3a
000001c0: b0a4 e8bb f907 5e3c f0d1 9abd b0c2 803c
000001d0: 69d7 2b3c fdc8 4d3c 237b 3a3c eceb 333d
000001e0: b739 173d 5218 883a 83a3 aebc 7790 58bd
000001f0: 04ba 5f3d 5131 0a3b 8099 593d 2e52 00bd
00000200: 26b6 0f3d 4a3b e33c be7e ee3a 3851 bb3c
00000210: c469 0ebc 9fd2 f03c 0f20 a3bd 221e 9b3b
00000220: 8bd4 ab38 6bbb c93c fe02 ec3b 89be 053b
00000230: 6d9e 053d a862 e53b 5b52 dfbc 6852 0c34
00000240: 1ab1 37bd 6ad1 23bc f54f 0c3d 3d2f 9ebd
00000250: ab87 8cbb 2331 0abd b9bd d4bc b202 233d
00000260: 813c 8dbd b669 773c 5f9d 983b 0eb7 853a
00000270: 343a 8ebb c3e3 a6bd 31c0 493d 95e4 243d
00000280: d927 a53a 8bec 513c 8fb7 7b3c 1782 8f37
00000290: f46a 203c 415f 9fba 8af4 823d db53 40bb
000002a0: 7e9a 4e3a 1e8e a73c edaf d837 e6a0 2e39
000002b0: b69e f8b9 a6a5 9a3c 4387 c53c 84dc 74bd
000002c0: 0a45 be39 8865 d3bc 1237 c7bb dd54 28bc
000002d0: 876b b1bc 298e fa3c 65d2 9d39 167f 0c3d
000002e0: 0e4e 4b3c 9c2d 7c3a 0291 373c abf3 80bd
000002f0: fa02 ab3c 9ead 3a3d 2ab7 7d3c e9db 6dbc
00000300: 14fb 8f3d bbc9 46bd b4d5 033b fa07 493c
00000310: 5d32 4fbd f4d4 ba3c cdc8 483d edd8 cf3c
00000320: 3829 a4bc b866 5cbd f3d2 023c c1ba 75bd
00000330: baf5 a13d 9223 ddbb 25ef a13b 1b31 c1bc
00000340: 9211 3b37 35ca 863b 5c8e 783c 5599 3cbd
00000350: 35fb 4b3b 0bb2 c8bc 65db cdbc 2412 6d3d
00000360: 9248 f5bc 0be2 08bd 1f4e 94bc 5571 74bc
00000370: 9c41 653c d19d bdba 9fec 7fbd 84a5 4ebc
00000380: 65d2 363c 6817 a93c a090 e93c 3be2 213c
00000390: 7921 403c 3cac 743d f517 0db3 9b38 21bc
000003a0: 94dc d9bc daa1 2034 0d30 3d3d e6cf d63b
000003b0: 2b8c acbc 0223 6e3d 0855 9b3b e6a7 cebc
000003c0: 8a54 a7bc 6853 67bc 0148 013d 1d96 543c
000003d0: b42e 7dbb f4d0 73b0 fac8 b0bc 9ce0 a43d
000003e0: de1b 153b 7e92 2abc 264b 263c 5d57 323d
000003f0: 3808 d1bc ee82 543c a603 a4bc e994 8e3d

bias f4 [256]
0.0057604793 -0.050017294 -0.0577603 -0.023311568 -0.0059383176 -0.04022456 -0.071705244 0.012989856
0.03705319 -0.009029275 0.05843553 -0.03268677 0.0117482655 0.025310868 -0.045049455 -0.03466136
-0.01626381 0.04455642 0.060329277 0.061391074 0.026387516 -0.03841076 0.049195096 0.00099277
0.0071475417 0.04659484 0.038113013 0.018847287 -0.037204627 0.051726095 -0.027458373 -0.014829053
0.008055667 0.011815932 -0.04016705 0.019568361 -0.023624565 -0.049244028 0.06990992 -0.054761194
0.030142676 -0.014954027 -0.018268978 -0.054169692 0.019596498 0.055802662 0.005089206 0.042916626
0.008131133 -0.0635747 -0.037922554 0.017592372 0.028075323 0.010803931 0.020461734 0.035300907
0.06689612 -0.0361159 -0.035829425 0.05392637 -0.052315187 0.0062969727 0.046630576 0.02334896
-0.034029704 -0.019519376 0.05340834 -0.057861168 -0.0033434923 0.05221295 -0.007527122 0.021632677
-0.004438446 0.03943158 0.065113746 -0.028466761 -0.004880611 -0.015702408 -0.016459115 0.035733398
-0.006577211 0.036984596 0.01091988 0.028003925 -0.025557688 -0.012037105 0.01240608 -0.016176317
-0.03534544 0.008249114 0.05110209 0.05237 0.0064750086 0.005438203 -0.0010829353 -0.030799586
0.0063965274 0.020772686 -0.013022804 -0.04250435 0.013823019 0.013276723 -0.015889902 0.007848628
-0.049132016 -0.019313298 -0.008947071 -0.0052974955 -0.00577063 0.037343252 -0.022228768 -0.041501395
-0.062161084 0.005216707 0.0028810215 -0.06706334 0.0019530256 -0.01543137 0.025308767 0.0037593374
-0.046503603 0.0023728295 0.06671286 -0.012858156 -0.041326027 0.02761336 -0.009519744 0.029488107
0.055255394 -0.038363673 -0.015267167 -0.02841617 0.020262228 0.06841279 0.0031115336 -0.01866702
-0.04738647 -0.06104368 0.06555489 0.0007371497 0.01810154 0.027229376 0.022093315 -0.06654656
0.004078402 0.026966987 0.061659105 -0.07020628 0.05493138 -0.031298764 -0.065011255 -0.04764299
-0.019831993 0.00033615602 0.06483993 -0.0056754597 -0.013231146 -0.03058771 0.01993067 -0.042287175
-0.01581897 -0.062308423 0.04908995 -0.020065067 0.019862682 0.017899057 -0.034027677 -0.057425104
0.0037289371 0.023033027 0.010448798 -0.07127841 0.02009781 0.0019584312 0.050671335 0.049779393
0.04930759 0.033620995 0.0057299268 -0.01453003 -0.069746934 0.024415784 -0.012539961 -0.021236463
-0.027967574 0.04695866 0.05994333 -0.065710835 0.07270441 -0.020969162 -0.015616364 0.005089986
0.017530922 0.03835122 -0.015053773 0.059214264 0.027120728 -0.014843016 -0.031255513 0.052578688
-0.008447033 0.02245565 -0.023145618 0.013638448 0.006900381 -0.045947712 -0.0015468278 0.0048162765
-0.06390113 -0.010103755 0.0013179977 0.04163806 0.033940587 -0.016324343 0.06299891 0.021994142
0.01981644 -0.043687977 -0.04936567 0.014235027 0.061902728 -0.018147951 0.041052032 0.0042782053
-0.0064502135 -0.04079841 0.046694413 -0.009940277 0.022913849 -0.014000442 -0.040067658 0.042317793
0.016162947 0.048176866 0.012401394 -0.04142039 0.0063477135 -0.012895765 -0.005149043 -0.0030579742
-0.0025006763 0.028752713 -0.041109692 0.064641476 -0.025705373 -0.029934574 0.0003541252 0.041802973
-0.031503927 -0.0061489074 -0.009828144 0.040374625 -0.06875776 -0.015713623 0.005185207 0.023444185
00000000: 67c2 bc3b efde 4cbd 1096 6cbd e7f7 bebc
00000010: 3896 c2bb 82c2 24bd 33da 92bd 68d3 543c
00000020: 16c5 173d 86ef 13bc 185a 6f3d 90e2 05bd
00000030: cc7b 403c bd58 cf3c c785 38bd 12f9 0dbd
00000040: af3b 85bc cb80 363d d51b 773d 3575 7b3d
00000050: a22a d83c 9a54 1dbd cc80 493d d51f 823a
00000060: ed35 ea3b 3bda 3e3d 641c 1c3d a065 9a3c
00000070: e163 18bd bede 533d 62f0 e0bc 8ef5 72bc
00000080: ebfb 033c 9c97 413c 3486 24bd d44d a03c
00000090: 4e88 c1bc 1bb4 49bd ef2c 8f3d 464d 60bd
000000a0: c6ed f63c bc01 75bc d3a8 95bc 0ae1 5dbd
000000b0: d688 a03c 5591 643d 5bc3 a63b 58c9 2f3d
000000c0: 7238 053c 7433 82bd ae54 1bbd e11d 903c
000000d0: 38fe e53c f902 313c 5e9f a73c af97 103d
000000e0: d500 893d 44ee 13bd e0c1 12bd e6e1 5c3d
000000f0: 7348 56bd d656 ce3b b4ff 3e3d 5146 bf3c
00000100: bb62 0bbd 19e7 9fbc b4c2 5a3d d5ff 6cbd
00000110: 7e1e 5bbb 3fdd 553d 13a6 f6bb 0337 b13c
00000120: 6270 91bb 0283 213d 5b5a 853d 2033 e9bc
00000130: 88ed 9fbb 56a2 80bc 44d5 86bc 2f5d 123d
00000140: a585 d7bb 297d 173d 4ce9 323c 7d68 e53c
00000150: 5b5e d1bc 4737 45bc df42 4b3c 3284 84bc
00000160: 61c6 10bd 4b27 073c 6d50 513d ed81 563d
00000170: 4f2c d43b f432 b23b 47f1 8dba 6a4f fcbc
00000180: f699 d13b 7b2b aa3c 995d 55bc 0b19 2ebd
00000190: f279 623c 9d86 593c 8a2b 82bc 8897 003c
000001a0: a73e 49bd ec36 9ebc bc96 12bc 9d96 adbb
000001b0: 8e17 bdbb 3df5 183d 1b19 b6bc 5efd 29bd
000001c0: 9f9c 7ebd e9f0 aa3b 85cf 3c3b 8158 89bd
000001d0: aafc ff3a dbd3 7cbc 5554 cf3c 375f 763b
000001e0: 907a 3ebd 7981 1b3b c0a0 883d 04ab 52bc
000001f0: 7b45 29bd 6a35 e23c b3f8 1bbc 0b91 f13c
00000200: 7b53 623d 3a23 1dbd 2423 7abc 07c9 e8bc
00000210: f9fc a53c 011c 8c3d dfea 4b3b 94eb 98bc
00000220: 5118 42bd f008 7abd a441 863d 473d 413a
00000230: ae49 943c 2410 df3c 0afd b43c 9049 88bd
00000240: 1ea4 853b dfe9 dc3c 428e 7c3d 4fc8 8fbd
00000250: baff 603d 2233 00bd 9f24 85bd 4c25 43bd
00000260: b476 a2bc 193e b039 ccca 843d 35f9 b9bb
00000270: 73c7 58bc 1493 fabc a545 a33c 5135 2dbd
00000280: c996 81bc 1e37 7fbd 8b12 493d 7f5f a4bc
00000290: 10b7 a23c 0ba1 923c 9b60 0bbd 9636 6bbd
000002a0: 2f61 743b c2af bc3c 6f31 2b3c 6afa 91bd
000002b0: 2aa4 a43c 0659 003b bf8c 4f3d 7ae5 4b3d
000002c0: c1f6 493d 2bb6 093d 1cc2 bb3b 5d0f 6ebc
000002d0: 7bd7 8ebd 9c03 c83c 6974 4dbc 17f8 adbc
000002e0: 411c e5bc b957 403d 2387 753d 6793 86bd
000002f0: 0de6 943d 85c7 abbc c7db 7fbc e6c9 a63b
00000300: 029d 8f3c 2b16 1d3d 1aa4 76bc a88a 723d
00000310: 4a2c de3c 1f30 73bc c805 00bd c05c 573d
00000320: 6d65 0abc e9f4 b73c e19b bdbc cc73 5f3c
00000330: 971c e23b ab33 3cbd eebe caba dbd1 9d3b
00000340: 98de 82bd 388a 25bc aac0 ac3a ac8c 2a3d
00000350: 4905 0b3d a1ba 85bc 9305 813d 0f2d b43c
00000360: 1656 a23c 2af2 32bd a833 4abd 083a 693c
00000370: b78d 7d3d 03ab 94bc 2d26 283d 3030 8c3b
00000380: 505c d3bb 3c1c 27bd a442 3f3d 8bdc 22bc
00000390: d3b5 bb3c 1c62 65bc fc1d 24bd 6c55 2d3d
000003a0: 2868 843c 1b55 453d 372f 4b3c 6da8 29bd
000003b0: 7b00 d03b c248 53bc 4eb9 a8bb 4b68 48bb
000003c0: 63e2 23bb cf8a eb3c a362 28bd c062 843d
000003d0: 1394 d2bc 5a39 f5bc e1a9 b939 9839 2b3d
000003e0: 430a 01bd c67c c9bb 3906 21bc dd5f 253d
000003f0: ded0 8cbd dbb9 80bc abe8 a93b 050e c03c
