dblp_train/train/pretrained_han/decoder_t.pth (torch, 529440 bytes, 4 tensors)

weight f4 [256, 256]
000000 2d ac c6 3b 0d 31 d2 bc 62 c3 5a 3b d6 25 1a bd
       0.0060630054 -0.025658155 0.0033380617 -0.03763374
000010 f0 c3 cf bd 3b 5b 58 3d 65 0a 95 3b f7 2b 1e bc
       -0.10144794 0.05282138 0.0045483583 -0.009654037
000020 f5 25 c4 b3 5a 94 c9 bc 76 99 50 bd 56 9e b6 3c
       -9.1338656e-08 -0.024606872 -0.0509276 0.022292297
000030 7d 19 98 bd ac a2 6a 3d db 43 96 bb 07 fe 08 3c
       -0.074267365 0.057284042 -0.0045857257 0.008361346
000040 eb 29 25 3c a0 46 08 bd 02 43 bb bd 52 f7 d5 bc
       0.010080795 -0.03327048 -0.0914364 -0.026118908
000050 f7 27 2d bd fb a3 a6 3d 0e 32 13 3c c3 32 31 3c
       -0.04227444 0.081367455 0.008984102 0.010815325
000060 17 4a 20 bd 32 9c 1b 3d e1 08 bd 3c 62 88 97 bd
       -0.039133158 0.037990756 0.023075523 -0.0739906
000070 58 d1 9c bd bd 8c e1 ba 63 97 65 3d 5b 22 ac bd
       -0.07657117 -0.0017208081 0.056052577 -0.0840499
000080 a1 fe da 3b bf f9 7e bd 56 09 a4 bd 50 1c 23 3c
       0.006683186 -0.062249895 -0.08009593 0.009955481
000090 3e d6 f6 3a 74 47 85 bd b4 0c 04 bd df b7 07 bd
       0.001883216 -0.06507769 -0.032238677 -0.033134338
0000a0 d2 29 a8 3d 92 e4 9b 3b 7d 97 5f 3c 2a eb 8b 3d
       0.082111016 0.0047574723 0.013646957 0.06831963
0000b0 65 ec 83 bb d1 cd 3b bd 41 66 2f 3d a2 4c 29 bd
       -0.004025983 -0.04585058 0.042822126 -0.04133285
0000c0 88 6d 9f 3d 07 8c 83 3c cf 88 ff bb 64 96 14 bd
       0.07784563 0.016057981 -0.0077982913 -0.036276236
0000d0 35 93 d6 3c 52 cb 89 3a ea 9a 83 bc c4 ca 2d 3d
       0.02619324 0.0010512865 -0.01606508 0.0424297
0000e0 77 cb 7c bc a5 46 da 3c 42 87 30 3c bd 1d c7 3c
       -0.015429369 0.026645014 0.0107744355 0.024306173
0000f0 32 7e da 33 4d a5 e1 bc 23 f2 02 bd 9b c1 97 3c
       1.0174371e-07 -0.027544642 -0.0319692 0.018524935
000100 ea 87 1d bd df c2 00 3b aa 06 bf ba e8 b3 bf 3c
       -0.038459696 0.0019647402 -0.001457413 0.023401216
000110 76 36 9b 3c 08 4d 55 3c 3a 2d f1 3c 6c b1 56 bc
       0.018946867 0.013018854 0.029440511 -0.013103824
000120 a7 a6 6e 3d 24 32 05 3d b3 08 04 bd 50 da 33 bc
       0.0582644 0.03251852 -0.03223486 -0.010977343
000130 51 0e a6 3d 69 92 f2 bc 48 bd 10 3d 0e 00 4b 3b
       0.081081994 -0.02961083 0.035336763 0.0030975374
000140 49 72 61 bd 47 d1 4f bd d6 9b b3 3d 85 d8 00 3a
       -0.05504063 -0.05073669 0.08769958 0.00049150764
000150 10 07 b6 bd ec e0 8d ba 4a c6 5e bc ab 93 c0 3a
       -0.08888066 -0.0010824478 -0.0135970805 0.0014692446
000160 fc 48 b7 3c 69 e3 60 bc 8f 2a f4 3c 12 a1 96 39
       0.022373669 -0.013726094 0.02980545 0.00028730236
000170 b4 b7 ff 3c b2 38 b0 bb e8 75 06 3d 14 73 fa bc
       0.031215526 -0.0053778524 0.032827288 -0.030572452
000180 c1 c1 fd 3c a3 4a 95 3c 17 f2 a1 bb e5 cd d3 2f
       0.030976178 0.018224066 -0.0049421894 3.8526973e-10
000190 41 9f 84 3c 99 44 21 bd 22 e3 cb 3c d2 b2 54 3d
       0.01618922 -0.03937206 0.024888579 0.05192835
0001a0 1b df 80 bc 18 f1 15 3c 2c 36 ba bc 39 88 83 bb
       -0.015731385 0.0091517195 -0.02273091 -0.0040140417
0001b0 a3 8e 5f bb 29 3e 94 3d cf da 62 3b bc 36 bc bd
       -0.0034112118 0.072384186 0.0034615283 -0.09190127
0001c0 77 4c 0c bb 8f a9 09 3d ae 68 a7 ba 37 a7 78 b9
       -0.0021407881 0.03360897 -0.0012772286 -0.00023713415
0001d0 26 83 9c 3b 07 50 a5 bc 28 45 7a bd cd 06 aa 3d
       0.0047763763 -0.020179762 -0.06110111 0.083020784
0001e0 e3 32 be bb 22 67 bc b9 8b 64 f2 bc fb 68 4c 3d
       -0.005804406 -0.00035934994 -0.029588958 0.049904805
0001f0 17 b0 37 3c d9 d8 d3 3d b2 49 fd 3c 4a 76 9c 3d
       0.011211417 0.10344095 0.03091893 0.07639749
000200 67 23 3e 3d 6c 56 26 3d 77 9e 47 3d f8 d7 c3 bc
       0.04642048 0.040609762 0.04873511 -0.023906693
000210 a6 36 ca bd ae 59 e7 3c 9f db cb bc 41 86 9b 3b
       -0.098737046 0.028241005 -0.024884997 0.004746229
000220 0e 7e 1e 3d 1e d9 2a 3d 2e 8e 07 bd 01 5e 0e 3d
       0.038694434 0.041710965 -0.033094577 0.034757618
000230 27 13 c6 3b 96 c3 a8 bb 5d 7c 1f bd 69 3d 7d bd
       0.0060447636 -0.005150269 -0.03893696 -0.061826143
000240 28 5b ef bc 08 e5 7f bb 55 d1 00 bc 51 8c 4e bd
       -0.029218271 -0.0039046425 -0.007862409 -0.050426785
000250 72 9e 6a 3c 15 61 2b 3d 3b 9a f3 3c 5e f5 19 bc
       0.014320003 0.04184063 0.029736629 -0.009396879
000260 6d 84 0f bd 91 6b 92 3c db 6f 84 3c 45 e1 5b bd
       -0.0350384 0.017873557 0.016166618 -0.05368163
000270 08 e4 15 3d 2b c0 da bc 8c 38 67 bc 0d 6b 3c 3c
       0.03659442 -0.026702961 -0.014112603 0.011500132
000280 a8 f7 bf bd 2b ff aa bb 49 7d 47 bc d1 3e e8 3b
       -0.093734086 -0.0052184067 -0.012175866 0.0070875664
000290 2b 52 26 ba 9a e7 05 bc b8 58 94 3d b1 51 38 bc
       -0.00063446414 -0.008172894 0.07243484 -0.0112499455
0002a0 ed 8c eb 3b 71 e9 e5 b7 df 54 0f bd 8b df e4 3d
       0.0071884305 -2.7407632e-05 -0.03499305 0.1117545
0002b0 f5 ce c6 bc a5 dc a5 3c 13 91 90 bc 49 e6 25 3d
       -0.024268607 0.020246813 -0.017647302 0.04050282
0002c0 73 61 0c 3d bf a9 33 bd e1 26 ab 3d f4 8e c0 bc
       0.034272622 -0.043863054 0.08357025 -0.023505665
0002d0 41 6d 72 3d c1 f2 df bc ec 25 9c bc 2f 5c 9d bd
       0.059186224 -0.027337434 -0.019061051 -0.07683598
0002e0 da d6 98 3c 3c 44 91 bc 57 27 aa bc ba ce 9a bc
       0.018657137 -0.017732732 -0.020770712 -0.018897403
0002f0 81 07 07 3b e9 3e 68 ba 69 e4 1a bd fe bf af b9
       0.0020603838 -0.0008859472 -0.037815485 -0.00033521646
000300 f8 71 4a bd b4 fb 53 bb 38 3b 69 3d 85 c6 3c bd
       -0.049425095 -0.0032346072 0.05694124 -0.04608776
000310 03 29 6e 3c 0e 5f 86 bb 0a c1 c0 bb 07 0b a7 b8
       0.014536145 -0.004100687 -0.005882387 -7.9652345e-05
000320 a3 7c c1 bc 78 d2 0c bc 95 2a b2 bc 1c 6a 23 bd
       -0.023619002 -0.008595102 -0.02174882 -0.039896116
000330 f7 95 5e 3d ba a0 37 bc 6c 9e f0 bd 5b 94 89 b9
       0.054342236 -0.011207754 -0.117489666 -0.0002624121
000340 12 65 c3 bb 90 44 11 ba a4 48 39 3d 62 cb 13 bd
       -0.0059629763 -0.00055415276 0.04523529 -0.036082633
000350 d1 fe 2a bd 1e 68 ab bd 7c 9e 88 3d b8 79 85 bc
       -0.041746918 -0.08369468 0.066708535 -0.016293392
000360 55 98 65 bc 8d 56 47 3b 22 d4 53 bd f1 17 d0 bc
       -0.01401337 0.0030416579 -0.051715977 -0.025402041
000370 63 ac 80 bb 64 b6 9f 3c 54 1e f7 bc 51 75 e8 3b
       -0.0039268 0.01949615 -0.030165829 0.0070940633
000380 8e 59 e3 bc 02 20 00 3d a5 28 b5 3b a2 08 50 bd
       -0.027752664 0.031280525 0.005528527 -0.050789483
000390 a5 ee 04 bd 67 18 07 bc 68 12 47 3d 8a 5e 1a 3d
       -0.03245415 -0.008245564 0.048601538 0.037687816
0003a0 21 90 0b 3c 2d 14 cd bc 04 d8 c1 b8 bf f0 ab 3d
       0.00851825 -0.025034035 -9.243193e-05 0.08395528
0003b0 e9 81 37 bd f3 94 c7 3c 0c 26 84 bb 9a 37 bb 3b
       -0.044801626 0.024363017 -0.004032856 0.0057134153
0003c0 67 13 12 3c c8 aa 7f 3d b0 7b 81 3a 3f b7 86 3d
       0.008915759 0.06241873 0.0009878781 0.0657792
0003d0 8a 09 0a 3d 6e e6 90 bc d7 c8 7b 3d a1 df 22 3d
       0.033700503 -0.017688002 0.061470833 0.03976405
0003e0 9a 4f 3b 3d c1 a6 43 3c 2c 34 7a bc d3 27 56 3d
       0.04573021 0.011941613 -0.015271228 0.052284073
0003f0 1d 25 f5 3c 6f 72 12 bd 83 a9 42 3c b3 ea 6a 3b
       0.029924924 -0.035753664 0.011881235 0.0035845458

bias f4 [256]
000000 02 e0 91 bd da 0f 77 bd 8f 7f 87 bd 6c dc 3b 3d
       -0.07122804 -0.06031785 -0.06616127 0.045864508
000010 02 e9 11 bd 3d 37 b6 3c 6e b4 38 bd a2 f0 59 bd
       -0.035622604 0.022243137 -0.045093946 -0.053208
000020 1c 94 4b bc c2 ca 25 3d c4 13 87 bc 16 04 18 3d
       -0.012425449 0.040476568 -0.016488917 0.03711327
000030 67 8e a1 bc 57 60 4e 3d 4b 9b 3b 3d 33 35 97 bc
       -0.019721223 0.050384846 0.045802396 -0.018457985
000040 e2 67 31 bd 67 30 26 3c cd 2e 64 3d 0f d3 8a 3d
       -0.04331196 0.010143376 0.055708695 0.067785375
000050 5b 70 7b 3d f7 78 92 bc 3c af 80 3d cc 08 ce 3c
       0.061386447 -0.017879946 0.06283423 0.025150679
000060 57 33 56 3d c8 0a e6 3b d3 58 08 3c 53 89 08 3d
       0.052295055 0.007020328 0.008321959 0.033334088
000070 7e 7c 2d 3d fc c7 b1 bb 28 b3 72 bd c2 0c 32 3d
       0.042355053 -0.0054254513 -0.059252888 0.043469198
000080 3f 87 6e 3d 24 0c 3b 3c e1 26 cf bc 94 38 5a 3d
       0.05823445 0.011416469 -0.025287094 0.053276613
000090 8f 2c 30 bd 5e a2 18 b6 c2 19 83 bc 69 02 38 bd
       -0.043011244 -2.2744275e-06 -0.016003493 -0.044924174
0000a0 46 1b 4f 3d 13 1d 6c 3d 39 de ce 3c 02 a2 1a bb
       0.05056312 0.057644915 0.025252448 -0.00235951
0000b0 21 bd 87 3d de a5 33 3d 39 f3 96 3c 87 b0 71 3c
       0.0662787 0.043859355 0.018426524 0.01475156
0000c0 33 4c 11 3c c4 8b 41 bd 27 29 bc 3c fc 96 1f bc
       0.008868265 -0.04725243 0.022968842 -0.009740587
0000d0 6d c7 5a 3d 7a 44 9c 39 0d a8 33 3d 38 bf 67 bc
       0.053412843 0.00029805658 0.043861438 -0.014144711
0000e0 f2 16 59 3d 74 ba 67 bb c8 0e 0a 3b 38 e8 6f bd
       0.053000398 -0.0035358937 0.002106594 -0.05857107
0000f0 15 74 df bc 00 c6 f0 3c be da 41 bd bc 36 0e 3c
       -0.027277032 0.029391289 -0.04732775 0.008680042
000100 65 f2 6f 3d bc f8 84 3d 7e 26 50 3d 96 c5 fe 3c
       0.058580775 0.06492755 0.05081796 0.031100076
000110 f9 f8 2a 3c f8 0b 46 bd 6c 09 a8 3c af 10 fe 3c
       0.010435336 -0.048351258 0.020512305 0.031013815
000120 2f 53 ac 3c cf 6f 64 3d 58 44 2b bd 71 3a c9 3c
       0.021035759 0.05577069 -0.041813225 0.024564
000130 d6 2d c4 bc 3b 84 33 bc fd 86 3c bd ef 8b 18 bd
       -0.023947638 -0.010956819 -0.046027172 -0.037242826
000140 16 06 2a 3d 66 8a 89 bd 23 fe 51 bc 37 50 4c 3d
       0.04150971 -0.067158505 -0.012816939 0.049881186
000150 97 ba 31 bd 09 ca e4 3c 5f 63 87 bd da 3f 61 3d
       -0.043390837 0.02792837 -0.066107504 0.054992534
000160 a2 6d f2 3c d5 e5 37 bd e1 0e f1 bc a6 2c 0b 3d
       0.029593293 -0.04489692 -0.02942604 0.033978127
000170 47 cd 46 3d 15 13 53 3c 0b 11 6e bc 28 78 17 3d
       0.04853561 0.0128829675 -0.014530431 0.036979824
000180 3d de 98 3c d4 36 d6 bc ab e4 6b 3d 16 a7 99 bd
       0.018660659 -0.026149191 0.05759112 -0.07502572
000190 78 75 1f bd 50 45 22 3c ba e1 93 bc 5a aa 93 bc
       -0.038930386 0.009904221 -0.01805197 -0.018025566
0001a0 25 4f ac 3a 19 b1 a2 3b 7d 7b bf 3a 6b f4 23 3d
       0.0013146146 0.0049649593 0.0014608946 0.040028017
0001b0 c7 d6 25 bd 46 4b 0c 3d 6a a9 c4 39 45 cf e6 bc
       -0.04048803 0.034251474 0.00037510257 -0.028175006
0001c0 1c 7d 3f bd 91 ec 3d 3c 1f 34 69 3a 8c 8d 6f 3d
       -0.046750173 0.011592046 0.0008896011 0.0584846
0001d0 8a 0f 01 3d 33 59 cd bc fc aa 1c bd eb 53 94 bb
       0.03150896 -0.025066948 -0.038249 -0.0045266054
0001e0 ce 15 bb 3c 3b 6e 78 3d 11 31 c2 3c 9c 87 20 3b
       0.022837546 0.060652 0.023705037 0.0024494892
0001f0 3e 45 96 3d fd 66 27 3d 45 f8 59 bd 92 f4 98 3c
       0.07337426 0.0408697 -0.053215284 0.018671308
000200 21 4f 8c bc a8 5e 60 3c ad d6 23 bd 38 2b 50 3d
       -0.017127575 0.013694443 -0.039999653 0.050822467
000210 ce 32 47 ba 6e 6c 5d 3c a0 45 da 3c a4 57 8e bd
       -0.0007598818 0.013514621 0.026644528 -0.0695031
000220 ab c7 80 3d 55 1c 6e 3d f4 ba 06 bd 85 1d f4 ba
       0.06288084 0.05813249 -0.032893136 -0.001862452
000230 a5 29 95 3d 91 92 59 3d 1d d2 bf bc a1 fd c9 3c
       0.07283334 0.053118292 -0.02341562 0.024657072
000240 25 09 88 bd 9d a8 81 3d b9 2a 59 3c 1e a6 53 3d
       -0.06642369 0.063309886 0.013254815 0.051672094
000250 8a bd 3f bb 2b b2 02 3a 08 2d db 3c 2d 3e fa bc
       -0.0029257261 0.00049856555 0.026754871 -0.030547226
000260 69 23 37 bc 00 ba 57 bd cc 59 67 bd 77 72 e5 3c
       -0.011177876 -0.052667618 -0.05648212 0.028008683
000270 fa dd 67 3b 90 dd 08 bd 27 e3 59 3d c4 0f ae 3c
       0.003538011 -0.033414423 0.053195145 0.021247752
000280 f6 49 6d bd fb f5 4f bd 7b 3c 8d 3d c7 49 0a 3d
       -0.057931863 -0.050771695 0.06896301 0.033761766
000290 b4 2d 47 bd 58 63 11 ba ef e8 48 bc 1c 1d 92 3d
       -0.04862757 -0.00055461144 -0.012262567 0.071344584
0002a0 57 e1 67 3d c7 69 1e bd cb b1 ca 3b 3c ac 39 3d
       0.056611385 -0.038675096 0.0061857454 0.04533027
0002b0 e0 da c5 3c 18 4c 99 3c 61 18 85 bd ee 85 a7 3c
       0.02415222 0.018713042 -0.064987905 0.020449605
0002c0 2d 6d 3b bd d8 b9 32 bd 65 ad 56 bd b8 c4 ca bc
       -0.045758415 -0.043634266 -0.052411456 -0.024752006
0002d0 5a 8b ff 3c 49 a0 44 bd a1 fc 5d 3a 80 57 df 3b
       0.031194378 -0.048004422 0.00084681256 0.0068158507
0002e0 d1 43 8b 3d 08 e3 3c bd 5c 85 39 bd e3 9c 27 bd
       0.06800044 -0.04611495 -0.045293197 -0.040921103
0002f0 6e 0b 2c 3d 68 9c 88 bd 38 71 87 bd 7c ae 3b ba
       0.042003088 -0.06670457 -0.06613392 -0.0007159484
000300 0e 19 73 3d fd 0b 6a 3c 28 b0 84 3d 6f da 63 3d
       0.059350066 0.014285085 0.06478912 0.055628236
000310 44 74 8e bc 75 8e 04 3d 65 f4 46 bd 98 08 1e bc
       -0.017389424 0.03236242 -0.048572917 -0.009645604
000320 65 e3 20 bd a1 80 48 bd 74 62 63 3d ee 50 16 3d
       -0.03927936 -0.048950795 0.055513814 0.036698274
000330 47 6f db bc 3b 77 30 bc 20 5d 6f 3c 25 4d 26 bd
       -0.02678646 -0.010770614 0.014609605 -0.040600915
000340 e7 c7 43 3d 5f b7 a2 bb ea 52 76 bd 3f 41 3c 3d
       0.047798064 -0.004965707 -0.060137667 0.04596066
000350 81 2c 28 bd 0b cc f2 3c ef 07 c7 3c 7f ed 2a 3d
       -0.041058067 0.02963831 0.024295775 0.0417304
000360 e1 a1 1d bd 47 08 93 bc 74 18 08 bd 72 65 1e 3d
       -0.038484458 -0.017948283 -0.033226445 0.038670965
000370 81 6e 45 bd b4 ea 3e 3c c7 09 2c 3d 40 d3 73 bd
       -0.048201088 0.011652637 0.042001512 -0.059527636
000380 8e 0c 85 bd 8c d7 56 3d 05 f5 7a bd 98 a4 39 3d
       -0.06496535 0.052451655 -0.061268825 0.045322984
000390 e2 c8 20 bd 5b e0 e9 bc ac 3c 81 bd f0 cd 95 bd
       -0.039254077 -0.028549364 -0.063104 -0.0731467
0003a0 2d 2e cb 3c 18 d1 94 bc f9 be 63 bd 9c 50 42 bd
       0.024802292 -0.01816611 -0.055602048 -0.047440156
0003b0 f1 90 95 3c dd 91 40 bd e0 0d 84 3d 51 4e aa 3c
       0.01825759 -0.047014106 0.06447959 0.020789297
0003c0 bf b9 89 bd da 01 6f bc 3d f4 0e bd bd 1e 48 bd
       -0.067248814 -0.014587844 -0.034900893 -0.04885744
0003d0 af 3e 07 3d c4 0e 6f bd 9f cc 7b bc de d3 7d 3d
       0.033018764 -0.05836369 -0.01536861 0.06196963
0003e0 50 92 4d 3d 3f 6a a9 bc 33 f7 57 3c 79 8e 70 3b
       0.050188363 -0.020680545 0.0131814955 0.0036706014
0003f0 1f 82 f7 3c d7 d9 80 bd e3 1c fd 3c 7b a5 1a 3d
       0.030213414 -0.0629155 0.030897563 0.03775547

weight f4 [256, 256]
000000 d8 01 34 bc 35 fb ff bc a9 72 f7 3b 12 81 40 bd
       -0.010986768 -0.031247715 0.0075515104 -0.04699809
000010 ce 9b b7 bc cd 9c a8 3c 01 00 14 bd 2a 7f f3 bc
       -0.02241316 0.020582581 -0.036132816 -0.029723722
000020 f8 79 0d bc cf 5f a6 bd 93 c6 70 bc 42 bf 4e 3c
       -0.008635037 -0.08123743 -0.014695781 0.012618842
000030 db 82 35 ba 04 82 ab ba af 73 a4 bc 1b 47 87 3d
       -0.0006924101 -0.0013085012 -0.020074693 0.06605359
000040 c7 7e 03 3d 62 95 6b bd 63 f0 b5 38 02 7b 92 bc
       0.032103326 -0.05751551 8.675528e-05 -0.01788092
000050 28 10 25 3d bf 52 b5 3c d4 d9 95 bb c5 8c a7 3c
       0.04029861 0.022134183 -0.0045730863 0.020452866
000060 ab b0 5c 3c ec e5 c7 bc c4 ad ad ba 64 32 a4 bc
       0.013469855 -0.024401627 -0.0013250639 -0.02004356
000070 22 8c 8c 3c a3 c2 8d 3c d5 c7 45 3d 5e 39 73 3b
       0.017156664 0.017304724 0.048286278 0.003711305
000080 4f 97 b9 bc f6 26 18 bc be dd 91 bd 50 51 fc 3c
       -0.022655157 -0.009286633 -0.07122372 0.030800492
000090 41 87 04 3d 3a dc 36 3b b1 11 08 bd 37 d6 f6 3b
       0.03235555 0.0027902261 -0.033219997 0.0075328606
0000a0 fc 6c 31 3b 17 10 d5 bb fa 5d c5 3c 26 1c 4a bd
       0.0027073016 -0.006502162 0.024092663 -0.04934325
0000b0 5f 7b 97 bb 3d a8 55 bc 1e 11 8b 3c ed 95 b9 bc
       -0.0046228613 -0.013040599 0.016975936 -0.022654498
0000c0 9e 6c 92 bc e8 aa bd 3d 4f 12 90 3c d5 22 49 3d
       -0.017874058 0.092611134 0.017586855 0.049105484
0000d0 a3 91 6d 3b 27 d0 e9 bb 99 98 25 3c fe ff 68 3c
       0.0036250136 -0.0071354094 0.010107183 0.01422119
0000e0 ec a7 aa 3c 62 c8 1b 3d 4d fe 6e 3a 2b 53 2e b6
       0.020832025 0.038032897 0.0009116873 -2.597643e-06
0000f0 51 6b 2d bd d7 d8 2c bd 36 a4 a5 bb 2e b7 43 3d
       -0.042338673 -0.042198982 -0.005054976 0.047782116
000100 32 b5 48 3d 2d c9 05 bc 3c b8 17 bd 4a 7a ba ba
       0.049000926 -0.00816564 -0.037040934 -0.0014227119
000110 5b 30 b7 3a df b1 07 bd 55 a9 d3 bc af 69 0e bb
       0.0013976203 -0.033128615 -0.02583758 -0.0021730473
000120 ff a7 b3 bd ff 62 f8 3c bc 5c aa bc 55 5e 71 3d
       -0.08772277 0.030320643 -0.020796172 0.058927853
000130 c0 5a ef 3d ce 2b 08 bd 47 fd a1 b8 62 91 18 bd
       0.11687231 -0.0332449 -7.724255e-05 -0.037248023
000140 2b 14 0b bc 10 86 61 39 ff 71 3b bc 25 b1 4a bd
       -0.008488695 0.00021507614 -0.011440753 -0.049485344
000150 4e fc ab 3b b6 70 83 3b a3 27 8e bc 26 ff 71 3d
       0.005248583 0.004011239 -0.017352885 0.05908122
000160 c0 a1 1f 3d b2 ff 93 3c 3f 9d 8a 3c cc c0 c5 3c
       0.038972616 0.018066261 0.016920684 0.024139784
000170 9d 0e 9d 3c 8a bd 29 bc 15 a0 30 3b 8f da ca bc
       0.019172007 -0.010360131 0.0026950885 -0.02476242
000180 35 46 2f bd 52 e5 cf bd b7 2c 10 bd 60 d4 da 3c
       -0.042791564 -0.10151161 -0.035198893 0.026712596
000190 93 ac 01 bd c2 ac df 3c a3 61 33 bd 8e 00 58 bc
       -0.03165872 0.027304057 -0.043794286 -0.013183726
0001a0 0b ea db bd af e2 f7 bc 42 5f af bd 23 e3 15 bd
       -0.107379995 -0.030259458 -0.08563091 -0.036593568
0001b0 8c 2c ec 3b 4b f7 4f 3c a5 a2 62 3d 0f 26 37 3c
       0.007207459 0.012693237 0.05533089 0.0111785075
0001c0 b3 61 7a bd c7 54 59 bc b8 bc 72 3a cf af d4 3c
       -0.06112833 -0.013264841 0.00092596887 0.025962738
0001d0 47 aa 08 3c 3b 78 17 3d c6 e1 42 3d b4 31 81 bd
       0.0083413785 0.036979895 0.047578596 -0.06308308
0001e0 d2 e6 78 b9 2c a3 69 3d 58 0b 2e 3c 83 7c f8 bc
       -0.0002373711 0.05704038 0.010622822 -0.03033281
0001f0 48 b0 55 3d 1e 43 64 3d 7e 89 ee bc 23 d2 df bc
       0.052170068 0.05572807 -0.029118296 -0.02732188
000200 35 62 80 bb 10 11 2c 3d 00 cd 07 bc 3d a7 30 3d
       -0.003917957 0.04200846 -0.008288622 0.04312824
000210 aa 81 f6 3d bf 80 40 3c 73 dc 7c 37 c1 c1 15 bd
       0.1203645 0.011749445 1.5071698e-05 -0.03656173
000220 10 67 02 bd 0d e9 8e bc 08 2c 67 36 9f d4 80 3d
       -0.03183657 -0.017445112 3.4447312e-06 0.06290554
000230 e0 a6 1d 3b c8 eb 61 ba 95 47 00 bc 0e 3c f6 37
       0.0024055764 -0.0008618203 -0.0078295665 2.935345e-05
000240 59 4e dc b5 fe bd f2 3c 3c 06 83 3d 3d 57 9c bc
       -1.641408e-06 0.029631611 0.063976735 -0.019084567
000250 60 a2 4a 3b de a3 a6 bd 67 a9 93 3c 0c 20 87 3c
       0.0030919537 -0.08136724 0.018025113 0.016494773
000260 92 18 0f 3d 28 4f d3 3b 14 e1 9d bd b2 45 8c bd
       0.03493554 0.006448645 -0.07708946 -0.06849231
000270 81 d8 1b 3d fc 3c af 3c 55 3b 49 bd 70 ff 9d ba
       0.03804827 0.021391384 -0.04912885 -0.0012054276
000280 1f f0 58 bd 22 6f 95 bc 6c 58 40 3c b6 68 2c bd
       -0.052963372 -0.018241469 0.011739831 -0.042092048
000290 82 7c 62 3d 39 88 a5 bd 50 06 54 3c 1a 19 1b 38
       0.05529452 -0.08082623 0.012940958 3.6978257e-05
0002a0 31 0a 3f 3d 12 80 b1 bd 8c d1 17 bd 51 8a 8e 3b
       0.04664058 -0.086670056 -0.037065074 0.0043499847
0002b0 35 2a 62 bd 91 d1 65 3d 94 cc 8c bb 92 0c 91 bb
       -0.055216033 0.05610806 -0.0042968486 -0.0044265473
0002c0 51 81 de 39 12 20 be 3c eb c8 25 3a 63 61 61 3d
       0.00042439488 0.023208652 0.00063241896 0.055024516
0002d0 a1 5e 0c 3d 4c 3c 85 3b ae 2e 81 ba fa ee 89 bd
       0.034269933 0.004066026 -0.000985583 -0.06735034
0002e0 bd 06 2b bc d9 ef 19 bb d2 f8 a7 3c 7b 31 83 bc
       -0.010438618 -0.0023488908 0.020504389 -0.016014805
0002f0 7a 9e f1 3a 7e 73 a3 bd 28 05 c6 bc 30 26 17 3d
       0.001843407 -0.07981013 -0.02417238 0.036901653
000300 01 56 8a 3d f4 32 5d 3c cb fb 50 3c a1 20 4e 3d
       0.06754685 0.013500918 0.012755345 0.050324086
000310 f2 c4 64 bc 24 23 8a 3c 9d 10 83 3b 6b 99 dd 3b
       -0.013962971 0.01686246 0.003999783 0.0067626736
000320 1c 04 72 3c 66 10 60 bd 91 a7 77 3a 49 db 8d bb
       0.014771488 -0.05470314 0.00094472716 -0.0043291193
000330 91 ad a2 bc 47 55 48 bd 4a 2b e7 3c cd 99 0d bd
       -0.019858154 -0.04890945 0.028218884 -0.034570504
000340 36 45 95 3c 12 f6 52 bc 4a 80 02 3a 7b 15 ab bc
       0.018221479 -0.012876051 0.0004978223 -0.020884266
000350 42 19 8a 3c af 2d 9d ba 0d 73 9d bd 9f 20 ba 3b
       0.016857747 -0.0011991764 -0.0768796 0.0056801583
000360 8a 72 74 3d ad b0 b3 bd 6f 78 e1 bc ef a1 26 bc
       0.059679545 -0.087739326 -0.027523248 -0.010170444
000370 91 3a 95 3c a6 0f 25 bb 7c 55 71 bc 2c f3 c7 3c
       0.018216403 -0.002518633 -0.014729854 0.024407946
000380 5a b6 cd bc 87 32 13 bd b4 4d b3 bc ee 38 06 bd
       -0.025111366 -0.03593686 -0.021887638 -0.032769136
000390 53 cc 57 3c 0c fc d6 bc d9 ed 6b bc c9 91 48 bc
       0.013171273 -0.026243232 -0.014399969 -0.012241789
0003a0 0d 3a 14 3c 3d 72 0a bc e8 f3 8c bb e7 f2 90 bb
       0.0090470435 -0.008450088 -0.004301537 -0.0044234875
0003b0 f1 37 e3 3a 4c 0a db bc 83 93 8e 3d 94 e6 88 3c
       0.0017335397 -0.026738308 0.069617294 0.01671151
0003c0 1d 7d 1a 3d 79 ec 2f 3a e7 5d c8 bc 37 aa 39 3d
       0.037716974 0.00067109574 -0.024458839 0.045328345
0003d0 59 7d 4d bd 53 36 44 bd fe 39 c2 3c c9 6a de 3b
       -0.05016837 -0.04790337 0.023709293 0.006787632
0003e0 23 5a bf 3c f4 f2 3e bd 00 e1 42 3c 76 a4 24 3d
       0.02335841 -0.046618417 0.0118944645 0.040195905
0003f0 a6 02 a6 3c dc 25 be bc 21 73 da 3c 21 e4 16 3c
       0.020264935 -0.023211412 0.026666226 0.009209664

bias f4 [256]
000000 88 14 d7 3c 62 15 66 3d 95 83 e4 bb d8 db 6e bd
       0.026254907 0.056172736 -0.0069736936 -0.058315128
000010 02 45 a5 3c 05 6b 12 3c 08 37 79 bd c1 45 45 3c
       0.020174507 0.008936648 -0.060843498 0.012040556
000020 30 f5 6f bd 55 24 73 3c 3b b1 53 3d 04 a5 a6 3c
       -0.05858344 0.014840205 0.051682692 0.020342357
000030 6d 0f eb bc 8d b4 e1 3c 56 cd 68 3c be f3 31 3b
       -0.028693879 0.027551914 0.014209112 0.0027153338
000040 10 3d 2e bd 0d 09 1f bd 52 77 4f bd ab 97 48 3d
       -0.042538702 -0.03882699 -0.050650902 0.048972767
000050 53 85 ad 3c 1b 0f 64 3c b0 81 12 3d 47 5d 51 3b
       0.021181738 0.013919617 0.03576821 0.0031946467
000060 f6 6b af bc 88 d2 46 3d 4f 17 61 bd 29 4f 13 3d
       -0.021413784 0.048540622 -0.05495387 0.035964165
000070 a8 1f 43 bd c5 ce 61 bd a3 84 3b 3d c0 de 6c bd
       -0.04763761 -0.05512883 0.04578079 -0.05782962
000080 88 dd 74 bd 34 c9 2e bb b8 30 7e bb e4 3b 19 3d
       -0.05978158 -0.002667022 -0.0038786363 0.03741063
000090 16 ac ce 3c 3d 2e f8 3c 9c 94 a3 bc 86 2d 82 bb
       0.025228541 0.030295486 -0.019968323 -0.003972712
0000a0 00 54 e4 bb 72 4a 0a bd db ea 4e bc 36 15 db bc
       -0.0069680214 -0.033762403 -0.012629236 -0.026743513
0000b0 b5 f5 6a bd 62 03 e9 bc 14 4e 5c 3d ec b1 1e 3d
       -0.05736323 -0.028443996 0.0537854 0.0387439
0000c0 ce fc d4 bc f5 ec 68 bd 15 7f b9 bc 02 0c 25 bc
       -0.025999453 -0.056866605 -0.022643605 -0.010073664
0000d0 ef 30 29 3d 5b 68 1b bd 2c 16 5c bc 62 c7 3c bb
       0.041306432 -0.037941318 -0.013433021 -0.0028805365
0000e0 f0 9c 81 3c 40 18 20 bd fe df ea bc 37 d5 4c 3d
       0.015821904 -0.039085627 -0.02867126 0.050008025
0000f0 9d e9 30 bc 74 85 03 3d 9b 1e 51 ba 84 66 56 bd
       -0.010797885 0.032109693 -0.0007977278 -0.05234386
000100 df 71 24 3b cb c2 0b 3c f0 da c6 bc 12 b8 9f 3c
       0.0025092287 0.008530329 -0.02427432 0.019496951
000110 d1 34 3f 3d fa 7d 4e bd 60 7e 36 bd 4b c8 18 bd
       0.04668123 -0.05041311 -0.044554114 -0.03730039
000120 96 7c d9 3c b4 0a 1c bd 3d d5 b0 3c a9 0c ae 3c
       0.026548665 -0.038096145 0.021586055 0.021246271
000130 40 ed 45 bd be dd 43 3d 18 95 91 3c 0c 1a 2a 3d
       -0.048321962 0.04781889 0.017771289 0.041528746
000140 81 b2 fc 3c bd e7 bf 3c 69 75 1d 3c fd dd 8b 3c
       0.030846836 0.023425931 0.009610512 0.017073626
000150 ca ba 6c 3d 5e 28 aa bb 89 c7 7a 3d 0e e1 3a bd
       0.057795323 -0.0051928004 0.061225448 -0.045624785
000160 e0 50 34 bd 4d 7f 06 bc c4 1e fe 3a 5f f1 26 3d
       -0.04402244 -0.008209062 0.0019387831 0.040757533
000170 9d 52 87 bc 4e 5d ac 3b 24 38 7d 3d 83 90 fd bc
       -0.016518885 0.005260146 0.061821118 -0.030952698
000180 79 2c 13 3d 07 96 3f 3d fd 45 e7 bc b7 f7 1f 3b
       0.035931084 0.046773937 -0.028231615 0.0024409124
000190 b0 35 b9 3c ee 23 8e 3c b4 5c ad bc 3c 30 4c bd
       0.022608608 0.017351117 -0.021162368 -0.049850687
0001a0 4c 08 57 bd 14 0f 45 bc 0e 9d 8e 3c 2d 3c b4 bc
       -0.052498147 -0.012027521 0.017408874 -0.02200135
0001b0 4c 32 b6 bb cf d6 36 3d c6 13 ae 3c 5b 3a 8a 3c
       -0.005560195 0.04463845 0.021249663 0.01687353
0001c0 84 59 03 bd 0c c4 d5 bc 2e 50 5a 3d be 7e 19 bd
       -0.03206779 -0.026094459 0.05329912 -0.037474386
0001d0 5d 4f b5 3c 7e c3 d5 3c 74 d0 4b 3d b4 b4 a5 bb
       0.02213257 0.026094195 0.049759343 -0.005056942
0001e0 38 1a 92 bb 54 d3 29 bd 95 74 a7 3c 6f 7e 0b bd
       -0.004458692 -0.041461304 0.020441333 -0.034056123
0001f0 02 93 b4 3c a3 21 7b bb 2a dc 00 3b 2e 2d e8 3b
       0.022042755 -0.003831961 0.0019662478 0.007085464
000200 57 5e 4d 3d 64 24 90 3c c2 57 3d bd 0f 51 08 3c
       0.050138798 0.017595477 -0.04622627 0.008320107
000210 bb 34 fb bb 9f 42 7b 3c 67 15 0d bc 38 18 0a bc
       -0.007666198 0.015335708 -0.00861106 -0.008428626
000220 b6 18 ac bc 9c 04 fe 3c f7 13 bb bc 86 ad 13 bd
       -0.021007877 0.031008057 -0.022836668 -0.036054157
000230 0d eb 03 bc cd 42 d1 bc 6d 96 c7 3c c1 7b 6b bc
       -0.008051646 -0.025544548 0.02436372 -0.014372767
000240 ba 01 bd bc be f4 1e bd 3d 5f ca 3c 0e 29 6b 3d
       -0.023072112 -0.038807623 0.024703616 0.0574122
000250 5f b8 9e 3c 46 7c 16 3d aa 54 64 3d 2b 2d cd 3a
       0.019375024 0.03673961 0.055744804 0.001565372
000260 3b 6f a5 bc d7 e0 60 bd 00 b8 7f bc 30 d0 2b 3b
       -0.02019464 -0.054901924 -0.015607834 0.0026216619
000270 22 8f 43 bc 53 59 4e 3d 5f fb f3 bb db b7 7a 3c
       -0.011935981 0.050378155 -0.0074457373 0.015302624
000280 e5 b0 0f bd d0 9a 7d 3b 6f a8 03 bb 09 60 fc 3c
       -0.03508081 0.0038697012 -0.0020089408 0.030807512
000290 dd d1 29 3d 8b fc 49 bc c8 96 49 bb 49 21 66 bc
       0.041459907 -0.012328277 -0.0030760039 -0.014046022
0002a0 0e 82 a9 bc 5a 09 82 bc 7c 01 aa bb 91 1d 0b bc
       -0.020691898 -0.0158736 -0.005188165 -0.008490936
0002b0 b0 78 4b 3c dc b6 df bc 73 1c de bc fb c4 9f bc
       0.012418911 -0.027308874 -0.027113175 -0.019503107
0002c0 b7 80 56 3d bf 24 da bb f5 cf 92 3c 86 01 8d bb
       0.052368846 -0.0066572125 0.017921427 -0.00430316
0002d0 9a d5 43 bd 2b 99 02 3d 19 77 65 bd 57 b1 7b 3a
       -0.04781113 0.031884354 -0.056021784 0.0009601316
0002e0 15 8a b2 3c f9 4e db bc 2c 4b 79 3d 2d 63 a0 3a
       0.021794358 -0.026771056 0.060862705 0.0012236588
0002f0 9b 4b 20 bd d9 5d 6c 3c 73 7d 51 3c e0 d5 15 ba
       -0.039134603 0.014426672 0.012786257 -0.0005715769
000300 21 b9 23 bd 69 69 51 3c 4c a5 6c b9 20 17 ec bb
       -0.039971475 0.012781479 -0.00022568292 -0.007204905
000310 2e 8e a0 3c 5c e9 e8 bc 3f da 22 3d e9 6c 02 bc
       0.019599047 -0.028431587 0.039758917 -0.0079605365
000320 b9 6b 4a bd d0 91 4a 3d e2 eb 81 3c 58 8c 70 3d
       -0.04941914 0.049455464 0.015859548 0.058727592
000330 40 65 6f bd b6 29 a8 3b bf a3 2b 3d eb a0 67 bc
       -0.05844617 0.0051319255 0.041904207 -0.014137487
000340 31 76 13 bd 0a 82 18 3d f5 b0 b6 3c d3 f3 7b 3b
       -0.036001388 0.03723339 0.022301177 0.003844489
000350 d4 1b b2 bc dc 32 0f 3d 65 f7 a0 3c 09 f9 2d bd
       -0.021741785 0.034960613 0.019649217 -0.042473827
000360 03 31 44 3d b3 35 bf bc f2 34 b8 3c 4c f3 dd 3b
       0.047898304 -0.023341035 0.022486184 0.006773388
000370 02 5d 4a bd 1e b0 12 3d fa 13 47 3c 80 21 01 bd
       -0.049405105 0.03581249 0.012150759 -0.03152609
000380 a0 a2 83 bc 99 19 96 bb ca c6 c9 bb e5 c7 13 3d
       -0.016068757 -0.004580688 -0.0061577307 0.036079306
000390 3c 4a 73 3d 02 0e 99 3c d5 1f b6 3c 97 21 a5 bc
       0.059396967 0.018683437 0.022231976 -0.020157618
0003a0 ac bc 64 bd 0f f2 b0 bc fa 8f c5 3c f1 01 36 bc
       -0.055843994 -0.021599798 0.024116505 -0.011108861
0003b0 9b aa 60 bd 40 32 cb 3b 81 a7 c2 bb 7e ae 61 3c
       -0.054850202 0.0062010586 -0.005940378 0.013774512
0003c0 28 40 00 3d 84 27 55 3d 9d 4f 28 3c 4b 87 88 bc
       0.031311184 0.05203964 0.010272888 -0.016666075
0003d0 ff 42 50 bd d0 e6 d5 bc d6 75 ce 3c 34 2c 16 bd
       -0.050845142 -0.026111037 0.025202673 -0.03666325
0003e0 96 22 e8 3a 5b c8 38 bd 8e b3 47 bd 57 dd 1b bd
       0.0017710503 -0.04511295 -0.04875522 -0.038052883
0003f0 56 a3 5b 3d 91 23 db 3c 2e fc d2 3c a3 f4 2a 3d
       0.053622566 0.026750358 0.025755014 0.04173721
