pubmed_train/train/pretrained_magnn/decoder_d.pth (torch, 324576 bytes, 4 tensors)

weight f4 [200, 200]
0	0xbcabc3f4	-0.020967461
1	0xb9870fd7	-0.00025761008
2	0x3c767e99	0.015044832
3	0xb90bf586	-0.00013347538
4	0x38122434	3.484283e-05
5	0xbc753216	-0.014965555
6	0xbb30f210	-0.002699975
7	0xbe1c6345	-0.15272243
8	0xb98ae663	-0.00026493063
9	0x3bb8a96f	0.0056354324
10	0xbd316318	-0.043307394
11	0x3c0f076b	0.008729796
12	0x3dc09f68	0.09405404
13	0xbd083fb3	-0.033263873
14	0xba64eaca	-0.0008732496
15	0x3d451c32	0.048122592
16	0xbc7c380b	-0.015394221
17	0xbd54aa1a	-0.051920034
18	0x3c50249f	0.012704044
19	0x3ce11734	0.027476884
20	0x39c330f5	0.00037229774
21	0x3c9cd587	0.019144787
22	0xbb5d1209	-0.0033732674
23	0x3cc97263	0.024590677
24	0x3a30d8bf	0.0006746165
25	0xbb008ffc	-0.0019617071
26	0xb91309c9	-0.00014022658
27	0xbd075ff7	-0.033050504
28	0xba0d8407	-0.0005398397
29	0x3caec8bd	0.021335954
30	0xbd740776	-0.059577428
31	0x3b999547	0.0046869847
32	0xbd04e817	-0.0324479
33	0x3d464a72	0.04841084
34	0x3bb8feb1	0.005645596
35	0xbc6e6dbd	-0.014552531
36	0xbdff0fff	-0.12454223
37	0xbc012dd3	-0.0078844605
38	0xbcd09eef	-0.02546641
39	0xb9a8e66d	-0.00032215138
40	0xbc41f370	-0.011837825
41	0xbd7bc8aa	-0.061470665
42	0x3cfdcaca	0.030980486
43	0xba9c9a44	-0.001194783
44	0x3d8493a5	0.064734735
45	0xbc0062ec	-0.007836085
46	0x3c2de586	0.010613805
47	0x3cf1031b	0.029420426
48	0xbd3fb74d	-0.04680567
49	0x3c991c9c	0.0186904
50	0x3d731786	0.059348606
51	0x3c69337b	0.014233465
52	0x3cbbde24	0.022933073
53	0xbca47cf2	-0.02007911
54	0xbc44f6ba	-0.012021715
55	0x3d5e58a7	0.054283764
56	0xbd892801	-0.06697083
57	0x3d05f4a6	0.032704018
58	0xbb2d8b77	-0.0026480833
59	0xbb28ce5b	-0.0025757763
60	0x3cba2879	0.022724377
61	0xbce58b94	-0.028020658
62	0x3d1585df	0.036504623
63	0xb935a3b3	-0.00017322488
64	0xbd50fd9b	-0.051023107
65	0xbd018869	-0.03162423
66	0x378bc61c	1.6662343e-05
67	0xbc097b59	-0.008391225
68	0xbcf62741	-0.030048015
69	0x3d907005	0.07052616
70	0x3d4961c8	0.049165517
71	0x3d6fcb47	0.05854347
72	0x39888128	0.0002603617
73	0x3c302628	0.010751285
74	0x3b91b1c4	0.00444624
75	0x3c655ce6	0.0139991995
76	0xbb11422f	-0.0022164693
77	0x3a46e2d1	0.0007586899
78	0x39ec880d	0.00045114793
79	0x3bc67646	0.0060565798
80	0xbcf2b598	-0.029627606
81	0xbdaacb3a	-0.08339544
82	0xbbfa081f	-0.0076303626
83	0x3c042a54	0.008066732
84	0xbad5508b	-0.0016274614
85	0xbce8f0fb	-0.028435221
86	0xbace6e09	-0.0015749346
87	0xbdcb8ddb	-0.09939166
88	0xbb2cc3d8	-0.002636185
89	0xbd678425	-0.056522507
90	0xbb01d2ce	-0.0019809487
91	0x3b395e08	0.0028284807
92	0xbc9d38ab	-0.01919206
93	0x3a295f5d	0.00064610486
94	0x3c6c33d7	0.014416656
95	0x3cd559bf	0.02604377
96	0x3ceb4cda	0.02872317
97	0x3d474a02	0.048654564
98	0x3a22114d	0.00061823876
99	0x3a900598	0.0010987995
100	0x3ccd3cf4	0.025053479
101	0xbc195310	-0.009358183
102	0x39ad2655	0.0003302569
103	0x3abe6b3b	0.0014527807
104	0xbbf386d3	-0.007431844
105	0x3b4700eb	0.0030365537
106	0x3c0f3227	0.008739985
107	0x3c794094	0.0152131505
108	0xba70b32b	-0.00091819715
109	0xbb979d3f	-0.0046268995
110	0x3bbcff5e	0.005767747
111	0x3d80f2f7	0.06296342
112	0x3c9d6f23	0.019218033
113	0xbc10c63e	-0.008836327
114	0xbbbd3dcc	-0.005775189
115	0xbd37b46f	-0.04484981
116	0xbd002396	-0.031283937
117	0x3c39aab9	0.011332207
118	0xbc9faa66	-0.019490432
119	0xbc4fa31e	-0.0126731675
120	0x3cd9d370	0.02659008
121	0x3d55765e	0.052114837
122	0xbc9f9aeb	-0.01948305
123	0xb9d25abe	-0.0004012193
124	0xbaddc03e	-0.0016918255
125	0x3d0e1dc6	0.034696363
126	0x3c92d28b	0.01792266
127	0xba29754b	-0.00064643164
128	0x38af8f53	8.3713465e-05
129	0xbbb43594	-0.005499551
130	0x3a8418b4	0.0010078163
131	0x3d75cfe0	0.0600127
132	0x3c434bca	0.011919925
133	0xbca4625a	-0.020066429
134	0x3b77665d	0.0037750222
135	0xbd517ed8	-0.05114636
136	0x3d85c7bb	0.06532236
137	0xbd07f130	-0.033189
138	0xba01b31d	-0.00049476494
139	0x3c73bd3a	0.014876658
140	0xba224321	-0.00061898126
141	0x3d91d2f3	0.071203135
142	0xbc2ab054	-0.010418016
143	0xba49da11	-0.0007700036
144	0x3ca9444a	0.020662446
145	0xbdb66c1c	-0.08907339
146	0x398ec88a	0.00027233764
147	0xbc92c445	-0.017915854
148	0xbd75217d	-0.05984639
149	0x3b4a15df	0.003083579
150	0x3d40f94a	0.04711274
151	0xbb880c8c	-0.0041518863
152	0xbc9b16b7	-0.01893173
153	0x3c1eb1b7	0.009685925
154	0x3c61fd8b	0.0137933595
155	0xbd5afd4c	-0.05346422
156	0x3d2c307d	0.04203843
157	0x3de03d43	0.10949185
158	0x3ce494b7	0.027902944
159	0xbd0c14f7	-0.03419968
160	0x3c4d6eb0	0.012538597
161	0x3dc32e8f	0.09530365
162	0xbd2bb76c	-0.04192297
163	0x3d542aea	0.05179874
164	0xbbcd49d7	-0.006264906
165	0x3c8860a9	0.016647654
166	0x383f971d	4.5678684e-05
167	0xbd99dc6a	-0.07512744
168	0x3bad46cf	0.005287982
169	0x3c64efa9	0.013973155
170	0xb9302ee1	-0.00016802132
171	0xbc45e05a	-0.012077415
172	0xba01c964	-0.0004950969
173	0xba91b78f	-0.0011117327
174	0xbd06f5f2	-0.032949395
175	0xbcdacb09	-0.026708143
176	0xba00131c	-0.000488566
177	0x390bdd9a	0.00013338626
178	0x3c6480dd	0.013946739
179	0x39f1cfb9	0.00046121867
180	0xbb72a9c8	-0.0037027467
181	0x3cca6b32	0.024709318
182	0x3c5bb507	0.0134098595
183	0x3d2d5741	0.04231954
184	0xbdcd72f8	-0.10031694
185	0x39674bec	0.0002205816
186	0xba179265	-0.00057820074
187	0x3c57a8d8	0.013162814
188	0xbaeed61b	-0.0018221767
189	0xbb1294da	-0.0022366554
190	0x3a52236d	0.0008016143
191	0xbd857204	-0.065158874
192	0xbd06237b	-0.03274868
193	0x3c5758d6	0.013143739
194	0xbcc4d030	-0.024025053
195	0x3ba797d8	0.0051145367
196	0xbb9fa6f4	-0.0048721973
197	0x3dd8b21e	0.10580848
198	0xbae27bad	-0.001727929
199	0x3c117677	0.008878342
200	0x3d1c3f7d	0.038146485
201	0x3a2325b9	0.00062235777
202	0xbc03282a	-0.008005181
203	0x3d993682	0.074811
204	0x3d04e652	0.032446213
205	0x3cf5d6ab	0.030009588
206	0x3b35c4fc	0.002773582
207	0xbd1cbba0	-0.03826487
208	0x3b662efe	0.0035123224
209	0x3c2e5b0b	0.0106418235
210	0xbc971ba4	-0.018445797
211	0xbdc7e034	-0.0975956
212	0xbcc3c287	-0.023896469
213	0xb9912f00	-0.00027691573
214	0xba33af25	-0.00068544067
215	0x3c466a94	0.012110371
216	0xbba145d2	-0.0049216533
217	0xbd5032c6	-0.05082967
218	0xbc80bc37	-0.015714748
219	0xbc90a729	-0.017657833
220	0xbc5ec7c0	-0.013597429
221	0xbd55f5f1	-0.0522365
222	0x3cf25466	0.02958126
223	0x3d848ef6	0.0647258
224	0xbce6ca5b	-0.028172662
225	0xbc65de37	-0.014030031
226	0x3dc8d6a3	0.09806564
227	0x3ca123e0	0.019670427
228	0xbcc58450	-0.024110943
229	0x3d5c0cc7	0.053723123
230	0xba96278f	-0.0011455881
231	0xbc4c87e8	-0.012483574
232	0x3b333910	0.0027347244
233	0x3bb6d474	0.0055795256
234	0x3cd2a267	0.025712205
235	0x3cc9ce39	0.024634467
236	0x3cb86551	0.022509249
237	0xbc57a65f	-0.013162225
238	0xbc61f883	-0.01379216
239	0xb8876ac5	-6.457189e-05
240	0xbbba125b	-0.0056784577
241	0x3d89cb67	0.06728249
242	0xbd2bdfb6	-0.041961394
243	0x3c80d031	0.015724273
244	0x3cb228c6	0.021747958
245	0x3c827b85	0.01592804
246	0x3b4af06f	0.0030966063
247	0xbc8bba18	-0.01705651
248	0x3d12ecaa	0.03587023
249	0x3d42924e	0.04750281
250	0xbd766eec	-0.060164377
251	0xbc99646d	-0.018724645
252	0xbbae4a23	-0.0053188964
253	0xbd59241b	-0.05301295
254	0xbcef6a5d	-0.029225523
255	0x3d9e239b	0.07721635

bias f4 [200]
0	0x3ce3ac03	0.027791983
1	0xbaa90de5	-0.0012897818
2	0xbd3c907b	-0.046036225
3	0x3c6c0265	0.014404868
4	0xbb8088d6	-0.003922562
5	0xbcbc7247	-0.02300371
6	0xbc221bda	-0.009894336
7	0xbd2cf586	-0.042226337
8	0x3c5d565a	0.013509357
9	0x3d18bc54	0.03728898
10	0xbc576953	-0.01314767
11	0xbd140da7	-0.036145832
12	0x3d57b620	0.052663922
13	0xbc89e768	-0.016833976
14	0xbd1afd47	-0.0378392
15	0xbca23401	-0.019800188
16	0xbd0b89bb	-0.034066897
17	0xbd2e4aff	-0.04255199
18	0xbd3fa2a6	-0.046785973
19	0xbcbcfa1b	-0.023068478
20	0xb9e0e64b	-0.0004289619
21	0x3c143dc2	0.009047927
22	0x3c6c6583	0.014428499
23	0xbd1d120e	-0.038347296
24	0xbd382aab	-0.044962566
25	0x3c7b52e4	0.015339587
26	0x3c085d43	0.008323017
27	0x3ce55e5c	0.027999096
28	0xbb95eed9	-0.004575592
29	0xbce21b4e	-0.02760091
30	0xbd16023a	-0.036623217
31	0x3d577dc8	0.05261019
32	0x3d1fdea8	0.0390307
33	0xbd4f761c	-0.050649747
34	0x3baae0ca	0.005214785
35	0xbcd6aa10	-0.026204139
36	0x3d2d15b4	0.042257026
37	0xbc6306ab	-0.01385657
38	0x3b9a9d90	0.00471849
39	0xbd5055e2	-0.050863154
40	0x3d22ce54	0.03974755
41	0xbb87e5fd	-0.00414729
42	0x3bf6a092	0.0075264657
43	0x3d2b80e4	0.041870967
44	0x3cefdbc7	0.029279603
45	0x3ce00db5	0.027350286
46	0x3d213e20	0.039365888
47	0xbbdba365	-0.0067028278
48	0x3d2ef125	0.042710442
49	0xbc8e9c83	-0.017408615
50	0x3d128900	0.035775185
51	0xbc99060d	-0.018679643
52	0x3d03aad0	0.03214532
53	0x3cdfa736	0.027301412
54	0x3c1af289	0.009457239
55	0x3998bddd	0.00029133158
56	0x3c68baed	0.014204723
57	0xbc0f14a1	-0.008732946
58	0xbc50ccbd	-0.012744126
59	0xbd0ae0cc	-0.03390579
60	0x3c7d4200	0.01545763
61	0xbb040252	-0.0020142985
62	0x3b9b4636	0.0047385944
63	0xbd32188b	-0.043480437
64	0xbc046ce9	-0.008082607
65	0x3c8c8d35	0.017157177
66	0xbc19eab8	-0.00939434
67	0x3cac3096	0.021019261
68	0x3d0db5f5	0.034597356
69	0x3ca229fb	0.019795408
70	0xbb4b8253	-0.003105302
71	0x3b06a6dc	0.0020546233
72	0x3cf55987	0.029949917
73	0x3d5375bf	0.051625963
74	0x3cf9193c	0.03040754
75	0x3c547af7	0.01296877
76	0x3ccc3658	0.024928257
77	0x3d47bbd9	0.04876313
78	0xbd1e158f	-0.03859478
79	0x3d1d7c35	0.03844853
80	0xb9e740aa	-0.00044107932
81	0x3d1f368c	0.03887038
82	0x3cbe118e	0.02320173
83	0xbd2c9346	-0.04213264
84	0xbac733e7	-0.0015197963
85	0xbd594961	-0.053048495
86	0x3cce01e6	0.02514739
87	0x3bec4886	0.007210794
88	0x3d407fd6	0.046996914
89	0xbd636cd7	-0.05552372
90	0xbd48da3e	-0.049036257
91	0x3d025ae8	0.031824976
92	0x391baee8	0.0001484711
93	0x3a2d19b3	0.0006603256
94	0xbcdfeb30	-0.027333826
95	0x3c13427f	0.008988022
96	0xbbd36ada	-0.0064519467
97	0xb7dee016	-2.656881e-05
98	0xbd82499f	-0.06361698
99	0xbd334c13	-0.043773722
100	0xbcf0cf8d	-0.029395843
101	0xbb31db3e	-0.0027138735
102	0xbcc20dbd	-0.023688192
103	0x3cd966bb	0.026538244
104	0x3d597b7a	0.053096272
105	0xbc69f916	-0.014280578
106	0x3c5abc23	0.013350519
107	0xbce60aed	-0.028081382
108	0xbb82c12c	-0.003990313
109	0x3c09d62f	0.008412882
110	0xbca6477a	-0.020297755
111	0xbd274e20	-0.04084599
112	0xbd55c67e	-0.05219125
113	0x3d08fae2	0.033442385
114	0xbd242fe0	-0.04008472
115	0x3d0d4ce3	0.034497153
116	0xbcfce4e1	-0.030870857
117	0xbd696308	-0.05697921
118	0xbb594857	-0.003315469
119	0x3d0ef4c2	0.034901388
120	0xbd4168a1	-0.047218923
121	0xbcd28051	-0.025695952
122	0xbd1dbfaa	-0.038512863
123	0xbd0cd32d	-0.03438108
124	0xbc2f86cc	-0.01071329
125	0xbc8d96b8	-0.017283782
126	0x3cc8d15e	0.024513897
127	0xbd2fddcb	-0.042936128
128	0xbd4e6cee	-0.050396852
129	0x3c313e31	0.01081805
130	0xbc42d923	-0.01189259
131	0xbd5baa41	-0.053629164
132	0x3cdcb86a	0.026943404
133	0x3d41d259	0.047319744
134	0x3c113149	0.008861848
135	0xba61a230	-0.00086072367
136	0x3d06dc81	0.032925133
137	0xbd589345	-0.052874822
138	0x3ce24543	0.027620917
139	0xbd239d5a	-0.039944984
140	0xbd59383d	-0.05303215
141	0xbd4e04e4	-0.050297633
142	0xbc6463af	-0.013939782
143	0x3d0b773e	0.034049265
144	0xbbbd2a28	-0.0057728477
145	0xbd3668f5	-0.04453369
146	0xbcedf2bd	-0.02904641
147	0x3d2ccb9a	0.042186357
148	0x3cceae4a	0.025229592
149	0xbd50040b	-0.050785106
150	0xbc72a6f3	-0.014810312
151	0x3a82e9fa	0.0009987943
152	0xbbd131dd	-0.006384118
153	0x3d1bbdef	0.03802293
154	0x3c6f25dc	0.014596429
155	0xbd35cbee	-0.044383936
156	0xbc8882e0	-0.016663969
157	0xbbd9a25f	-0.0066416706
158	0x3ca24c09	0.019811647
159	0x3cdc9932	0.026928518
160	0x3d475651	0.048666302
161	0x3c12af1e	0.008952884
162	0xbc26a59b	-0.010171319
163	0xbd3076a2	-0.043081887
164	0x3c95d1d2	0.018288527
165	0x3cfd37ef	0.03091046
166	0x3d08361a	0.03325472
167	0xbc5cc43c	-0.01347452
168	0xbc9c3c66	-0.019071769
169	0x3c82095c	0.015873604
170	0xbd0fece2	-0.03513802
171	0xbcba1a88	-0.02271773
172	0x3c772a91	0.015085832
173	0xbc448d95	-0.011996646
174	0x3cc2b1a9	0.023766356
175	0xbb10ffe2	-0.0022125174
176	0x3d120ada	0.03565488
177	0x3d07942d	0.033100296
178	0x3ccfac5f	0.025350748
179	0xba6bb2cb	-0.0008991181
180	0x3d3ff1d4	0.046861485
181	0x3d3d3d02	0.04620076
182	0xbd278526	-0.040898465
183	0x3c3c99b8	0.011511259
184	0x3d2a30d1	0.04155046
185	0x3ccffb74	0.025388457
186	0xbb41f167	-0.002959335
187	0x3cad51c3	0.021157151
188	0x3cbcf716	0.023067039
189	0x3d3a9641	0.04555345
190	0x3d45805f	0.048218127
191	0xbd5d394f	-0.05400973
192	0x3d7bb859	0.061455105
193	0x3cb48954	0.02203814
194	0xbc8dea4e	-0.01732364
195	0xbd1835bd	-0.037160624
196	0xbbd94c25	-0.0066313916
197	0xbd39518e	-0.045243792
198	0x3d08144d	0.033222485
199	0x3adfb886	0.0017068542

weight f4 [200, 200]
0	0x3cd13af7	0.025540812
1	0xba335bf1	-0.00068420084
2	0x3b8cf5a2	0.0043017427
3	0x3a0681db	0.00051310443
4	0x3c282587	0.0102628535
5	0x3bd3a40e	0.006458766
6	0xbd3e5696	-0.046469294
7	0x3d5b68cf	0.05356675
8	0xbd179347	-0.03700569
9	0xbd6b2cc0	-0.057415724
10	0x3c3d6232	0.011559056
11	0x3d2188e2	0.039437182
12	0xbd31542e	-0.04329317
13	0xb950b929	-0.00019905403
14	0xbcd95776	-0.026530962
15	0xbc0a9fd9	-0.008460962
16	0xbddc928b	-0.10770138
17	0xbd463a05	-0.048395175
18	0xbd300480	-0.04297304
19	0x3cedda86	0.029034864
20	0x3cd15909	0.02555515
21	0xbc2e8ea8	-0.010654129
22	0xbd00a999	-0.03141174
23	0xbca2d523	-0.019877022
24	0xbdb536d6	-0.0884835
25	0x3c71b715	0.014753123
26	0xbb727251	-0.0036994407
27	0xbc0136b4	-0.007886577
28	0x3a50bf8b	0.00079631124
29	0x3da3f72b	0.08006128
30	0x3cbc41a6	0.022980522
31	0xbbde80e9	-0.0067902696
32	0x399298bb	0.00027961083
33	0x3b16958a	0.0022977316
34	0x3daaee8c	0.083462805
35	0xbcb72b2d	-0.022359455
36	0xbada406e	-0.0016651282
37	0x3c1db93a	0.009626681
38	0x3c53626d	0.0129018845
39	0x3c0a910a	0.008457432
40	0x3d910975	0.07081882
41	0x3d808356	0.0627505
42	0xbd2181e1	-0.039430503
43	0xbd292862	-0.041298278
44	0xbba814d3	-0.0051294356
45	0x3ca97602	0.020686153
46	0x3b2be69a	0.0026229979
47	0x3d8bd1b9	0.06827111
48	0x3c81a5b3	0.015826082
49	0xbd30fcf1	-0.043209974
50	0xbcad8ad4	-0.021184362
51	0x3c8fcd94	0.017554082
52	0xbdb6aebd	-0.089200474
53	0x3bf7045d	0.007538362
54	0x3ba88a68	0.0051434524
55	0x3d085f1e	0.033293836
56	0x3c18ffe4	0.009338353
57	0x3d98026c	0.07422337
58	0xbad84a08	-0.0016501555
59	0x3d17afe0	0.03703296
60	0xbb0b18ac	-0.0021224422
61	0x3c3f6d6a	0.011683801
62	0x3cc80d7a	0.024420489
63	0x3ce0e54c	0.027453087
64	0xbd9fc349	-0.078009196
65	0xbc11d13c	-0.008899983
66	0x3d6c2026	0.057647847
67	0xbcb82b98	-0.022481725
68	0xbab6dc88	-0.0013951221
69	0x3a867278	0.0010257503
70	0x3a203b4a	0.00061123504
71	0xbc27cd05	-0.010241752
72	0xbd0dcc11	-0.03461844
73	0xbbd404d1	-0.0064703007
74	0x3d4289cd	0.0474947
75	0x3b1e7a07	0.002418162
76	0x3a4b8668	0.00077638635
77	0xbc53b0f9	-0.012920612
78	0x3c77cacb	0.015124033
79	0x3cb4f789	0.02209069
80	0xbdc3295d	-0.09529374
81	0x3dc392d0	0.09549487
82	0xbc7dbdea	-0.015487174
83	0x3c8f2145	0.017471919
84	0x3c0ec6b2	0.008714365
85	0x3d10a1a4	0.035310403
86	0xbd2228bc	-0.03958963
87	0xbbe66a17	-0.00703169
88	0xbcbcb407	-0.023035062
89	0x3ad4d8ad	0.0016238891
90	0xbc77cc6b	-0.015124421
91	0xbcbdb7a9	-0.023158865
92	0x3a65b779	0.00087629963
93	0x3adbc4ce	0.0016767026
94	0xbd3900a7	-0.045166638
95	0x3b44a9ad	0.0030008361
96	0xbb31c10f	-0.0027123129
97	0xb98731db	-0.00025786352
98	0xba900b2d	-0.0010989659
99	0xbcca5521	-0.024698796
100	0x3b041450	0.0020153709
101	0x3ba14845	0.0049219453
102	0xbd831b97	-0.06401747
103	0x3c942cf7	0.018087847
104	0xbd45439d	-0.048160184
105	0x3c8c1b6e	0.017102923
106	0xbcac5cc6	-0.021040332
107	0x3c8ec80a	0.01742937
108	0x3c0798eb	0.008276205
109	0xbd11152a	-0.035420574
110	0x3cac460a	0.021029491
111	0x3d8c44d8	0.068490684
112	0xb9caab73	-0.00038656182
113	0xb881e29b	-6.193408e-05
114	0x3a38fa04	0.0007056298
115	0x3d41ea79	0.04734275
116	0xba996eae	-0.0011705959
117	0x3d1a9290	0.03773743
118	0xbabd75e0	-0.0014454685
119	0xbb128135	-0.0022354845
120	0x3be9fc0e	0.007140643
121	0xbd14cb82	-0.036326893
122	0x3cb32071	0.021866055
123	0x3a157b59	0.0005702279
124	0xbbf9768e	-0.00761301
125	0x3c9ef723	0.019404953
126	0xbd2899e6	-0.041162394
127	0xba8af115	-0.0010600412
128	0xb90c5f35	-0.00013386908
129	0x3b8938fb	0.004187701
130	0xbd01571a	-0.031577207
131	0xbd19bedd	-0.037535537
132	0x3b2971ec	0.0025855256
133	0xbd6d4444	-0.05792643
134	0xb96c6038	-0.00022542558
135	0x3b45ac55	0.0030162532
136	0x3afa0118	0.0019073812
137	0x3ca0bb36	0.01962052
138	0x3d461840	0.04836297
139	0xbd468ad2	-0.048472233
140	0xbd467f17	-0.048461046
141	0x3c96aa95	0.018391887
142	0x3b1a4dd7	0.0023544931
143	0x3aa76ee5	0.0012774138
144	0x3b1736f3	0.0023073524
145	0x3d945b0e	0.0724393
146	0x3b86b176	0.0041105105
147	0x3d32c86d	0.043648172
148	0x3db5f64d	0.08884869
149	0xbcfef829	-0.031124191
150	0x38df9cad	0.00010662652
151	0x3d089e25	0.033353943
152	0x3c7549d3	0.014971214
153	0xbc2f2006	-0.010688787
154	0x3bab9994	0.005236814
155	0xbd1db091	-0.038498465
156	0x3d89528a	0.06705196
157	0x3afc8e82	0.0019268545
158	0x3b69c368	0.003566945
159	0xbc138db9	-0.009005957
160	0xbc9e753c	-0.019343011
161	0xbb58267c	-0.0032981923
162	0xbd2f5862	-0.042808898
163	0x3b60f65e	0.0034326534
164	0xbca84f1b	-0.020545533
165	0x3c044f23	0.008075508
166	0x37cfc4ac	2.4767905e-05
167	0x3c451a08	0.012030132
168	0x3ce18179	0.027527558
169	0x3d311af4	0.043238595
170	0x39c3c1eb	0.00037337778
171	0x3a088a15	0.0005208564
172	0xbc478ab7	-0.012179068
173	0xbcbcbb3a	-0.023038495
174	0xbcee1408	-0.029062286
175	0x3bf0e214	0.0073511694
176	0x3d4bfc62	0.049801238
177	0xbd0148d9	-0.031563614
178	0x3d55b9da	0.052179195
179	0xbcbace20	-0.022803366
180	0x3bd132a7	0.006384212
181	0xbc1b3310	-0.0094726235
182	0x3c5d0ca1	0.0134917805
183	0x3d78216e	0.060578756
184	0xb99fd07a	-0.0003048217
185	0xba3b0573	-0.0007134296
186	0xba0a8d24	-0.0005285314
187	0xbaaf7904	-0.0013387506
188	0xba9fdfd3	-0.0012197442
189	0x3c0fbf73	0.008773672
190	0x3d371a4b	0.04470281
191	0xbd304e96	-0.043043695
192	0xb926ddba	-0.00015913593
193	0x38e57b4a	0.00010942535
194	0xbd8428b3	-0.06453075
195	0xbd083272	-0.033251233
196	0xb81ab526	-3.688517e-05
197	0xbca4dec8	-0.020125762
198	0x3a9edd64	0.0012120423
199	0xbc71f8c8	-0.014768787
200	0x3cb0103d	0.021492118
201	0x3daa3977	0.08311742
202	0x3d063bb4	0.03277178
203	0x39a34ebc	0.00031148444
204	0x3a11caa1	0.0005561505
205	0xbd02964e	-0.031881623
206	0x3d44badd	0.04802977
207	0xb7497682	-1.2008126e-05
208	0x3d837a04	0.06419757
209	0x3aaa2465	0.0012980817
210	0x3d5cfa63	0.053949725
211	0x3c97f01b	0.018547108
212	0x3d105e0c	0.03524594
213	0x39979f28	0.00028919545
214	0xbd1c6cff	-0.038189884
215	0x3d971b61	0.07378269
216	0xbc86dfad	-0.016464079
217	0xb99e4fc2	-0.00030195533
218	0x3ced96f5	0.029002646
219	0x3cd54aee	0.026036706
220	0x3cbb5eb9	0.022872316
221	0x389bb427	7.424532e-05
222	0xbbec4cf6	-0.007211323
223	0x3be561e7	0.0070001963
224	0xb63ac3a1	-2.783003e-06
225	0x3a12f94b	0.00056066056
226	0x3913d66a	0.00014098888
227	0x39cce78c	0.00039082428
228	0xbd0579d4	-0.032586887
229	0x3c3d3877	0.011549107
230	0xbcde701b	-0.027153065
231	0x3d79c915	0.060982782
232	0x3ce1625e	0.027512725
233	0x3d000a23	0.031259667
234	0xbd900dbb	-0.07033869
235	0xbcde7c7b	-0.027158966
236	0xbd3456c8	-0.044028074
237	0xbd27de39	-0.040983412
238	0x3d30e8bd	0.043190707
239	0x38e180d7	0.00010752834
240	0xbd6a773e	-0.057242624
241	0xbd73db58	-0.059535354
242	0xbc2a0e84	-0.010379437
243	0x3a83dc7d	0.0010060217
244	0xbd4a9964	-0.04946269
245	0xbba98a65	-0.0051739686
246	0x39d33bee	0.00040289707
247	0xbcdd86c2	-0.027041797
248	0xbe0c94e4	-0.13728672
249	0xba3239c3	-0.00067987683
250	0xbc5f9f6a	-0.013648847
251	0xbd6bcf42	-0.057570703
252	0xbbb4c23f	-0.00551632
253	0xbc17e144	-0.009270016
254	0xbd3d5d02	-0.046231277
255	0xbb91f677	-0.0044544297

bias f4 [200]
0	0xbc91008c	-0.017700456
1	0x3d0d8b85	0.034556884
2	0xbc10aa8c	-0.008829724
3	0xbc5b8ac8	-0.013399787
4	0x3cc19d55	0.023634592
5	0x3ce3ae47	0.027793063
6	0xbd3d76fc	-0.04625605
7	0x3bea1b52	0.00714437
8	0x3cc80f7a	0.024421442
9	0xbd465ed5	-0.048430283
10	0xbc02921f	-0.007969408
11	0x3c0b18c5	0.008489792
12	0xbd17e60c	-0.037084624
13	0xbcfd1c7a	-0.030897368
14	0x3d19d400	0.037555695
15	0xbd2d2c08	-0.04227832
16	0x3d2a4283	0.041567337
17	0x3d5b3f35	0.053527076
18	0x3c69e110	0.0142748505
19	0x3bb13a8c	0.0054085907
20	0x3c912163	0.017716115
21	0x3bf5b53c	0.0074984115
22	0x3cd0b3ea	0.025476415
23	0x3d0e9273	0.034807634
24	0xbd28c34e	-0.041201882
25	0xbd0844e7	-0.033268835
26	0x3a0d13f0	0.0005381694
27	0xbd41de98	-0.047331423
28	0x3c755b61	0.0149754
29	0x3d26c385	0.040713806
30	0x3cebbf92	0.028777871
31	0x3c8cfb88	0.017209783
32	0xbce9ac45	-0.028524527
33	0x3cff6e7b	0.03118061
34	0xbd13e4b1	-0.03610677
35	0x3d32aa3d	0.043619383
36	0xbd09322b	-0.03349511
37	0x3d32a2bb	0.043612223
38	0xbc307f1f	-0.0107724955
39	0x3c8cb411	0.017175706
40	0x3c923209	0.017846124
41	0xb9bc0ddf	-0.0003586849
42	0x3c7f88a0	0.015596539
43	0x3ca51142	0.02014983
44	0xbd2b633f	-0.041842695
45	0x3c776e1b	0.015101935
46	0x3c9e43ab	0.019319376
47	0x3c94648f	0.018114356
48	0xbd355891	-0.044273917
49	0x3d54cc59	0.051952694
50	0xbcff5b9d	-0.031171614
51	0x3c6311cb	0.013859223
52	0xbd1d6da6	-0.038434647
53	0x3d12b1a2	0.035813935
54	0xbd3a835a	-0.045535423
55	0xbca416d0	-0.02003041
56	0x3bc204ec	0.005920997
57	0xbbe07de5	-0.0068509453
58	0x3ca118e2	0.019665185
59	0xbbdcc22a	-0.0067370133
60	0xbc99d81a	-0.018779803
61	0x3c410da1	0.011783035
62	0x3ca6f962	0.020382587
63	0x3d14f7ba	0.036369063
64	0x3d38fc90	0.045162737
65	0xbc2e2640	-0.010629237
66	0xbc90dc01	-0.017683031
67	0x3be64c65	0.00702815
68	0xbd3791c5	-0.04481675
69	0x3d018c39	0.031627867
70	0xbbd893b0	-0.0066094026
71	0x3c881ed8	0.01661627
72	0xbc0aff0a	-0.008483658
73	0x3d1ebef1	0.038756315
74	0xbcade5cf	-0.021227745
75	0xbc6ac2d9	-0.014328682
76	0x3c1b1d3a	0.009467417
77	0x3d07f1ab	0.033189457
78	0xbc86e5b1	-0.016466947
79	0xbd17f522	-0.03709901
80	0x3d18d047	0.037308004
81	0x3bb090fb	0.005388377
82	0x3ce75e8e	0.02824333
83	0x3bc796b7	0.0060909647
84	0xbbcceadc	-0.0062535834
85	0x3cb2a1f0	0.021805733
86	0xbc690913	-0.014223355
87	0x3d4833b8	0.048877448
88	0xbd3a42e7	-0.04547396
89	0x3d6bd452	0.05757553
90	0x3d53742d	0.051624466
91	0x3c6a3325	0.01429442
92	0x3d242399	0.04007301
93	0xbce2ca96	-0.027684491
94	0x3c906cde	0.017630037
95	0xbd334d5f	-0.04377496
96	0x3cc626b6	0.02418838
97	0x3d49cd1b	0.04926787
98	0x3d2aaed0	0.04167062
99	0x3c409324	0.011753831
100	0xbc469924	-0.0121214725
101	0x3c038626	0.008027589
102	0xbd14e47a	-0.036350705
103	0x3d174ff6	0.03694149
104	0xbd30ba69	-0.043146525
105	0xbd086d26	-0.033307217
106	0x3c825a1f	0.015912114
107	0xbc4de6a3	-0.012567195
108	0xbc9286a5	-0.01788647
109	0x3d1dc4e9	0.038517866
110	0x3d20c6a3	0.039251935
111	0xbd2f8624	-0.042852536
112	0x3d06a79b	0.032874685
113	0xbd0477b0	-0.032340705
114	0x3d43c244	0.047792688
115	0x3c916bfd	0.017751688
116	0xbd16baa3	-0.036799084
117	0x3c4b49aa	0.0124077
118	0xbbc82fcc	-0.0061092135
119	0xbcaf7815	-0.021419564
120	0xbd51c6c7	-0.05121496
121	0xbc1382b8	-0.009003334
122	0x3cb74b20	0.02237469
123	0xbcd1c082	-0.02560449
124	0xbc3bc808	-0.011461265
125	0xbc6880cf	-0.014190867
126	0x3b723095	0.0036955227
127	0x3cbbbd1c	0.022917323
128	0x3d61317c	0.054978833
129	0xbb8a747c	-0.004225312
130	0xbc8491ad	-0.016182745
131	0x3d238653	0.039923023
132	0x3aba9ec5	0.0014237991
133	0x3d0e0015	0.034668047
134	0xbd484ef2	-0.048903413
135	0x3c237913	0.009977597
136	0x3c43159e	0.011907009
137	0x3d269fcb	0.040679734
138	0xbd1a9fed	-0.037750173
139	0x3b81b14d	0.0039579035
140	0x3cb6bc12	0.022306476
141	0x3c9f6f3a	0.019462217
142	0x3cde0acf	0.027104763
143	0xbc32a0ee	-0.010902626
144	0xbd404f5b	-0.04695068
145	0xbd127e8d	-0.03576522
146	0xbd16ed50	-0.036847413
147	0xbcdc0278	-0.026856646
148	0xbd16d173	-0.03682084
149	0x3ce7a79e	0.028278168
150	0x3c1d0156	0.009582838
151	0x3d12ab46	0.03580787
152	0x3d312ba2	0.043254502
153	0xbc8565ce	-0.016283896
154	0xbc106fa2	-0.008815678
155	0x3d5e137d	0.054217804
156	0x3d4708ee	0.0485925
157	0xbc578592	-0.013154404
158	0xbbefe7d3	-0.007321337
159	0x3cccbdd8	0.024992868
160	0xbb9b439d	-0.0047382847
161	0xbc501bbd	-0.012701926
162	0x3d15a445	0.036533613
163	0x3d1cbd06	0.038266204
164	0x3d042bae	0.03226822
165	0x3d11ef7f	0.035628792
166	0xbb3a8c69	-0.0028465039
167	0x3c237b7d	0.009978172
168	0x3d05c6fa	0.032660462
169	0x3c0f05e8	0.0087294355
170	0x3ba20f4b	0.0049456707
171	0xbd23d5f8	-0.03999898
172	0xbc4ae779	-0.012384289
173	0xbbd15248	-0.0063879825
174	0xbbc98b75	-0.006150658
175	0xbcaecbfa	-0.021337498
176	0xbd2944de	-0.041325442
177	0xbb604432	-0.0034220335
178	0xbd0cabab	-0.034343403
179	0xbd3307a9	-0.043708477
180	0xbc8920ad	-0.016739214
181	0x3cef774b	0.029231688
182	0x3ca704b3	0.020387983
183	0x3cbc19ba	0.022961486
184	0x3d06304b	0.0327609
185	0x3aa7d034	0.0012803138
186	0xb7eed241	-2.8469718e-05
187	0xbc14df42	-0.009086432
188	0x3bd3d06d	0.0064640553
189	0xbd440a4a	-0.047861375
190	0xbc198618	-0.009370349
191	0x3c01e766	0.007928705
192	0xbd140965	-0.03614177
193	0xbc6d3c52	-0.0144797135
194	0x3c9a008d	0.01879909
195	0x3a149dcd	0.0005669266
196	0xbc099d88	-0.008399375
197	0x3c86d623	0.01645953
198	0xba675ac7	-0.00088254776
199	0x3d507456	0.050892197
