pubmed_train/train/pretrained_magnn/decoder_s.pth (torch, 324576 bytes, 4 tensors)

weight f4 [200, 200]
0.03635092 0.011699548 -0.036990203 0.052236345 -0.0808792 -0.0059336303 -0.010192499 0.0009912746
-0.0038297782 -0.07301733 0.0018295508 0.057416987 0.00097056985 0.015809512 0.0007329953 0.00078970194
-0.016121065 0.056593183 -6.226355e-07 -0.06645977 0.03675611 0.009106759 0.023151947 -0.055360403
0.0020269533 0.0007973398 -0.010031477 0.06647587 -0.013064581 -0.0078064427 0.035982892 0.015644982
0.033949066 0.006788438 -0.014240943 -0.044499304 0.047272734 0.0005352195 -0.0077788993 -0.010770382
0.0010374062 -0.07627389 0.0072485134 0.007282394 -0.00018224758 -0.011903117 0.014091245 0.03110455
-0.038352754 -0.027664317 0.0073766746 0.02754393 -0.015980883 0.023358578 0.05155387 0.021109637
-0.010153035 -0.053359523 0.036949016 0.03001082 0.014678129 0.0009689624 0.05511826 -0.03428277
0.033852972 -0.01591276 0.0754076 0.08167653 -0.02158558 0.0008133844 -0.0005585779 0.0024042598
-0.043034226 0.0045043994 0.0050268034 0.00077754515 0.00039264906 -0.0013574732 -0.11006495 0.016285313
-0.07488536 0.03747116 0.0342996 2.9883611e-05 -0.050900023 0.009051559 -0.000556251 -0.014494197
-0.024352435 0.042737316 -0.006259455 0.0062469724 0.077246055 -0.0027268862 0.030631268 -0.16811766
0.00013940893 -0.07465157 5.7588015e-05 -0.005881924 -0.008292155 0.0005080206 0.00020030388 -0.0634019
-0.009119421 -0.06270128 0.00051416503 0.01208707 0.067066476 0.03813844 8.895016e-05 8.3074454e-05
0.03509573 0.02000246 -0.0365595 -0.01946062 0.057339568 -0.010600008 -0.0041271173 0.05199991
0.009196376 -0.09402182 -0.08553209 -0.058635492 0.00075593474 0.0021097476 -0.03166406 -0.0031970404
0.037681825 0.00082432176 -0.095083416 0.0042773862 -0.06367481 0.0091578765 0.026025454 -0.02931233
0.005324234 3.511811e-05 0.0046652807 0.058960125 -0.028008213 0.00803024 0.015197816 0.05853135
0.04532277 0.0028956193 0.0012759328 5.616432e-05 0.04807513 -0.07227857 -0.083444364 0.026398323
0.00021460048 2.026117e-07 -0.031625822 0.0070567485 0.0213564 -0.004323548 -0.0014799781 0.023300387
0.0008273004 0.00036670547 0.042043887 0.0006397012 0.027116526 -0.0011667116 0.020558234 9.110815e-05
0.00249422 -0.010976718 0.018436378 0.025372712 0.0009205185 -0.0029008673 -0.055180945 0.004910262
-0.08871725 0.0668362 -0.041629534 0.00034754688 -0.0025210194 0.033534013 -0.07052149 3.224605e-05
-0.0482477 -0.05293278 0.00051377114 0.013684564 5.48349e-05 -0.024826108 -0.071893975 -0.026991965
-0.06321074 0.05802425 0.00084296125 0.015956767 0.02153554 0.00077201973 -0.03652563 -0.0009345477
-0.0034300564 -0.005181134 -0.000628298 -0.0016961682 1.5635104e-07 -0.0012016114 -0.0105378255 0.05400126
0.06901162 -0.005307688 -0.004986575 -0.024502466 0.04248284 -0.0005922746 0.05813326 0.03621877
0.02478407 -0.00017614193 0.009099449 0.059735507 -0.011255842 -0.058434445 -0.0023895293 0.050920684
0.099547945 -0.015085718 0.0091673415 -0.019021299 0.05030053 -0.0035068844 -0.0022852735 -0.07541447
0.0033522525 0.0012062077 -0.0026717104 0.0017063033 -0.00040569148 -0.014543209 0.004468277 -0.00851934
0.022405218 -0.0010667158 -0.0041862503 -0.09232478 -0.0066384147 0.055445626 0.0005759937 0.007369684
-0.0011715657 0.024897061 -0.014261448 0.0199846 0.0048877704 0.05355959 -0.01841235 0.04007573
00000000: b4e4 143d 76af 3f3c 0a83 17bd c7f5 553d
00000010: fea3 a5bd e66e c2bb 70fe 26bc a8ed 813a
00000020: 04fd 7abb 1c8a 95bd 8acd ef3a 132e 6b3d
00000030: d76d 7e3a f382 813c 7b26 403a 0004 4f3a
00000040: 5310 84bc 41ce 673d 3023 27b5 0f1c 88bd
00000050: 938d 163d 8434 153c 27a9 bd3c 97c1 62bd
00000060: a2d6 043b 9104 513a 105b 24bc 8024 883d
00000070: d30c 56bc 30cd ffbb cc62 133d e829 803c
00000080: 2d0e 0b3d 8c71 de3b d852 69bc e744 36bd
00000090: 0ea1 413d f94d 0c3a 23e6 febb 4276 30bc
000000a0: 93f9 873a 7c35 9cbd f084 ed3b 26a1 ee3b
000000b0: b619 3fb9 4b05 43bc f7de 663c f8ce fe3c
000000c0: c717 1dbd 47a0 e2bc 08b8 f13b cfa3 e13c
000000d0: 57ea 82bc 7d5a bf3c 272a 533d 1eee ac3c
000000e0: ea58 26bc 848f 5abd da57 173d 40d9 f53c
000000f0: 897c 703c f701 7e3a afc3 613d 176c 0cbd
00000100: 6aa9 0a3d 7a5b 82bc 4d6f 9a3d 0646 a73d
00000110: 3ed4 b0bc 4e39 553a 876d 12ba c990 1d3b
00000120: a844 30bd a499 933b e2b7 a43b 2cd4 4b3a
00000130: 77dc cd39 3eed b1ba bc69 e1bd c768 853c
00000140: 7f5d 99bd 5c7b 193d bd7d 0c3d 91ae fa37
00000150: 8b7c 50bd fd4c 143c 5fd1 11ba 1279 6dbc
00000160: c27e c7bc 530d 2f3d 1d1c cdbb 67b3 cc3b
00000170: 2e33 9e3d 8fb5 32bb 6dee fa3c 0927 2cbe
00000180: 4d2e 1239 ece2 98bd a98a 7138 28bd c0bb
00000190: d2db 07bc af2c 053a aa08 5239 dbd8 81bd
000001a0: a069 15bc 8769 80bd 08c9 063a d908 463c
000001b0: 265a 893d 0e37 1c3d c18a ba38 4238 ae38
000001c0: 8ac0 0f3d 33dc a33c 6abf 15bd e16b 9fbc
000001d0: e5dc 6a3d a8ab 2dbc c53c 87bb dcfd 543d
000001e0: 66ac 163c 838e c0bd 732b afbd c52b 70bd
000001f0: ec29 463a b143 0a3b 2cb2 01bd 7085 51bb
00000200: 4258 1a3d 4c17 583a 18bb c2bd 5129 8c3b
00000210: f067 82bd eb0a 163c 5533 d53c 6920 f0bc
00000220: e976 ae3b c94b 1338 36df 983b 2c80 713d
00000230: 7b71 e5bc 4591 033c 4300 793c 92be 6f3d
00000240: 5ea4 393d 6ec4 3d3b 333d a73a fb91 6b38
00000250: 6dea 443d c906 94bd e1e4 aabd 4c41 d83c
00000260: 6106 6139 7b8d 5934 148a 01bd 4c3c e73b
00000270: 9ef3 ae3c 8dac 8dbb d3fb c1ba 74e0 be3c
00000280: 31df 583a 6042 c039 3636 2c3d 9fb1 273a
00000290: 7a23 de3c 58ec 98ba be69 a83c 5111 bf38
000002a0: 1176 233b b1d7 33bc e307 973c 6fda cf3c
000002b0: f34e 713a 7a1c 3ebb 6a05 62bd 43e6 a03b
000002c0: 64b1 b5bd 6be1 883d bb83 2abd f436 b639
000002d0: b037 25bb f65a 093d 926d 90bd ef3f 0738
000002e0: 619f 45bd 0bd0 58bd 99ae 063a 3935 603c
000002f0: 87fe 6538 1f60 cbbc 263d 93bd 411e ddbc
00000300: a274 81bd d6aa 6d3d 2cfa 5c3a c4b7 823c
00000310: 4d6b b03c 5e61 4a3a e69b 15bd 6ffc 74ba
00000320: ccca 60bb 81c6 a9bb 5db4 24ba f651 deba
00000330: 72e1 2734 637f 9dba d8a6 2cbc 6d30 5d3d
00000340: f755 8d3d 1dec adbb 6c66 a3bb 65b9 c8bc
00000350: 7d02 2e3d e042 1bba 241d 6e3d 225a 143d
00000360: f607 cb3c bdb2 38b9 db15 153c 38ad 743d
00000370: 6c6a 38bc f558 6fbd a699 1cbb 3592 503d
00000380: cbdf cb3d 162a 77bc 9e32 163c 8ed2 9bbc
00000390: ee07 4e3d c2d3 65bb 87c4 15bb e772 9abd
000003a0: 77b1 5b3b 9d19 9e3a dd17 2fbb 0aa6 df3a
000003b0: fdb2 d4b9 a446 6ebc a06a 923b b494 0bbc
000003c0: 268b b73c 0bd1 8bba d02c 89bb c614 bdbd
000003d0: 0f87 d9bb f41a 633d 48fe 163a 647d f13b
000003e0: 398f 99ba ecf4 cb3c d9a8 69bc beb6 a33c
000003f0: 9729 a03b 4d61 5b3d 7fd5 96bc 7326 243d

bias f4 [200]
-0.029703507 0.017858285 0.028802902 0.07816017 -0.07558857 -0.06777977 -0.052346032 0.00735721
0.06584041 0.061111763 -0.033283524 0.021449007 -0.032970447 -0.039852787 0.0012705529 -0.014531458
-0.046537876 0.04396055 -0.021062125 0.08784967 0.003553624 -0.048228256 -0.0867374 -0.032749683
-0.038204007 0.039672546 0.060468122 -0.03599553 0.08408822 -0.026000513 0.023076646 -0.043838996
0.034624163 0.041734193 0.061846107 -0.04452468 -0.069107994 0.012021096 -0.04421141 -0.03588339
0.005358246 0.00082918484 -0.025123721 0.031013627 -0.04170688 0.056327112 0.09098453 -0.041382372
0.0282298 0.08699198 -0.015588105 -0.024423445 0.03482302 0.011452463 0.053795025 -0.054492313
0.05714782 -0.03570483 0.0395976 0.019183973 -0.0028400351 0.02913899 -0.0128429355 0.00555921
-0.08222305 -0.07233361 -0.014797652 -0.057248563 0.041844152 -0.041814525 -0.009231609 -0.021463493
0.0516923 -0.04603379 -0.022887222 0.06263199 0.014799456 0.006816678 0.07439916 -0.059561275
0.056902397 0.029198544 0.007686888 -0.048229918 0.013871909 -0.014197953 0.048341576 0.007285758
-0.018982248 -0.046779267 0.08106406 -0.062127214 -0.0133870635 0.04779194 -0.036476754 -0.02191441
0.064211845 0.018806254 0.007825043 0.049453106 -0.0552301 -0.0013937495 -0.01653969 0.05136405
0.05479795 -0.028852206 0.021965869 -0.01670275 -0.07599243 -0.033597723 0.05979674 0.07816186
0.04257927 -0.023493726 -0.03092058 -0.00055773795 -0.021027695 -0.029594129 -0.08307277 -0.037059885
0.0357226 -0.045698404 0.016484676 -0.038650915 0.05116789 0.026852971 -0.031729724 0.03121108
-0.026545243 -0.030080656 0.047974225 0.055373143 0.027962431 -0.030933958 0.061647315 -0.01680378
0.0036319946 0.04642928 -0.021748953 -0.02829272 -0.077026755 0.021287287 0.08486897 0.007723788
-0.017642371 0.051192347 -0.03491487 0.040740196 -0.018155163 0.0032921678 0.021456996 -0.076118164
0.026390474 0.02786413 0.009187551 0.007617103 -0.033896558 0.045412786 -0.018391127 0.017747132
-0.033882394 -0.067862995 -0.028892066 -0.041981794 -0.063734524 0.087395325 0.063882194 0.035858147
0.08181566 -0.048573174 0.034620237 -0.07868602 -0.033771858 0.03959953 0.07724988 -0.018637756
-0.022811638 -0.056700036 0.0073871496 -0.05196535 0.050074045 -0.091452435 -0.077811494 0.051486194
-0.03443509 0.065517314 0.048062194 -0.05238363 -0.084859446 0.019419514 0.019876508 -0.04790248
0.029944053 0.007485342 0.057752617 0.06521949 0.050453044 -0.015837 0.045210164 0.012484073
00000000: c554 f3bc 8a4b 923c 10f4 eb3c 7012 a03d
00000010: 2ece 9abd 1fd0 8abd cb68 56bd c014 f13b
00000020: 56d7 863d 5450 7a3d 4e54 08bd d4b5 af3c
00000030: 050c 07bd ad3c 23bd ae88 a63a 5a15 6ebc
00000040: 809e 3ebd fa0f 343d 7a8a acbc 87ea b33d
00000050: ebe3 683b fe8a 45bd 61a3 b1bd 8824 06bd
00000060: ce7b 1cbd ae7f 223d 6cad 773d 0d70 13bd
00000070: 7236 ac3d 07ff d4bc 3c0b bd3c 8590 33bd
00000080: 11d2 0d3d 79f1 2a3d 5852 7d3d 835f 36bd
00000090: 7e88 8dbd 22f4 443c 0617 35bd 76fa 12bd
000000a0: 3a94 af3b a75d 593a 43d0 cdbc 4a10 fe3c
000000b0: d5d4 2abd 42b7 663d 1956 ba3d 9080 29bd
000000c0: 2e42 e73c da28 b23d 4065 7fbc ad13 c8bc
000000d0: 95a2 0e3d 1da3 3b3c 2c58 5c3d 5533 5fbd
000000e0: d513 6a3d 3a3f 12bd 1831 223d b527 9d3c
000000f0: e21f 3abb e4b4 ee3c 2d6b 52bc 092a b63b
00000100: 8f64 a8bd a523 94bd da71 72bc 787d 6abd
00000110: c664 2b3d b545 2bbd 2d40 17bc 35d4 afbc
00000120: 4ebb 533d ed8d 3cbd fc7d bbbc 3345 803d
00000130: 6b79 723c 715e df3b 965e 983d 86f6 73bd
00000140: 7d12 693d c931 ef3c 4ae2 fb3b bc8c 45bd
00000150: 0147 633c 889e 68bc d101 463d 5ebd ee3b
00000160: a980 9bbc 9e9b 3fbd ea04 a63d 1b79 7ebd
00000170: 6a55 5bbc 7bc1 433d a668 15bd d985 b3bc
00000180: 8081 833d 930f 9a3c 9c34 003c 578f 4a3d
00000190: f538 62bd 79ae b6ba 3e7e 87bc 1c63 523d
000001a0: d173 603d 765b ecbc c4f1 b33c 35d4 88bc
000001b0: eba1 9bbd c49d 09bd 6ded 743d 5313 a03d
000001c0: 9a67 2e3d ea75 c0bc 284d fdbc 2935 12ba
000001d0: 4642 acbc 636f f2bc 0e22 aabd 1bcc 17bd
000001e0: dc51 123d 402e 3bbd df0a 873c 6c50 1ebd
000001f0: 6c95 513d c3fa db3c 07f7 01bd 61ae ff3c
00000200: 6975 d9bc b56b f6bc 9f80 443d f3ce 623d
00000210: 7811 e53c 3669 fdbc e581 7c3d 15a8 89bc
00000220: c206 6e3b a12c 3e3d dc2a b2bc 22c6 e7bc
00000230: 34c0 9dbd ad62 ae3c c8cf ad3d d417 fd3b
00000240: bc86 90bc 11af 513d e502 0fbd 31df 263d
00000250: 23ba 94bc 69c1 573b 95c6 af3c d7e3 9bbd
00000260: d630 d83c 5143 e43c 6287 163c e498 f93b
00000270: 1ed7 0abd c202 3a3d fda8 96bc 6f62 913c
00000280: 44c8 0abd c1fb 8abd 0eaf ecbc 1af5 2bbd
00000290: 3f87 82bd 52fc b23d abd4 823d fedf 123d
000002a0: f88e a73d aaf4 46bd f3cd 0d3d 2326 a1bd
000002b0: 5c54 0abd 1e33 223d 2f35 9e3d 35ae 98bc
000002c0: 79df babc 4c3e 68bd e70f f23b 9ed9 54bd
000002d0: 711a 4d3d 6a4b bbbd a25b 9fbd 30e3 523d
000002e0: cf0b 0dbd f12d 863d dddc 443d 3890 56bd
000002f0: caca adbd ac15 9f3c 0fd4 a23c 6435 44bd
00000300: 3b4d f53c 9a47 f53b 028e 6c3d cc91 853d
00000310: daa7 4e3d 99bc 81bc 4b2e 393d ff89 4c3c

weight f4 [200, 200]
0.0012814391 -0.006392445 -0.016783293 -0.028263545 -0.07109273 -0.06723463 0.04586274 -0.0048549315
-0.008702054 -0.0031618925 0.019727282 -0.0027760125 7.3191345e-08 -0.02534803 -0.010016893 -0.018404743
-0.023533488 -0.030200297 -0.027245715 0.045666017 0.0070725693 1.5338101e-07 -0.0040554493 -0.0016978409
0.009622124 -0.00065950083 0.0070856195 -0.032445837 0.03010031 0.0009745563 -0.0003027832 -0.0069018677
-0.002457302 -0.0014013646 -0.002209165 -0.0026375772 -0.005930507 0.040744975 -0.01177079 -0.021803355
0.02149683 0.0043958095 0.01302889 -0.007396215 -0.0068371193 0.06368293 -0.06291021 -0.001296201
-4.9287437e-06 0.03760693 -0.041202128 -0.019456945 0.0837776 0.008274546 -0.052331477 -0.002328444
-0.008601577 0.0060758945 0.0077632857 -0.0039858017 0.007782039 0.037544787 -0.0009310772 -0.06811983
-0.0047393735 -0.07247526 0.011662353 -0.042134054 -0.00759397 0.0304107 -0.027377427 -0.003011065
-0.006099356 -0.0006426283 0.04350659 -0.0032337958 0.042796873 -0.0038537374 -0.057659958 -0.0028412698
0.025477534 0.045676965 -0.0010979002 0.06188371 -0.0064089224 -0.0026264973 0.015266872 -0.024887957
0.023099637 -0.0020213765 -0.00091051584 2.2180957e-06 -0.023233451 -0.0075761057 -0.0025640167 0.056468174
-0.061019693 0.01731752 0.00078967784 -0.10014403 0.015753996 -0.002953837 0.019755663 0.04415583
0.04167624 -0.015924016 0.004080836 -0.009929423 -0.04895924 -0.1295802 -0.008919584 -0.00077873404
0.011142238 -0.001795719 0.07192132 -0.0012542332 -0.008522292 -0.09639231 -0.049978156 -0.087286234
-0.0048382236 -0.020527547 -0.0011668178 0.030918462 -0.013092376 0.063422404 0.012278017 0.0034880561
-0.01734263 -0.029235056 -0.052078135 -0.0037486337 0.00045230828 -0.0040939525 -0.002016826 0.031374305
-0.0044129533 0.07099506 -0.0014143431 0.043892313 -0.038863555 0.02797927 -0.025469936 -0.0010936109
-0.03861248 0.020080408 -0.0005874889 -0.013740999 -0.040907275 0.036377683 -5.124812e-07 -0.001832123
-0.034618303 -0.0016424103 -0.0012233157 -0.004210702 0.022526003 -0.021031257 -3.3790446e-05 -0.008296433
-0.019422233 0.031034093 -0.004007043 0.048620757 -0.04246502 -0.010053804 -0.026848264 -0.049225397
0.002378742 0.05368736 -0.0036941292 0.0050789323 -0.022244882 0.09373249 -0.0019365977 -0.056933526
-0.0024718253 -0.0017704219 0.0007354238 0.03290841 0.009840161 -0.0028165746 -0.00044326045 -0.04564226
-0.10624705 0.029932003 -0.0019616683 -0.033271298 -0.007403227 -0.0037402608 -0.010701561 -0.062341552
-0.006923279 -0.005243354 -0.04085634 0.005800391 0.0039196215 -0.007971088 -0.010525576 -0.014372873
-0.071767 0.027965704 -0.0010150203 0.0015791422 0.012212806 0.00070484873 -0.0090967 -0.018423835
-0.0015253929 -0.006455882 0.0010799498 0.0015165395 -0.02919515 0.011212682 0.0006098758 0.014173008
0.00038231607 -0.034223936 -0.010482897 -0.01433383 -0.022030542 -0.00073986285 0.024559323 0.0011451971
0.0049786894 0.06083362 0.0010814193 0.015530442 -0.03675497 -0.02894419 -0.0010687622 0.010889769
-0.08810827 0.10992906 -0.0065175905 0.0017012364 -0.032892548 0.05434105 -6.3395004e-07 -0.026745448
0.0030422579 0.0029909567 0.0020496764 0.04101566 -0.042693965 0.031119894 -0.030468095 5.983601e-08
-0.038535062 0.0012415114 0.0458551 0.004876903 0.011568391 0.014803249 0.0248978 0.002414892
00000000: f6f5 a73a b777 d1bb 1e7d 89bc f388 e7bc
00000010: 1199 91bd 4fb2 89bd 92da 3b3d 1e16 9fbb
00000020: 0f93 0ebc c137 4fbb 1c9b a13c c3ed 35bb
00000030: 5e2d 9d33 aca6 cfbc e51d 24bc 8bc5 96bc
00000040: 4dc9 c0bc 9d66 f7bc 6832 dfbc 4a0c 3b3d
00000050: 03c1 e73b 0db1 2434 93e3 84bb 168a deba
00000060: 1da6 1d3c 5ae2 2cba 7c2e e83b ede5 04bd
00000070: ed94 f63c 5e79 7f3a e0be 9eb9 1029 e2bb
00000080: b00a 21bb fead b7ba a3c7 10bb 34db 2cbb
00000090: b354 c2bb 34e4 263d 46da 40bc f39c b2bc
000000a0: 1f1a b03c b90a 903b 2077 553c f35b f2bb
000000b0: ea09 e0bb 326c 823d 11d7 80bd 4ae5 a9ba
000000c0: 9661 a5b6 b909 1a3d 90c3 28bd 2c64 9fbc
000000d0: 9793 ab3d f691 073c 8859 56bd cf98 18bb
000000e0: a1ed 0cbc 4c18 c73b 2963 fe3b 549b 82bb
000000f0: 7a00 ff3b 90c8 193d 8813 74ba 6982 8bbd
00000100: bf4c 9bbb e96d 94bd 7413 3f3c c294 2cbd
00000110: d6d6 f8bb dc1f f93c a046 e0bc 4a55 45bb
00000120: 1bdd c7bb 0e76 28ba f733 323d 17ee 53bb
00000130: c64b 2f3d fc8e 7cbb d92c 6cbd 9934 3abb
00000140: 43b6 d03c c517 3b3d 6be7 8fba c679 7d3d
00000150: f001 d2bb 5021 2cbb e721 7a3c d4e1 cbbc
00000160: 733b bd3c 1279 04bb afaf 6eba 98da 1436
00000170: 1454 bebc fb40 f8bb 1009 28bb 2c4b 673d
00000180: c9ef 79bd 79dd 8d3c 6202 4f3a 5018 cdbd
00000190: 860e 813c 2995 41bb a1d6 a13c bedc 343d
000001a0: b4b4 2a3d 1573 82bc 89b8 853b 05af 22bc
000001b0: 7c89 48bd acb0 04be 7223 12bc f523 4cba
000001c0: ef8d 363c 555e ebba 7c4b 933d 1565 a4ba
000001d0: 15a1 0bbc 5569 c5bd e5b5 4cbd 20c3 b2bd
000001e0: f689 9ebb 6329 a8bc e9ef 98ba b748 fd3c
000001f0: 6881 56bc 9be3 813d bc29 493c df97 643b
00000200: 2212 8ebc 5b7e efbc e24f 55bd a3ab 75bb
00000210: ca23 ed39 9026 86bb ba2c 04bb 5882 003d
00000220: 899a 90bb dc65 913d 7b61 b9ba 6dc8 333d
00000230: 642f 1fbd c834 e53c 54a6 d0bc 7e57 8fba
00000240: 1f28 1ebd ab7f a43c b601 1aba ed21 61bc
00000250: 638e 27bd c400 153d 7191 09b5 d923 f0ba
00000260: eccb 0dbd 2546 d7ba aa57 a0ba eef9 89bb
00000270: 7488 b83c be49 acbc 37ba 0db8 c3ed 07bc
00000280: 601b 9fbc 363b fe3c 834d 83bb 8f26 473d
00000290: cdef 2dbd b6b8 24bc e4f0 dbbc 92a0 49bd
000002a0: abe4 1b3b 47e7 5b3d 3419 72bb 2c6d a63b
000002b0: e63a b6bc d2f6 bf3d 70d5 fdba 2133 69bd
000002c0: 59fe 21bb 800d e8ba 75c9 403a f8ca 063d
000002d0: a038 213c 4896 38bb 6965 e8b9 61f3 3abd
000002e0: 0e98 d9bd f633 f53c 558f 00bb 7c47 08bd
000002f0: c596 f2bb 2a1f 75bb 9a55 2fbc db59 7fbd
00000300: acdc e2bb 71d0 abbb fa58 27bd 3511 be3b
00000310: 2b70 803b 2b99 02bc 7773 2cbc 337c 6bbc
00000320: 94fa 92bd 5518 e53c 6e0a 85ba 38fb ce3a
00000330: 3918 483c 99c5 383a 530a 15bc 95ed 96bc
00000340: b1ef c7ba dd8b d3bb 1a8d 8d3a 9fc6 c63a
00000350: ab2a efbc 66b5 373c 12e0 1f3a e735 683c
00000360: 9871 c839 662e 0cbd 75c0 2bbc 71d8 6abc
00000370: 6579 b4bc 5bf3 41ba a230 c93c 701a 963a
00000380: 4624 a33b ad2c 793d 69be 8d3a 6573 7e3c
00000390: 618c 16bd 5e1c edbc b515 8cba 006b 323c
000003a0: 1c72 b4bd 7d22 e13d 8391 d5bb 05fc de3a
000003b0: 56ba 06bd b994 5e3d b72c 2ab5 4519 dbbc
000003c0: 9e60 473b ed03 443b dd53 063b 0900 283d
000003d0: dedf 2ebd 26ef fe3c 3a98 f9bc 327f 8033
000003e0: f1d6 1dbd 36ba a23a 8fd2 3b3d 6dce 9f3b
000003f0: 5989 3d3c 5489 723c 79f6 cb3c 2a43 1e3b

bias f4 [200]
0.018990563 -0.020354465 0.07717151 0.042579543 -0.04525008 -0.01020735 -0.02778038 -0.010484498
0.063882805 0.0582808 -0.07952391 0.050853115 0.018165998 -0.0024358917 0.012307985 -0.076328866
0.024672415 0.0019398775 -0.050417285 0.03046815 -0.033187907 -0.009397582 -0.07065271 -0.0073703136
-0.006463578 -0.005943966 0.021591842 0.02988157 0.016766986 -0.09482684 0.03722503 -0.0036970808
-0.024374256 -0.04085656 0.083685 0.045167267 -0.05263998 0.01089697 0.027350819 -0.059264995
-0.011124248 -0.056439597 -0.01764067 0.035681218 0.023389878 0.014500233 0.022444244 0.019529633
0.07610231 0.06921152 0.0030617395 0.0037974855 0.039056916 -0.04532998 -0.017351067 -0.026052864
0.05045768 -0.05531105 0.024936527 0.03874826 0.0371046 0.057767376 -0.031376064 0.045037504
-0.04109036 -0.056970734 -0.025676498 -0.022535797 0.04288656 -0.026918147 -0.009180085 -3.6375583e-05
0.066420525 -0.013971804 -0.056873463 0.042710096 0.045753114 0.024356045 0.087688945 -0.034556363
0.042770505 0.007142896 -0.027459046 -0.01018973 0.026528884 0.014229463 -0.041320905 -0.011072391
-0.050960142 0.021659838 0.05323973 -0.06443946 -0.031669095 -0.0065624476 -0.058936674 -0.02555291
0.07636806 -0.034755006 0.043769952 0.002580621 -0.0829263 -0.0014440647 -0.059031375 -0.046878494
0.0079478845 -0.086083055 0.003752367 -0.057293594 -0.028668247 -0.08917866 0.043874454 0.076136306
0.045318626 0.0024301358 -0.028451126 0.035761587 0.004011392 -0.059407443 -0.0163916 -0.015054859
0.05062447 -0.09320159 0.015739765 0.036269207 0.065551944 0.025698049 -0.062834896 0.027140765
0.023402967 -0.0095421765 -0.010800349 0.012038212 -0.048880614 -0.053423773 0.050375197 0.0076396256
0.034703847 0.011001611 0.00047329743 0.011698552 -0.07702093 0.062204696 0.08092202 0.019501844
0.013107599 -0.0032452438 -0.029238809 0.0557292 0.010952517 -0.03964281 0.018366326 -0.033252843
0.0065017613 -0.017712547 0.038191874 0.009079871 -0.022248862 -0.017592207 0.010642652 -0.05039282
0.017927432 -0.030169643 -0.023665717 0.015500071 -0.0831789 0.027648592 0.013643601 0.052662645
0.083237566 -0.09210634 0.02584706 -0.07807132 -0.05838875 0.052755214 0.04060881 0.020607574
-0.011794883 -0.0026056136 0.053859364 0.007556722 0.013526793 -0.040351063 -0.055268742 0.08392461
0.023254156 0.06281029 0.064134255 -0.03773804 -0.08221202 0.063827544 0.010009165 -0.045621354
0.02436554 -0.028821822 0.035782542 0.017633934 0.03291254 -0.04563077 -0.039361224 0.058518626
00000000: 1992 9b3c 68be a6bc 190c 9e3d e367 2e3d
00000010: 2658 39bd bb3c 27bc ae93 e3bc 2cc7 2bbc
00000020: fdd4 823d d9b7 6e3d 6fdd a2bd 5b4b 503d
00000030: dcd0 943c 7ba3 1fbb 6ea7 493c 4f52 9cbd
00000040: ce1d ca3c 7d43 fe3a 5b82 4ebd 5798 f93c
00000050: 0bf0 07bd 51f8 19bc 5eb2 90bd ac82 f1bb
00000060: 6ccc d3bb 9ac5 c2bb 60e1 b03c 32ca f43c
00000070: eb5a 893c 9334 c2bd 4679 183d b94a 72bb
00000080: 85ac c7bc 3559 27bd 0b63 ab3d 5001 393d
00000090: 059d 57bd 3489 323c d30e e03c dabf 72bd
000000a0: 7a42 36bc 352d 67bd 2b83 90bc 7826 123d
000000b0: 219c bf3c 6392 6d3c fedc b73c 9cfc 9f3c
000000c0: 87db 9b3d c5be 8d3d 77a7 483b 3cdf 783b
000000d0: 25fa 1f3d eeab 39bd d323 8ebc d16c d5bc
000000e0: b6ac 4e3d d78d 62bd b047 cc3c 7fb6 1e3d
000000f0: fefa 173d 7c9d 6c3d 3084 00bd 3f79 383d
00000100: 5e4e 28bd 255a 69bd 8557 d2bc fe9c b8bc
00000110: d1a9 2f3d 7283 dcbc 1168 16bc fc91 18b8
00000120: 7c07 883d fee9 64bc 26f4 68bd c8f0 2e3d
00000130: 9e67 3b3d 5486 c73c 4396 b33d f98a 0dbd
00000140: 2030 2f3d f40e ea3b cbf1 e0bc d3f2 26bc
00000150: 1a53 d93c b222 693c 1c40 29bd f968 35bc
00000160: 95bb 50bd f96f b13c e711 5a3d d6f8 83bd
00000170: 74b7 01bd cd09 d7bb 9567 71bd 5654 d1bc
00000180: dc66 9c3d 445b 0ebd 1f48 333d a31f 293b
00000190: 44d5 a9bd c546 bdba e2ca 71bd aa03 40bd
000001a0: d837 023c 504c b0bd 46ea 753b b0ac 6abd
000001b0: acd9 eabc 4da3 b6bd b3b5 333d 5aed 9b3d
000001c0: 06a0 393d ea42 1f3b 5612 e9bc be7a 123d
000001d0: ff71 833b 3855 73bd ad47 86bc a8a8 76bc
000001e0: 9b5b 4f3d 7ae0 bebd aef0 803c 058f 143d
000001f0: 1940 863d b784 d23c 95af 80bd 4f56 de3c
00000200: 94b7 bf3c ca56 1cbc f2f3 30bc ec3b 453c
00000210: 0a37 48bd e3d2 5abd 3956 4e3d d355 fa3b
00000220: 9f25 0e3d 1a40 343c e824 f839 49ab 3f3c
00000230: 26bd 9dbd 5aca 7e3d 72ba a53d 55c2 9f3c
00000240: 41c1 563c 28ae 54bb 3a86 efbc 4d44 643d
00000250: 3072 333c 8060 22bd fa74 963c 2234 08bd
00000260: ba0c d53b e719 91bc 156f 1c3d bdc3 143c
00000270: 3f43 b6bc 881d 90bc 855e 2e3c b468 4ebd
00000280: 8ddc 923c 5426 f7bc 9bde c1bc 03f4 7d3c
00000290: b359 aabd 4d7f e23c 6989 5f3c c9b4 573d
000002a0: 7578 aa3d 40a2 bcbd 37bd d33c dbe3 9fbd
000002b0: 0b29 6fbd da15 583d 6c55 263d 37d1 a83c
000002c0: 533f 41bc f1c2 2abb a39b 5c3d 619e f73b
000002d0: 7b9f 5d3c 2847 25bd 7a61 62bd aae0 ab3d
000002e0: 807f be3c aea2 803d d258 833d 3493 1abd
000002f0: c75e a8bd 04b8 823d 7bfd 233c 75dd 3abd
00000300: 3e9a c73c be1b ecbc b790 123d 0a75 903c
00000310: 4dcf 063d 55e7 3abd 3c39 21bd 3ab1 6f3d
