pubmed_train/train/pretrained_magnn/decoder_g.pth (torch, 324576 bytes, 4 tensors)

weight f4 [200, 200]
0	0x3c006e7a	0.00783884
1	0x3b86a575	0.0041090795
2	0xbc7ff499	-0.0156222815
3	0x3ace6ca8	0.0015748935
4	0x3ce4ba40	0.027920842
5	0x3d4a72a8	0.04942575
6	0xbd1eb358	-0.038745254
7	0x3c699d2e	0.014258666
8	0x3c562d63	0.0130723445
9	0x3701aa6f	7.728681e-06
10	0x3d2c850f	0.042119082
11	0x3c30e8aa	0.010797659
12	0x3bbcced2	0.0057619596
13	0xbb3ae828	-0.0028519724
14	0x3bc24778	0.00592893
15	0x3c2fc069	0.0107270265
16	0xbcc29215	-0.023751298
17	0x3b2e7958	0.002662262
18	0xb9ead850	-0.00044793123
19	0xbaf29d57	-0.0018510026
20	0x3c0ee6f1	0.008722053
21	0x3a357242	0.0006921628
22	0xbc18a6f4	-0.0093171485
23	0xbb52e0df	-0.003217749
24	0x390c9b4e	0.00013409296
25	0x3c37b791	0.011213199
26	0x3b3a152f	0.0028393974
27	0x3adb258f	0.0016719567
28	0xbd011f75	-0.03152414
29	0xbd1f0cd8	-0.038830608
30	0xbd889d8e	-0.06670676
31	0x3b5f4d27	0.0034073086
32	0x3cc85878	0.024456248
33	0xbca9d732	-0.020732496
34	0x3caf46ee	0.021396127
35	0xbd72f920	-0.059319615
36	0x391150fb	0.00013858445
37	0x3c32b6aa	0.010907808
38	0x3d4e25f6	0.05032917
39	0x3cc98829	0.024601059
40	0x3b817190	0.0039503053
41	0x3b203afd	0.0024449222
42	0x3a83f15c	0.0010066438
43	0x3b9070bb	0.00440797
44	0x3d474222	0.048647054
45	0x3cc31393	0.023813045
46	0x3ca6a5a9	0.020342665
47	0x3d78cf2b	0.060744446
48	0xbd0a6db4	-0.033796027
49	0x3c75442d	0.014969868
50	0xbccd2aa9	-0.025044756
51	0x3b9124bb	0.0044294274
52	0x3b82bec2	0.0039900253
53	0x3d3e864f	0.046514805
54	0xbbc06fd8	-0.005872708
55	0x39bc6b46	0.0003593808
56	0xbbcd5fe8	-0.0062675364
57	0xbdca43f0	-0.09876239
58	0xbd0c29ed	-0.03421967
59	0xbc51baff	-0.012800931
60	0xbd0b3b99	-0.033992384
61	0xb8b968a6	-8.84098e-05
62	0x3d5fc3b2	0.05462999
63	0xbb6e1f14	-0.0036334442
64	0xbd3c3a09	-0.045953784
65	0x3addc807	0.0016920575
66	0x3af5fbcc	0.0018767058
67	0xbd8a1e82	-0.067441
68	0x3cdc1d2d	0.02686938
69	0xbbe88396	-0.0070957644
70	0x3d3c9df7	0.046049085
71	0xbcad184e	-0.021129753
72	0x3c15a680	0.009133935
73	0xbb859960	-0.0040771216
74	0xbdc3fa42	-0.09569217
75	0xbb60f9fb	-0.0034328687
76	0xb98d2bb1	-0.00026926168
77	0xbcb6c945	-0.02231277
78	0x3d9309fb	0.07179638
79	0x3b488a24	0.0030599916
80	0xbcb4a75d	-0.022052461
81	0x3d0e2b82	0.03470946
82	0xbcfeff9f	-0.031127749
83	0xbd463b95	-0.048396666
84	0x3c4d8391	0.012543575
85	0xbc8bb37c	-0.017053358
86	0x3b9a8c1d	0.00471641
87	0x3a8cfda2	0.0010756741
88	0x3c2a91e2	0.010410758
89	0xbdae22b7	-0.08502715
90	0xbcd55183	-0.026039844
91	0xbc685957	-0.0141814565
92	0x3d0de960	0.034646392
93	0xbc2a6c83	-0.010401848
94	0x3bb9dd7c	0.005672155
95	0x3cbf7f1b	0.023376038
96	0xbd5e3adc	-0.05425535
97	0x3cfc61c8	0.030808344
98	0x3cc79256	0.02436177
99	0x3ccb5317	0.024819894
100	0xbbc3cef2	-0.0059755975
101	0xbca020dd	-0.01954692
102	0x3936e2db	0.00017441383
103	0x3d7346cd	0.059393693
104	0xbd13f447	-0.036121633
105	0x38890b7d	6.534809e-05
106	0xbc7cb8ff	-0.015424966
107	0xbc80706d	-0.015678609
108	0x3ce7351b	0.028223565
109	0xbd1cb51a	-0.03825865
110	0x3a1ed147	0.00060584064
111	0xbd276a90	-0.04087311
112	0xbd14b9fe	-0.03631019
113	0xbc60386b	-0.013685326
114	0x3b6c1958	0.0036025848
115	0xbc323603	-0.010877135
116	0xbabdfe8b	-0.0014495415
117	0xbdafc2f8	-0.08582109
118	0xbda88530	-0.082285285
119	0xbb361401	-0.002778292
120	0x3c1ddd98	0.009635352
121	0x3c95b74d	0.018275881
122	0x3c13ae49	0.009013721
123	0x3b1bdb3d	0.00237818
124	0x3cdf93c4	0.02729214
125	0xbbcb166f	-0.0061977427
126	0x3dbf18ad	0.093308784
127	0x3d0063a0	0.03134501
128	0x3c7b67f6	0.01534461
129	0x3cdb88ce	0.026798632
130	0x3c16cea6	0.009204542
131	0xbdbcd0cd	-0.09219513
132	0x3dceb758	0.10093564
133	0x3dc2b358	0.09506863
134	0xbd743efb	-0.059630375
135	0xbdcc7f80	-0.09985256
136	0xbc0eb7bc	-0.008710798
137	0x3ccd9ea0	0.025100052
138	0xb9fe3e2b	-0.00048492974
139	0xbd16e8cd	-0.03684311
140	0xbd339b49	-0.043849263
141	0x3de6bea1	0.11266828
142	0x3a0ed92b	0.00054492307
143	0x3d563025	0.052292008
144	0x3b815807	0.0039472613
145	0x3d88f0b5	0.06686536
146	0x3bf1214c	0.0073587056
147	0x3c20ccd2	0.009814458
148	0xbbe29871	-0.006915145
149	0x3cea2c10	0.028585464
150	0xbd7e869a	-0.062140085
151	0xbc41fec0	-0.011840522
152	0x3da16154	0.07879892
153	0x3c9b6c6f	0.018972604
154	0xbaaa1b67	-0.0012978137
155	0xbb0bb5c3	-0.0021318055
156	0x3bcc2eeb	0.006231179
157	0xbae3caa7	-0.0017379121
158	0xbdada1ea	-0.08478148
159	0x3c8033cf	0.015649704
160	0x3b48861b	0.0030597511
161	0x3b3aa9a0	0.0028482452
162	0xbaa376e5	-0.0012471346
163	0xbd5f8c01	-0.054576878
164	0x3bcb6fac	0.0062083807
165	0x3d1716ab	0.036886852
166	0x3d3fe050	0.04684478
167	0x3c9546bd	0.018222207
168	0x3c0cf495	0.008603235
169	0xbca38e22	-0.019965235
170	0xbd367190	-0.044541895
171	0x3d6645b1	0.056218807
172	0x3b8165be	0.003948896
173	0x3d8492cf	0.06473314
174	0x3ca80dce	0.020514395
175	0xbc405c35	-0.011740734
176	0xbc4cda61	-0.012503237
177	0xbd826b6c	-0.06368145
178	0x3c4f580d	0.01265527
179	0xbd2f85f5	-0.04285236
180	0x3c2fa633	0.010720777
181	0xbd402d23	-0.046918046
182	0x3cec4dc8	0.028845683
183	0xba952a95	-0.0011380488
184	0xbc794e0a	-0.01521636
185	0x3a0ab0ff	0.00052906567
186	0x3c2b56f0	0.010457739
187	0x3c1408ef	0.009035333
188	0x3a52ad34	0.00080366735
189	0x3bf4cfcb	0.00747106
190	0x3c2bb9f0	0.010481343
191	0x3c1ab54a	0.009442637
192	0xbcdc8f43	-0.026923781
193	0x3cf0ca58	0.02939336
194	0xbd3b23b8	-0.04568836
195	0x3a38d5eb	0.0007050919
196	0x3db588ca	0.08863981
197	0xbc6c7d74	-0.014434207
198	0xbd22f5b6	-0.03978511
199	0xba82b403	-0.000997186
200	0x3a2b51b8	0.00065353094
201	0xbc13f83e	-0.0090313535
202	0xbcfa2e94	-0.030539788
203	0x3bf09380	0.007341802
204	0xb3f420f7	-1.1368132e-07
205	0xbb3f9f05	-0.002923907
206	0xbd646f4b	-0.0557702
207	0xbc6a572a	-0.014303008
208	0x3ca8bdea	0.02059837
209	0x3c58bdf3	0.013228881
210	0x3d9ba667	0.07600098
211	0x3d7a7d85	0.06115486
212	0xbd43f5a9	-0.0478417
213	0x3d087b85	0.033320922
214	0x3d5dee03	0.054182064
215	0x3bdc144b	0.0067162863
216	0x3d24632a	0.040133633
217	0x3d523797	0.051322546
218	0x3b070dd1	0.00206076
219	0xbd73d0c3	-0.059525263
220	0x38ad3567	8.25923e-05
221	0x3c4bac75	0.012431254
222	0xbd9060cd	-0.07049713
223	0xbb8e148b	-0.004335945
224	0xbbdf6df6	-0.0068185283
225	0x3d575169	0.052567873
226	0x3d84f13b	0.064913236
227	0xbd86581d	-0.06559775
228	0xbd6237d2	-0.055229016
229	0xbb49bf1a	-0.0030784071
230	0x3d3a540d	0.045490313
231	0x3d81ce03	0.06338122
232	0xbbeb9c97	-0.007190298
233	0xb9cfea91	-0.00039656882
234	0xbd05cdda	-0.03266702
235	0x3c6885fb	0.0141921
236	0x395b4660	0.00020911684
237	0xbc7e9a2d	-0.015539688
238	0xbb464293	-0.0030252084
239	0xbca0753d	-0.019587154
240	0x3ce39067	0.027778817
241	0xbd68be9f	-0.056822415
242	0x391762aa	0.00014437237
243	0xbbbb8943	-0.00572315
244	0xbcef16a4	-0.0291856
245	0x3d0255df	0.031820174
246	0xbc82e4ed	-0.015978301
247	0x3c8e17c9	0.017345326
248	0xbd095f8e	-0.033538394
249	0xbcccc301	-0.024995329
250	0xbc96ae4b	-0.018393656
251	0xbb76f060	-0.0037679896
252	0x3c0137ce	0.00788684
253	0x3da8068d	0.082043745
254	0x3d4d73f7	0.05015942
255	0x3d80931e	0.062780604

bias f4 [200]
0	0x3c731e91	0.014838831
1	0xbb80cf80	-0.003930986
2	0xbd27395c	-0.040826187
3	0xbbe266ad	-0.0069092126
4	0xbae028f6	-0.0017102051
5	0xbcd563d7	-0.026048584
6	0xbd2bf439	-0.041980956
7	0xbc7e6334	-0.015526582
8	0xbda213a2	-0.07913901
9	0x3d4d3521	0.050099496
10	0x3c673073	0.014110672
11	0x3d59a875	0.05313917
12	0xbce73a65	-0.028226087
13	0x3c7118f9	0.014715427
14	0x3c8e77ea	0.017391164
15	0xbd28bdf0	-0.041196764
16	0x3cf658c0	0.030071616
17	0x3c8075a2	0.015681092
18	0x3cb7ecb7	0.022451742
19	0xbccd70fe	-0.025078293
20	0x3c7bda64	0.015371893
21	0x3d0e2c3d	0.034710158
22	0xbd2b95bd	-0.04189085
23	0x3d3581c4	0.044313207
24	0xbc4815de	-0.012212245
25	0x3d0cd43c	0.03438209
26	0x3d0a0c55	0.033703167
27	0x3ce43ce0	0.027861059
28	0xbd914989	-0.07094104
29	0x3d32e8d4	0.043679073
30	0x3d97a532	0.074045554
31	0xbd0ad3bf	-0.033893343
32	0x3c40ad02	0.011759998
33	0xbd61af56	-0.055098854
34	0xba318e94	-0.000677326
35	0x3ce0528a	0.027383108
36	0x3c9bcbb8	0.01901804
37	0x3d6cfbe3	0.057857405
38	0xbd6ce255	-0.057833035
39	0xbc52e608	-0.012872227
40	0x3d6e1ad3	0.05813105
41	0xbd40d724	-0.047080174
42	0xbc3f0e97	-0.011661193
43	0x3d33f596	0.04393538
44	0x3ca2b540	0.019861817
45	0xbcbea8b2	-0.0232738
46	0x3c1af194	0.009457011
47	0xbd051cd8	-0.03249821
48	0xbc9a32de	-0.018823083
49	0xbd014b7b	-0.031566124
50	0xbc09c55b	-0.00840887
51	0x3d151e6b	0.036405962
52	0xbd0d4129	-0.03448597
53	0x3c896d63	0.016775792
54	0xbd882b73	-0.06648912
55	0xbd074986	-0.0330291
56	0xb9a55d54	-0.00031540787
57	0xbd38e69a	-0.045141794
58	0x3b0f0a1e	0.0021826099
59	0x39ceebd8	0.000394671
60	0x3d6d1ad8	0.05788693
61	0xbb86790e	-0.0041037863
62	0x3d4ebb67	0.05047169
63	0xbd475750	-0.048667252
64	0x3d350d22	0.044201978
65	0xbd8c13b6	-0.06839697
66	0x3d9180d3	0.071046494
67	0xbbaea7ff	-0.0053300853
68	0x3c8a7ae1	0.016904296
69	0x3cbf3331	0.02333984
70	0xbd84a457	-0.06476658
71	0xbd5e3da2	-0.054257996
72	0xbd4f54ce	-0.050617985
73	0x3c97acaa	0.01851495
74	0xbd92d5fa	-0.07169719
75	0x3c60cd21	0.013720782
76	0x3ab3fdcd	0.0013732255
77	0x3d4e2596	0.050328813
78	0x3d7cab8a	0.06168703
79	0x3d35d9aa	0.044397034
80	0x3c890974	0.01672814
81	0xbbebd597	-0.0071970928
82	0x3d5e5d17	0.054287996
83	0xbdab7dd9	-0.08373613
84	0xbd349cbc	-0.044094786
85	0x3b831444	0.0040002186
86	0xbd03772a	-0.032096066
87	0x3cec84cb	0.028871914
88	0x3ce0b9fe	0.027432438
89	0xbd727eb5	-0.05920287
90	0xbc6572f7	-0.014004461
91	0x3cdf24f2	0.027239297
92	0x3caa7a8d	0.02081039
93	0xbd0ce07e	-0.03439378
94	0x3d5a63e0	0.053317904
95	0xbd7f4420	-0.06232083
96	0x3ce05c54	0.027387775
97	0xbc4866c7	-0.012231535
98	0xbd4f6c53	-0.050640415
99	0xbd084bb8	-0.033275336
100	0x3d1a51fe	0.03767585
101	0xbc6818fc	-0.014166113
102	0xbd33afa2	-0.04386867
103	0x3d6b3f5e	0.05743348
104	0xbd756f3a	-0.059920527
105	0x3cafe61c	0.02147203
106	0x3d799965	0.060937304
107	0x3cf03f3e	0.029327031
108	0xbcb7a7d3	-0.022418892
109	0x3d2a4345	0.04156806
110	0x3c63b959	0.013899171
111	0x3c679a3e	0.014135895
112	0xbd600858	-0.054695457
113	0xbc88b78b	-0.016689083
114	0xbd00ed6a	-0.031476416
115	0xbd77259c	-0.0603386
116	0x3c9ea0b1	0.019363733
117	0x3d17a12b	0.037018936
118	0x3c0dba2a	0.008650342
119	0xbcb1a2cb	-0.021684071
120	0x3da478cd	0.080308534
121	0xbd1328e2	-0.03592766
122	0x3d106f5a	0.035262443
123	0x3a408b1c	0.00073449477
124	0xbd71c058	-0.059021324
125	0xbcdf7c56	-0.027280968
126	0x3d4997ad	0.049216915
127	0xbd5ffd22	-0.054684766
128	0x3b4756a8	0.0030416641
129	0xbd02e9e8	-0.03196135
130	0x3c5970c0	0.013271511
131	0xbbbf5955	-0.0058395066
132	0x3da43d32	0.080194846
133	0x3b96c996	0.0046016676
134	0xbd50194c	-0.050805375
135	0xbd2ab13f	-0.04167294
136	0xbd8e8b64	-0.069601804
137	0xbd08ff22	-0.03344644
138	0x3d561cd8	0.0522736
139	0x3d113ca1	0.03545821
140	0x3b882954	0.0041553173
141	0xbd57e5d4	-0.052709416
142	0x3cb78608	0.022402778
143	0xbbba1515	-0.0056787827
144	0xbd32c3d3	-0.043643784
145	0xbc341a05	-0.010992532
146	0xbcfba197	-0.0307167
147	0x3d8fbc0e	0.070182905
148	0x3cfc4f9f	0.030799685
149	0x3d55921a	0.052141286
150	0xbd9a3183	-0.07528975
151	0xbd90f109	-0.07077224
152	0xbbe84353	-0.007088104
153	0x3d6cbae7	0.05779543
154	0x3ca3c679	0.0199921
155	0xbc27cf79	-0.010242336
156	0x3ce90955	0.028446833
157	0x3c080b00	0.008303404
158	0x3bb629db	0.005559189
159	0xbd7f3b10	-0.062312186
160	0xbc6e529f	-0.014546066
161	0xbd0ed899	-0.034874532
162	0xbd8051a2	-0.0626557
163	0x3d52fc98	0.051510423
164	0x3b36e440	0.0027907044
165	0x3d94193f	0.07231378
166	0xbd4be7d6	-0.049781643
167	0xbc1a3972	-0.00941311
168	0xbcea70f3	-0.028618312
169	0x3b23dad9	0.002500227
170	0xbd2a764f	-0.041616734
171	0x3c9b3f39	0.018951045
172	0x3d52259f	0.05130541
173	0xbd75a15f	-0.05996835
174	0xbd304935	-0.043038566
175	0x3b49a872	0.0030770567
176	0x3d3dd679	0.046347115
177	0x3d5e4152	0.054261513
178	0x3d673d60	0.056455016
179	0xbd290430	-0.04126376
180	0x3d67b2fb	0.056567173
181	0xbd157d88	-0.03649667
182	0xbd93d398	-0.07218093
183	0x3c550995	0.013002773
184	0xbd3a9914	-0.045556143
185	0x3d0d6270	0.034517705
186	0xbd630c13	-0.055431437
187	0xbb8bbd6f	-0.0042645256
188	0x3d738754	0.05945523
189	0xbcffaf91	-0.031211646
190	0xbbccf617	-0.006254922
191	0xbb19f22d	-0.0023490295
192	0xbcc271e5	-0.02373595
193	0x3c03ea22	0.008051427
194	0xbcdb96fd	-0.026805395
195	0x3d57ca25	0.052683014
196	0xbd90f0b4	-0.070771605
197	0xbd47cad1	-0.048777405
198	0xbd0fd0fe	-0.03511142
199	0x3d88339d	0.066504695

weight f4 [200, 200]
0	0x3cdbe734	0.026843645
1	0x3b9e5f5d	0.0048331455
2	0x3a9873d5	0.00116312
3	0x3c0d847c	0.008637544
4	0xbc47a6df	-0.012185781
5	0xb4bbd17c	-3.4983884e-07
6	0x3c3e45f5	0.011613359
7	0x3b8a1b3a	0.0042146714
8	0xbcb29008	-0.021797195
9	0xbd75559d	-0.0598961
10	0x3cbde6ed	0.023181403
11	0x3dc5de33	0.09661522
12	0xbce77571	-0.028254243
13	0x3ce559da	0.027996946
14	0xbca7bd3c	-0.020475976
15	0x3b1218cb	0.002229261
16	0xbbc5e68d	-0.0060394467
17	0xbb7e3e29	-0.0038794375
18	0x3d831679	0.06400771
19	0x3c659da3	0.014014634
20	0x3c03eef0	0.008052573
21	0x3ae5b5b3	0.0017525464
22	0xbc98f23e	-0.018670198
23	0x3cc8d6f4	0.02451656
24	0x3d167c9f	0.03673994
25	0x394f1508	0.00019748893
26	0x3cd5e1ad	0.026108587
27	0xb92c8877	-0.00016454035
28	0x3bd56932	0.0065127844
29	0xbd1a919d	-0.037736524
30	0x3d8a2f39	0.06747288
31	0xbce47a48	-0.02789034
32	0xbd35735a	-0.04429946
33	0xbd69dadc	-0.057093486
34	0xbd9f4c0e	-0.07778178
35	0x3a1442f0	0.00056557264
36	0xbbea501e	-0.007150664
37	0xbb371c86	-0.0027940585
38	0x3cae6fc6	0.021293532
39	0x3b2a0ff3	0.0025949448
40	0x3aa9385b	0.0012910472
41	0x3a3567ab	0.000692005
42	0x3ad1f01d	0.0016016994
43	0xbd111953	-0.03542454
44	0x3a8b2915	0.0010617102
45	0x3bc45991	0.0059921225
46	0x3c0442a5	0.00807253
47	0x39b3e0d5	0.00034309053
48	0x3af1a6c7	0.0018436544
49	0xb83f27f1	-4.5575147e-05
50	0x3bf40d13	0.0074478476
51	0xba908b7b	-0.0011027897
52	0xbc6d67f5	-0.014490117
53	0x3d04f1f5	0.03245731
54	0x3b9771d9	0.004621726
55	0xbcfdb71c	-0.030971102
56	0xbdb535ac	-0.08848128
57	0xbc1f4b7b	-0.009722586
58	0x3c889440	0.016672254
59	0x3d5e4179	0.05426166
60	0x3ceaf395	0.028680602
61	0x3a95d634	0.0011431635
62	0x3c33793d	0.010954198
63	0x3b1fe1a6	0.0024395972
64	0x3ddda673	0.10822763
65	0xbd133557	-0.03593954
66	0x3a3e16ff	0.00072513515
67	0x3caa53f2	0.020791981
68	0x3c1d53d6	0.009602508
69	0x3d1f6da1	0.03892291
70	0xbd180793	-0.0371166
71	0x3ab557b4	0.0013835342
72	0x3d4469ac	0.04795234
73	0xbb9d7131	-0.004804753
74	0x3db9cd7b	0.090723954
75	0xbc0bcaef	-0.00853227
76	0xbbed74ee	-0.007246605
77	0xbd11d9a1	-0.035607938
78	0x3a92d4ba	0.0011202313
79	0xbd400391	-0.0468784
80	0x3bf74451	0.0075459857
81	0xbd46c1a4	-0.048524514
82	0x3cfbd355	0.03074042
83	0x3b914ede	0.0044344505
84	0x3a954c5a	0.0011390552
85	0xbaa440fc	-0.0012531574
86	0x3cdd2bb3	0.026998376
87	0xba1f9382	-0.0006087349
88	0x3b12432e	0.0022317874
89	0x3b83edce	0.0040261513
90	0x3a20227f	0.0006108656
91	0xbb816170	-0.003948383
92	0xbca369c9	-0.019947903
93	0x3b3bc439	0.0028650893
94	0x3cc07d68	0.023497298
95	0x39250063	0.0001573577
96	0x3bb5050a	0.0055242823
97	0x3d32be2e	0.0436384
98	0x3b9ddbfa	0.004817483
99	0xbc79deb7	-0.015250853
100	0x3aaffdba	0.0013427057
101	0x39a10a1c	0.00030715845
102	0x3bc7d697	0.006098579
103	0x3c94a007	0.018142713
104	0x3aa68e8b	0.0012707276
105	0xbace7c0f	-0.0015753525
106	0x3d7b627c	0.06137322
107	0x3ca9e050	0.020736843
108	0x3d38fdde	0.04516398
109	0x3d4fe072	0.050751157
110	0x3b02fb85	0.0019986343
111	0xbc837f6b	-0.016051969
112	0x3c28baed	0.010298473
113	0x3c6b50a9	0.014362493
114	0x3c8bd87e	0.017071005
115	0xbd661be7	-0.056178953
116	0xbd8e8b7b	-0.069601975
117	0x3cb79088	0.022407785
118	0x3aea8716	0.0017893042
119	0x3dc20d6a	0.09475215
120	0xba9711e7	-0.0011525721
121	0x3ce6cbf3	0.028173422
122	0xbd48b764	-0.04900302
123	0xbc19bca0	-0.009383351
124	0x3aa5e9c4	0.0012658169
125	0xbd24a3ef	-0.0401954
126	0xbd9c8bdc	-0.076438636
127	0xbb07faa9	-0.002074877
128	0xbc9288a6	-0.017887425
129	0x3cddc6f7	0.027072413
130	0xba3475b3	-0.00068839936
131	0xbc98f8b7	-0.018673284
132	0xbc499e3f	-0.012305795
133	0x3d9c5463	0.07633283
134	0xbc7cd276	-0.015431037
135	0xbde5cb0d	-0.112203695
136	0x3acabac5	0.0015467039
137	0x3c702087	0.014656193
138	0x3b111391	0.0022136907
139	0xbcfde76b	-0.030994138
140	0x3b927e78	0.0044706427
141	0x3d507845	0.050895948
142	0xbabec3c5	-0.0014554193
143	0x3be6b86c	0.007041028
144	0x3b62a697	0.0034584159
145	0x3d18f26b	0.037340563
146	0x3cd155fa	0.025553692
147	0xbda08e7a	-0.07839675
148	0xbd23dbf5	-0.04000469
149	0xbd34632e	-0.044039898
150	0xbcf929a1	-0.030415358
151	0xbd24d02a	-0.040237583
152	0xbb6f22fc	-0.0036489358
153	0xbd833e1a	-0.06408329
154	0x3cb48c3a	0.022039521
155	0xbc66e816	-0.01409342
156	0x3ce284f0	0.02765128
157	0x3d49bb13	0.049250674
158	0x3b854b01	0.004067779
159	0x386399de	5.4264317e-05
160	0x3c346112	0.0110094715
161	0x3b6bca57	0.0035978758
162	0x3cb9f0e4	0.022697873
163	0xbd18bbf8	-0.037288636
164	0x3aab29e6	0.0013058751
165	0xbb897c1b	-0.0041957027
166	0x3c2e3194	0.0106319375
167	0x3d22efd8	0.039779514
168	0x3b215fb6	0.0024623699
169	0x3d9267d2	0.071487084
170	0x3d9a91db	0.07547351
171	0x3d0f2489	0.034946952
172	0x39cd7b32	0.00039192435
173	0xbd64efe2	-0.055892833
174	0x3c2a6364	0.010399673
175	0xb7023a3d	-7.7621635e-06
176	0x3b2a5938	0.002599312
177	0x3aa85306	0.0012842126
178	0x3c389842	0.01126677
179	0xbb20275e	-0.0024437527
180	0xbcd99e3a	-0.026564706
181	0x3a8373e4	0.0010029045
182	0xbd9e554c	-0.07731113
183	0x3b072db5	0.0020626609
184	0xbb800ccf	-0.003907777
185	0x3c126960	0.008936256
186	0x3c8e8542	0.017397527
187	0x3d8e95a4	0.069621354
188	0xbcc7b238	-0.024376974
189	0x3b47a3e2	0.0030462672
190	0xbcdc5411	-0.026895555
191	0xbdbc3e63	-0.09191587
192	0x3d8fb69e	0.07017253
193	0xbd03de6e	-0.032194547
194	0x3ad290fa	0.0016064935
195	0xba512bd9	-0.0007979251
196	0xbcbd975a	-0.02314346
197	0xbd05922a	-0.032610096
198	0x3b2d76f8	0.0026468616
199	0xbc276b8e	-0.010218514
200	0x36553d15	3.1775028e-06
201	0xba97784a	-0.0011556235
202	0x384e1b49	4.913964e-05
203	0x39c877e4	0.00038236298
204	0xbca24554	-0.019808449
205	0xb38b3d4e	-6.483843e-08
206	0xbd2fba9f	-0.042902585
207	0x3ab64d8b	0.0013908608
208	0x3cd9ac7f	0.02657151
209	0xbe0161c8	-0.12634957
210	0x3d032385	0.032016296
211	0x3cc83838	0.02444087
212	0x3b9c59c4	0.004771443
213	0xbd930ca1	-0.07180143
214	0x3d4de8c0	0.050270796
215	0x3b973f89	0.0046157283
216	0xbcc705b8	-0.02429472
217	0xbb1ab490	-0.0023606159
218	0xbd8af9c1	-0.06785918
219	0x3c8901bf	0.016724465
220	0xbd077178	-0.033067197
221	0x3d82350d	0.06357775
222	0x3d305c27	0.043056633
223	0xbd621276	-0.055193387
224	0x3d960cb5	0.073266424
225	0x3bb60162	0.005554364
226	0xbc364d30	-0.011126801
227	0xbb8c0435	-0.0042729625
228	0x3b0c31b2	0.0021391925
229	0xbd06591b	-0.03279982
230	0xbd06fd65	-0.0329565
231	0xbd3eaaef	-0.046549734
232	0x3833de60	4.288403e-05
233	0xbcc915a1	-0.024546446
234	0x3cfd14d3	0.030893719
235	0x3c36d3d6	0.011158904
236	0x3d127091	0.035751883
237	0xbcdc69f5	-0.026905993
238	0xb7ab7042	-2.0437063e-05
239	0x3d042803	0.03226472
240	0x3b9a8b5e	0.004716321
241	0x3bad5cbe	0.0052905967
242	0x3c63efe5	0.013912176
243	0xbbc444e4	-0.0059896577
244	0x3c8d9b40	0.017285943
245	0x3c24b36f	0.010052546
246	0xbc003cf1	-0.00782703
247	0x3cb239bf	0.021756051
248	0xbc5d4783	-0.013505819
249	0x3a53d70a	0.00080810545
250	0x3b941843	0.004519494
251	0xbc31ddc8	-0.010856099
252	0x3c95924c	0.018258236
253	0xbd441806	-0.047874473
254	0xbc61415d	-0.013748494
255	0x3d154510	0.036442816

bias f4 [200]
0	0x3d2e6c7a	0.04258392
1	0xbbe78ca9	-0.0070663285
2	0x3d686e0e	0.05674558
3	0xbcf6bfbb	-0.030120721
4	0x3d1c40ef	0.038147863
5	0xbd8a83bf	-0.0676341
6	0x3cbd443e	0.02310383
7	0x3d69793d	0.057000387
8	0xbd588e61	-0.052870158
9	0xbd34fa99	-0.0441843
10	0x3c04927b	0.008091564
11	0x3cab4422	0.020906512
12	0x3c494ee0	0.012286872
13	0x3cef5be1	0.029218616
14	0xbd004b5f	-0.03132188
15	0xbd3aeb72	-0.045634694
16	0x3d4655b5	0.04842158
17	0xbc29ccac	-0.010363739
18	0xbd1a35b8	-0.037648886
19	0xbaf5315e	-0.0018706729
20	0x3c4a503c	0.012348231
21	0xbb129c96	-0.0022371165
22	0x3d6a2b85	0.05717041
23	0x3ce0e20a	0.027451534
24	0x3b8973b5	0.0041947016
25	0x3d291d2d	0.04128759
26	0x3da66c70	0.081261516
27	0xb9a45c49	-0.00031349275
28	0xbd8f4448	-0.069954455
29	0xbc81be40	-0.015837789
30	0x3d82915d	0.06375382
31	0xbd78f6a3	-0.060782086
32	0x3cdfd00b	0.027320882
33	0xbd21a77e	-0.039466374
34	0x3ce5b7ad	0.028041685
35	0xbd087edb	-0.033324104
36	0x3cf1a944	0.029499657
37	0x3d75fa45	0.06005313
38	0xbc62f835	-0.0138531225
39	0xbd156736	-0.036475383
40	0x3d578109	0.052613292
41	0xbcef3a09	-0.029202478
42	0x3d0ab1d9	0.033861015
43	0xbd5f8a63	-0.054575335
44	0x3d2a4325	0.04156794
45	0xbd927294	-0.0715076
46	0x3d0e1aa1	0.034693364
47	0xbc7b221d	-0.015327957
48	0x3d3e5881	0.046471123
49	0x3c59b102	0.013286831
50	0x3ce814f7	0.02833031
51	0x3d761001	0.060073856
52	0xbc086ef7	-0.008327237
53	0xbc6c8fa6	-0.014438545
54	0xbd46701d	-0.048446763
55	0xbda7a7ce	-0.08186303
56	0xbce5bf86	-0.028045427
57	0x3d4fb73e	0.050711863
58	0x3d80fd51	0.06298316
59	0x3c9fb440	0.01949513
60	0x3d55912e	0.052140407
61	0xbd58e44e	-0.052952103
62	0x3d1f2760	0.03885591
63	0xbce7951c	-0.028269343
64	0x3d846a46	0.064655825
65	0x3a731f64	0.0009274392
66	0x3d26a2a5	0.040682454
67	0xbd199f1d	-0.037505258
68	0xbbb943bb	-0.005653826
69	0xbd4a1705	-0.04933836
70	0xbd84b99f	-0.06480717
71	0xbbe305bf	-0.006928175
72	0x3d02017f	0.031739708
73	0x3d6a062d	0.057134796
74	0xbd89f98d	-0.06737051
75	0x3d137764	0.03600253
76	0xbd727cf9	-0.059201214
77	0x3bc4a5ba	0.0060012015
78	0x3b78439d	0.0037882098
79	0x3c73bfde	0.014877288
80	0x3d86a23d	0.06573913
81	0xbd356ad0	-0.044291317
82	0x3c163f74	0.009170402
83	0xbd8cbd51	-0.06872047
84	0xbcf1df24	-0.029525347
85	0x3d087653	0.033315968
86	0xbd7c373b	-0.06157611
87	0xbc88de1d	-0.016707474
88	0x3d79c8ec	0.06098263
89	0xbb2471ae	-0.0025092172
90	0xbb40ba91	-0.0029408077
91	0xbd43505e	-0.047684066
92	0x3d7834c4	0.060597196
93	0xbc317efd	-0.010833499
94	0x3d34561a	0.044027425
95	0xbc5d854a	-0.013520548
96	0x3cdaecf0	0.026724309
97	0xbd36e2b6	-0.044649802
98	0xbd807099	-0.06271476
99	0x3cd87b12	0.026425872
100	0xbd04aee2	-0.032393344
101	0x3d040d0c	0.032239005
102	0xbccae1e3	-0.024765914
103	0xbd308e6d	-0.043104578
104	0xbcde0718	-0.027102992
105	0x3d807bb1	0.06273592
106	0x3d8348ef	0.06410395
107	0xbd115c4a	-0.035488404
108	0xbda04aed	-0.07826791
109	0x3d725d93	0.05917127
110	0x3d8b8ecd	0.068143465
111	0xba5dd24a	-0.00084618165
112	0x3b7835e0	0.003787391
113	0x3b246f3a	0.002509071
114	0xbc970d04	-0.018438824
115	0xbd988517	-0.0744726
116	0x3d3ae910	0.045632422
117	0xbc2aaf6d	-0.010417801
118	0xbd7cadcf	-0.061689194
119	0xbd67ff25	-0.05663981
120	0x3d29ec88	0.04148534
121	0x3c8dac85	0.017294178
122	0x3d83dd22	0.06438662
123	0xbd242a7f	-0.04007959
124	0x3d44bf81	0.048034195
125	0xbd18057e	-0.037114613
126	0x3d5ad6d5	0.053427536
127	0x3d1513c1	0.036395792
128	0xbd380ffe	-0.044937126
129	0xbda67af3	-0.081289195
130	0xbd02fdd7	-0.03198036
131	0x3d419c50	0.04726821
132	0x3d35011d	0.044190515
133	0xbd4ad082	-0.049515255
134	0x3cffb132	0.031212423
135	0x3d624047	0.05523708
136	0xbcf2f614	-0.029658355
137	0xbd9d6598	-0.07685393
138	0x3d3826a4	0.044958726
139	0x3d321953	0.043481182
140	0x3d581d12	0.0527621
141	0x3d3d2428	0.04617706
142	0x3cffaf08	0.031211391
143	0x3b1b05aa	0.00236545
144	0x39cc8030	0.0003900542
145	0x3cd3e969	0.025868135
146	0xbd65c055	-0.056091625
147	0x3b8dac94	0.0043235514
148	0x3d91d130	0.071199775
149	0x3d1c1dd9	0.038114402
150	0xbd558ef8	-0.0521383
151	0xbda132e0	-0.07871032
152	0x3d47a527	0.048741486
153	0x3c46d148	0.0121348575
154	0xbc74d315	-0.014942904
155	0xbc8845a6	-0.016634773
156	0x3d81c4ae	0.06336342
157	0xbc5b8dde	-0.013400523
158	0x3d223cd2	0.039608784
159	0xbd735216	-0.059404455
160	0xbba0e18d	-0.0049097002
161	0x3cacddec	0.021101914
162	0xbd21d824	-0.03951277
163	0x3b8925c8	0.004185412
164	0xbcfd2961	-0.03090352
165	0x3d34cec1	0.04414249
166	0xbd3213e2	-0.043475993
167	0x3d3c2870	0.045937
168	0xbdaaace2	-0.08333756
169	0x3d7f8393	0.06238134
170	0x3ca011c8	0.019539729
171	0xbc7bcece	-0.01536913
172	0x3cb3e68b	0.021960517
173	0xbcafa4f3	-0.021440959
174	0xbd0dbfd8	-0.034606785
175	0x3d75cce3	0.06000985
176	0x3c936c1d	0.017995888
177	0xbd327c93	-0.043575834
178	0x3d7ade0f	0.061246928
179	0xbd74038a	-0.059573688
180	0x3d2000ac	0.03906314
181	0x3d6062d8	0.054781765
182	0xbd8beaff	-0.06831931
183	0x3d12480f	0.03571325
184	0xbceec0c7	-0.029144658
185	0xbd43e10b	-0.04782204
186	0xbd053434	-0.032520488
187	0xbcd05085	-0.02542902
188	0x3c7529f2	0.014963614
189	0xbd9b2605	-0.07575611
190	0xbc48a769	-0.012246945
191	0xbbee24a4	-0.0072675515
192	0xbcab8844	-0.020939
193	0x3d9b0d55	0.07570902
194	0xbcff6055	-0.031173864
195	0x3c5d800d	0.013519299
196	0xbd90e3be	-0.070746884
197	0x3cb2229f	0.021745024
198	0x3d2a3907	0.04155829
199	0x3d03dc48	0.0321925
