imdb_train/train/pretrained_magnn/decoder_a.pth (torch, 135200 bytes, 4 tensors)

weight f4 [128, 128]
000000 4f a7 15 bc 75 e9 b7 bc bf 45 01 bb 99 c8 17 bd
       -0.009134128 -0.022450188 -0.001972541 -0.03705654
000010 70 e8 a3 bc 57 1d 43 bc 8f 0a b4 bc 45 a7 90 bc
       -0.020008296 -0.011908851 -0.021977691 -0.017657885
000020 c4 0e 9b 3b 0b 6a 82 3d b5 c4 3a 3d 55 36 3f bc
       0.004731985 0.06367882 0.04559775 -0.011670669
000030 c9 a0 8f bd 1e 6a 05 3d fc b4 ba bc 64 e6 f4 3c
       -0.07013089 0.032571904 -0.022791378 0.029895015
000040 fe 66 e9 3b 66 d7 89 bc bb e8 41 3b 0e 9b f5 bb
       0.0071228733 -0.016826343 0.002958818 -0.0074952906
000050 11 49 18 bd f6 fb 2c 3d 02 53 57 bc 36 fd 4a 3d
       -0.037179057 0.042232476 -0.013142349 0.049557887
000060 0d bf 0c 3c e8 ec 72 bd f6 45 e6 3d 56 21 46 bc
       0.008590472 -0.059307963 0.11243813 -0.012092909
000070 40 9f 23 bd 86 de 2a bd 50 36 80 bc bb fd 23 bd
       -0.039946795 -0.04171612 -0.015650898 -0.040036898
000080 c8 a9 ca 3c de 65 0f be 51 fe 86 3d 6f b5 c8 bc
       0.024739161 -0.14003703 0.06591476 -0.024500577
000090 3f 58 4f 3d fa 9f 86 bd 55 3a 47 3c 83 9e 41 bd
       0.050621267 -0.06573482 0.0121599035 -0.04727031
0000a0 97 33 a4 3a 31 db 51 bb d0 2d fd bb 92 4e c5 bd
       0.0012527582 -0.0032021517 -0.0077264085 -0.09634127
0000b0 46 9a 9f bc 0b 19 2c bd a8 a5 02 bd 94 f2 51 bc
       -0.019482743 -0.04201607 -0.031896263 -0.012814183
0000c0 c0 d4 65 bd 01 76 33 bd a1 1b b1 3d 2a 43 ff bb
       -0.056111097 -0.04381371 0.08647848 -0.007789989
0000d0 6b 18 ba bc 25 00 e0 3c 61 ad 13 3a 80 4e 92 3b
       -0.022716722 0.027343819 0.00056334405 0.0044649243
0000e0 07 8d 55 3c cd 53 75 3b be e2 3a bc 9c 25 bb bc
       0.013034112 0.0037433982 -0.011406599 -0.022845082
0000f0 7c b3 ef bc 4f 79 9b 3b 7a b7 24 bc fa 42 ee 3d
       -0.02926039 0.0047446857 -0.01005351 0.116338685
000100 af 46 cd 3c 3f f1 89 3d 4a eb a9 39 57 f7 8c 3c
       0.025058119 0.06735467 0.00032409496 0.017207785
000110 6e a9 fa bb 10 5b 4f 39 ef 3a a5 3d 41 6f 49 bc
       -0.007649592 0.00019774982 0.08067881 -0.012294591
000120 59 64 df bc 36 0b d3 bc 11 3a b2 bc 8c a1 98 bc
       -0.02726953 -0.025762182 -0.021756204 -0.018631719
000130 8d a4 44 bd d0 8f 6a bc 85 78 08 3c f0 32 27 3d
       -0.04800849 -0.014316514 0.008329515 0.040820062
000140 e2 cd 5d 3d 74 b1 71 bc 58 65 09 bd ed ad 39 bc
       0.054151423 -0.014751781 -0.033543915 -0.011332971
000150 26 ab 81 bc 24 83 29 bd 8d 6e 16 bd 4d 7e 39 bd
       -0.01582868 -0.04138483 -0.036726523 -0.045286465
000160 2f 58 39 bd 01 f0 21 3c 59 1b fd ba e9 08 2b 3d
       -0.045250114 0.009883882 -0.0019310518 0.041756544
000170 a8 66 9e ba ff 25 87 bc ae a4 df 3c bd c4 82 bc
       -0.0012085037 -0.01649761 0.027300205 -0.015962953
000180 44 99 7f 3c 30 9a b4 3c b6 d6 c0 bc fc 1c 92 3a
       0.015600506 0.022046179 -0.023539882 0.0011147554
000190 10 e5 49 3d 88 48 1f bd f7 be dc bc af 9a 95 bc
       0.049290717 -0.03888753 -0.026946528 -0.018262235
0001a0 f5 6a de 3c bc 4c 85 bd 42 45 aa bc 03 bd 92 3c
       0.02715061 -0.065087765 -0.020784978 0.017912393
0001b0 ef 5b cb bd 34 80 ea bd 1d f0 d5 3d 06 45 e0 39
       -0.09929644 -0.11450234 0.104461886 0.00042776036
0001c0 e2 09 50 bd b8 98 de 3c a7 6d 80 bc 15 06 3f bb
       -0.050790675 0.027172431 -0.015677286 -0.0029147912
0001d0 dd 0e 92 3c e3 5f 2f 3c 7a eb 99 3b cd 5c 61 3d
       0.017829353 0.0107040135 0.0046972604 0.055020142
0001e0 3f 91 67 b8 b3 eb 52 bc e5 7b 82 bd d6 48 0e bd
       -5.5209963e-05 -0.012873578 -0.06371287 -0.03473743
0001f0 bc 90 6e bd 9f b3 8d bc 57 8e 87 bc d1 27 cf bc
       -0.0582435 -0.017297564 -0.016547365 -0.02528754
000200 b6 31 e9 bb 6d f2 5e 3b c8 21 2a bd 7a e2 b9 bc
       -0.0071165217 0.0034019009 -0.041536123 -0.022691
000210 a4 da 0a be 1e 83 9a 3b e0 c2 15 3d 7a b0 bd 3b
       -0.13559967 0.0047153374 0.0365628 0.00578886
000220 5a 33 a7 3d 37 1e 06 bc d4 63 28 3c a8 e6 c9 3c
       0.081640914 -0.008185915 0.010277707 0.024646118
000230 9d 40 2f 3c 9e 6b 63 b9 63 6e b0 bd 3f b2 94 3d
       0.010696557 -0.00021688498 -0.086148046 0.0726056
000240 cc 1a c4 bd c1 8a 87 3b ba 90 ac bc aa 4a 75 bd
       -0.095754236 0.004136414 -0.021065105 -0.05988566
000250 34 32 ae 39 50 19 6f 3b 4e f8 bc 3c 55 22 2d bc
       0.0003322527 0.0036483593 0.02306762 -0.010567267
000260 a2 24 89 3a 2f 2a 30 bc af ef 46 bc e4 86 e0 bc
       0.0010463188 -0.010752245 -0.012142106 -0.02740807
000270 4a 1e 92 3d f1 7e fb bc ee 21 ff bb a6 85 0e bd
       0.071346834 -0.030700179 -0.007786027 -0.034795426
000280 5e 1a eb bc db 46 08 3b 16 8c 6e bb 22 db ac 3c
       -0.028699096 0.0020794186 -0.0036399416 0.021100584
000290 56 c6 3a 3d 77 4c 8a bd 11 41 81 3d e8 0c 28 3d
       0.045599304 -0.06752866 0.063112386 0.041027933
0002a0 05 48 b8 bc b1 dc a2 3a a1 fb c4 bc 5d 03 b6 3b
       -0.02249528 0.001242539 -0.024045767 0.0055546
0002b0 78 e3 8f bd 1f 82 80 3c d9 09 50 bb 7b ff 9c bb
       -0.07025808 0.015687047 -0.003174415 -0.004791198
0002c0 18 ec f3 bb ba 07 18 ba 11 17 c5 3c d5 29 2e 3d
       -0.007443916 -0.0005799491 0.02405885 0.042520363
0002d0 24 b8 1f bd fa 46 83 3b 88 63 56 3c b7 4d c5 bc
       -0.03899397 0.004006264 0.013085254 -0.024084909
0002e0 a6 52 88 bd 3b 05 51 bb 53 54 9e 3c 53 3f 02 3c
       -0.06656389 -0.0031893987 0.019327318 0.007949668
0002f0 79 96 62 3c 83 a4 c0 3c df 64 8f bd 2a 04 74 bc
       0.013829821 0.023515945 -0.070016615 -0.014893571
000300 c1 f1 50 3d 5a 36 31 3d cc 1e 21 3d 3d df 0f 3d
       0.051011804 0.043264724 0.03933601 0.035125006
000310 ad 05 f4 bc 90 a1 8f 3c 6c e8 06 3d 40 21 de bb
       -0.029787863 0.017533094 0.0329365 -0.006778866
000320 cc 9b 08 bd 2e 94 c6 ba e6 b3 94 3b e8 71 50 bd
       -0.033351704 -0.0015150362 0.004538047 -0.05088988
000330 12 61 96 3d ce 4f b1 bc 88 48 01 3d 4a db 25 bd
       0.073427334 -0.0216445 0.03156331 -0.040492333
000340 55 68 95 bd 50 13 ad bd 03 5e 99 3c 3a cc 66 3d
       -0.072952904 -0.08450949 0.018721586 0.05634711
000350 c7 e5 4d bd a7 a3 9c bd 20 b9 a3 bb 78 f8 8f bd
       -0.05026796 -0.07648402 -0.004996434 -0.070298135
000360 e9 4d c9 bd 3b e8 57 bc 3d 5c 3b 3d d1 d1 90 bc
       -0.09829313 -0.013177927 0.045742262 -0.017678173
000370 71 49 ae 3b 24 71 44 3c 8e ee b8 3c ae 6a 98 bd
       0.0053188135 0.011989865 0.02257469 -0.074422225
000380 f8 96 b0 3c e5 9f 9c 3d 95 74 aa bb 6a 1f 0e bb
       0.021556363 0.07647685 -0.005201886 -0.0021686205
000390 c4 33 df 3d 7a 37 a0 3c 3d 30 e7 bc 7d 36 f1 bb
       0.108985454 0.019557703 -0.028221244 -0.007361232
0003a0 bf c9 47 bd 31 cd 7a 3d 00 65 b6 3a 8f 0a 81 bc
       -0.048776384 0.061230842 0.0013915598 -0.015752105
0003b0 02 8b 86 bd 81 b3 a0 3b df f1 0e 3a 70 76 09 3c
       -0.065694824 0.004904211 0.0005452912 0.008390054
0003c0 66 44 b8 bc 10 76 4b bb 17 4c 6c bc 0f 02 aa 3c
       -0.022493552 -0.0031045713 -0.014422438 0.020752935
0003d0 88 e7 c0 bc f2 1e b1 3d 06 17 40 bd ba d7 17 3d
       -0.023547903 0.086484805 -0.046896957 0.037070967
0003e0 58 f5 73 bc 90 87 e3 3c 99 c4 2c bd 62 15 44 bd
       -0.0148900375 0.027774602 -0.042179678 -0.047871955
0003f0 94 fa 5f 3d 03 3f 81 bc ad e3 57 bd 0c 2c 92 3d
       0.05468233 -0.015777117 -0.052707363 0.071373075

bias f4 [128]
000000 28 57 d3 bd b4 94 35 bd f9 b5 a8 bd 7c 02 35 3c
       -0.10319358 -0.044331267 -0.082378335 0.011047956
000010 d8 ea e4 3c 00 6e cc 3d be 0e 06 bc 5b 63 c7 bc
       0.027944013 0.09981918 -0.008182226 -0.024339369
000020 1c aa 75 bd 3a 16 25 3d b8 9a 8d bc 68 6a 37 bd
       -0.059976682 0.0403044 -0.01728569 -0.04477921
000030 f6 49 86 bd 05 9d b2 3d 46 61 7c bd a0 26 a2 bd
       -0.06557076 0.08721355 -0.061616205 -0.079175234
000040 cc 2e 80 3c da 89 9f bd 65 4c b7 bd cf 87 0c bb
       0.015647314 -0.07789965 -0.08950118 -0.0021443253
000050 fb 52 bd 3d 68 85 18 bd f5 4c 8b bd e6 62 98 bd
       0.09244343 -0.0372366 -0.06801788 -0.074407384
000060 31 28 4b bb 14 a9 4b 3d 16 c4 97 3d 5f 12 a8 bc
       -0.0030999298 0.049721792 0.07410447 -0.020516573
000070 93 4b ca 3c c0 07 ff 3b a3 89 4e bd 30 71 d2 3d
       0.02469424 0.0077829063 -0.05042423 0.10275495
000080 29 d3 9b 3d 28 3e 23 3c e4 cf 2b 3c 3d 82 75 3d
       0.07608635 0.00996355 0.010486577 0.059938658
000090 a2 5c 1a 3d 71 e5 3b bd 09 da 76 3d 55 81 74 ba
       0.037685998 -0.04587311 0.06026653 -0.00093271333
0000a0 c4 49 b8 bd 3a 32 b8 3d 65 f4 c6 bd ec cf 8c 3c
       -0.08998445 0.08993955 -0.09714583 0.017188989
0000b0 03 e2 34 3d 76 01 7b bd 2e 2f b6 bc 44 9b a3 3d
       0.044160854 -0.06128069 -0.022239294 0.07988599
0000c0 ef 86 11 bd 81 87 33 bc 81 88 b5 bd bb 6e 7e bd
       -0.035529073 -0.0109576 -0.08863927 -0.06211732
0000d0 92 ff 89 3d 3f 5f 12 3d 59 0c b9 bd 47 ee b2 bb
       0.06738199 0.035735365 -0.09035558 -0.005460534
0000e0 47 df 15 bd 86 a7 56 3d 75 ce 0b bc ef 75 60 3b
       -0.036589887 0.052405857 -0.00853311 0.0034249981
0000f0 85 36 0d 3d c0 02 3a bd ad 8a ae 3d 53 b3 89 bc
       0.034475822 -0.04541278 0.08522544 -0.016809141
000100 5f f6 c5 3d 67 fb 98 3d ac 5a 65 3d c7 0a 87 3d
       0.09666132 0.07469826 0.055994675 0.065938525
000110 c4 97 df bd 82 ae 27 3d ab 98 ac 3d 48 23 17 bd
       -0.10917619 0.040937908 0.084275566 -0.03689888
000120 b0 c8 59 3d 3c d1 44 bd 6e 32 c0 bc 43 f6 96 bd
       0.053169906 -0.048051104 -0.023461547 -0.073711894
000130 aa 93 5f bd a5 09 22 3b 9a 3f 43 3d c9 d7 87 3c
       -0.054584183 0.0024724987 0.047668077 0.016582387
000140 83 e2 9d 3d f0 48 49 bd 7b 56 b0 bd eb da bf 3b
       0.07709219 -0.049141824 -0.08610245 0.0058549545
000150 d6 e3 a8 3d 22 fa 6c bd 3a c1 d0 bd 2c b9 69 3c
       0.08246581 -0.057855733 -0.10193105 0.01426534
000160 61 f3 0b 3d 2c 70 d4 3c 72 ba 63 bd 7d 92 54 3d
       0.03416765 0.025932394 -0.05559773 0.051897515
000170 c7 c8 db bd 7d d1 7e 3d d9 a8 73 3d 77 21 97 3d
       -0.107316546 0.062211502 0.059487198 0.0737943
000180 25 65 78 bd 77 8a 9b bc a9 10 52 3d 0d 32 b9 3d
       -0.060643334 -0.018986924 0.05128542 0.090427496
000190 a0 a2 69 bd 29 4d 96 bd 7a 30 f1 3c 6d 71 d8 3c
       -0.057039857 -0.07338936 0.02944206 0.026421273
0001a0 63 41 42 3c cf 50 b3 bd 3c 39 b0 bc 56 dc a4 bd
       0.01185641 -0.087556474 -0.021511666 -0.08049838
0001b0 11 d1 3d bd 6d 2a 84 bd 4d f5 74 bd 38 b1 20 bd
       -0.04634196 -0.064534046 -0.05980425 -0.03923151
0001c0 74 84 6e bd 0d 01 a7 3d a7 db 16 bc 51 cf dd bc
       -0.058231786 0.08154497 -0.009207643 -0.027076395
0001d0 eb 6f 26 3c f0 8c a8 bd be e8 ac 3c b7 cc 79 3d
       0.010158519 -0.08230007 0.021107074 0.060986247
0001e0 08 c0 b0 3d 23 e3 87 3d e7 e6 ca bb ea 57 0e bb
       0.08630377 0.0663512 -0.0061920765 -0.0021719881
0001f0 ec 3b c7 3d 0b 97 52 bd 3c ad bc bc 21 bd b2 bc
       0.09728226 -0.051413577 -0.023031823 -0.0218187

weight f4 [128, 128]
000000 4b 43 83 bc d5 65 90 3d 81 4f 39 3d 88 84 19 3d
       -0.016023299 0.07050673 0.045241836 0.037479907
000010 97 46 d3 3c 88 c8 69 3c a0 fc fc 3c 58 1b 0f 3a
       0.025790496 0.014269002 0.03088218 0.00054590916
000020 46 9a f2 bb 72 08 a5 3c 57 69 da bc 7c 27 24 3d
       -0.0074036447 0.020145629 -0.026661558 0.040076718
000030 3d 40 4a bb 19 26 0c 38 ba ca a1 bc 08 67 7e 39
       -0.0030861043 3.3414082e-05 -0.019749988 0.0002426171
000040 a6 71 36 ba 8c 5d a9 3c 88 dc f5 3c fe 32 3f bd
       -0.0006959684 0.02067449 0.030012384 -0.04667949
000050 42 9e 83 bc d9 f9 f5 bc a6 65 80 bb 87 e9 84 3d
       -0.016066674 -0.030026363 -0.0039183674 0.06489854
000060 fc 4f 0e 3d a4 5f 7d 3c 7d 9a c0 bc 41 23 b3 39
       0.034744248 0.015464697 -0.023511166 0.00034167807
000070 08 df 86 3d 12 67 44 bd 93 b8 ee 3c e8 a6 2e 3c
       0.065855086 -0.047949858 0.029140746 0.010659911
000080 19 e2 ac 3c eb 1e 92 3d 72 2f ba 3c 85 bf ed bc
       0.021103906 0.071348034 0.022727702 -0.029021988
000090 2b 63 08 3d 02 e8 7d 3c 36 70 34 bd 9c 63 25 3d
       0.0332977 0.0154972095 -0.044052325 0.040378198
0000a0 51 cd 1d 3d 65 40 a7 3c 10 a4 92 bd 11 5c 6b bc
       0.038525883 0.020416448 -0.07160199 -0.014365212
0000b0 01 67 41 3d 2c e8 07 bd 31 1c 8c b6 b9 52 58 bc
       0.047217373 -0.0331804 -4.175607e-06 -0.013203316
0000c0 05 5b 2e bc 31 9b 8d bc bd e9 50 3d a0 f2 d5 bd
       -0.010641818 -0.017285915 0.05100416 -0.10446668
0000d0 e3 2d 63 3c 86 9e 77 3b bf 65 27 bd 80 26 27 bd
       0.013865921 0.0037783696 -0.040868517 -0.0408082
0000e0 a2 eb 4b bd d4 13 16 bd 74 71 8c 3d d0 be 85 3d
       -0.049785264 -0.036640003 0.06857577 0.06530535
0000f0 a4 4c 80 3c 33 e8 21 bd 3b 35 02 3e 69 72 2e bd
       0.015661545 -0.039528083 0.12715618 -0.04258958
000100 63 ce c7 3c 26 68 1e 3d a1 4c db bc a3 3c be bc
       0.024390405 0.038673542 -0.026769938 -0.023222273
000110 79 a4 24 bd 2d d5 0b bd 5b 45 68 3c c3 c5 61 bc
       -0.040195916 -0.034138847 0.014176692 -0.01378006
000120 83 b7 87 bd 04 09 f9 ba 6e 54 50 3b 26 0e 05 bd
       -0.06626799 -0.0018999879 0.0031788605 -0.032484196
000130 b6 b2 61 bc 52 64 8f 3d 9b 15 2b 3d 7e 98 1d 3d
       -0.013775518 0.070015565 0.04176865 0.038475506
000140 cb e3 36 bd 0f cf 6a 3c f8 6d 4e 3d 44 d0 85 bc
       -0.044650834 0.014331593 0.050397843 -0.01633466
000150 44 f9 09 3d 58 e6 cf 3d 79 e8 6e bd 77 d0 77 3d
       0.033684984 0.101513565 -0.058327172 0.060501542
000160 cd 50 12 3e 88 8a 40 bd 5d dd cd bb 8c d8 c8 bc
       0.14288636 -0.047007114 -0.006282492 -0.02451732
000170 2a 38 4e 3d 51 89 26 3d 77 09 83 bd 6c 7e a2 bb
       0.05034653 0.0406583 -0.0639829 -0.0049589183
000180 54 8d 18 3d b8 c1 5b 3d c2 83 7d 3c ac 43 42 bd
       0.037244156 0.05365154 0.015473308 -0.04742782
000190 6c 62 6d 3c bd 66 fa ba 26 ef aa 3d 8c 8e 08 bd
       0.014488798 -0.0019104105 0.08346395 -0.03333907
0001a0 ea 16 16 be bf 23 08 bc e2 08 01 3d 32 b7 2e bb
       -0.14657179 -0.008309304 0.031502612 -0.0026659486
0001b0 9a 69 2d bd 12 2a 2f 3d a0 60 4f bd 45 f4 bd bb
       -0.042337038 0.04276473 -0.05062926 -0.0057969415
0001c0 0a 78 5d 3d d0 44 41 bc 6a fe 3c 3d 5f 1b cd 3d
       0.054069556 -0.011796191 0.046141066 0.10014986
0001d0 6c 7b 31 3c af dc c8 3c 23 70 15 3d 80 2b 03 bd
       0.010832649 0.024519293 0.036483895 -0.032023907
0001e0 38 69 11 bd 6f 60 51 3d 32 7e f9 3b 2a 1c 87 3c
       -0.035500735 0.051117357 0.0076139206 0.016492922
0001f0 91 85 2f bc 21 07 d9 bc e6 d4 ec bc 97 76 54 bc
       -0.010712997 -0.026492657 -0.028910112 -0.012967727
000200 fd 35 82 bb ac c2 98 3c b5 25 5d 3c c9 4f 0d bc
       -0.003973721 0.018647514 0.01349776 -0.008624979
000210 bb 33 42 3d 18 6f 31 bd c7 28 22 bc 5b 7a 28 bd
       0.047412615 -0.043318838 -0.009897417 -0.041132312
000220 85 94 e2 3a ef 5a 06 3c 01 02 d7 3c c8 f8 3e bd
       0.0017286694 0.008200391 0.026246073 -0.046623975
000230 c2 89 01 3d a0 32 ba 3c 9b ca 57 bb 59 55 2b bd
       0.031625517 0.022729218 -0.0032927159 -0.04182944
000240 e7 af 6a bd a4 34 a0 bc 5b 3f bc 3c 02 18 19 3d
       -0.05729666 -0.019556351 0.022979429 0.03737641
000250 10 22 0d bc a4 4c a5 bd 23 a9 ac 3c 8e 1f ee 3c
       -0.008614078 -0.08071259 0.021076744 0.02906778
000260 43 a6 59 bd 9d 06 28 3c ad 56 89 bc 72 3f 00 3d
       -0.053137075 0.010255483 -0.016764963 0.031310506
000270 44 08 a3 bc 42 bb 27 bd f9 1f 02 3d 8f 7c 47 bc
       -0.019901402 -0.040950067 0.031768773 -0.012175693
000280 75 87 ae 3c 1b 90 a9 bd 63 11 4b 3c 5e 67 32 bd
       0.021304825 -0.08279439 0.012394282 -0.04355561
000290 37 01 12 3d 21 f9 80 3c 40 8a 80 3c 67 26 56 3d
       0.03564569 0.015743794 0.015690923 0.052282717
0002a0 46 4b 26 bb cd cc 24 bc 16 59 06 3c d9 82 c9 bd
       -0.0025374456 -0.010058594 0.008199951 -0.0983941
0002b0 12 c7 01 3d e3 e0 8f bc 7a 57 01 37 8a 90 5a bc
       0.03168399 -0.017563289 7.709366e-06 -0.013340125
0002c0 04 4b 21 3d 18 09 01 bc 1f 99 77 3c 54 54 b9 3b
       0.03937818 -0.007875703 0.0151121905 0.0056558046
0002d0 fc ac f0 39 33 6f 52 bc e7 55 2f 3d 67 f7 fb bc
       0.0004590525 -0.012843895 0.042806532 -0.030757619
0002e0 9b ed 81 bb f5 20 15 3d f2 e2 80 3d d8 13 74 3c
       -0.0039650924 0.036408383 0.062932864 0.014897309
0002f0 3b 3b 4e bc 0f 96 04 be 58 fa 54 bc ae ac c4 bb
       -0.012587364 -0.12947868 -0.01299914 -0.0060020303
000300 11 76 85 bd 1f 61 b5 bc 96 79 06 3d 6b b1 13 3e
       -0.0651666 -0.022141038 0.032830797 0.14423148
000310 4e 68 1a 3d 9e ae 89 bc 50 1e 3f b6 17 e1 75 3d
       0.03769713 -0.016806897 -2.8478862e-06 0.060029116
000320 21 83 90 3c 54 f1 55 3d fd a4 ae 3d e2 a9 66 3c
       0.017640652 0.0522321 0.08527563 0.014078589
000330 e6 c1 db bc 48 db 96 3d a7 46 dd 3c 57 60 c1 3d
       -0.026825856 0.07366043 0.027011229 0.094422035
000340 f5 03 53 bd 34 20 04 bd b1 bb ba 3c 8e ce 2a 3a
       -0.051517446 -0.032257274 0.022794576 0.00065157644
000350 60 aa c0 3c 63 8f 14 3e 24 f0 b0 ba 34 45 21 3d
       0.023518741 0.14507823 -0.0013499302 0.039372638
000360 dd ba ce 3c 09 f3 b4 ba b1 5c d9 bb 86 2a 2f bd
       0.025235588 -0.001380534 -0.006633364 -0.042765163
000370 5d 7c 96 3c 64 f7 ca bc a8 8e ee ba b4 f1 04 3c
       0.018369848 -0.024776168 -0.0018200474 0.008114267
000380 64 48 d8 3c a9 27 96 bc 9a 7e 98 3c d0 42 bc bd
       0.026401706 -0.018329458 0.018615056 -0.09192431
000390 1c 0c 00 3b 95 4c ff ba dd 85 d7 3c 86 ef 58 3d
       0.0019538468 -0.0019477779 0.026308948 0.052962802
0003a0 b4 b1 e2 bc 65 41 1d 3b 28 5c 0c 3d 5b af 95 3a
       -0.027672626 0.0023995277 0.034267575 0.0011420058
0003b0 e2 6f f2 bc ba 45 56 bd ea 7c c2 bb 7a 94 0b bc
       -0.029594366 -0.05231259 -0.005935301 -0.008519286
0003c0 8c 79 78 3a cd 12 b4 3d 5d d3 f7 3c 72 ec 24 3c
       0.0009478561 0.087926485 0.030252153 0.010066139
0003d0 46 bc 04 39 48 c1 ef 3c e1 f7 e5 3c 16 b7 19 3d
       0.00012658638 0.029266968 0.0280723 0.03752812
0003e0 c8 43 68 bc f9 39 3f bb 30 4f ce 39 b7 e8 d5 bb
       -0.014176317 -0.0029178842 0.0003935038 -0.006527986
0003f0 e2 55 81 3a 63 89 2b 3b d8 df 90 bc 31 f8 27 bd
       0.0009867514 0.0026174418 -0.017684862 -0.04100818

bias f4 [128]
000000 80 9d 99 3c 49 12 9a bd 74 18 0d bd 82 2c 16 3d
       0.01875186 -0.07523019 -0.03444715 0.03666354
000010 19 39 7b 3d 9e 2d ce bb d6 11 a3 bd db 45 87 3c
       0.06133375 -0.006292059 -0.07962386 0.016512802
000020 08 d1 93 bd 40 0e 83 3c 6f 8a 81 3d c5 07 0c 3d
       -0.07217604 0.015998006 0.06325232 0.034187097
000030 7c 2f b4 3d c9 26 3d 3d 7c 31 fb 3b 44 5e 72 bc
       0.087981194 0.046179567 0.007665811 -0.0147929825
000040 46 bd 68 3d c0 b4 b3 3c 1c f9 b5 3d 9e 1d 4c bd
       0.05682113 0.021936774 0.088854045 -0.049832933
000050 1f cf ad bd fe 1e e9 3a a8 f3 f1 3c 7c b9 a1 bd
       -0.08486771 0.0017785726 0.02953513 -0.078967065
000060 88 b7 85 3d 3e b4 3d bd 75 be a9 bd 88 5c 1d bd
       0.065291464 -0.04631447 -0.0828828 -0.038418323
000070 90 f7 44 bd de 7d 8b bd cf 74 47 bb 55 a2 eb bc
       -0.048087656 -0.06811117 -0.0030434614 -0.02876393
000080 fe b0 f4 3c 45 cd 3a 3c 61 49 99 bd 67 15 48 bd
       0.029869553 0.011401479 -0.07484699 -0.048848536
000090 57 2a 76 bd 76 16 b4 3c 54 9e 90 bd 93 25 22 bd
       -0.060098972 0.021983366 -0.07061449 -0.039586615
0000a0 e5 98 d7 3c f5 a8 85 3d e0 a8 bc 3c 56 14 74 bd
       0.026318023 0.065263666 0.023029745 -0.059589706
0000b0 59 12 12 bc 98 11 be 3d 56 9e 72 3d e7 a6 8c 3b
       -0.008915507 0.092806995 0.059233032 0.0042923572
0000c0 48 ad 0c bc 04 26 9b 3d e5 ec 88 bd 5a 67 6c 3c
       -0.008586235 0.0757561 -0.06685809 0.014428938
0000d0 c1 a7 77 bc d7 ab c2 bd 69 ff 84 3d 5f 0e 90 3d
       -0.015115679 -0.09505432 0.06494028 0.07033991
0000e0 f9 8b 9b bd 7d be 37 bc 9a f4 11 bd 1c b0 a4 3a
       -0.07595057 -0.01121485 -0.03563366 0.0012564692
0000f0 4c da af bd f0 04 2b 3d 29 29 0c bd 29 3e 77 bd
       -0.08586559 0.041752756 -0.03421894 -0.060362015
000100 73 06 bc bc 2b 11 27 3d 7a a0 82 bd ea b6 55 bc
       -0.022952294 0.040787857 -0.06378265 -0.013044098
000110 57 f9 96 3c 90 7e 5a bd df 0e 11 3d b0 86 40 bc
       0.018429441 -0.053343356 0.035414573 -0.011750862
000120 b3 83 fa bc 93 4c 3d 3d d9 f4 f9 bc 17 4e 32 bd
       -0.030580377 0.046215605 -0.03051226 -0.043531504
000130 5f a3 75 bd b9 d3 ce bc 41 db 89 bd 14 bb 95 bd
       -0.059970256 -0.025247442 -0.067312725 -0.07311073
000140 7e d6 35 bd 33 f2 6a 3d 97 32 4d 3d bd e6 3a bd
       -0.04439401 0.057359885 0.050097074 -0.045630205
000150 aa 98 8b bd 2c bd 4f 3c 99 00 70 3d bd b7 3b bd
       -0.06816228 0.012679379 0.05859432 -0.045829523
000160 7b ca 59 3d de a1 a7 3c 56 4d 25 bd 8f cd 91 bd
       0.053171616 0.020462926 -0.040356956 -0.07119285
000170 37 d0 eb bc 0b f0 bc 3c 2f 3a 80 bd e7 70 a8 bd
       -0.028785808 0.02306368 -0.06261098 -0.082246594
000180 0a b9 25 3d 6f 90 b4 3d 51 8d 4f 3c 98 bc 7b 3d
       0.04045967 0.08816611 0.01266797 0.061459154
000190 e6 e1 83 bc 86 e3 87 bd 7e 1c 13 3d 91 a6 8f 3d
       -0.016098928 -0.066351935 0.035915844 0.07014192
0001a0 26 f7 8e 3d e9 e2 08 3d 7f 7d d4 ba de eb 86 3d
       0.069807336 0.033419523 -0.0016211717 0.06587957
0001b0 78 61 99 bd 9c 5b dc 3c dd a2 9d 3b 96 fd 76 ba
       -0.07489294 0.026899152 0.0048106746 -0.00094219425
0001c0 26 f7 ba 3c 37 b9 a5 3d 49 5e 96 3d dd 94 34 3d
       0.022822928 0.080919676 0.07342202 0.04408728
0001d0 8f 0b 92 bd 0e 64 60 3d 73 0d 90 bd 33 20 8b bd
       -0.07131111 0.05478292 -0.07033815 -0.06793251
0001e0 f7 07 12 bd 5f b9 a1 3d e2 d6 3f 3c 69 ea 88 3d
       -0.035652127 0.07896685 0.011708947 0.06685335
0001f0 8f a4 b7 bd 34 5a 01 3d e6 39 87 bd c2 36 e1 3d
       -0.08966934 0.031580165 -0.0660284 0.10996772
