imdb_train/train/pretrained_magnn/encoder2.pth (torch, 609136 bytes, 21 tensors)

att_vec f4 [3, 128]
0	0xbe0e02ad	-0.13868208
1	0xbe001fed	-0.12512179
2	0xbe0517ad	-0.12997313
3	0x3dfdc5f8	0.12391275
4	0xbe0509e9	-0.12992062
5	0x3e14df8b	0.145384
6	0xbd895772	-0.06706132
7	0x3ced843d	0.02899372
8	0x3e2ab592	0.16670826
9	0x3ba546bd	0.005043833
10	0xbdd6e854	-0.10493532
11	0xbe2da72b	-0.16958301
12	0x3d39a565	0.04532375
13	0xbdfa9861	-0.12236095
14	0x3d158efd	0.036513317
15	0xbca42715	-0.020038167
16	0xbd7bf6d7	-0.0615147
17	0xbe3505f0	-0.17678046
18	0xbd84b1ff	-0.064792626
19	0x3d90e84b	0.07075556
20	0xbcd41d5e	-0.02589291
21	0x3e437587	0.19087802
22	0x3e107f8e	0.14111158
23	0x3dfe3d30	0.12414014
24	0x3e29a69d	0.16567464
25	0xbba9c916	-0.005181442
26	0x3e1c8693	0.15285711
27	0x3df573f8	0.1198501
28	0x3d860bad	0.06545196
29	0xbd1cd118	-0.038285345
30	0x3dc71ff1	0.09722889
31	0x3d5b7d0c	0.05358605
32	0x3e061373	0.13093357
33	0xbda434a1	-0.08017851
34	0x3d66ade0	0.056318164
35	0x3d321351	0.043475453
36	0xbd9430ff	-0.07235908
37	0x3ce62611	0.028094323
38	0x3d9a92b9	0.075475164
39	0x3e5561b8	0.20838058
40	0x3d7d74c2	0.061878927
41	0x3cd81ca5	0.026380846
42	0x3cd89801	0.026439669
43	0xbdcddaa2	-0.100514665
44	0xbd5984ec	-0.05310528
45	0xbdfab405	-0.12241367
46	0xbe0bb798	-0.13644254
47	0xbd457508	-0.048207313
48	0xbe03f86d	-0.12887736
49	0x3e11d5e7	0.14241754
50	0xbd214aa7	-0.039377835
51	0x3d13537f	0.0359683
52	0x3cfcdd41	0.03086722
53	0x3e3090c6	0.17242727
54	0x3db65612	0.08903135
55	0x3dccd251	0.10001052
56	0x3dd4e60a	0.10395439
57	0xbe195309	-0.14973082
58	0x3d2977d7	0.041374054
59	0xbde2835d	-0.11060212
60	0x3d3a5f80	0.045501232
61	0xbd2ef2a3	-0.042711865
62	0x3d57013c	0.05249141
63	0xbd71dcc4	-0.05904843
64	0x3c71f1f0	0.014767155
65	0xb9ebd6cd	-0.00044982732
66	0xbd7bd6be	-0.06148409
67	0xbdb8fc18	-0.09032458
68	0x3dbaeb5d	0.09126923
69	0x3ce5c68e	0.02804878
70	0xbe0a056e	-0.13478634
71	0x3e1c3be0	0.15257215
72	0x3df299dd	0.11845753
73	0x3daa326f	0.08310401
74	0x3dbf57b6	0.093429014
75	0x3e374068	0.17895663
76	0xbdd1dc4e	-0.10247098
77	0x3ce402b7	0.027833326
78	0xbd34ac32	-0.04410953
79	0x3d633499	0.055470083
80	0x3e1e0d72	0.15434816
81	0x3db7a046	0.089661166
82	0xbddd3324	-0.1080077
83	0xbe35f35e	-0.17768618
84	0x3e058b7d	0.13041492
85	0x3dc43f61	0.09582401
86	0xbe194fc8	-0.1497184
87	0x3e36025b	0.17774336
88	0x3e18c9dd	0.14920755
89	0xbe18a787	-0.14907657
90	0xbd293d94	-0.04131849
91	0x3df3d3ed	0.11905656
92	0xbe1a1aaa	-0.15049234
93	0xbd284427	-0.04108062
94	0xbd6df889	-0.05809835
95	0xbcaddd4b	-0.021223685
96	0x3d48195d	0.048852313
97	0x3df26397	0.118354015
98	0x3de3b9d5	0.11119429
99	0xb6da676e	-6.508947e-06
100	0x3e086e48	0.13323319
101	0x3d3f21a9	0.04666296
102	0xbc10c153	-0.008835155
103	0x3e503c8e	0.203356
104	0x3d6484f2	0.05579085
105	0xbe0fdef8	-0.140499
106	0x3d4a7252	0.04942543
107	0x3c8919da	0.01673596
108	0xbe3b60ef	-0.18298696
109	0xbdad47e8	-0.08460981
110	0xbcd44668	-0.025912479
111	0x3dc1e69c	0.094678134
112	0xbdd71492	-0.1050197
113	0xbdd5cd59	-0.104395576
114	0xbd92dfc8	-0.07171589
115	0x3dca06bf	0.09864568
116	0x3e145ff9	0.14489736
117	0x3e480bdf	0.19535778
118	0xbdd0c654	-0.10194078
119	0xbdb22d26	-0.08700018
120	0xbe355460	-0.17707968
121	0x3de52076	0.11187832
122	0x3d8d761f	0.069072954
123	0xbe1d6506	-0.15370569
124	0x3e24b1c1	0.16083433
125	0x3e134c6e	0.14384624
126	0xbdb9a7ad	-0.09065185
127	0xbced5efb	-0.028975954
128	0x3cdcb34e	0.026940968
129	0xbe2f0e14	-0.17095214
130	0xbe189fcd	-0.14904709
131	0xbb939832	-0.004504227
132	0x3deabab1	0.1146139
133	0x3df2cac3	0.1185508
134	0x3d402bc6	0.046916746
135	0xbdc7e134	-0.09759751
136	0x3e03ecb9	0.12883271
137	0xbdf9cba4	-0.121970445
138	0x3de28745	0.11060957
139	0x3d885b13	0.06657996
140	0xbe018791	-0.1264937
141	0xbd95628f	-0.07294189
142	0x3ddf4969	0.10902674
143	0xbdfdd677	-0.123944215
144	0x392b4b24	0.00016335823
145	0x3e3e966d	0.1861207
146	0x3e113e09	0.14183821
147	0xbdcff1c8	-0.10153538
148	0xb71d987b	-9.393431e-06
149	0x3c3c19a6	0.011480724
150	0x3d81c7ee	0.06336962
151	0xbdbedabd	-0.09319065
152	0xbe3d3fbd	-0.18481345
153	0xbe46d08c	-0.19415492
154	0x37aca5b1	2.0581154e-05
155	0x3dc45fb6	0.09588568
156	0xbe2d5147	-0.16925536
157	0xbd9b9d92	-0.075984135
158	0x3d9fd7c8	0.07804829
159	0xbd3ee3ef	-0.046604093
160	0x3e0e4240	0.1389246
161	0xbdf56fcb	-0.119842134
162	0xbe43cee8	-0.19121897
163	0x3aa6337c	0.0012680138
164	0xbe20983c	-0.15683073
165	0xbda4ef2d	-0.08053432
166	0x3e40ad40	0.1881609
167	0x3c327e72	0.010894405
168	0x3d6f67ba	0.05844853
169	0xbe35e4f3	-0.17763118
170	0x3db7657f	0.08954906
171	0xbdf6d300	-0.12051964
172	0xbd9fe223	-0.07806804
173	0xbc38858b	-0.011262308
174	0x3dfaebb3	0.12251987
175	0xbe0b726e	-0.1361787
176	0x3ce08faa	0.027412254
177	0x3c883107	0.01662494
178	0xbdaf4e09	-0.08559806
179	0x3e2c033e	0.16798112
180	0x3d7bd862	0.061485656
181	0xbd527569	-0.051381502
182	0xbdb229c6	-0.08699374
183	0xbd68731d	-0.056750406
184	0x3d80af6e	0.062834606
185	0x3b70ebe0	0.0036761686
186	0xbbeecfdd	-0.007287963
187	0xbe2c3177	-0.16815744
188	0xbd9cc98f	-0.07655632
189	0x3cbe7f41	0.023254039
190	0xbd387f8e	-0.04504352
191	0xbce1ab89	-0.027547615
192	0xbcf3c42c	-0.029756628
193	0xbe415e41	-0.18883611
194	0xbdbc46c8	-0.09193188
195	0xbdfa5afc	-0.12224385
196	0xbe420840	-0.1894846
197	0x3e0dca27	0.13846646
198	0xbe0a95ec	-0.13533753
199	0xbdc1390e	-0.094347104
200	0x3be698c8	0.007037256
201	0x3e001379	0.12507428
202	0xbdafed08	-0.08590132
203	0xbe0c59f4	-0.1370619
204	0x3dbfdaf0	0.09367931
205	0x3de41d95	0.11138455
206	0x3c1b688e	0.009485377
207	0x3dc47845	0.09593252
208	0xbd603cc5	-0.054745454
209	0x3bb61dfa	0.0055577727
210	0x3d0ef926	0.034905575
211	0xbe15c8ec	-0.14627427
212	0x3e4292b6	0.19001278
213	0xbd171671	-0.036886636
214	0xbddbe480	-0.10736942
215	0xbcbb6517	-0.022875352
216	0x3dc7820b	0.097416006
217	0x3dac8df8	0.08425516
218	0xbe143a67	-0.14475404
219	0x3bd4118d	0.006471819
220	0xbc9a10b2	-0.01880679
221	0xbe3687fd	-0.17825313
222	0xbe0e7ae4	-0.13914067
223	0xbce3ffe6	-0.027831983
224	0x3d193a38	0.037409037
225	0x3e28400e	0.16430685
226	0xbb8ece23	-0.0043580695
227	0xbd876359	-0.06610746
228	0x3de3af37	0.11117404
229	0xbe0f5351	-0.13996626
230	0x3d9ccd06	0.076562926
231	0xbc9712f8	-0.018441662
232	0xb7070665	-8.048116e-06
233	0x3d4c4e04	0.04987909
234	0x3e352520	0.17689943
235	0xbda66913	-0.0812551
236	0x3d4b3a68	0.049616247
237	0x3e10876e	0.14114162
238	0xbe0fc175	-0.14038642
239	0x3dec121c	0.115268916
240	0xbdd896d3	-0.105756424
241	0xbb7766e5	-0.003775054
242	0xbdfe40f2	-0.12414731
243	0x3d8f372c	0.06992945
244	0xbab99801	-0.001415968
245	0x3e1d3df2	0.15355662
246	0xbc7e2832	-0.015512513
247	0xbb74a657	-0.0037330592
248	0xb72bf540	-1.0249496e-05
249	0xbe281c8b	-0.16417138
250	0x3c8863e8	0.016649202
251	0x3e13753c	0.1440019
252	0x3e45853a	0.19289103
253	0xbda320cb	-0.07965239
254	0x3e19cca8	0.15019476
255	0x3d3893c5	0.0450628

weight f4 [128, 128]
0	0x3d8a7f60	0.06762576
1	0xbbbd4963	-0.0057765706
2	0x3d759616	0.059957586
3	0x3d69f19e	0.05711519
4	0x35ec702c	1.7616017e-06
5	0xb7f6161d	-2.9335783e-05
6	0x3d02dc07	0.031948116
7	0xbd2ea2fa	-0.042635895
8	0xbb971fbc	-0.0046119373
9	0xbbaff707	-0.005370024
10	0x386582ea	5.4719778e-05
11	0xbd0273b9	-0.031848643
12	0x38e74579	0.00011027879
13	0xbb0eb324	-0.0021774257
14	0xbd6391e1	-0.055559043
15	0x3910e661	0.00013818733
16	0x3bc551fe	0.006021737
17	0xbd523f1c	-0.051329717
18	0x3908bddd	0.000130407
19	0x3cd9e050	0.026596218
20	0xbbfa2334	-0.007633591
21	0xbc62af2a	-0.013835708
22	0x3b0fbe6a	0.0021933564
23	0xbd14bb03	-0.03631116
24	0xbac3f708	-0.001495094
25	0x39e5a88e	0.00043803867
26	0x3bc645e6	0.006050813
27	0x374c5cd7	1.21809635e-05
28	0x3a527d8d	0.0008029573
29	0xbd485692	-0.048910685
30	0x3874a56d	5.8328198e-05
31	0x3d3aa889	0.045570884
32	0xbd735679	-0.05940864
33	0x37db4012	2.613667e-05
34	0x3d690a04	0.056894317
35	0x36166f43	2.2416505e-06
36	0xbd2388f5	-0.039925534
37	0x3502e4d8	4.8761785e-07
38	0x3cb7468a	0.022372503
39	0x3ccaa563	0.024737066
40	0x38732a01	5.7974834e-05
41	0xbcaf035d	-0.021363908
42	0xbd651601	-0.055929188
43	0x3d783c7b	0.060604554
44	0x3cb8a55c	0.022539787
45	0xbcdc988e	-0.026928212
46	0x3c787148	0.015163727
47	0xbac511d8	-0.0015035225
48	0xbd041752	-0.032248802
49	0x3d462a5f	0.048380252
50	0xbce42fce	-0.027854826
51	0x3d7660e0	0.06015098
52	0xbc4c7664	-0.012479398
53	0x3a41c144	0.00073911645
54	0xbc79d202	-0.015247824
55	0x3c4fc662	0.0126815755
56	0x3d544a15	0.051828463
57	0x3d00f953	0.031487774
58	0xba820e6c	-0.0009922511
59	0x3853eae5	5.0525083e-05
60	0xbbaeb873	-0.0053320467
61	0x3d631e2d	0.0554487
62	0x3b914416	0.0044331653
63	0xbc36c5df	-0.011155575
64	0x35891278	1.021267e-06
65	0x3be3442d	0.0069356174
66	0x38c2ff57	9.2982016e-05
67	0xb6075599	-2.0166392e-06
68	0x3cc9eb1e	0.024648245
69	0xbd498556	-0.049199425
70	0x3d88dbd5	0.06682555
71	0x3d72230d	0.05911546
72	0xbcc38c55	-0.023870626
73	0x3d0d9d59	0.034573887
74	0xb822764f	-3.8733993e-05
75	0x3d4ea773	0.05045266
76	0x3d7de3fb	0.061984997
77	0x3d7751cc	0.060380742
78	0x399123d0	0.00027683238
79	0xbd5d39e2	-0.05401028
80	0x3cfc49a8	0.03079684
81	0x3cff0d85	0.031134376
82	0xbd36a688	-0.04459241
83	0x3d20bd74	0.039243177
84	0x3c01acbb	0.007914717
85	0x3d0b4dd5	0.034009773
86	0x3d4758aa	0.04866854
87	0xbcf9d7a5	-0.030498335
88	0x3d442687	0.047888305
89	0x3d591572	0.052998967
90	0xbd844714	-0.064588696
91	0xbd52e3a5	-0.05148663
92	0xbcc64ef6	-0.024207573
93	0x3d897341	0.06711436
94	0xbd28cfa2	-0.04121364
95	0x3d6cbc0d	0.057796527
96	0x3d6632bc	0.056200728
97	0x3d822ec8	0.06356579
98	0x3bdf385e	0.0068121394
99	0xb28a8326	-1.6124954e-08
100	0x3b00bdb2	0.0019644317
101	0xbd8c59f9	-0.068530984
102	0xb5e2bc8f	-1.689319e-06
103	0xbce4555a	-0.02787273
104	0xbd29f6ea	-0.04149524
105	0x3c6ee0d7	0.014579973
106	0xbcc680f7	-0.024231417
107	0xbd20bff7	-0.039245572
108	0xbd1f4c1a	-0.038890935
109	0xb3bc2ac1	-8.762209e-08
110	0x3a86114d	0.0010228545
111	0x3d386285	0.04501583
112	0x3502fe5f	4.879893e-07
113	0xbbc877da	-0.006117803
114	0xbd251cfa	-0.040310837
115	0xb9d3456b	-0.00040296777
116	0x3c7db55d	0.015485135
117	0xbb935b93	-0.0044970005
118	0xbd4db6db	-0.050223213
119	0xbd58ecfe	-0.05296039
120	0xbb8a54c4	-0.0042215306
121	0x3a53b862	0.00080764864
122	0xbb29a520	-0.0025885776
123	0x385ab564	5.2144183e-05
124	0x3c82f6cb	0.01598682
125	0xb581d055	-9.671882e-07
126	0x3d4e205f	0.05032384
127	0x38d51d28	0.00010162062
128	0xbd01124e	-0.031511597
129	0xbcd4f8ff	-0.025997637
130	0xbc9cb707	-0.019130243
131	0xbd85d73d	-0.06535194
132	0x3d4a9d40	0.04946637
133	0x3d20f9b1	0.039300624
134	0xbc5a8c6e	-0.013339145
135	0xbcedd62b	-0.029032787
136	0xbd84e490	-0.06488907
137	0xbc5ab6b6	-0.013349226
138	0x3d517d45	0.051144857
139	0x3d339f7f	0.04385328
140	0x3d37f11b	0.04490767
141	0x3cce11e1	0.02515501
142	0xbc545222	-0.012959035
143	0x3d516af9	0.051127408
144	0x3d4cbc16	0.04998406
145	0xbd4c0654	-0.049810722
146	0x3b5804b3	0.0032961785
147	0xbd15da9d	-0.03658544
148	0x3cee5678	0.029093966
149	0x3cf12bed	0.02943989
150	0xbd9594b2	-0.07303752
151	0xbd8094d1	-0.062783845
152	0xbb25ea0d	-0.0025316507
153	0x3d7f0510	0.062260687
154	0xbd7c5a20	-0.061609387
155	0xbd48aad7	-0.04899105
156	0x3bc6cbea	0.006066789
157	0x3c653e1b	0.013991858
158	0x3d3afe28	0.04565254
159	0x3cd8127b	0.026376
160	0x3c865f73	0.016402936
161	0xbc2c1ab3	-0.010504412
162	0xbcdeb896	-0.027187627
163	0xbb419b8c	-0.0029542176
164	0x3ca6220d	0.020279909
165	0xbc2d9491	-0.010594503
166	0x3c6f53eb	0.01460741
167	0xbbf89a44	-0.0075867493
168	0xbcf50b62	-0.029912654
169	0x3b2e1523	0.0026562891
170	0xbd7f4d2d	-0.06232946
171	0x3d635d84	0.055509105
172	0xbd4c2ccc	-0.04984741
173	0x3ca83331	0.020532222
174	0xbd6caac6	-0.05778005
175	0xbcf8cdec	-0.030371629
176	0xbcd9995f	-0.02656239
177	0x3d8dbf04	0.06921199
178	0x3cc19f9d	0.02363568
179	0xbd0be375	-0.034152467
180	0xbc0bcdb4	-0.00853293
181	0xbcd6042b	-0.026125034
182	0x3d49694a	0.049172677
183	0xbd31fd26	-0.04345431
184	0x38eaaea4	0.00011190519
185	0xbd5e87a7	-0.054328587
186	0x3c712e39	0.014720493
187	0xbd85f416	-0.06540696
188	0x3b83a2b8	0.0040172003
189	0x3bf87952	0.007582822
190	0xbcb9660b	-0.022631666
191	0xbc00932d	-0.007847589
192	0x3d566c1c	0.052349195
193	0x3cd78a23	0.026310986
194	0xbd32996c	-0.043603346
195	0xbc49a831	-0.012308166
196	0xbc72c3e4	-0.014817212
197	0x3d986521	0.07441164
198	0xbd4ef1a2	-0.050523408
199	0x3d07d3c2	0.033160932
200	0xbd389fa1	-0.04507411
201	0xbccb7dce	-0.024840262
202	0x3cb81e09	0.02247526
203	0x3b2f8a65	0.002678537
204	0x3c850b9f	0.016240893
205	0xbd1aa304	-0.03775312
206	0x3bc7ac74	0.006093556
207	0x3b487903	0.0030589707
208	0xbc8b2fe6	-0.016990613
209	0x3c8f8763	0.017520612
210	0x3d7d873a	0.06189654
211	0xbd87bbfb	-0.06627651
212	0x3c95ed9b	0.018301776
213	0xbd1d6219	-0.03842363
214	0xbd82af5b	-0.06381103
215	0xbd542307	-0.051791217
216	0xbc3bdcc7	-0.011466212
217	0xbc6cba29	-0.014448681
218	0x3d45b5a0	0.048268914
219	0xbd710e0d	-0.05885129
220	0xbd035c98	-0.032070726
221	0x3d1eb192	0.038743563
222	0xbd6c0704	-0.057623878
223	0x3d80513b	0.062654935
224	0x3d592d2d	0.0530216
225	0xbb3e7ca5	-0.0029065993
226	0xbd2fca03	-0.042917263
227	0x3d70802f	0.058715995
228	0x3d7db6cb	0.061941903
229	0x3d0c5187	0.034257438
230	0xbc401b3b	-0.011725242
231	0xbd41cfb1	-0.04731721
232	0x3be4cf06	0.006982687
233	0xbcf6b9d6	-0.03011791
234	0xbd1a1bb0	-0.03762406
235	0xbb62469f	-0.0034526957
236	0xbd326680	-0.043554783
237	0x3cfb08ad	0.030643785
238	0xbce41e30	-0.027846426
239	0x3d4578eb	0.04821102
240	0xbd5fe303	-0.054659855
241	0xbd6f580a	-0.05843357
242	0xbcff2bfc	-0.031148903
243	0xbc4e5c66	-0.012595272
244	0x3c446276	0.011986366
245	0x3d1ced66	0.03831234
246	0x3d820bbf	0.06349897
247	0xbd1fe133	-0.039033126
248	0xbb86b494	-0.004110882
249	0xbcb00802	-0.021488193
250	0xbd1cc89c	-0.038277254
251	0xbd3d075d	-0.0461496
252	0x3b504724	0.0031780684
253	0x3d7f0bbf	0.06226706
254	0xbacb96ff	-0.0015532671
255	0xbd8e8406	-0.06958775

bias f4 [128]
0	0xbd6acaf8	-0.057322472
1	0x3d5be87f	0.053688522
2	0x3c95e19a	0.018296052
3	0x3d6af9fe	0.057367317
4	0xbd5cdeb0	-0.05392331
5	0x3d400d5e	0.046887748
6	0xbc9a9b9d	-0.01887303
7	0x3ccf42b4	0.025300361
8	0xbd464ea0	-0.048414826
9	0xbd7b5c28	-0.061367184
10	0xbd6c1807	-0.0576401
11	0x3d04fc37	0.032467093
12	0xbc445847	-0.011983938
13	0xbd83461e	-0.06409858
14	0x3d22972a	0.039694943
15	0x3cc79260	0.02436179
16	0x3daa9704	0.08329585
17	0xbd4a0582	-0.04932166
18	0xbd6427e0	-0.05570209
19	0x3d80f4bf	0.062966816
20	0x3d69e7e2	0.057105906
21	0xbc864922	-0.016392294
22	0x3d9e1867	0.07719498
23	0x3ad5ab99	0.001630175
24	0xbcc8ee42	-0.024527673
25	0x3c2176c5	0.009854977
26	0x3d01d4c0	0.031697035
27	0x3b92355b	0.004461927
28	0xbb642c87	-0.003481658
29	0x3d0de820	0.0346452
30	0xbd86df34	-0.06585541
31	0x3d663416	0.056202017
32	0x3dc3794d	0.09544621
33	0xbcf6b681	-0.030116322
34	0x3d5fd09a	0.054642297
35	0x3d38c59b	0.045110326
36	0x3c49dc6e	0.012320621
37	0x3dea1671	0.114300616
38	0x3d63cb96	0.055614077
39	0x3dbc110b	0.09182938
40	0xbc5875b4	-0.013211656
41	0xbd0a1dfa	-0.033719994
42	0x3c87aef4	0.016562916
43	0x3da0d610	0.07853329
44	0x3c4c7193	0.01247825
45	0x3ce4a913	0.027912652
46	0xbd024f68	-0.03181401
47	0x3c0b9e8c	0.008521687
48	0xbcb78b73	-0.022405362
49	0xbd8c1402	-0.06839754
50	0x3daedf72	0.085387126
51	0x3dad8a82	0.08473684
52	0xbcb9b7e8	-0.022670701
53	0xbcf9360d	-0.030421281
54	0x3d2ccc60	0.042187095
55	0xbd3529d8	-0.04422936
56	0x3ccac1e3	0.024750656
57	0xbc76085d	-0.015016642
58	0x3d6fac10	0.0585137
59	0x3da6af75	0.081389345
60	0xbcbe71ff	-0.023247717
61	0x3cdbe5d4	0.026842989
62	0x3d317ed1	0.043333832
63	0xbd0d1529	-0.034444008
64	0x3d90c722	0.070692316
65	0x3da055eb	0.078288876
66	0x3bab170c	0.0052212533
67	0x3ce7a5f1	0.02827737
68	0xbc065f9f	-0.008201509
69	0x3d1b9d27	0.03799167
70	0x3db60dda	0.08889361
71	0xbd51437f	-0.05108976
72	0x3d6e2e8b	0.058149856
73	0x3de64f77	0.112456255
74	0x3dcbcf4f	0.0995165
75	0x3bb52259	0.005527776
76	0x3c8d129b	0.017220786
77	0xba50c97a	-0.00079645927
78	0x3d3f44a0	0.046696305
79	0x3d8de5b7	0.0692858
80	0xbc526994	-0.012842555
81	0x3d7b0bd8	0.061290592
82	0x3d4c7b37	0.049922194
83	0xbcad4639	-0.021151649
84	0xbc6c9c57	-0.014441571
85	0x3da95f48	0.082701266
86	0x3d28ee3f	0.041242834
87	0x3d39c0d4	0.04534991
88	0x3d89a77e	0.067214
89	0xbd824487	-0.06360727
90	0x3c8c5daf	0.017134516
91	0x3cf0c996	0.029392999
92	0xbd10c631	-0.03534526
93	0x3d77ea0a	0.06052593
94	0x3dc7cd8b	0.09756001
95	0x3da5192f	0.08061444
96	0xbd6ec2d7	-0.058291283
97	0x3b2fb933	0.0026813268
98	0xbd63bfba	-0.055602767
99	0xbd4d6415	-0.050144274
100	0x3d2abdf3	0.041685056
101	0x3d53c6b3	0.051703166
102	0x3da3e667	0.0800293
103	0x3d27fbde	0.041011684
104	0xbd83ae05	-0.06429676
105	0x3d96f5b6	0.073710844
106	0x3d865343	0.0655885
107	0x3d81f138	0.06344837
108	0x3db07147	0.08615356
109	0x3dd20ae6	0.10255985
110	0x3b26a55d	0.0025428154
111	0x3dc6de6f	0.097103946
112	0x3d5aea13	0.053445887
113	0x3d68d35d	0.056842197
114	0xbd78f0b3	-0.060776424
115	0x3ce721b0	0.028214306
116	0xbcaaaa4a	-0.020833153
117	0x3d5dfc40	0.054195642
118	0x3cd987ac	0.026553951
119	0xbcdb866a	-0.026797492
120	0xbd02f9d0	-0.03197652
121	0x3d5b8aea	0.053599276
122	0x3d65f3ba	0.05614064
123	0xbc915a85	-0.017743358
124	0x3db99a5d	0.090626456
125	0x3cd04be4	0.025426812
126	0x3ce59a87	0.028027786
127	0xbc8453b0	-0.016153187

weight f4 [128, 128]
0	0x3c332b86	0.01093567
1	0xbd89e59f	-0.0673325
2	0x3d5b2774	0.053504422
3	0xbbd0529f	-0.0063575055
4	0xbd07af0a	-0.033125915
5	0xbd3ef193	-0.046617102
6	0x3d329e49	0.043607984
7	0x3d418589	0.04724649
8	0x3c725ad2	0.014792161
9	0xbd186322	-0.037203915
10	0x3cf50a5c	0.029912166
11	0xbd3ecf80	-0.046584606
12	0x3c7aa9a5	0.0152992355
13	0x3c01ea03	0.007929328
14	0xbd0b5b49	-0.034022603
15	0xbcf501f4	-0.029908158
16	0xbc475c99	-0.012168073
17	0x3d1ac9dd	0.037790168
18	0x3c7db19c	0.01548424
19	0xbcca03cf	-0.02466002
20	0x3d9d23eb	0.076728664
21	0xbc3a5137	-0.011371902
22	0xbd82e17a	-0.063906625
23	0xbd7ed29a	-0.062212564
24	0xbd23fc95	-0.040035803
25	0xbbc42592	-0.005985924
26	0xbd51cdda	-0.051221706
27	0x3ca539d9	0.020169185
28	0x3ca720bf	0.020401357
29	0x3d1c89a1	0.03821719
30	0xbca5d490	-0.02024296
31	0x3d05c9af	0.032663044
32	0x3d5be8fc	0.053688988
33	0xbc3fb7c8	-0.011701532
34	0x3b68b980	0.0035510957
35	0x3d808925	0.06276158
36	0x3d3fe27f	0.046846863
37	0xbd078fab	-0.033095997
38	0xbd3b4bda	-0.045726635
39	0xbbea3056	-0.0071468754
40	0x3c59b641	0.013288082
41	0xba20b660	-0.00061306916
42	0xbc05804b	-0.008148263
43	0xbd8f85ed	-0.07007966
44	0x3901b64c	0.0001237031
45	0xbd8b2cf7	-0.06795686
46	0xbc8aba5c	-0.016934566
47	0x3d86c0bd	0.06579731
48	0x3d681c91	0.056667868
49	0xbc351c5d	-0.011054126
50	0x3d1883f8	0.03723523
51	0x3d7ddedc	0.061980113
52	0x3c34fab6	0.011046102
53	0x3c2d8ecf	0.01059313
54	0xbd1fdd80	-0.0390296
55	0xbc89ea85	-0.01683546
56	0x3a27e4fd	0.00064046663
57	0x3d870663	0.06593015
58	0xbd38bf33	-0.045104217
59	0x3d5ba2af	0.053621944
60	0x3c63d56b	0.013905863
61	0x3c40dd7a	0.011771554
62	0xbd7ca2b3	-0.0616786
63	0xbd3697ab	-0.044578236
64	0x3d898405	0.06714634
65	0xbc909fe0	-0.01765436
66	0x3d3079f2	0.043085046
67	0xbd242d35	-0.040082175
68	0x3d78e74f	0.060767468
69	0xbb2752b7	-0.002553148
70	0x3ac42bd6	0.0014966677
71	0x3c9ac13a	0.018890966
72	0x3c20a7cd	0.009805632
73	0xbbf2e950	-0.007413067
74	0x3d303106	0.043015502
75	0x3d29b253	0.04142983
76	0x3d2cfeb6	0.0422351
77	0xbca7eb09	-0.020497816
78	0x3d5b3559	0.053517673
79	0xbd561f1f	-0.052275773
80	0xb9e79b18	-0.00044175307
81	0xbd435a81	-0.047693733
82	0xbadb877d	-0.0016748753
83	0xbca82e0a	-0.020529766
84	0xbc0e4388	-0.008683093
85	0xbc5e98a5	-0.013586198
86	0x3d7e6c30	0.062114894
87	0xba3fb18c	-0.00073125283
88	0xbd081a6e	-0.03322833
89	0x3b3f53d6	0.0029194257
90	0xbd55aac6	-0.052164815
91	0xbd83c266	-0.06433563
92	0xbd4f8e7b	-0.05067299
93	0xbc6b67db	-0.014368023
94	0xbd5cb9fa	-0.0538883
95	0xbd1cf8ac	-0.03832309
96	0x3cf2f355	0.029657045
97	0x3bf1615e	0.0073663434
98	0x3cfcb9fc	0.030850403
99	0xbd8d78ac	-0.06907782
100	0xbcf91a80	-0.030408144
101	0x3d29f1c7	0.041490342
102	0xba038694	-0.0005017307
103	0xbd7c8f31	-0.061659995
104	0x3d8472c8	0.06467205
105	0x3d8634f1	0.065530665
106	0x3cb58c99	0.022161769
107	0xbcd88cea	-0.02643438
108	0xbce5f511	-0.028070958
109	0x3ccd71fb	0.025078764
110	0x3d840a8b	0.064473234
111	0xbd56c3c6	-0.052432798
112	0xbd051da2	-0.032498963
113	0x3cc6bb59	0.024259256
114	0x3c9ae2a6	0.018906903
115	0xbd8a960b	-0.067669
116	0x3d07e7af	0.033179935
117	0x3d5fff37	0.05468675
118	0x3c1d35db	0.00959536
119	0xbd400ba1	-0.04688609
120	0x3ca469f9	0.020070063
121	0x3d75fe9c	0.060057268
122	0xbd1f7f2e	-0.038939647
123	0xbd2bea3f	-0.04197144
124	0x3d3e6098	0.046478838
125	0xbd2f90b4	-0.04286261
126	0x3d2b4f6e	0.041823797
127	0xbd1bb79d	-0.038016904
128	0x3cae79b6	0.02129827
129	0x3ccc3a35	0.024930099
130	0xbb5735c2	-0.0032838439
131	0xbd69a8b9	-0.057045672
132	0x3d5d5e9a	0.054045297
133	0x3d0f5c85	0.035000343
134	0x3d4eef0d	0.050520945
135	0xbcc5b8a2	-0.024135891
136	0x3c05e736	0.008172801
137	0x3d048eae	0.032362632
138	0xbc25ab9e	-0.0101117175
139	0x3bbf1087	0.0058308276
140	0x3bb10d1b	0.0054031736
141	0x3d568e48	0.052381784
142	0x3c5dc1b8	0.013534956
143	0xbd084e3a	-0.033277728
144	0x3d814b6d	0.063132145
145	0x3c936fd0	0.017997652
146	0xbd6b95d0	-0.05751592
147	0xba6faed6	-0.0009143179
148	0xbc9118e7	-0.01771207
149	0x3ada8eaf	0.0016674603
150	0x3cb2ef8d	0.021842742
151	0xbc1707c7	-0.009218163
152	0x3ca1f2c1	0.019769074
153	0x3ccfc12c	0.025360666
154	0x3cb48a81	0.0220387
155	0xbd84201e	-0.06451438
156	0xbd504e27	-0.050855782
157	0x3bb846a3	0.005623655
158	0x3d83daac	0.06438193
159	0x3ba18312	0.004928955
160	0xbb7e9606	-0.0038846745
161	0x3cf3ddbc	0.029768817
162	0xbd512530	-0.051060855
163	0x3a7cdb1b	0.00096456864
164	0xbb7ab634	-0.0038255574
165	0xbbf31a3c	-0.007418899
166	0x3bf0737f	0.007337987
167	0xbd698e9b	-0.057020765
168	0xbccd00e4	-0.025024839
169	0x3d8a8796	0.06764142
170	0x3cbbdf79	0.022933709
171	0x3da77c19	0.081779666
172	0xbd3b858b	-0.045781653
173	0x3cce3069	0.025169568
174	0x3ca2c29d	0.01986819
175	0x3d89fa78	0.06737226
176	0x3caf4849	0.021396773
177	0x3cbbab79	0.022908913
178	0x3d5a0f48	0.05323723
179	0x3c477c85	0.012175684
180	0xbd690426	-0.056888722
181	0x3d849248	0.064732134
182	0xbd1b07c2	-0.037849195
183	0xbcd60425	-0.026125023
184	0x3d0207c4	0.031745687
185	0x3c0555ca	0.0081381295
186	0xbd72b88d	-0.059258033
187	0x3d8de32e	0.06928097
188	0x3b962394	0.004581878
189	0x3d01e464	0.03171195
190	0xbd26548d	-0.040607978
191	0xbd81619b	-0.06317445
192	0x3cba3584	0.022730596
193	0xbb5c3415	-0.003360038
194	0xbbbcf5f9	-0.005766627
195	0xbd846b52	-0.06465782
196	0xbbc8c504	-0.0061270017
197	0x3d9e5e98	0.07732886
198	0x3b59d28c	0.0033237068
199	0xbcb62ef6	-0.02223919
200	0xbd422485	-0.04739811
201	0x3da111a8	0.07864696
202	0x3d54a853	0.05191834
203	0x3d058f52	0.032607384
204	0x3cf3208f	0.029678611
205	0xbd1b0f40	-0.03785634
206	0x3bfa754f	0.007643379
207	0x3c419171	0.011814461
208	0xbd860b11	-0.065450795
209	0xbd7c6e05	-0.06162836
210	0x3c9c6100	0.019089222
211	0xbd0be3b7	-0.034152713
212	0x3bd89254	0.0066092405
213	0x3ceaf246	0.028679978
214	0xbd51e133	-0.051240157
215	0x3cd76744	0.026294358
216	0x3cd6c854	0.02621857
217	0x3d1fd6fb	0.03902338
218	0x3d43aa0f	0.047769602
219	0x3bb1e64f	0.0054290663
220	0x3cbb8de8	0.022894815
221	0x3d120ff7	0.035659757
222	0xbcad2174	-0.021134116
223	0xbd8386ee	-0.0642222
224	0xbd7505ba	-0.059819914
225	0xbd66cd40	-0.056348085
226	0x3b429a11	0.0029693882
227	0x3caa263f	0.02077019
228	0xbbd019d8	-0.006350737
229	0x3d326657	0.04355463
230	0x3b14f324	0.002272793
231	0x3d81080c	0.06300363
232	0x3cb99bad	0.02265724
233	0xbb26135f	-0.0025341136
234	0x3b8c3c55	0.004279653
235	0x3d7ce44c	0.06174116
236	0x3d413bb7	0.04717609
237	0x3cd56f68	0.0260541
238	0xba2c421a	-0.0006571129
239	0xbd2449b2	-0.040109344
240	0xbc72aa64	-0.014811132
241	0x3d422faf	0.047408756
242	0x3cc66425	0.024217675
243	0x3c55c441	0.013047279
244	0x3ccd1637	0.025035007
245	0xbd0debb0	-0.034648597
246	0xbcdce538	-0.026964769
247	0xbd072a3f	-0.032999273
248	0x3d887f84	0.06664947
249	0xbcd15ea7	-0.025557829
250	0x3a2f0904	0.00066770636
251	0xbc2e5d6e	-0.010642393
252	0xbcd1c730	-0.025607675
253	0x3ce57f55	0.028014818
254	0xbb0dbcc9	-0.0021627417
255	0xbaff6ac1	-0.0019486771

bias f4 [128]
0	0x3c1a0174	0.0093997605
1	0x3cb183c9	0.021669285
2	0x3db37f0a	0.08764465
3	0xbc2dfb2d	-0.010618967
4	0x3c668de3	0.014071914
5	0x3d29f348	0.041491777
6	0x3dd707fe	0.10499571
7	0xbd2ccbea	-0.042186655
8	0xbc60889b	-0.013704444
9	0xbd890266	-0.066899106
10	0x3d62d54e	0.055379204
11	0x3d938b71	0.07204331
12	0xbcd2ded5	-0.02574102
13	0xbd5df1bc	-0.054185614
14	0x3ca9c28c	0.02072265
15	0x3ce3c0cd	0.027801896
16	0x3ce17151	0.027519854
17	0xbbd7c4f7	-0.0065847593
18	0x3dea4874	0.114396006
19	0x3d86bc40	0.065788746
20	0xba20bf55	-0.00061320263
21	0x3d1b0941	0.037850622
22	0x3c595fa6	0.013267433
23	0xbd7fce2a	-0.062452473
24	0xbc69cfff	-0.014270782
25	0xbafb0908	-0.0019152472
26	0x3c0a1200	0.008427143
27	0xbcc536a1	-0.0240739
28	0x3d8191d7	0.06326645
29	0xbca54cb8	-0.020178184
30	0x3d750f85	0.059829254
31	0xbd030a42	-0.031992204
32	0x3cc20f91	0.023689063
33	0x3d05bb08	0.03264907
34	0x3dd5ba0c	0.10435876
35	0x3d54e498	0.051975816
36	0xbd65e320	-0.056124806
37	0x3de9fd31	0.114252456
38	0x3d95019e	0.07275699
39	0x3de341dc	0.11096546
40	0x3d186218	0.037202924
41	0xbd61a45b	-0.055088382
42	0x3d44dd0c	0.04806237
43	0xbd5de96b	-0.054177683
44	0x3d10da34	0.035364345
45	0xbbf55e73	-0.007488066
46	0x3d34383d	0.043998946
47	0x3d3b104d	0.045669843
48	0x3d5797d4	0.05263503
49	0x3d3a2c9b	0.045452695
50	0x3dbcf673	0.09226694
51	0x3cd43935	0.025906185
52	0xbce358b8	-0.027752265
53	0xbcd4354c	-0.02590432
54	0x3c7b5351	0.015339688
55	0x3d60af4f	0.054854687
56	0xbd4a0e85	-0.049330253
57	0x3d46c490	0.0485273
58	0x3dbb0de1	0.091335066
59	0xbb5d3d05	-0.0033758294
60	0xbcb89a6a	-0.022534568
61	0xbd0d0a7a	-0.03443382
62	0x3dafe028	0.08587676
63	0xbd4f8a6a	-0.05066911
64	0xbcd34a2d	-0.025792206
65	0x3d0a7d73	0.033811044
66	0x3d958f5c	0.07302734
67	0x3c47876a	0.012178281
68	0x3d7767b0	0.06040162
69	0x3ca84eb4	0.020545341
70	0x3d804222	0.06262614
71	0x3db1475f	0.08656191
72	0x3c7e9c70	0.015540227
73	0x3d8182a2	0.06323744
74	0xbcada960	-0.021198928
75	0x3cac958d	0.021067405
76	0x3d965950	0.07341254
77	0x3dacef4f	0.08444082
78	0xbcee7680	-0.02910924
79	0x3d74dbd2	0.05977995
80	0x3da0ce1e	0.07851814
81	0xbd7f53d0	-0.06233579
82	0xbd4f0fa1	-0.050552014
83	0xbc476502	-0.012170078
84	0x3c277c11	0.010222451
85	0x3bff1192	0.007784077
86	0x3cc8ca1c	0.024510436
87	0x3a06bb81	0.00051396346
88	0x3cad65e1	0.021166744
89	0x39120020	0.00013923692
90	0xbd739ea5	-0.059477467
91	0x3dc90aa2	0.09816481
92	0x3d03c0ac	0.032166168
93	0xbd620a88	-0.055185825
94	0x3d7b58ea	0.061364092
95	0x3dceec05	0.10103611
96	0xbd222f7b	-0.039596062
97	0x3c87e514	0.016588725
98	0x3d03da5c	0.032190666
99	0xbd1471d3	-0.036241364
100	0x3d92a69c	0.071606845
101	0xbca857c7	-0.020549668
102	0x3cb603e5	0.022218654
103	0x3d9109bf	0.07081937
104	0xbd553c54	-0.052059487
105	0xbbddade5	-0.0067651146
106	0x3ce14ba5	0.02750189
107	0xbc907e70	-0.017638415
108	0x3d68f1bf	0.056871172
109	0x3de097a9	0.10966427
110	0xbd82381e	-0.0635836
111	0x3d379c6f	0.04482692
112	0x3dc78b71	0.09743393
113	0x3c4d3896	0.012525698
114	0x3d690f96	0.05689963
115	0x3d53c738	0.05170366
116	0xbba0ad96	-0.0049035056
117	0xbd45efee	-0.048324518
118	0x3bc54218	0.006019842
119	0x3c3557cd	0.011068297
120	0xbcc40370	-0.02392742
121	0xb78ce6f7	-1.6796852e-05
122	0x3d92b3c9	0.071631975
123	0xbd720411	-0.05908591
124	0x3d866bb3	0.06563511
125	0x3d7414a4	0.059589997
126	0xbbf895c5	-0.0075862133
127	0x3dacacfb	0.08431431

weight f4 [128, 128]
0	0x3c77c107	0.015121705
1	0x3d4a04f9	0.04932115
2	0xbb4161cf	-0.0029507761
3	0x3a13ffad	0.00056457036
4	0x3cbc9f41	0.023025157
5	0x3bbfae28	0.0058496185
6	0xbd56b4d9	-0.052418564
7	0x3d127f87	0.03576615
8	0x3c832892	0.016010556
9	0x3ce5d405	0.0280552
10	0xbd08243a	-0.033237673
11	0x3cf2f679	0.029658543
12	0xbd288b7c	-0.041148648
13	0x3cd65444	0.026163228
14	0x3d34099e	0.043954484
15	0x3bb5e7ff	0.0055513377
16	0x3d8c1f5b	0.06841918
17	0xbd1586d8	-0.03650555
18	0x3d7e4d46	0.062085412
19	0x3d6953e2	0.056964763
20	0xbc776788	-0.015100367
21	0x3d16cad6	0.036814533
22	0x3d845c16	0.064628765
23	0x3caeab5f	0.02132195
24	0x3d0b7286	0.034044765
25	0x3c5b7043	0.0133934645
26	0xbb488e12	-0.0030602259
27	0x3d1f22dc	0.038851604
28	0x3cf215dd	0.02955144
29	0x3cf75339	0.03019105
30	0x3d5cb01d	0.053878892
31	0x3d366299	0.044527624
32	0x3c07e8fd	0.008295295
33	0x3d124d99	0.035718534
34	0x3bd34c0d	0.006448275
35	0x3c23c06a	0.009994606
36	0xbac9a1c1	-0.001538329
37	0x3d2689d8	0.0406588
38	0xbd184a09	-0.03717998
39	0x3ae2f773	0.0017316177
40	0xbd280426	-0.04101958
41	0x3c215582	0.009847047
42	0x3ca47364	0.020074554
43	0xbd644a1d	-0.055734742
44	0x3c211170	0.009830818
45	0xbd29f4a7	-0.041493084
46	0x3d919f62	0.07110478
47	0x3d1dd7f3	0.038536023
48	0xbd0b6731	-0.034033958
49	0x3ccb6f39	0.024833309
50	0xbcc4f29c	-0.024041466
51	0xbc69aae1	-0.014261932
52	0xbc6b8dc8	-0.014377065
53	0xbb5698d0	-0.0032744892
54	0xbcbfe0ca	-0.023422617
55	0x3d0a8fb5	0.033828456
56	0x3cf68566	0.030092906
57	0x3bf918fe	0.0076018563
58	0x3b33c007	0.002742769
59	0x3cc8550c	0.024454616
60	0xbc37804b	-0.011200021
61	0xbb4d7925	-0.0031352725
62	0x3d0e8909	0.034798656
63	0x3cfa9d00	0.030592442
64	0xbcdeeb08	-0.027211681
65	0x3cff224f	0.03114429
66	0x3d70204c	0.05862455
67	0x3d6fcef6	0.058546983
68	0x3b77ec4d	0.0037830055
69	0x3c109f40	0.008827031
70	0x3d7297e4	0.059226885
71	0xb9545744	-0.00020250404
72	0xbd03d286	-0.032183193
73	0xbc26a058	-0.010170065
74	0xbd8d3fe2	-0.0689695
75	0xbd4c69a5	-0.049905438
76	0xbd6a45e9	-0.057195578
77	0x3d83967c	0.06425187
78	0xbd868c9a	-0.06569786
79	0x3c158acd	0.009127331
80	0xbc8cf2c2	-0.0172056
81	0xbd57b184	-0.052659526
82	0x3c7d24e8	0.015450694
83	0x3c4dacb4	0.012553383
84	0x3b2a5ec1	0.002599642
85	0x3a4f8c12	0.00079172954
86	0x3b65df55	0.0035075743
87	0xbced47eb	-0.028964957
88	0x3c91b4d3	0.017786419
89	0x3ce9a3d3	0.0285205
90	0xbd1f4102	-0.038880356
91	0x3b97a4d7	0.0046278047
92	0x3cc47534	0.023981668
93	0x3c8b771d	0.017024571
94	0x3c928e58	0.01789014
95	0xbc8183c3	-0.0158099
96	0xbd24b752	-0.04021389
97	0x3bb556cb	0.005534028
98	0xbbe09367	-0.006853509
99	0x3cf17982	0.029476885
100	0xbcf7ba47	-0.030240191
101	0xbd0e8d38	-0.034802645
102	0x3c367a9a	0.011137629
103	0x3d21b3be	0.039478056
104	0x3d834253	0.06409135
105	0x3d519434	0.05116673
106	0x3d7c595c	0.061608657
107	0x3d57570c	0.05257325
108	0xba6d1696	-0.0009044198
109	0x3d068305	0.032839794
110	0x3c3f20e5	0.0116655575
111	0xbd4974bf	-0.049183603
112	0x3ca489d4	0.020085253
113	0x3d4154c8	0.047199994
114	0xbd2cdbb9	-0.04220173
115	0x3ce58f68	0.028022483
116	0x3d615cd1	0.055020157
117	0x3c6c3d0f	0.014418854
118	0x3c0a79cc	0.00845189
119	0x3d206233	0.03915615
120	0xbd020571	-0.03174347
121	0x3d17710a	0.036973037
122	0x3d459ff5	0.04824825
123	0x3cedb51c	0.029017024
124	0x3d508b38	0.05091402
125	0xbc827c55	-0.015928427
126	0x3d841e93	0.06451144
127	0x3d523fc8	0.051330358
128	0xbcc2212e	-0.023697462
129	0xbd8a004e	-0.06738339
130	0x3d46e5d9	0.048559044
131	0x3c0a66ee	0.008447392
132	0xbcd03d60	-0.02541989
133	0x3cecab7b	0.028890362
134	0xbc61be54	-0.013778288
135	0xbd62dee3	-0.055388343
136	0xb996a31f	-0.00028731764
137	0x3d7d1112	0.061783858
138	0x3d2fa41d	0.04288112
139	0x3bd5f22a	0.0065291123
140	0x3b332bae	0.0027339268
141	0xbd842f12	-0.064542904
142	0x3cb1df74	0.021712996
143	0x3d39b678	0.04534003
144	0xbd550e34	-0.0520155
145	0xbcedae0a	-0.029013652
146	0x383bb035	4.474838e-05
147	0xb8a898f3	-8.039353e-05
148	0x3d65b482	0.05608035
149	0xbd001f7d	-0.03128003
150	0x3d51fa83	0.051264297
151	0x3d2902d8	0.041262478
152	0xbcee2658	-0.029071018
153	0x3c9ef75d	0.019405061
154	0xbd26ab4c	-0.040690705
155	0x3d89522e	0.06705128
156	0xbac17e3e	-0.0014762355
157	0x3cc3566c	0.02384492
158	0x3cf6a332	0.030107114
159	0xb74410b3	-1.16863985e-05
160	0x3c0a4071	0.008438216
161	0x3bc94513	0.0061422675
162	0xbd1434dc	-0.036183223
163	0x3d212e99	0.03935108
164	0x3cd7cbbe	0.026342269
165	0x3cc18bda	0.023626257
166	0xbd7cd9fe	-0.06173133
167	0xbd5f9712	-0.05458743
168	0xbd5d0026	-0.05395522
169	0x3d6eeefd	0.058333386
170	0xbc851646	-0.016245972
171	0xbd652073	-0.05593915
172	0xbd8dcca2	-0.06923796
173	0x3d561d3d	0.052273978
174	0xbd09cbf2	-0.033641763
175	0x3c1f9839	0.009740883
176	0xbcf87810	-0.030330688
177	0xbd43598b	-0.047692817
178	0x3d3cf0ed	0.046128202
179	0xbd27ac2a	-0.040935673
180	0xbcd3fcc3	-0.025877362
181	0x3d8ac6e0	0.06776214
182	0xbafd0f28	-0.0019306885
183	0xbcd8b3c1	-0.0264529
184	0x3bc23c71	0.0059276153
185	0xbd70a1a3	-0.0587479
186	0xbd18355d	-0.037160266
187	0xb815b452	-3.5692305e-05
188	0x3d1b6c3d	0.03794502
189	0xb9b3cb30	-0.00034292927
190	0x3d6aafd5	0.057296593
191	0xbcb8809e	-0.022522267
192	0x3bde593d	0.0067855404
193	0xba39141f	-0.0007060188
194	0x3d36c7fd	0.044624317
195	0xbd85c0e4	-0.065309316
196	0xbcaa9dd6	-0.020827215
197	0x38c67561	9.463239e-05
198	0x3b01fb9b	0.0019833806
199	0x3d807910	0.06273091
200	0xbd4bba2e	-0.0497381
201	0x39c17e4a	0.0003690592
202	0x3d69cc83	0.057079803
203	0xbb98de76	-0.0046651913
204	0xbbf25f79	-0.007396635
205	0x3d8179d1	0.06322063
206	0xbbfd0f3c	-0.0077227633
207	0xb941aa94	-0.0001846946
208	0x3d5fd78e	0.05464893
209	0x3d7d1796	0.06179007
210	0xbd396524	-0.04526247
211	0x3ce12df3	0.02748773
212	0xb514bcef	-5.540923e-07
213	0x3639e634	2.7701144e-06
214	0xbcdfa5b3	-0.027300691
215	0xbcf014de	-0.029306825
216	0x3d379181	0.044816498
217	0x3d8cf661	0.068829305
218	0xb8d0878c	-9.9434605e-05
219	0xbd3d601f	-0.046234246
220	0x3d561390	0.05226475
221	0xbd4e8f8b	-0.050429862
222	0x3d200efa	0.039076783
223	0xb7f6eaa9	-2.9434757e-05
224	0xbd50336f	-0.0508303
225	0xbd1076e5	-0.035269637
226	0x3d4b6706	0.049658798
227	0x3c583e53	0.013198453
228	0x3d3dc2de	0.046328418
229	0xbcb189e7	-0.021672202
230	0x3d082838	0.03324148
231	0xbb383234	-0.0028106095
232	0x3d071bcd	0.032985497
233	0x3c7aedbd	0.01531547
234	0x3cc78ad0	0.024358183
235	0xb6f3a689	-7.2613516e-06
236	0xbd174f06	-0.036940597
237	0xbb007b97	-0.0019604915
238	0x3d2bbb7f	0.041926857
239	0xbcad9fa7	-0.021194292
240	0x3c7e1c4d	0.015509677
241	0x3d60dd6f	0.054898676
242	0x3d625f16	0.055266462
243	0xbae5e0f5	-0.0017538356
244	0xba094740	-0.00052367523
245	0xbcead721	-0.028667035
246	0xbd380124	-0.044922963
247	0x3cd93c4b	0.026518008
248	0xbc652626	-0.013986146
249	0x3b95b5d2	0.004568794
250	0xbc2600b3	-0.010132003
251	0x3cee3c6e	0.02908155
252	0xbd6322c1	-0.055453066
253	0x3cf5c054	0.029998936
254	0xb615e5e6	-2.2336549e-06
255	0xbd845587	-0.064616255

bias f4 [128]
0	0x3d91972f	0.07108914
1	0xbcdf5f5a	-0.027267147
2	0xbd418535	-0.047246177
3	0x3c129fe9	0.008949258
4	0xbc454937	-0.012041382
5	0xbc12129a	-0.008915568
6	0x3d52abc2	0.051433332
7	0xb6b288e2	-5.3207486e-06
8	0xbd4cfd76	-0.050046407
9	0xbd383742	-0.044974573
10	0x3ccc8b6b	0.024968823
11	0x3d7a64a2	0.061131127
12	0xbc75e8cc	-0.015009116
13	0xbd4f5e24	-0.05062689
14	0x3c2e0f82	0.010623815
15	0xbd295c50	-0.0413478
16	0x3da420be	0.080140576
17	0x3da2234a	0.07916887
18	0xbcd21181	-0.025643112
19	0xbd0e78c6	-0.034783147
20	0xbd5acf36	-0.053420268
21	0xbd79eea5	-0.061018605
22	0xbce5f884	-0.028072603
23	0xbd051e75	-0.03249975
24	0xbc46baa7	-0.012129462
25	0x3c9c8de1	0.019110622
26	0xbc838fb0	-0.016059726
27	0x3d7ca9c3	0.061685335
28	0x3d6d48c2	0.057930715
29	0x3d9c8cc0	0.076440334
30	0xbcfe334c	-0.03103032
31	0xbccd3db2	-0.025053833
32	0xbc92f22c	-0.017937742
33	0x3d164cb5	0.036694247
34	0x3dca12cc	0.098668665
35	0x3d3bc414	0.04584129
36	0x3d55d20b	0.052202266
37	0xbd4d0096	-0.050049387
38	0xbd342638	-0.04398176
39	0xbd66dd8d	-0.05636363
40	0xbd3656c3	-0.044516336
41	0x3d31d6e5	0.04341783
42	0xbc0de772	-0.008661138
43	0x3d500652	0.050787278
44	0xbc0641c2	-0.008194389
45	0xbd8323b7	-0.064032964
46	0xbcbad7ac	-0.022807918
47	0x3d2806cc	0.041022107
48	0x3d4ce1b8	0.05001995
49	0x3d3335f7	0.043752637
50	0x3d3c9544	0.04604079
51	0xbcf102b5	-0.029420236
52	0x3d9d11da	0.076694205
53	0xbcea27e4	-0.028583474
54	0xbbad6b9a	-0.005292368
55	0x3dc1bf23	0.094602846
56	0xbcca0361	-0.024659814
57	0xbd500421	-0.050785188
58	0x3bd90956	0.0066234274
59	0x3c581af2	0.013190018
60	0xbcf7c346	-0.03024448
61	0xbc42534c	-0.01186068
62	0xba899e02	-0.001049936
63	0xbd03d6ba	-0.0321872
64	0x3cee4a5a	0.029088188
65	0xbcc01d7d	-0.023451561
66	0x3ce2a82e	0.027668085
67	0xbcbe4f94	-0.023231305
68	0x3d9a79e4	0.0754278
69	0xbd6a6fa4	-0.057235375
70	0xbd27b641	-0.040945295
71	0x3d83f4d0	0.06443179
72	0xbc6003e8	-0.013672806
73	0xbcb258a9	-0.021770792
74	0xbd50c672	-0.050970502
75	0xbd397715	-0.04527958
76	0x3d5eb2d0	0.054369748
77	0x3cec9c26	0.028883051
78	0x3d35201c	0.044220075
79	0x3d6c7eec	0.05773823
80	0x3dbc3ba5	0.09191064
81	0xbd7f5fef	-0.06234735
82	0x3c459ddb	0.012061561
83	0x3d344980	0.044015408
84	0x3d623f4c	0.055236146
85	0x3dc2ea19	0.09517307
86	0xba6c32a9	-0.00090102345
87	0x3c875af0	0.016522855
88	0x3c251b42	0.0100773
89	0xbcf7669e	-0.030200299
90	0x3d8f19a9	0.06987316
91	0xbd741ef3	-0.059599828
92	0xbd935ed2	-0.0719582
93	0xbcf3477e	-0.029697176
94	0x3ac16f26	0.0014757856
95	0x3dbcb920	0.09214997
96	0xbd8c1b96	-0.06841199
97	0xbd892646	-0.06696753
98	0xbd816169	-0.06317408
99	0x3d365f15	0.04452427
100	0x3cb27252	0.021783028
101	0x3d85ba19	0.06529636
102	0xbd7bb097	-0.061447706
103	0xbc95b889	-0.01827647
104	0xbd05cd26	-0.032666348
105	0x3c989335	0.018624881
106	0x3b06b1a0	0.002055265
107	0xbd7041f4	-0.058656648
108	0xbd38cc54	-0.045116737
109	0x3bc2b8b7	0.00594243
110	0x3b62df47	0.0034617947
111	0xbb3e0a10	-0.0028997697
112	0x3d8b1300	0.06790733
113	0x3c434194	0.0119174905
114	0xbcc54b02	-0.024083618
115	0xbb25889f	-0.0025258434
116	0x3dd157a9	0.10221798
117	0xbd073e22	-0.03301824
118	0xbcc42a8f	-0.023946075
119	0x3d972595	0.07380215
120	0xbc59e0c5	-0.013298218
121	0x3d4ac8bc	0.04950784
122	0x3d8a7e3a	0.06762357
123	0xbce94cad	-0.028478945
124	0x3c28b303	0.010296586
125	0xbd4e745d	-0.05040394
126	0x3cb8366a	0.022486884
127	0xbd6bfccb	-0.05761413

att_vec f4 [3, 128]
0	0x3e27aca8	0.16374457
1	0x3ddc7f34	0.107664496
2	0x3e0c329d	0.13691182
3	0x3d53d887	0.05172017
4	0xbe2ec7e0	-0.17068434
5	0x3e059f8d	0.13049145
6	0x3c50ba95	0.012739797
7	0xbde719a3	-0.11284187
8	0xbe18565c	-0.14876693
9	0xbc0a746a	-0.008450607
10	0x3d9c77fc	0.07640073
11	0xbdc3edd8	-0.095668495
12	0x3e1b5676	0.15169701
13	0x3e1f5b05	0.15562065
14	0x3dd0a779	0.10188193
15	0xbe4429e1	-0.191566
16	0xbe1d2f23	-0.15350012
17	0xbe213ab6	-0.15745053
18	0x3d4cea66	0.050028227
19	0xbcf75c8a	-0.030195493
20	0xbe06f2e2	-0.1317859
21	0xbc8fd176	-0.017555933
22	0x3e0c6526	0.1371046
23	0x3d9429a6	0.07234506
24	0xbba54f90	-0.005044885
25	0xbdbf36c6	-0.09336619
26	0x3d8ba707	0.06818967
27	0x3d05569a	0.032553293
28	0xbe0eedc1	-0.13957883
29	0xbc942eaa	-0.018088657
30	0x3da27b58	0.07933682
31	0xbe11ac9e	-0.14226004
32	0x3dc81aab	0.097707115
33	0x3d00b197	0.031419363
34	0xbe03ec38	-0.12883079
35	0x3e2e56b5	0.17025264
36	0xbe3c8650	-0.18410611
37	0x3d9295c1	0.071574695
38	0x3de6e59b	0.112742625
39	0xbe2f4efa	-0.17119971
40	0x3dc20bb4	0.094748884
41	0xbddd1d53	-0.10796609
42	0x3df48b79	0.11940665
43	0x3e34bf2d	0.17651053
44	0x3b413ca3	0.0029485605
45	0x3e350fcc	0.17681807
46	0xbd322b72	-0.043498464
47	0x3d83faf8	0.06444353
48	0x3d09fe8e	0.033690028
49	0x3d51aed9	0.05119214
50	0x3e40d158	0.18829858
51	0xbe02037c	-0.12696642
52	0xbc95610a	-0.018234748
53	0x3d5200f6	0.051270448
54	0x3e367ca5	0.17820986
55	0xbd9e4181	-0.07727338
56	0xbd1007f7	-0.035163846
57	0xbd12bfd9	-0.03582749
58	0x3de30261	0.11084438
59	0xbe0c32e4	-0.13691288
60	0xbe0ea983	-0.13931851
61	0x3dc1d6a7	0.0946477
62	0xbe40158e	-0.18758222
63	0xbb9d5a8f	-0.004802055
64	0x3e11345e	0.14180133
65	0xbc8bd658	-0.01706998
66	0xbda67a90	-0.08128846
67	0x3c98108a	0.018562574
68	0x3d0de774	0.03464456
69	0xbda2c8a6	-0.07948427
70	0xbdb9c5fe	-0.09070967
71	0x3c863f7c	0.016387694
72	0xbe00a014	-0.12561065
73	0x3d7584f1	0.059941236
74	0xbd8cbe19	-0.06872196
75	0xbc75edc5	-0.015010302
76	0xbdce5caf	-0.10076272
77	0xbd0604a9	-0.032719288
78	0xbe13c551	-0.14430739
79	0x3e42023b	0.18946163
80	0x3dfe803b	0.12426802
81	0x3d83c26c	0.064335674
82	0x3dd99ef4	0.10626021
83	0x3c06e860	0.008234113
84	0x3dfb191e	0.1226065
85	0xbe3e28c2	-0.18570235
86	0x3d873ee8	0.06603795
87	0xbdbd432b	-0.09241327
88	0x3e1ab81b	0.15109293
89	0xbdb8fc4b	-0.09032496
90	0xbcba2c23	-0.022726124
91	0xbdfb6901	-0.12275887
92	0x3cce3362	0.025170986
93	0x3d5eb971	0.05437607
94	0xbd99f9c3	-0.075183414
95	0xbdeb8286	-0.11499505
96	0x3dc61d91	0.09673608
97	0x3da3926e	0.079869136
98	0xbe249266	-0.16071472
99	0xbd9d5aec	-0.076833576
100	0x3e3220b2	0.17395285
101	0x3e2971ee	0.16547367
102	0xbcf5c5e7	-0.030001594
103	0xbcea8508	-0.028627887
104	0x3d8b195c	0.06791946
105	0x3cc20b38	0.02368699
106	0xbe2f98a9	-0.17148079
107	0xbe3fdc25	-0.18736322
108	0xbe295f87	-0.16540347
109	0xbdff7cfc	-0.12475011
110	0x3e214d10	0.15752053
111	0x3cfecc12	0.031103168
112	0x3d3b7cb8	0.045773238
113	0xbccb418b	-0.024811527
114	0xbe20c1c5	-0.15698917
115	0xbde90650	-0.11378157
116	0x3d2505f3	0.040288877
117	0x3da34116	0.079713985
118	0xbd6c7282	-0.05772639
119	0x3e380c31	0.179734
120	0xbd6f70a8	-0.058457047
121	0x3d9e0e58	0.077175796
122	0x3c2998ff	0.0103514185
123	0x3e417f14	0.18896133
124	0xbd3de2c8	-0.046358854
125	0xbdfb5f18	-0.12273997
126	0x3d946e6e	0.07247625
127	0x3e0175dd	0.12642618
128	0x3de2fb85	0.1108313
129	0xbe205755	-0.15658315
130	0x3c871f01	0.016494276
131	0xbe02bf50	-0.12768292
132	0xbd8d3cba	-0.06896348
133	0xbd9efba9	-0.07762844
134	0xbd539bb3	-0.05166216
135	0xbdf5cf7e	-0.120024666
136	0x3d885ca4	0.06658295
137	0x3e0b9e04	0.13634497
138	0x3e1da3ec	0.15394562
139	0xbd1ab13f	-0.03776669
140	0x3da25f7c	0.079283684
141	0x3e318b25	0.17338236
142	0xbd8e0180	-0.0693388
143	0x3cf9e27f	0.03050351
144	0x3cc0c748	0.023532525
145	0x3ca4f816	0.020137828
146	0x3e157ec1	0.14599134
147	0xbe41d322	-0.18928197
148	0xb9e67d70	-0.00043962477
149	0x3e310ab5	0.1728924
150	0x3db34a75	0.08754436
151	0xbb9a6c9c	-0.0047126543
152	0xbe10f8dc	-0.14157432
153	0x3dd03694	0.1016666
154	0xbe0cbba8	-0.1374346
155	0xbd84b4d2	-0.06479801
156	0x3cb1b303	0.021691805
157	0x3cdc0865	0.026859472
158	0x3e23e0fc	0.16003793
159	0x3e26474c	0.16238135
160	0x3cdd2153	0.02699343
161	0x3e3e9670	0.18612075
162	0xbe2b30fb	-0.16717903
163	0xbc731d33	-0.014838505
164	0x3d47f352	0.048816033
165	0x3df5ea93	0.12007632
166	0x3da850db	0.08218547
167	0x3ccc77be	0.024959441
168	0x3cfd3526	0.030909132
169	0x3c9307d9	0.017948078
170	0x3e26702c	0.16253728
171	0x3dd6dac3	0.10490944
172	0xbda438f6	-0.08018677
173	0x3cbc083d	0.022953147
174	0xbe3bc828	-0.18338072
175	0x3de92661	0.11384273
176	0x3e3e299a	0.18570557
177	0x3d5cf29b	0.053942304
178	0x3d3fbcba	0.046810843
179	0x3d421049	0.047378812
180	0xbd948b58	-0.0725314
181	0x3dc4eeef	0.096158855
182	0x3e2c0b7c	0.16801256
183	0x3e0730fb	0.13202278
184	0x3d5e5162	0.05427683
185	0xbda5da96	-0.080983326
186	0x3d8fe235	0.070255674
187	0x3e467097	0.19378887
188	0xbe00bf94	-0.12573081
189	0xbe1a1b43	-0.15049462
190	0x3d43e387	0.04782441
191	0x3e423e36	0.18969044
192	0x3e0ea0c5	0.13928516
193	0xbe19e972	-0.15030459
194	0xbe112447	-0.14173995
195	0x3d7867ef	0.060645994
196	0xbe00727f	-0.12543677
197	0x3e02b7b3	0.12765388
198	0x3d42fe6c	0.047605917
199	0x3cce96eb	0.025218448
200	0x3d903e59	0.07043142
201	0xbc067b15	-0.008208056
202	0x3e2beac8	0.1678878
203	0xbbbf5ac6	-0.0058396785
204	0xbb427a77	-0.0029675046
205	0x3e1b7298	0.15180433
206	0xbc732276	-0.014839759
207	0x3e1d8874	0.15384084
208	0x3beb6cda	0.007184607
209	0xbe1408af	-0.14456438
210	0x3e0870b7	0.13324247
211	0xbe1c3be3	-0.1525722
212	0xba2bb26d	-0.000654972
213	0x3d1fad14	0.03898342
214	0x3db6a0b2	0.08917369
215	0x3e014fed	0.12628146
216	0x3cbdc298	0.023164079
217	0x3e3d55cc	0.1848976
218	0xbe0c428e	-0.13697264
219	0x3da0f3a5	0.078589715
220	0x3e2c96e3	0.16854434
221	0xbdb386cd	-0.087659456
222	0xbdef51e5	-0.11685542
223	0xbdc7d747	-0.09757858
224	0xbe33788a	-0.17526451
225	0x3dad7da6	0.08471231
226	0xbdff3c95	-0.12462727
227	0xbd86434a	-0.06555803
228	0xbe072779	-0.13198651
229	0xbd844604	-0.06458667
230	0xbe2c425f	-0.16822194
231	0xbe1cf111	-0.15326335
232	0x3d669cb1	0.056301776
233	0xbc25248d	-0.010079515
234	0xbddeb402	-0.108741775
235	0x3dbbb1c8	0.091647685
236	0x3cb80025	0.022461006
237	0x3e3c28bb	0.18374912
238	0xbd3c3c93	-0.045956206
239	0xbcf07e07	-0.02935697
240	0x3dbf61bb	0.093448125
241	0xbc0f7430	-0.008755729
242	0xbd8413da	-0.06449099
243	0xbddb349c	-0.10703394
244	0xbe26b26a	-0.16278997
245	0x3e0d3a4f	0.13791774
246	0x3d6d6ce7	0.057965185
247	0x3c6121a3	0.01374093
248	0xbdbc9eea	-0.09209998
249	0xbe230672	-0.15920427
250	0xbe29f215	-0.16596253
251	0xbceca751	-0.028888376
252	0xbd62a14d	-0.05532961
253	0x3d739317	0.059466448
254	0x3d8424d6	0.064523384
255	0x3e44b601	0.19210054
