dblp_train/train/pretrained_magnn/decoder_p.pth (torch, 529440 bytes, 4 tensors)

weight f4 [256, 256]
0	0x3da77b97	0.0817787
1	0x39ae2d77	0.0003322174
2	0x3d40aa22	0.04703725
3	0xbd3c6c25	-0.046001572
4	0xbd822bba	-0.063559964
5	0xbd4fdeb6	-0.050749503
6	0x3b44b536	0.0030015237
7	0xbc82249b	-0.015886595
8	0x3c7d0ee8	0.015445448
9	0xbc7c2b92	-0.015391247
10	0x3c3049c8	0.010759778
11	0x3cc29964	0.023754783
12	0xbd633eff	-0.05548
13	0xbc08a6f7	-0.008340589
14	0xbd55b9f5	-0.052179296
15	0xbc5d2d58	-0.01349958
16	0xbde9b1d3	-0.114108704
17	0x3d300fea	0.042983927
18	0xbd7c2936	-0.06156274
19	0xbbd68a0d	-0.0065472187
20	0xb919cb3c	-0.00014666928
21	0xbcfb783f	-0.030696986
22	0xbd4aced2	-0.049513645
23	0xbd0f228f	-0.034945067
24	0x3cabc973	0.020970082
25	0x3ca7c363	0.02047891
26	0xbbe69592	-0.007036873
27	0xbd82e495	-0.06391255
28	0x3c96282f	0.018329708
29	0x3d689dda	0.056791164
30	0xbd1951ea	-0.037431635
31	0xbcb6c2c7	-0.022309674
32	0xbd543ceb	-0.05181591
33	0xbc3ee28d	-0.011650694
34	0x3d09b237	0.033617225
35	0x3d3aed62	0.045636542
36	0xbd24b0f9	-0.040207837
37	0x3dcb655b	0.099314414
38	0xbd364230	-0.044496715
39	0x3ba17dcd	0.0049283267
40	0xbb66977d	-0.003518551
41	0x3bbf78af	0.005843244
42	0xbda28e35	-0.0793728
43	0x3d3c3028	0.045944363
44	0xbde9f43d	-0.11423538
45	0x3d18562b	0.03719155
46	0xbc0abc6b	-0.008467774
47	0xbcfe662f	-0.031054584
48	0x3ca8917d	0.020577187
49	0xbd98a458	-0.07453221
50	0xbd6a1bfb	-0.05715559
51	0xbd4479c9	-0.047967706
52	0xbd02b28f	-0.031908568
53	0xbc82a390	-0.015947133
54	0xbcf2427c	-0.029572718
55	0x3d54e34e	0.051974587
56	0x3bf46170	0.0074579045
57	0x3ce0f7a3	0.027461832
58	0xbd54a3d5	-0.051914055
59	0x3bca9c58	0.0061831884
60	0x3d959c4b	0.07305201
61	0xbca6c2ac	-0.020356499
62	0xbc6cc468	-0.014451124
63	0xbc5e7637	-0.013577989
64	0x3d94b95e	0.072619185
65	0x3c5005a3	0.012696656
66	0x3b1c617e	0.002386182
67	0x3d0258af	0.031822857
68	0x3ba22627	0.004948396
69	0x3c9fb924	0.019497462
70	0xbcc3204e	-0.023819115
71	0x3b585ff4	0.0033016177
72	0x3c9beae2	0.0190329
73	0x3cb4ab77	0.022054417
74	0xbd74561b	-0.05965243
75	0xbc44e017	-0.012016318
76	0x3c642b75	0.013926377
77	0x3c298adf	0.010348051
78	0xbbe2f05d	-0.006925626
79	0x3c70c9f1	0.014696584
80	0xbb11d4d7	-0.0022252107
81	0xbb87e7f8	-0.004147526
82	0xbc24e284	-0.010063771
83	0xbc68d727	-0.014211453
84	0xbc1fcab0	-0.009752914
85	0x3d354d55	0.044263203
86	0xbd0c4e15	-0.034254152
87	0x3b6471ae	0.0034857797
88	0xbdb14059	-0.086548515
89	0x3d580937	0.052743163
90	0xbd5fb22e	-0.054613285
91	0x3c9035ca	0.017603774
92	0x3dd62d45	0.10457853
93	0xbce0243b	-0.027361026
94	0xbcb07f2c	-0.021545015
95	0xbc172dec	-0.009227257
96	0x3c56737f	0.01308906
97	0x3d9600e8	0.073243916
98	0x3c3cb50e	0.011517776
99	0x3c93aee5	0.018027732
100	0xbd90de1e	-0.070736155
101	0xbbf607e9	-0.007508267
102	0xbdbfc4f4	-0.09363738
103	0xbd04a9c6	-0.03238847
104	0x3da62c39	0.081139036
105	0xbcb62625	-0.022234986
106	0xbd6cc1b1	-0.057801906
107	0xbcdf8d93	-0.027289188
108	0x3da0697f	0.07832622
109	0x3cecefd7	0.028922958
110	0x3bd0df1d	0.0063742534
111	0xbd8ddf65	-0.06927375
112	0x3d0dd7ec	0.034629747
113	0x3c9926ac	0.018695198
114	0x3cef60d4	0.029220976
115	0xbdb726c7	-0.08942943
116	0x3ceea0ce	0.029129412
117	0xbd3785b2	-0.044805236
118	0xbd47eefa	-0.04881189
119	0x3c7c8391	0.015412227
120	0x3c0ae3f0	0.008477196
121	0xbd75e691	-0.06003434
122	0xbc204984	-0.0097831525
123	0xbd052f97	-0.03251609
124	0x3cbd65f0	0.023119897
125	0x3bdefbcd	0.0068049193
126	0x3a37391f	0.00069894077
127	0x3b09cebd	0.0021027767
128	0xbcf42a4e	-0.029805329
129	0xbcf04b83	-0.029332882
130	0xbccc3577	-0.024927838
131	0xbcdc8f71	-0.026923867
132	0xbd37210f	-0.04470926
133	0x3c07c532	0.008286761
134	0x3afd4ec3	0.0019325841
135	0x3d1f28c7	0.038857248
136	0x3d33b5b4	0.043874457
137	0xbd66fa92	-0.056391306
138	0xbd5773bc	-0.052600607
139	0xbcd859be	-0.02640998
140	0x3d34f6d6	0.044180714
141	0xbd922009	-0.071350165
142	0x3bda3caa	0.0066600638
143	0xbc84b66f	-0.016200272
144	0x3ba32a88	0.0049794354
145	0x3dd62f72	0.10458268
146	0xbad92397	-0.0016566393
147	0xbc7362d9	-0.01485511
148	0x3caa76b3	0.020808553
149	0x3d1de716	0.03855046
150	0x3b88dad0	0.004176475
151	0x3a5e51c9	0.0008480815
152	0xbcfd69e0	-0.030934274
153	0x3d0ea6b9	0.034826968
154	0x3d4ca876	0.049965344
155	0xbbe04c2a	-0.006845017
156	0x3d61c025	0.055114884
157	0xbc935542	-0.01798499
158	0x3cc69b6c	0.024244033
159	0x3bc8eaba	0.006131497
160	0xbc9d82ae	-0.019227352
161	0xbd18e04e	-0.03732329
162	0xbc581de4	-0.01319072
163	0x3cd26cd5	0.02568666
164	0xbdafa9ab	-0.085772835
165	0xbb4a01b5	-0.0030823771
166	0xbb5266be	-0.0032104696
167	0x3c49d9b4	0.012319971
168	0x3b8c05da	0.0042731585
169	0xbc8abe33	-0.016936397
170	0x3c9fdae4	0.019513555
171	0x3c7371ef	0.014858707
172	0x3cfa4562	0.030550662
173	0xbc40d194	-0.011768717
174	0x3ca37dea	0.019957501
175	0xbd56e779	-0.052466843
176	0x3c9045fb	0.017611494
177	0x3dbe95aa	0.0930589
178	0x3d3ff90a	0.04686836
179	0xbd1102b7	-0.03540298
180	0x3c3932e7	0.01130364
181	0x3d3d6d35	0.046246726
182	0xbde2495a	-0.11049147
183	0xbc99be8a	-0.018767614
184	0x3bdaf53b	0.006682066
185	0xbd8193e2	-0.063270345
186	0x3a539e77	0.00080726243
187	0xbd76f698	-0.060293764
188	0x3d836372	0.06415452
189	0x3c8a1f36	0.016860586
190	0xbd9a4d36	-0.07534258
191	0xbdaefa76	-0.085438654
192	0x3cb49c06	0.022047054
193	0x3d2977b4	0.041373923
194	0x3cf3e39b	0.029771617
195	0x3cc7cfe6	0.024391126
196	0x3d1ec816	0.038765036
197	0x3c1bdaf9	0.009512656
198	0x3cf53e38	0.029936895
199	0x3e002fd3	0.12518243
200	0x3d9b6dac	0.075892776
201	0xbdd5a86b	-0.10432514
202	0x3d23109c	0.03981076
203	0x3b01935f	0.0019771678
204	0x3d2aebaf	0.04172867
205	0x3d19fe28	0.037595898
206	0xbc90e8ca	-0.017689127
207	0x3cb33e0f	0.021880178
208	0xbd11150d	-0.035420466
209	0x3d243826	0.04009261
210	0xbb01c56f	-0.0019801517
211	0xbc9a5c7a	-0.018842924
212	0x3be51003	0.006990434
213	0x3ca7db3d	0.020490283
214	0x388f9a31	6.847492e-05
215	0xbcc749ab	-0.02432712
216	0xbd921783	-0.07133391
217	0x3d0bdb22	0.03414453
218	0xbd32c7ba	-0.043647505
219	0xbdd78cc6	-0.10524897
220	0x3d6bb153	0.057542156
221	0x3d2067ac	0.03916137
222	0x3c06159d	0.008183864
223	0xbd4f20b5	-0.0505683
224	0xbcab8bad	-0.020940626
225	0xbd78a4f6	-0.060704194
226	0xbc4ad4d9	-0.012379848
227	0xbbd90e28	-0.006624002
228	0x3ca07fd5	0.019592205
229	0xbd5a5670	-0.05330509
230	0x3c00a5d7	0.007852039
231	0x3c9c8b72	0.019109461
232	0xbd595492	-0.05305917
233	0x3dbfea91	0.09370912
234	0x3c6a000a	0.014282236
235	0x3b8b42c7	0.004249904
236	0x3d3aa3ea	0.045566477
237	0x3cd1d907	0.025616182
238	0x3c0abc17	0.008467696
239	0xbbc680c7	-0.006057832
240	0xbad874d4	-0.001651431
241	0x3d764bbd	0.060130823
242	0xbd3e1b8b	-0.046412986
243	0x3d3d4329	0.046206627
244	0x3d7c69bd	0.061624277
245	0x3d7f0605	0.0622616
246	0xbc929480	-0.017893076
247	0x3b8009b4	0.0039074067
248	0x3d0b6a2b	0.034036797
249	0x3b68be1d	0.0035513707
250	0xbdde57a5	-0.108565606
251	0x3d42c7ab	0.0475537
252	0x3cd14e94	0.025550164
253	0x3d232ad2	0.03983576
254	0xbd017d1e	-0.03161346
255	0xbc816e3d	-0.015799636

bias f4 [256]
0	0x3d378927	0.044808533
1	0x3c0b99cd	0.008520556
2	0xbb6e86c7	-0.0036396252
3	0x3ce01df1	0.027358027
4	0x3d51cdd9	0.051221702
5	0xbd36d8ed	-0.04464047
6	0xbd281149	-0.04103211
7	0xbc6d356c	-0.014478069
8	0xbb1ef00e	-0.002425197
9	0x3d63f1ae	0.055650406
10	0xbbce305e	-0.006292387
11	0xbc41ecba	-0.011836225
12	0xbd80b314	-0.062841564
13	0xbca0f67c	-0.019648783
14	0xbd5f88c2	-0.05457378
15	0x3d0d2084	0.034454837
16	0x3d147ba5	0.03625073
17	0x3acc50fb	0.0015588099
18	0x3d6fc1a4	0.05853428
19	0x3d7e730b	0.062121432
20	0xbcd29c9c	-0.025709443
21	0x3d3d7588	0.046254665
22	0x3d374049	0.04473904
23	0xbc646d70	-0.013942108
24	0x3c8c30bd	0.017113084
25	0x3c82b270	0.015954226
26	0x3c49663d	0.012292442
27	0xbce3913b	-0.027779212
28	0x3bc83b94	0.006110618
29	0x3cb80e9c	0.022467904
30	0xbc248cbf	-0.010043322
31	0x3d0f1ad0	0.03493768
32	0xbce03779	-0.027370201
33	0x3c4e9a93	0.012610096
34	0xbd321b31	-0.043482963
35	0xbd5402b0	-0.051760375
36	0x3a561ab5	0.0008167432
37	0xbb8d3df0	-0.004310362
38	0x3bf51b7b	0.0074800826
39	0x3c7295f2	0.014806258
40	0x3d0c0916	0.034188353
41	0x3d2af544	0.04173781
42	0xbc6f8d42	-0.014621081
43	0x3bd906d1	0.006623127
44	0xbc931567	-0.017954541
45	0x3d04a677	0.032385316
46	0xbcbd046e	-0.023073401
47	0xbd4b4955	-0.04963048
48	0x3c94f970	0.018185347
49	0x3cb88952	0.022526417
50	0xbd72d440	-0.05928445
51	0xbcad8888	-0.021183267
52	0xbd2fef5a	-0.042952873
53	0x3c06acf8	0.00821995
54	0xbd1b6277	-0.0379357
55	0xbd0aa2ab	-0.03384654
56	0x3d840995	0.0644714
57	0xbcd0e15b	-0.025498083
58	0x3ca9dc3d	0.0207349
59	0xbb1605f4	-0.0022891732
60	0x3c12b5e4	0.008954499
61	0x3d4db57c	0.050221905
62	0xbd3fcea0	-0.046827912
63	0x3d12510f	0.035721835
64	0xbc96b833	-0.01839838
65	0xbd5bacd6	-0.053631626
66	0x3d431764	0.04762973
67	0xbd024767	-0.031806376
68	0x3be92704	0.0071152467
69	0xbd57e6d7	-0.05271038
70	0xbb919563	-0.004442857
71	0xbd7fe10d	-0.062470485
72	0x3d20c7f4	0.03925319
73	0xbca91e67	-0.02064438
74	0x3d576e34	0.052595332
75	0xbc535edf	-0.012901037
76	0x3c476da0	0.012172133
77	0x3bcafda9	0.0061947894
78	0x3c7001ca	0.014648864
79	0xbb8f2ff0	-0.0043697283
80	0x3d4ab2fb	0.049487095
81	0xbcdf0964	-0.027226157
82	0x3d3ec104	0.046570793
83	0x3d76fd7e	0.060300343
84	0xbd5f703e	-0.054550402
85	0x3d0f80a9	0.03503481
86	0xbb166a91	-0.0022951702
87	0xbcaf06a8	-0.021365479
88	0x3d83fb4e	0.06444417
89	0xbbe66732	-0.007031345
90	0x3d4a100e	0.049331717
91	0xbce80726	-0.028323721
92	0xbcc03b5f	-0.02346581
93	0x3b47a011	0.0030460397
94	0xbd53f6e5	-0.05174913
95	0xbd214138	-0.039368838
96	0x3c9a355a	0.018824268
97	0xbc347196	-0.011013409
98	0xbcb41fff	-0.021987913
99	0xbcb4f3d1	-0.022088917
100	0x3cd04783	0.025424724
101	0x3c6852c7	0.014179892
102	0x3d29eb16	0.04148396
103	0x3cfac980	0.03061366
104	0x3c9c9163	0.019112295
105	0x3c0d2b60	0.008616298
106	0x3d8527dd	0.06501744
107	0x3d36aa60	0.044596076
108	0x3d688d93	0.05677564
109	0x3cd9c913	0.026585137
110	0xbd572e29	-0.052534256
111	0xbd1467c5	-0.036231775
112	0x3b48da40	0.0030647665
113	0x3bd4204f	0.006473578
114	0xbd065433	-0.032795142
115	0xbd04d22e	-0.032427005
116	0x3d3245a8	0.04352346
117	0xbd76fba4	-0.060298577
118	0x3b84edc5	0.0040566646
119	0x3cc81a27	0.024426533
120	0xbc8442ce	-0.016145136
121	0x3d5bcf22	0.053664334
122	0x3c0bbde5	0.008529161
123	0xbcd6db06	-0.026227485
124	0xbceea5b1	-0.029131742
125	0xbd204e82	-0.03913737
126	0x3cc45c6f	0.023969857
127	0x3d75f04f	0.06004363
128	0x3cd6c5aa	0.0262173
129	0xbbef375e	-0.0073003015
130	0x3d7013a4	0.05861248
131	0xbd69dc7c	-0.057095036
132	0xbd7e4a96	-0.06208285
133	0xbd269007	-0.0406647
134	0xbb42b15c	-0.0029707765
135	0xbcf3f0c9	-0.029777901
136	0x3d71d1ff	0.05903816
137	0x3d23455a	0.03986106
138	0x3d0edaeb	0.034876745
139	0xbc954ff4	-0.018226601
140	0xbd6f8328	-0.05847469
141	0xbc30b3fd	-0.0107851
142	0xbd7fa3d3	-0.062412094
143	0xbd3a9587	-0.045552757
144	0xbcaba599	-0.020952987
145	0x3ca398cd	0.019970322
146	0x3af10573	0.0018388465
147	0xbbbd0606	-0.0057685403
148	0x3cf5d8fd	0.030010695
149	0xbd566c7c	-0.052349553
150	0x3c88a3bf	0.016679643
151	0x3d58a021	0.052887086
152	0x3d17a33a	0.0370209
153	0xbcefb52e	-0.029261198
154	0xbd146eab	-0.036238354
155	0x3d4aec47	0.049541738
156	0xbd32ec4d	-0.043682385
157	0xbd623be8	-0.055232912
158	0x3d6d5411	0.0579415
159	0xbd5f332e	-0.054492168
160	0x3d46a403	0.048496258
161	0xbabfe061	-0.0014639014
162	0xbd67fbf6	-0.056636773
163	0x3cddf4c2	0.027094249
164	0x39b2b254	0.0003408367
165	0xbd0caa5b	-0.03434215
166	0x3d2813bf	0.041034456
167	0xbd6a9deb	-0.05727951
168	0x3d6e027f	0.05810785
169	0xbd7d4191	-0.061830107
170	0x3a5c5b77	0.00084059633
171	0x3d416e46	0.047224306
172	0xbc8a0de9	-0.016852336
173	0x3c5d4f16	0.013507625
174	0x3d2bdf45	0.041960973
175	0xbd2bc02c	-0.041931316
176	0xbc44b964	-0.012007091
177	0x3c1edd27	0.0096962815
178	0xbd60065f	-0.054693576
179	0x3d131625	0.03590979
180	0x3d052580	0.032506466
181	0x3bd1e641	0.006405622
182	0xbb711218	-0.0036784466
183	0x3a25f060	0.0006330069
184	0xbc879bbc	-0.016553752
185	0x3d604ffb	0.054763775
186	0x3d1d8bbb	0.038463335
187	0xbc975807	-0.018474592
188	0xbd542705	-0.051795024
189	0x3c486d25	0.012233053
190	0x3d25f15f	0.040513393
191	0x3d4cc025	0.04998793
192	0x3d0d095b	0.03443275
193	0x3d6431bd	0.055711497
194	0xbd52376f	-0.051322397
195	0x3d839861	0.06425548
196	0x3d6efbd0	0.058345616
197	0xbd1104e9	-0.035405073
198	0xbd03d4a2	-0.032185204
199	0x3caf7605	0.02141858
200	0x3d57e7c7	0.052711274
201	0x3d24599e	0.040124528
202	0xbc6c1093	-0.0144082485
203	0xbbe4fc6b	-0.0069880984
204	0x3d3fda62	0.046839125
205	0x3ae7f1d7	0.0017695975
206	0xbd239c32	-0.03994388
207	0x3c97d2cb	0.018533131
208	0x3b5b20b6	0.0033436245
209	0x3d56f7a7	0.052482273
210	0xbce06b9c	-0.027395062
211	0xbcd0d68c	-0.025492929
212	0x3cf3fe0b	0.029784223
213	0xbc107247	-0.008816308
214	0xbd7ccd46	-0.0617192
215	0x3d3fdbd6	0.04684051
216	0xbb4c4382	-0.0031168167
217	0x3be350ad	0.0069371075
218	0xbc82591b	-0.01591163
219	0xbd013d57	-0.03155264
220	0xbbfa8fbc	-0.007646529
221	0xbc11217a	-0.008858079
222	0x3ac45f2f	0.001498198
223	0xbd16f896	-0.036858164
224	0xbcdf1224	-0.02723033
225	0xbd706cab	-0.058697384
226	0x3cf05ddc	0.02934163
227	0xbd813528	-0.06308967
228	0x3c9c1df7	0.019057257
229	0x3d12d048	0.035843164
230	0xbd1bbb2f	-0.03802031
231	0xbd3ff766	-0.046866797
232	0x3cf045e5	0.029330203
233	0xbceaf6ed	-0.028682197
234	0xbcdad09e	-0.026710805
235	0x3b8308af	0.003998838
236	0xbc37ed1f	-0.011225968
237	0xbd3065f7	-0.04306599
238	0xbc3a73d8	-0.011380158
239	0x3d791ad6	0.06081661
240	0x3d4100dc	0.04711996
241	0xbb961d37	-0.0045811194
242	0xbd4a39db	-0.04937158
243	0xbd0b70cf	-0.03404313
244	0xbd55db37	-0.052211013
245	0x3d73fb65	0.05956592
246	0xbd6158c4	-0.055016294
247	0xbb16ca28	-0.0023008678
248	0xbd0945d7	-0.03351387
249	0xbcf147e9	-0.029453235
250	0x3c05cf9a	0.008167172
251	0xbd497507	-0.04918387
252	0xbcd9dbf4	-0.02659414
253	0x3d73782c	0.059440777
254	0x3d1b0bd5	0.03785308
255	0xbcce7efc	-0.025207035

weight f4 [256, 256]
0	0x3c99dabe	0.018781062
1	0xbc8433ea	-0.016138036
2	0x3d6fbd98	0.05853042
3	0x3db0d03b	0.08633467
4	0x3ade2ccc	0.0016950606
5	0x3cf50f99	0.029914664
6	0x3af6a6e0	0.0018818043
7	0x3c852b19	0.016255902
8	0xbd458510	-0.0482226
9	0x3d2bd89e	0.04195463
10	0xbccbb18f	-0.02486494
11	0x3d46f677	0.04857489
12	0xbd9e7ff4	-0.07739249
13	0x3b99c6f1	0.004692905
14	0x3c448624	0.011994872
15	0xbc8ceb6f	-0.017202107
16	0xbdd7331b	-0.105077945
17	0x3cdbcf90	0.026832372
18	0x3db18037	0.08667033
19	0xbcfb5287	-0.030679
20	0x3d567b13	0.052363466
21	0xbd1f8756	-0.038947426
22	0x3db37967	0.0876339
23	0xbbb7a97f	-0.0056049223
24	0x39bf929b	0.00036539588
25	0x3ceed93f	0.029156325
26	0xbd1efdc6	-0.038816236
27	0xbd82f4f3	-0.063943766
28	0xbc0b8861	-0.008516402
29	0x3c6c15db	0.014409508
30	0x3d36b002	0.044601448
31	0xbd9dc319	-0.077032275
32	0x3c56e38d	0.013115776
33	0xbd254bbd	-0.040355433
34	0xbaaf45a3	-0.0013372194
35	0x3d8012e3	0.06253602
36	0xbc1262af	-0.008934661
37	0xbd97bfc8	-0.07409626
38	0xbd6e08f5	-0.05811401
39	0x3c820800	0.015872955
40	0xbc6a6bf2	-0.014307963
41	0xbcd0bd40	-0.025480866
42	0xba8c17e5	-0.0010688273
43	0xbc804e22	-0.015662257
44	0xbdb00068	-0.085938275
45	0xbd4faf4d	-0.05070429
46	0x3d7672bb	0.06016801
47	0xbce20ce9	-0.027594047
48	0x3cb114fd	0.021616453
49	0xbd602edd	-0.054732192
50	0xbcb5ea48	-0.02220644
51	0x3ccafda0	0.024779141
52	0xbcdb44e1	-0.026766242
53	0x3d224839	0.03961966
54	0xbd82a58f	-0.06379234
55	0xbbc8502e	-0.006113074
56	0xbcc6fc6d	-0.024290288
57	0xbc1d262a	-0.009591619
58	0x3c37cbb4	0.011218
59	0xbc57f59a	-0.013181115
60	0x3cbaa4a8	0.022783592
61	0xbc62b897	-0.013837955
62	0x3d28c617	0.04120454
63	0xbd7c1509	-0.0615435
64	0xbbc25b40	-0.005931288
65	0x3c94bdd6	0.018156927
66	0x3d4b0bde	0.049571864
67	0xbd23f944	-0.04003264
68	0xbd145b8a	-0.03622011
69	0x3b9e2f4c	0.0048274156
70	0x3d905375	0.07047168
71	0x3d1e4d8b	0.03864817
72	0xbd16d98c	-0.036828563
73	0xbcdd78dd	-0.027035171
74	0x3d7c82ac	0.061648056
75	0x3db5aa92	0.08870424
76	0x3d12d4cc	0.03584747
77	0xbd911631	-0.07084311
78	0xbd381ca3	-0.044949185
79	0x3c0efa2e	0.00872664
80	0x3bf35e98	0.007427048
81	0xbd42b7b7	-0.047538485
82	0xbda34853	-0.07972779
83	0xbd088aad	-0.033335377
84	0x3bf0254d	0.0073286653
85	0xbc945782	-0.018108133
86	0xbc79f5ae	-0.0152563285
87	0xbd56e710	-0.052466452
88	0x3c991dbf	0.018690942
89	0x3d99659e	0.07490085
90	0xbb9abe34	-0.004722381
91	0xbd4f7a0f	-0.050653514
92	0x3da6efd7	0.081512146
93	0x3ce1736f	0.027520863
94	0x3d667838	0.056266993
95	0x3c2b4368	0.010453083
96	0x3a145ebf	0.000565987
97	0x3cbb3342	0.02285159
98	0xbdbd9847	-0.0925756
99	0x3bde27e9	0.00677966
100	0x3d276b7a	0.040873982
101	0x3ce32a68	0.027730182
102	0xbd8b533e	-0.068029866
103	0xbd682ab2	-0.056681342
104	0x3bb78ea7	0.0056017223
105	0x3d8ea5df	0.06965231
106	0x3d9268ab	0.0714887
107	0x3d801bc1	0.06255294
108	0xbd1cc0e5	-0.038269896
109	0xb97b9714	-0.00023993506
110	0xbbd756e9	-0.00657164
111	0xbc92803f	-0.017883418
112	0x3d290810	0.041267455
113	0xbd4b7d35	-0.049679954
114	0x3de07ea0	0.10961652
115	0xbc2d9628	-0.010594882
116	0xbd205bc2	-0.039150007
117	0xbcec25ac	-0.028826557
118	0x3cd31f60	0.025771797
119	0x3d116ae6	0.035502337
120	0x3a9f823c	0.001216955
121	0x3cedcef4	0.029029347
122	0xbbc5ce0a	-0.0060365247
123	0xbd8f2f89	-0.069914885
124	0xbd22d842	-0.03975702
125	0xbb687168	-0.0035467986
126	0xbd9f6603	-0.07783129
127	0xbcff29a6	-0.03114779
128	0x3d98e094	0.0746471
129	0x3ce733ae	0.028222885
130	0xbbf7f4d0	-0.0075670257
131	0x3cd492c6	0.025948893
132	0x3dc1e75c	0.094679564
133	0x3cd9dcfb	0.02659463
134	0x3d173768	0.036918074
135	0xbd6df330	-0.05809325
136	0x3d898ef2	0.06716718
137	0xbd27625e	-0.040865295
138	0xbcb0f8ad	-0.021602953
139	0x3c88539b	0.016641429
140	0x3dd8d715	0.10587899
141	0xbc267ac6	-0.010161107
142	0xbda7b18e	-0.08188163
143	0x3b853ca5	0.0040660673
144	0x3cd43201	0.02590275
145	0xbcf1e68c	-0.029528879
146	0xbcabcd0f	-0.020971803
147	0x3c9097ef	0.017650573
148	0x3c4ce885	0.012506609
149	0xbd90a5b5	-0.07062856
150	0x3d99f07d	0.075165726
151	0x3d2e0f4c	0.042495057
152	0x3dd4134a	0.103552416
153	0xbd5ac2f2	-0.05340857
154	0x3d784c62	0.06061972
155	0xbd10e3c4	-0.035373464
156	0x3bd0dcf5	0.0063739964
157	0xbc55e3cf	-0.013054802
158	0x3cae4c97	0.021276755
159	0xbcb8d65f	-0.022563158
160	0x3c9cad03	0.019125467
161	0xbc848c8f	-0.016180305
162	0xbcbf2d3a	-0.023336995
163	0x3d2b5ca8	0.04183641
164	0xbc8efe2c	-0.017455183
165	0xbc352f5d	-0.011058656
166	0x3cb82156	0.022476833
167	0xbd79053e	-0.060796015
168	0x3dd2d7ce	0.10295068
169	0xbdbdaf2e	-0.092619285
170	0x3d6bf152	0.057603188
171	0x3c672593	0.0141080795
172	0x3ce34b88	0.027745977
173	0x3d4b0739	0.049567435
174	0xbdacedcb	-0.08443793
175	0x3d27f247	0.041002538
176	0x3cb285b3	0.021792268
177	0xbda962dd	-0.0827081
178	0x3d5ebd81	0.054379944
179	0x3d698829	0.057014618
180	0xbd91e4e0	-0.071237326
181	0x3d435ef7	0.047697987
182	0x3d547295	0.051867086
183	0x3d57d910	0.05269724
184	0x3ba03fba	0.0048904093
185	0x3c03f552	0.008054094
186	0x3d84eb06	0.0649014
187	0xbd29649c	-0.041355714
188	0xbc3d602d	-0.011558575
189	0x3c3974f0	0.011319384
190	0x3cec176a	0.028819758
191	0x3be85bbb	0.0070910132
192	0xbd73b904	-0.059502617
193	0xbc870733	-0.016482925
194	0x3c52093d	0.012819585
195	0x3c4d0736	0.012513926
196	0xbd96e175	-0.07367221
197	0xbca88409	-0.020570772
198	0x3cb3a215	0.021927873
199	0x39d0e7a9	0.00039845452
200	0x3d029850	0.031883538
201	0x3d02b238	0.031908244
202	0x3d3d9c4c	0.046291634
203	0x3d5617ef	0.05226892
204	0x3bf07dff	0.0073392387
205	0x3ded4b57	0.115866356
206	0xbca634c6	-0.020288836
207	0xbcea56d6	-0.02860586
208	0xbc89dc39	-0.016828643
209	0x3ced7d06	0.02899028
210	0x3d8a441b	0.06751271
211	0xbabb97bb	-0.0014312187
212	0xbd93014f	-0.07177984
213	0x3cca86e2	0.02472252
214	0x3d5200b1	0.05127019
215	0xbd5f6a36	-0.05454465
216	0x3cf2de52	0.029647026
217	0x3d1a6a23	0.037698876
218	0xbd0c0b28	-0.034190327
219	0xbcb7fc13	-0.022459066
220	0xbcda9c52	-0.026685867
221	0xbce2e17f	-0.027695416
222	0xbcca2f66	-0.024680804
223	0xbd5589bb	-0.052133303
224	0x3cf65d97	0.030073924
225	0x3d6da1c2	0.058015592
226	0x3b2bc377	0.0026209035
227	0x3d0bb31d	0.034106363
228	0x3d0358b1	0.032067005
229	0x3c1d9bba	0.009619648
230	0x3d1c36f2	0.038138337
231	0xbd1627b5	-0.03665896
232	0x3e016f6f	0.12640165
233	0xbce90c73	-0.028448319
234	0xbb131f68	-0.002244914
235	0x3d95aee5	0.07308749
236	0xbd76488f	-0.06012779
237	0xbd982ef4	-0.074308306
238	0x3c2fd101	0.010730983
239	0x3ddc0fb9	0.10745186
240	0x3c813f16	0.015777152
241	0xbd352e1b	-0.044233423
242	0x3b0ca8d2	0.002146293
243	0x3ba2392f	0.0049506645
244	0x3b189ee0	0.0023288056
245	0x3ce819f4	0.028332688
246	0xbd8c11a2	-0.06839301
247	0x3c20e9c4	0.009821359
248	0x3dc4621f	0.095890276
249	0xbd4b50e3	-0.049637686
250	0xbc538934	-0.01291113
251	0x3d46bc6c	0.048519537
252	0xbda535a0	-0.08066869
253	0x3e1aad66	0.15105209
254	0x3d9360ba	0.071961835
255	0x3d988c55	0.07448641

bias f4 [256]
0	0xbb31daf8	-0.0027138572
1	0xbd21673a	-0.039405085
2	0xbcf22634	-0.029559232
3	0x39cb2662	0.00038747775
4	0x3d64a2e2	0.0558194
5	0x3d489b3e	0.048976175
6	0xbd28c315	-0.04120167
7	0xbc58f082	-0.013240935
8	0xbcd5942d	-0.026071632
9	0xbc254f93	-0.010089773
10	0x3d68a0d6	0.05679401
11	0xbd04e412	-0.032444067
12	0x3d49c64b	0.049261373
13	0xbd038ec3	-0.03211857
14	0xbd324736	-0.043524943
15	0x3d0a1a87	0.033716705
16	0x3ac53111	0.001504453
17	0xbd6c266b	-0.057653826
18	0x3cad693e	0.021168347
19	0xbc95833f	-0.01825106
20	0x3d75d0a1	0.060013417
21	0x3d5aa530	0.05338019
22	0x3d42b5ba	0.04753659
23	0x3d3084e3	0.04309548
24	0x3d1ff225	0.039049286
25	0xbcedad14	-0.029013194
26	0xbd51a9a5	-0.051187176
27	0x3c89d1c4	0.016823657
28	0x3d43ea0e	0.047830634
29	0xbc34f044	-0.011043612
30	0xbc96b4c4	-0.018396743
31	0x3d4f6486	0.050632976
32	0x3cd4c18e	0.0259712
33	0xbb69cf81	-0.003567666
34	0x3d5b4f11	0.0535422
35	0x3d7128fa	0.05887697
36	0x3d6cdcfa	0.057827927
37	0xbcb8dcd1	-0.022566231
38	0x3d27af63	0.040938746
39	0x3d02da08	0.031946212
40	0xbd4bed3a	-0.049786784
41	0xbd74e373	-0.059787225
42	0x3d5e4b5a	0.05427108
43	0xbc540658	-0.012940966
44	0x3a35d041	0.00069356343
45	0xbbac46aa	-0.0052574473
46	0x3d5efee7	0.054442313
47	0x3d0e7058	0.034775108
48	0x3d7170e0	0.058945537
49	0x3c95eb3f	0.01830065
50	0x3c5ca681	0.013467432
51	0x3d0d047e	0.034428112
52	0x3cffb2e1	0.031213226
53	0xbc0d94c2	-0.008641424
54	0x3d6d2924	0.057900563
55	0xbd2d9f2e	-0.042388134
56	0xbd137a27	-0.036005165
57	0x3d0e201a	0.034698583
58	0x3be23ec3	0.0069044544
59	0xbcc18587	-0.023623241
60	0x3d2d1203	0.042253505
61	0xbc98cfdd	-0.018653804
62	0x3d644551	0.055730168
63	0x3c1cd02b	0.0095711155
64	0x3cd78e13	0.026312863
65	0xbcf56d9c	-0.029959492
66	0x3d49d8bf	0.04927897
67	0xbb1b8e80	-0.002373606
68	0x3bf81fd5	0.007572154
69	0x3d7e3371	0.062060777
70	0x3d06b08e	0.03288322
71	0xbd135281	-0.035967354
72	0xbd7ac586	-0.06122353
73	0x3c8a4492	0.0168784
74	0x3cc20ba3	0.02368719
75	0xbd5e518b	-0.054276984
76	0xbcd0c359	-0.025483774
77	0x3d362b9f	0.044475194
78	0xbd3d978c	-0.046287104
79	0xbcbf7873	-0.023372864
80	0x3d09ba38	0.033624858
81	0x3d042acb	0.032267373
82	0x3aa5053c	0.0012590061
83	0xbd1bacfd	-0.03800677
84	0x3c15a85b	0.009134377
85	0xbcd68f65	-0.026191423
86	0xbd5374c9	-0.051625047
87	0x3d80e8cf	0.06294405
88	0xbc74af89	-0.014934429
89	0x3d6793d5	0.056537468
90	0xb9b84373	-0.00035145468
91	0xbd61c9f5	-0.05512424
92	0x3bc4f01c	0.0060100686
93	0xbcb0ea1b	-0.021596005
94	0xbcdab88d	-0.026699329
95	0xbcb0b69c	-0.02157145
96	0xbd3658ca	-0.04451827
97	0xbccdfcc2	-0.025144938
98	0x3d538512	0.051640578
99	0xbd2d77f6	-0.04235073
100	0x3cbf2a54	0.023335613
101	0x3cf14c6a	0.029455382
102	0xbb7a1509	-0.003815951
103	0x3d544359	0.05182204
104	0x3b8157a8	0.003947217
105	0x3c48bd11	0.012252108
106	0xbb9196d7	-0.0044430303
107	0x3d201efd	0.039092053
108	0x3c4bef39	0.012447172
109	0x3b261505	0.0025342118
110	0xbd60987e	-0.054832928
111	0xbb709edf	-0.0036715788
112	0x3cad6a9c	0.021169
113	0x3d3b8a61	0.045786265
114	0x3d6933dc	0.056934223
115	0xbd586f77	-0.052840676
116	0xbd454667	-0.048162844
117	0x3d4a4607	0.04938319
118	0x3cb67323	0.022271698
119	0xbd19abd4	-0.037517384
120	0xbc77decf	-0.015128805
121	0xbbd786fd	-0.006577371
122	0x3cb6c8ec	0.022312604
123	0x3d6f3aad	0.058405567
124	0x3d4f6c4f	0.0506404
125	0x3b5c24d0	0.0033591278
126	0xbc64bb2b	-0.01396064
127	0xbcf3223a	-0.029679406
128	0xbcaf1762	-0.021373454
129	0xbc6e7f7d	-0.014556763
130	0x3c18e47c	0.009331819
131	0xbc756cca	-0.014979551
132	0x3d6877fd	0.056755055
133	0x3c6c5b8c	0.014426123
134	0x3d1af8d7	0.03783497
135	0xbd6cd72f	-0.057822403
136	0x3b853210	0.004064806
137	0x3d039f00	0.032134056
138	0xbd4c6766	-0.049903296
139	0xbcb636ac	-0.022242866
140	0x3aa6a44b	0.0012713758
141	0xbd267e94	-0.040648058
142	0xbca8fc30	-0.020628065
143	0xbc44f0b4	-0.012020279
144	0x3d2616e1	0.040549163
145	0x3bfd0d77	0.0077225524
146	0x3caf0a6a	0.02136727
147	0xbc80a0df	-0.01570171
148	0x3cf0e162	0.029404346
149	0xba835331	-0.00100193
150	0x3bb86749	0.005627547
151	0xbce9fc67	-0.028562738
152	0xbd6f5b37	-0.0584366
153	0xbd4b3625	-0.049612183
154	0xbbfa5a62	-0.007640169
155	0x3d5979b6	0.05309459
156	0x3b11621f	0.002218373
157	0xbd2ccb05	-0.042185802
158	0x3cc4b178	0.024010405
159	0xbd646fc3	-0.055770647
160	0x3c1f9475	0.009739985
161	0xbb5a233f	-0.0033285168
162	0x3c42c45c	0.011887636
163	0xbcc7fb36	-0.024411779
164	0x3ce2c3c0	0.027681231
165	0xbcc7c1a1	-0.024384322
166	0xbd4b8765	-0.04968967
167	0xbd2b7d67	-0.04186764
168	0xbc94fe9c	-0.018187813
169	0xbc2bee67	-0.010493851
170	0xbd6fb30f	-0.058520373
171	0xbc9c003f	-0.019043086
172	0xbd2d9116	-0.042374693
173	0x3b9bcc97	0.0047546136
174	0x3d5ec67d	0.054388512
175	0xbcdd1ada	-0.026990343
176	0xbd47b5f7	-0.04875752
177	0xbd7aaefb	-0.06120203
178	0x3c91c2cb	0.01779308
179	0x3d017b1d	0.03161155
180	0xbcd6ffb1	-0.02624497
181	0x3cfc0521	0.030764164
182	0x3d433489	0.047657523
183	0x3d7b7c7c	0.061398014
184	0xbd1c1143	-0.0381024
185	0x3beec13e	0.00728622
186	0xbd83738d	-0.06418524
187	0xbd6ea05b	-0.058258396
188	0xbd65be6c	-0.056089804
189	0x3d6c5179	0.057694886
190	0xbc51b5d2	-0.012799697
191	0xbc7c515d	-0.015400258
192	0xbcb89e22	-0.022536341
193	0xba6a6251	-0.0008941042
194	0xbcb19328	-0.021676615
195	0xbbbea250	-0.005817689
196	0xbd650482	-0.055912502
197	0x3d8065c9	0.06269414
198	0xbd0eba94	-0.034845904
199	0xbd0009c2	-0.031259306
200	0xbc098cb8	-0.008395366
201	0xbb9b4c52	-0.0047393227
202	0xbb51be81	-0.0032004418
203	0x3c0b2c54	0.008494455
204	0x3d380f72	0.044936605
205	0xbd18ba89	-0.03728727
206	0x3afbb61f	0.0019204057
207	0x3d2fa13e	0.042878382
208	0x3c4039ca	0.011732528
209	0xbca2aed4	-0.019858755
210	0x3cd2aa7f	0.025716064
211	0x3d3a6c9c	0.045513734
212	0x3d348d8c	0.044080302
213	0xbcc5f614	-0.02416519
214	0xbd069814	-0.032859877
215	0x3c8e83fc	0.01739692
216	0x3a73da09	0.0009302204
217	0xbd41df70	-0.047332227
218	0x3b4d4453	0.0031321242
219	0xbd3d47e2	-0.04621113
220	0xbd7547d2	-0.059882946
221	0xbd5d0900	-0.05396366
222	0xbd3c9628	-0.046041638
223	0x3c81bbee	0.015836682
224	0xbd471846	-0.048607133
225	0xbcc4498b	-0.02396085
226	0xbc8909be	-0.016728278
227	0x3d863000	0.06552124
228	0xbb86696f	-0.004101924
229	0x3c68a475	0.014199366
230	0xbd22cb9e	-0.039744966
231	0xbd093582	-0.033498295
232	0x3d03a46b	0.032139223
233	0xbd04fae2	-0.032465823
234	0x3cb0c88a	0.02158
235	0xbc8e19ef	-0.01734635
236	0xbd436e99	-0.047712896
237	0x3ba4c7d5	0.0050287046
238	0xbd01771d	-0.031607736
239	0xbc8f5450	-0.017496258
240	0xbd666e2e	-0.05625742
241	0x3aba2f8a	0.0014204842
242	0xbcb3fbaa	-0.021970589
243	0x3c2412ac	0.010014217
244	0xbcb533ff	-0.02211952
245	0xbc385856	-0.01125153
246	0x3d412485	0.04715397
247	0xbd4f66f5	-0.050635297
248	0xbd445ccd	-0.047940064
249	0x3bedf30d	0.00726164
250	0x3d52aa51	0.051431958
251	0x3d4c3719	0.049857233
252	0x3c74093e	0.014894782
253	0x3d5f3419	0.054493044
254	0xbd6f42e9	-0.05841342
255	0xbd58f2c0	-0.05296588
