dblp_train/train/pretrained_magnn/decoder_c.pth (torch, 529440 bytes, 4 tensors)

weight f4 [256, 256]
000000 80 6a 31 3c 2f 9a 77 3c 54 68 48 3d 18 d6 7c bd
       0.010828614 0.015112444 0.04892762 -0.061727613
000010 b9 9a 54 3d e2 80 e7 3d 43 f0 81 ba d8 8c 01 3c
       0.051905368 0.11303879 -0.0009913523 0.007907115
000020 98 3a c9 3d 42 88 c1 3c 63 e3 50 bd 51 d1 0b bd
       0.09825629 0.023624543 -0.050998103 -0.034135167
000030 11 7a b1 ba 18 19 04 3c 75 0b ae bc 24 a6 56 3b
       -0.0013540407 0.008062623 -0.021245698 0.0032752836
000040 67 64 9a 3d e1 53 1f 3d 62 67 3e 3d 69 af 1d 3d
       0.075386815 0.038898353 0.046485312 0.038497362
000050 2e b5 3e ba c0 bc 11 bd 17 7c 3b 3b 25 f4 1f 38
       -0.00072749227 -0.035580397 0.00286079 3.813593e-05
000060 c1 85 1c 3d 4f 9b b7 37 c2 8f 94 bc 14 ed 70 3a
       0.038213495 2.1887621e-05 -0.018134955 0.0009190601
000070 24 f2 ec bc 3f f9 66 3c 5a 28 f7 bb 23 1e 56 3d
       -0.028924055 0.014097511 -0.007542652 0.052274834
000080 65 88 74 3c 40 0b 27 3d 49 91 ba bb 78 82 c6 3b
       0.014925097 0.040782213 -0.005693589 0.0060580336
000090 04 85 a3 bb bb 0a e6 3b 08 e0 11 3d 7b e4 a9 bd
       -0.004990222 0.007020322 0.035614043 -0.08295532
0000a0 7c ee 08 bd ee 40 71 3c b9 b4 7b bd 00 de 1f 3c
       -0.03343056 0.014724953 -0.061451647 0.009757519
0000b0 06 89 eb bd 3d e8 01 bd 8a 9e af bd ce 5c 28 bd
       -0.115007445 -0.03171562 -0.08575161 -0.04110413
0000c0 2b a5 c4 3c 24 76 b9 3c 5a cc 39 bd 06 d5 9f bc
       0.02400454 0.022639342 -0.0453609 -0.019510757
0000d0 79 59 1c 3b c3 9d 7a 3c 93 2b 70 3c 72 5f 2a 3c
       0.002385704 0.015296402 0.014658826 0.0103987325
0000e0 22 24 00 bc 52 b4 f6 3a 29 92 16 3c 06 a7 92 3c
       -0.007821115 0.001882205 0.009190121 0.017901909
0000f0 8a dd 70 3c 98 f0 3e bd 2d cc d8 bb 64 ab 84 bc
       0.0147012565 -0.046616167 -0.0066161365 -0.016195007
000100 35 85 f7 3b 43 54 71 3c 49 b5 c5 bc 5a c8 8a 3c
       0.0075537213 0.014729562 -0.024134295 0.016941238
000110 71 c5 48 bc ec 5b 22 3d 94 ac 66 3b 66 00 a3 3c
       -0.012254105 0.039638445 0.003519808 0.01989765
000120 14 74 3b 3d e5 46 07 3d 38 c3 53 3d 7d d0 38 3d
       0.045764998 0.033026595 0.051699847 0.045120705
000130 05 e2 1f bd 38 91 93 bb e3 5d 7b 3c 3a 04 7a 3c
       -0.03903391 -0.0045033954 0.015342209 0.015259797
000140 21 41 86 bc 31 7c 39 bc 2f 5d 11 bd 25 01 52 3c
       -0.016388478 -0.011321113 -0.035489257 0.012817656
000150 f4 f9 46 3d 63 cc 2d 3d a6 91 37 3d b5 1d af 3c
       0.048578218 0.042431246 0.044816636 0.02137647
000160 2f 87 2c bd 5c 7f e2 3d 6f 5e 0d 3d b0 3c 68 3d
       -0.04212111 0.11059448 0.034513887 0.0566985
000170 ca fb 6e 3d dc 9b 05 bd e2 9d b1 3c 85 fc ef 3c
       0.058345594 -0.032619342 0.02168173 0.029295215
000180 47 e9 4e 3c f2 c3 9b 3d 91 d4 17 3c 39 87 42 bd
       0.01262886 0.07605733 0.009266988 -0.04749224
000190 a1 61 6d bd e7 64 0c bc a8 78 75 3d 64 2e e7 ba
       -0.057954434 -0.008568979 0.05992952 -0.0017637727
0001a0 e3 90 fd 3c ab 68 ae bc 88 1c 86 3c 7f 9b c7 3c
       0.030952876 -0.021290144 0.016371027 0.024366139
0001b0 48 c7 c0 37 e3 ca 6c bd 70 54 eb 3b 40 dc a4 3c
       2.2980981e-05 -0.057810675 0.0071816966 0.020124555
0001c0 9e b9 b0 bd d8 37 5a 3d 15 bb 6c 3d 5a db 04 3b
       -0.08629154 0.053275913 0.057795603 0.0020272345
0001d0 86 8d 88 3a e2 01 31 bd 95 fe 30 bd 0f 6a 15 3d
       0.0010418154 -0.043214686 -0.04321154 0.0364781
0001e0 21 74 6f 3d 33 a8 87 3c ab 2c 8a 3c 29 7f cc bc
       0.05846036 0.016559696 0.016867002 -0.024962978
0001f0 a2 6a 35 3d 66 bf b8 bc 70 92 89 bd 90 42 24 3d
       0.044291146 -0.022552203 -0.06717384 0.04010254
000200 89 15 f0 3b a0 de 21 bb a1 c7 ac 3c e4 3b 4c 3d
       0.007326786 -0.0024699345 0.021091284 0.049861804
000210 a7 27 85 3d f0 e4 8c 3d 57 0d 2a 3b 5f d3 cf bc
       0.06501704 0.06879604 0.0025947893 -0.025369344
000220 fd 3a 12 3d 5c a8 12 bd 87 57 16 3d a7 61 34 3c
       0.035700787 -0.03580509 0.036704566 0.01100961
000230 24 d0 83 3c 1e 93 4d bd 42 2c d9 bc 68 33 91 3b
       0.01609046 -0.05018913 -0.026510362 0.004431177
000240 42 06 bb 3c 2c 1d 38 3c f9 5e 53 3d 26 29 b8 bc
       0.022830132 0.011237424 0.051604245 -0.022480559
000250 b8 a7 e2 bc 8e f0 36 3d 34 19 14 3e 78 58 2b 3c
       -0.027667865 0.044663005 0.14462739 0.010458104
000260 91 59 b4 3c f6 3d 60 bd f1 d5 58 3c 19 f2 b5 bb
       0.022015365 -0.05474659 0.013234601 -0.005552542
000270 e8 92 1f 3d f7 8d df 3c 6c 25 b5 3c 81 56 07 3c
       0.03895846 0.027289374 0.02211257 0.00826037
000280 8c 53 84 3c 83 2d 6c 3d 4d b9 56 bd 88 e2 fa 3c
       0.01615312 0.05766059 -0.05242281 0.030625597
000290 b6 d1 43 3d ca b7 05 3d e2 19 6f bc c6 8c 01 3c
       0.047807418 0.032645978 -0.014593573 0.007907098
0002a0 fb 13 84 3c 06 7d b1 3c 7d 2b c4 3a a6 23 1f 3c
       0.016122809 0.021666061 0.0014966574 0.009713089
0002b0 9f df 5a bc e4 35 4a 3c f2 c3 be 3c ce f7 1d 3c
       -0.0133589795 0.01234195 0.023286793 0.009641601
0002c0 22 15 08 bd 31 bd cd 3c 80 75 97 bc a8 57 c1 3d
       -0.03322328 0.025114628 -0.018488646 0.09440547
0002d0 3b 8a ea 3c 3c ee 86 3d bd c2 78 3b 2d e3 70 3c
       0.028630367 0.06588408 0.003795787 0.0147026
0002e0 26 aa f6 bb 4f 9c ee 3c df ea c7 3c e6 fd 65 3d
       -0.0075276075 0.029127268 0.024403987 0.05615034
0002f0 ac bd ee 39 19 68 31 3d 7e 80 34 3c f2 d1 31 bb
       0.00045536214 0.043312166 0.011016963 -0.0027133194
000300 78 de 4b 3c 1f b9 21 bc 21 9d 72 3c 12 27 4d 3d
       0.012443177 -0.009870796 0.01480797 0.05008609
000310 a6 6c 2d 3c c8 41 a7 3c 8f 74 57 3c 4b 70 61 3c
       0.010584986 0.02041711 0.013150348 0.013759683
000320 12 1c a6 3d 74 46 70 3d 1e c5 77 3c 43 2f 81 3d
       0.08110823 0.05866094 0.01512268 0.063078426
000330 e0 af 34 bd ad f0 42 39 2e a7 58 bd d0 ac 97 3b
       -0.04411304 0.0001859094 -0.05289381 0.004628755
000340 d9 21 68 bb ca 0b cf 3c 83 d1 17 3c 0f 34 fe 3c
       -0.0035420565 0.025274176 0.00926626 0.031030683
000350 ae 25 3d 3d 1b 5a 8d bd 59 9e 62 bd ba 4c cb 3c
       0.046178512 -0.06901952 -0.055326793 0.02481686
000360 05 57 c0 bc bd 2a 7d 3b a6 04 f8 bb aa aa c2 3d
       -0.023478994 0.003863021 -0.0075689135 0.09505208
000370 6f 9b 31 bb 2a b1 25 3c 5e 1d 35 3d 29 7a ae 3c
       -0.0027100702 0.01011304 0.04421746 0.021298485
000380 b4 df 0b 3c 91 bf bc 3c 28 f9 0c bd 89 17 42 3b
       0.008537222 0.023040565 -0.0344173 0.0029616079
000390 fe 66 ae bd 12 f1 ea bc 0c 3c 57 3d 6a 51 bc bd
       -0.08515738 -0.028679404 0.0525475 -0.09195216
0003a0 9f 1e 80 3c e3 ff dd 3c ee 11 8a 3c 8c 75 9d 3c
       0.015639601 0.027099555 0.016854253 0.01922109
0003b0 d8 60 92 bd 67 2d 49 bd 02 a6 d0 3d 26 81 8c bd
       -0.07147378 -0.049115565 0.101879135 -0.068605706
0003c0 c4 1a a4 3a 4f cd 88 bc f8 e6 54 bd 57 76 40 36
       0.0012520184 -0.016699461 -0.05197808 2.8679112e-06
0003d0 b3 ed 07 3d ad 7f 69 bc 5f 4a 2f bd 96 df 16 3b
       0.033185672 -0.014251632 -0.042795535 0.0023021451
0003e0 11 b0 a1 bc 11 10 d9 bc 7e 6b 6e 3d 8e 14 d0 3a
       -0.019737275 -0.026496919 0.05820798 0.0015875266
0003f0 5c 3b c9 bc 7f c2 44 bd 4b b4 75 39 0d 30 2f 3d
       -0.024564438 -0.04803705 0.00023432185 0.042770434

bias f4 [256]
000000 de 6f 61 3d dc 0c df bc 36 42 8c 3d 15 d7 6f bd
       0.055038325 -0.027227812 0.06848566 -0.058554728
000010 86 8c ff 3c 67 ec 6a bc ef 8a 89 3d 3c f0 bd 3b
       0.031194936 -0.014338589 0.067159526 0.0057964604
000020 81 5e 9e 3c 44 a4 cb bc 4a 19 f4 3c 67 e4 d8 bc
       0.019332172 -0.024858601 0.029797215 -0.026476098
000030 70 95 09 3d da 46 5d 3d 8f da 5d bd 8c 74 f1 bc
       0.03358978 0.054022647 -0.05416351 -0.02947452
000040 5e 5b 79 bd 4c 85 b1 3c 34 fe 80 bd c2 ec 81 bd
       -0.06087815 0.021670006 -0.062984854 -0.06343986
000050 ff 64 86 bc e9 aa 44 3d 89 f8 73 bd b9 5a 64 bc
       -0.01640558 0.048014555 -0.059563193 -0.013937646
000060 47 ed 03 bc 13 59 1e 3d 6c 5b 83 3d 7c a3 ff 3c
       -0.008052177 0.038659167 0.06413922 0.031205885
000070 8b e4 1c bc 08 5c 4b 3d f0 6e 17 bd 79 77 7f 3d
       -0.009575973 0.049648315 -0.036971033 0.062369797
000080 19 ed 32 3d f2 0f f1 bc 25 78 f4 bc b8 6d 1a 3c
       0.043683145 -0.029426549 -0.029842446 0.009425573
000090 92 f3 bf 3c c8 b9 6c bd 31 ca 1a bd 9e 16 6f bd
       0.023431573 -0.057794362 -0.03779048 -0.05837118
0000a0 07 bd 56 3d 7c c2 f0 3c a7 b5 59 bc 0b f0 56 3b
       0.052426364 0.029389612 -0.013287938 0.0032796885
0000b0 88 7f 7d bd c4 41 a9 3c f9 a6 1f bd 23 f1 a7 bc
       -0.0618892 0.020661242 -0.038977597 -0.020500725
0000c0 4c 1a 6e bd a7 72 1f 3d 73 cf 57 3d a9 6f 04 3d
       -0.058130547 0.0389277 0.052688073 0.03233305
0000d0 a6 24 9a bc 16 c2 45 3d 71 3c 1d bd 95 10 1d bd
       -0.018816303 0.048280798 -0.03838772 -0.038345892
0000e0 34 b3 85 3c d9 31 68 bd bc e4 f6 bc c1 f5 61 3d
       0.016320802 -0.056688163 -0.030138366 0.05516601
0000f0 d2 c1 d3 3c 1f 9b 47 3d d9 e8 6f 3d 95 ae 0c 3d
       0.025849257 0.04873192 0.05857167 0.034346182
000100 3e 97 ae 3c 37 cf 2e bc d1 4c a8 3b c2 fc 15 3d
       0.021312352 -0.010669521 0.0051361104 0.036618
000110 71 52 14 3c 8b 5c b6 3c 28 75 02 bc 14 e1 f4 3c
       0.009052859 0.022260925 -0.007962503 0.029892482
000120 2a 00 8f 3d 68 dd 6a bc ae 13 73 bd 25 06 0c 3d
       0.06982453 -0.014335014 -0.05934494 0.034185547
000130 45 d3 3e 3c fb a6 4b 3d 54 60 47 bd 5e 48 83 bc
       0.01164705 0.04971979 -0.04867585 -0.016025718
000140 42 75 05 3d 84 01 4c bd a7 b3 04 bd 4f 9f c9 3c
       0.03258253 -0.049806133 -0.032397892 0.024612097
000150 f9 56 42 bd a9 92 97 3c 99 8d 10 3d 34 70 68 bc
       -0.047446225 0.01850255 0.035291288 -0.014186908
000160 6a 77 d2 bc af 3d 67 3d 2d b9 ad bb 83 90 dd 3c
       -0.025691707 0.05645531 -0.0053016157 0.027046448
000170 ad 09 47 3d 9d 99 25 bd 94 0d 83 3d 15 4f c9 3c
       0.048593212 -0.0404297 0.06399074 0.024573842
000180 6b 6d 1d 3d 31 58 3e bb 11 1b 45 3d 6d ae 5f bd
       0.038434427 -0.0029044265 0.048121516 -0.054609705
000190 43 f6 22 3d 94 c2 58 3c 73 51 3d bd 0e 50 82 3b
       0.039785635 0.013229985 -0.046220254 0.0039768284
0001a0 7a 0c da 3c 77 c9 39 3d 14 18 25 3d 01 2a 1e bd
       0.026617277 0.045358147 0.040306166 -0.038614277
0001b0 a1 72 6b 3d 20 00 56 bd 34 dd 10 3d 09 f5 da 3c
       0.057482366 -0.052246213 0.035367206 0.02672817
0001c0 58 cb 86 bd 43 1f 04 bd 49 25 93 bc 82 d0 cc bc
       -0.065817535 -0.032256376 -0.017962115 -0.025001768
0001d0 e9 e6 05 bc 43 ef 01 bd 81 2d 6e 3d 06 72 22 bd
       -0.008172729 -0.03172232 0.058148865 -0.039659522
0001e0 60 1b 4a 3d f9 b6 b2 bb 59 8f dd 3c d8 a4 a8 3a
       0.049342513 -0.005453941 0.027045893 0.001286651
0001f0 b2 c1 8e bd f4 5d f3 bb 3b 28 42 bd d7 7d 4b bd
       -0.06970538 -0.0074269716 -0.047401648 -0.049680557
000200 f2 e2 19 3d 2a df b5 bc 3a 44 bf bc 70 e5 92 3d
       0.037569948 -0.02220114 -0.023347963 0.07172668
000210 10 b8 52 bd c0 32 12 bd 3b af 79 bc 52 ae 80 bd
       -0.051445067 -0.03569293 -0.015239532 -0.06283249
000220 8b a8 2f bd b0 00 04 3d 6c 4f 6a 3d ee 2d e6 3c
       -0.042885344 0.03222722 0.05720465 0.028098073
000230 12 bb 8d 3d 2b fb cd ba 44 37 64 3d 67 62 c4 3c
       0.069204465 -0.0015715113 0.055716768 0.023972703
000240 a7 8f 8d bd 1f 8b 2d 3d d0 bf fc 3b 41 ad 8a bc
       -0.06912165 0.042369004 0.0077132955 -0.016928317
000250 5b c0 8f 3c b8 83 d3 3c b5 89 2e 3d 4e ce 03 3d
       0.017547777 0.025819644 0.042611796 0.03217917
000260 37 01 98 3c 9d b7 a1 3b fb 8c 5a bd db 5e 53 3d
       0.018555267 0.0049352185 -0.053357106 0.051604133
000270 e4 1f 5a bd 05 1a 52 3d 26 fc 8d bd a2 7d bc 3c
       -0.05325307 0.051294345 -0.06932859 0.023009125
000280 0c 29 92 3d 60 e5 89 3d 65 01 9b bc 5f 50 d9 bc
       0.07136735 0.06733203 -0.018921563 -0.026527582
000290 36 49 6f 3d e6 9f ea 3c 1f f0 8d bd a9 9a 3a 3d
       0.05841943 0.028640699 -0.06930565 0.04555765
0002a0 79 73 03 bd 15 50 73 bc 17 bf 14 bd 33 65 0f bd
       -0.032092545 -0.014850636 -0.03631505 -0.03500862
0002b0 49 77 71 bd 6f 84 73 3d af da ef 3c e2 32 3a 3d
       -0.05895165 0.05945247 0.029279081 0.045458682
0002c0 f0 85 1f bc ff 6e 98 bc 9c 50 ee 3c c7 6a 90 bd
       -0.009736523 -0.018607615 0.029091172 -0.07051616
0002d0 67 55 ad bc 61 0a bd bc 03 bf 5c 3d 39 47 0c bd
       -0.021158887 -0.023076238 0.0538931 -0.03424761
0002e0 73 4e 7e bd db 20 fe 3c f8 1b 87 3d 8f 82 71 bd
       -0.062086534 0.031021526 0.065971315 -0.0589624
0002f0 56 65 9d bc a5 fe 6d ba 94 4d 24 3d 36 8c 52 bd
       -0.01921336 -0.00090787775 0.040113047 -0.051403247
000300 a6 d2 57 ba fe a3 0f bd f3 1f 1a 3b 6e 54 45 3d
       -0.0008232988 -0.035068505 0.0023517578 0.04817622
000310 78 0d 95 bd d8 8a e1 3c 40 66 8b 3b 76 dd 10 3d
       -0.072779596 0.027532026 0.0042541325 0.03536745
000320 9a c7 39 3d 19 90 b2 bb e9 c4 ef 3c 6c 86 88 bd
       0.04535637 -0.0054493067 0.029268699 -0.06666264
000330 8f 97 5e bd 71 ae 02 bb f1 89 d5 bc 10 4b 93 3d
       -0.054343756 -0.00199404 -0.026066752 0.071920514
000340 53 45 0f bc 9c c9 cf 3c 91 95 83 bd fb 99 18 3d
       -0.0087445555 0.02536469 -0.06425012 0.037256222
000350 30 cc 61 bc 07 5c 35 bd 2d 91 5d 3d c1 4d a2 3c
       -0.013781592 -0.044277217 0.05409353 0.019812467
000360 59 ae 87 39 b4 4a c5 bc b7 6e 0f 3c 4d 28 74 3d
       0.00025879106 -0.024083473 0.008754424 0.059608746
000370 cc 9b a7 3c 14 5f 03 3d 51 19 9f bb 0e 8f 13 bd
       0.020460032 0.032073095 -0.004855313 -0.0360251
000380 9f da 9d 3c eb 7a 54 3d bf 38 12 bc 7c 34 73 3d
       0.019269286 0.051875036 -0.008924662 0.059376225
000390 03 3a 0c 3b 49 03 b5 3c 9b 83 80 3d 71 81 66 bd
       0.0021396882 0.022096293 0.06275102 -0.05627579
0003a0 62 49 45 3d a9 ba 46 3d 00 9b 44 3d 4f 46 ae bc
       0.048165686 0.048517857 0.047999382 -0.02127376
0003b0 46 dd 57 bb 2b 0f 90 bc 3c 34 10 3d 0c 59 41 bd
       -0.0032938286 -0.017585358 0.035206065 -0.047204062
0003c0 86 62 c0 bc 81 02 87 3b 56 d1 04 bd 52 9d 24 bd
       -0.02348448 0.0041201715 -0.0324262 -0.040189095
0003d0 3b 8f 31 bd c3 3c 44 bd 29 e9 4a bd 34 dd 2c 3c
       -0.043349486 -0.04790951 -0.049538765 0.010550786
0003e0 33 9f 29 bd 41 d5 a6 bc e0 41 0f 3d 4f 92 94 bc
       -0.04141159 -0.02036536 0.034974933 -0.018136172
0003f0 e0 93 53 3c 7d e3 cc bc 24 de 62 3d b1 b3 99 bd
       0.012913674 -0.025010819 0.05538763 -0.075049765

weight f4 [256, 256]
000000 2f 72 d7 3c 35 57 3a 3c 98 c2 9f 3d 63 a9 0d bd
       0.026299564 0.011373331 0.07800788 -0.034585368
000010 e2 65 8c 3b a5 02 19 bc d8 4b a1 3c 48 4b 79 3d
       0.0042846063 -0.009339009 0.019689485 0.06086281
000020 eb 2d 9d bc cc 5b 3d bc bb d3 4b bc e7 dd 7b 3a
       -0.019186934 -0.011557531 -0.012440617 0.0009607956
000030 06 f4 19 3d a8 47 ff 3c 0c ff 61 bc 7e 49 a1 3c
       0.037586235 0.031162098 -0.013793718 0.019688364
000040 81 5b 4b 3d 19 20 10 3d 48 54 d6 3c f5 e0 33 bd
       0.04964781 0.03518686 0.026163235 -0.043915708
000050 46 8b 6f bd 32 0b 2e bb cb fc 4f 3d 04 2b 55 3d
       -0.05848243 -0.0026556966 0.05077819 0.052042976
000060 d7 d6 3b 3d b1 01 2a bd 57 c9 a9 bb ba ea 2a 3c
       0.045859184 -0.04150552 -0.0051814723 0.01043194
000070 21 91 38 bd a1 44 20 bd c8 09 8c 3d 4f 81 18 3d
       -0.04506028 -0.03912795 0.06837803 0.037232693
000080 7e d0 e9 b9 79 4c 93 ba e0 36 9f 3d cc 9e 98 bd
       -0.00044596562 -0.0011238001 0.077741385 -0.07452163
000090 cb bf 04 bc 1c 73 23 3c d0 4c a6 ba 26 d0 bb bc
       -0.008102368 0.009976175 -0.0012687687 -0.022926401
0000a0 1f f9 43 bd 93 15 49 bd 1a 45 58 3c 21 3c d3 3c
       -0.047845002 -0.04909284 0.013200069 0.025785508
0000b0 d8 38 44 bc f8 f3 47 bd 82 21 ae 3a a5 11 3f 3d
       -0.011976443 -0.04881665 0.0013285133 0.046647687
0000c0 80 6b 29 3d 17 72 0b bb c6 88 9d bc 34 f0 ce bb
       0.041362286 -0.002127772 -0.019230258 -0.0063152555
0000d0 54 b5 99 bb 1f 20 ad bc 3d 91 3c bc 26 99 8d bb
       -0.0046908055 -0.02113348 -0.011509237 -0.004321235
0000e0 91 27 32 3c d2 7f d5 bc 6a 16 b1 bc 17 08 b6 bd
       0.010873691 -0.026061926 -0.021617133 -0.08888262
0000f0 e4 ef a3 bb d5 11 36 3b 3a be f2 bc 0f ef 32 3d
       -0.0050029624 0.0027781625 -0.029631723 0.043685015
000100 89 33 4c 3c 49 c0 3d 3c 4d de d1 3c e4 72 61 bd
       0.012463459 0.011581489 0.025618697 -0.05504121
000110 89 5d 96 3c 18 72 35 3c 56 58 0f 3d e1 9c d0 bd
       0.018355148 0.011074565 0.034996353 -0.10186172
000120 60 8d 5c 3d ee d5 27 3d 22 86 0e bd 58 33 7e bc
       0.053845763 0.040975504 -0.034795888 -0.015515171
000130 0e 93 b5 3c 60 17 1e 3d 7a 8b 23 3c 02 d1 8f bc
       0.022164848 0.03859651 0.009981984 -0.017555717
000140 6b bd 1f bd af 6d 92 3c cc 4d 21 bb 2f 7d 0a 3c
       -0.038999002 0.017874567 -0.002461302 0.008452698
000150 f4 ab 5d bd 16 67 52 3d 42 ae b2 3c 54 51 84 bc
       -0.054119065 0.05136784 0.021811608 -0.016152062
000160 57 08 55 3d f6 ba 21 bd ac 45 fe bc f4 09 5e bd
       0.052009907 -0.03948494 -0.031039082 -0.05420871
000170 4d 04 d0 bd 5d 9d 85 3c 22 90 9b 3c 97 ed 14 bd
       -0.1015707 0.016310388 0.018989626 -0.036359396
000180 f1 7b e5 bc 30 b9 67 bc 05 e3 25 3d a1 99 01 3d
       -0.028013201 -0.014143273 0.040499706 0.031640653
000190 f5 dd a3 3d 88 7a e6 3c 39 2e ae 3c 07 ca 16 3c
       0.08001319 0.0281346 0.021262275 0.0092034405
0001a0 0a 95 0f 3d 3f f1 34 3d 02 0d cd bc 71 35 c1 bd
       0.035054244 0.044175383 -0.025030617 -0.09434021
0001b0 c0 59 9a 3d ed 34 77 3b 09 c5 23 bd 2b 8e a3 bd
       0.0753665 0.0037720755 -0.03998283 -0.07986101
0001c0 da c7 12 bd 53 09 95 3c 7c 39 41 3c 34 5b 3d 3d
       -0.035835125 0.018192923 0.0117934905 0.046229556
0001d0 dc 33 5b 3c ce ba 71 3d 96 75 65 3b 10 da 90 3b
       0.013379063 0.05901604 0.0035012714 0.0044205263
0001e0 f2 d8 cb 3c 69 14 e9 3c 1b 75 0c bc 01 09 19 3d
       0.024883721 0.028452115 -0.008572842 0.037362102
0001f0 a6 63 3e ba 62 60 15 3d 19 9f 4c bb b0 b9 21 bc
       -0.00072627736 0.03646887 -0.003122276 -0.0098709315
000200 9a 34 3a bd de e9 a5 3b 4d 9b fc bb fb 5f 1d 3d
       -0.04546032 0.0050632795 -0.007708943 0.038421612
000210 89 11 6e 3c 6e ee d9 3a 89 6d 96 bd 80 96 8a 3c
       0.014530548 0.0016626844 -0.07345111 0.016917467
000220 0d 02 64 bc d3 e8 e4 3c b0 7b 91 bd 1b b8 81 3c
       -0.013916505 0.02794305 -0.0710367 0.015834859
000230 e3 5e 07 3d ee 26 75 bd 7a d1 8e bd 4c 10 e1 3a
       0.033049475 -0.05985158 -0.06973548 0.0017170995
000240 52 1e d7 3c 38 3a b1 3b 9a 9d f7 bc 82 2f 6d bc
       0.026259575 0.0054085515 -0.030226517 -0.014476659
000250 72 ff a0 bd 52 29 6f ba cc e0 5e 3d 04 19 05 3d
       -0.07861222 -0.00091232837 0.0544136 0.03249456
000260 e5 08 d7 3c 80 3e 5e 3c 4e b8 3e bd 8e 5e d1 3c
       0.026249358 0.013564706 -0.046562485 0.025557783
000270 96 bc 42 3d eb 23 85 bc 41 5c 0f 3d 47 96 80 3d
       0.04754313 -0.016252479 0.03500009 0.06278663
000280 f1 58 20 bc c3 c1 d1 3d 3d b0 10 3d 4a 60 18 3c
       -0.00978683 0.10242035 0.035324324 0.009300301
000290 cf 38 16 3c 5c e2 fa 39 29 72 36 bd a8 16 ca 3d
       0.009168818 0.00047852367 -0.044542465 0.098676026
0002a0 b4 5f 92 bc 52 5e 6e 3d 91 d7 79 3c 08 60 97 3a
       -0.0178679 0.05819542 0.015249149 0.0011549005
0002b0 a1 67 a0 3a d8 d9 89 3c 0c ee 15 3d a9 11 12 bd
       0.0012237915 0.016827509 0.036603972 -0.035661373
0002c0 52 ab 28 3d 61 30 8b 3d 1f b1 f9 3b c8 19 b4 3d
       0.04117901 0.06796337 0.0076199914 0.0879398
0002d0 b2 01 01 bd 33 e7 3d 3d 41 ec 4a 3c 59 63 17 3c
       -0.031495757 0.046363067 0.012385429 0.009239995
0002e0 e2 df 0c 3c 28 87 14 3d 73 e9 b5 3c 9b ae c1 3c
       0.0085983 0.036261708 0.022206044 0.023642829
0002f0 f5 36 16 3d ff d2 a7 3c 71 84 99 3b de 4a f2 3c
       0.036673505 0.020486353 0.0046849777 0.029576715
000300 57 41 83 bd b5 85 a9 bc b5 ea 87 bd 42 e6 0d bb
       -0.06408947 -0.02069364 -0.06636564 -0.0021652137
000310 df 44 43 bd 96 96 e1 3c bc 34 ce 3d 6a 2b 25 3b
       -0.047673102 0.027537625 0.10068652 0.0025202879
000320 fb 80 5b 3d 2c a5 11 bb f1 b4 83 3d a1 5c 6b bb
       0.053589802 -0.0022223694 0.06430996 -0.0035913365
000330 bc 99 3e 3b 8c 1b 71 3a 38 b3 e4 bc 15 cd 51 bd
       0.0029083332 0.0009197525 -0.02791749 -0.051220972
000340 9b 79 0d 3b 0a 67 b3 3b 66 69 cb 3c 60 92 78 3c
       0.0021587375 0.0054749297 0.024830531 0.015171617
000350 d7 e1 99 bd 3e 3b 02 3b a2 27 94 3b 93 b2 f8 3c
       -0.07513779 0.0019871737 0.004521326 0.030358588
000360 99 bd 12 bd 41 9d 93 3b c7 41 df 3c ba 11 ab bc
       -0.035825346 0.00450483 0.027253045 -0.020882476
000370 cd d4 ef bc 89 65 02 3d 38 76 40 3d 40 43 82 bd
       -0.029276276 0.031835113 0.046987742 -0.06360483
000380 dd be 0c bc e3 d6 e8 bc a3 28 34 bd 51 90 a2 3d
       -0.008590427 -0.028422778 -0.043984067 0.079376824
000390 03 e1 0b bd 59 1d 82 3c 8b 30 6c bc 24 ce e9 bc
       -0.034150135 0.015883135 -0.01441587 -0.028540678
0003a0 d5 06 dd bb a6 41 8d bc 9a 48 2c 3d 9b d0 af bd
       -0.006745199 -0.017243218 0.042061426 -0.0858471
0003b0 74 66 e7 bc 84 e2 aa 3d ac 84 d1 3c 09 53 09 3d
       -0.028247096 0.08343986 0.025575958 0.033526454
0003c0 e8 d6 e4 bc 8c 13 01 bd de 25 8b 3d 80 c4 4b 3b
       -0.027934507 -0.031512782 0.06794332 0.0031092465
0003d0 db ee bf 3d ef fb ab 3c 49 98 2f 3c 3d ec 35 3b
       0.0937173 0.020994155 0.01071746 0.0027759217
0003e0 1c 00 8f 3d 18 e9 59 3d 1a ed 70 bd 35 8e 3a 3c
       0.06982443 0.05320081 -0.058819868 0.011386444
0003f0 81 6a e7 bc 8b ea 29 3b 06 c3 14 3c 9a ce 80 3c
       -0.028249027 0.0025927152 0.0090797 0.015723515

bias f4 [256]
000000 f5 cb 8d 3c ce 14 a3 bb 92 bd 70 3d ef 81 29 bd
       0.017309168 -0.0049768453 0.05877454 -0.04138368
000010 ce b8 7c bc 96 01 81 bd a6 d9 be 3c e1 d3 06 bd
       -0.01542492 -0.062991306 0.023297142 -0.032916907
000020 52 7b 18 bc 0e b3 48 3b b1 5e 75 bc c1 d3 3b bd
       -0.009306746 0.0030624303 -0.0149761895 -0.04585624
000030 cc ab 6f 3d 7f c1 2f bc c8 d5 3b bd 53 02 dc bb
       0.058513448 -0.010727285 -0.045858175 -0.0067141443
000040 a3 65 0a 3d 1e 85 a6 3c de 3e 70 bd b3 05 26 bd
       0.033788335 0.020327147 -0.058653705 -0.04053278
000050 67 7d bd bc 48 61 94 3d 02 22 18 bd 3b 38 81 bd
       -0.023131086 0.072451174 -0.037141807 -0.06309553
000060 3b 02 3d 3d 64 c8 5f 3d a8 ec 8a 3d 78 9b 04 3d
       0.046144705 0.054634467 0.0678342 0.03237483
000070 10 0c 65 3c 61 e5 55 bd fc 84 cd 3c 8d b3 ff 3c
       0.013979927 -0.052220706 0.025087826 0.031213546
000080 42 af 4a 3c 60 59 d8 3b 05 2b 43 bd c7 77 56 bc
       0.012370886 0.006602451 -0.04764845 -0.013090081
000090 6c cd 94 3d 1c 16 14 bb be 62 4b 3d 5b fb 94 bd
       0.072657436 -0.0022596186 0.049654715 -0.07274505
0000a0 56 7c ab bc c2 f7 7c 3d cb 50 fb 3c a2 b3 97 bd
       -0.020933311 0.061759718 0.030678174 -0.07407309
0000b0 bb 13 ec bc 3e ed c7 3c 15 26 8b bd eb 3b 65 bd
       -0.028818002 0.024405118 -0.06794373 -0.055965345
0000c0 dc 51 5b bd 1a 88 cd 3c 52 74 63 3b cf b1 06 3d
       -0.053544864 0.025089312 0.0034706783 0.032884415
0000d0 cb a0 ad 3b b7 8a a6 bc 7a ae 82 bc fd ea 1b 3d
       0.005298709 -0.020329816 -0.015952338 0.0380659
0000e0 94 a8 2c bc 25 41 45 bd e6 ff 18 bd 39 20 b6 3c
       -0.010538239 -0.04815783 -0.03735342 0.022232162
0000f0 24 52 a7 3c 03 52 6d 3d 70 f9 36 3d 92 1d 06 3d
       0.02042491 0.05793954 0.044671476 0.032743044
000100 6f bf fc bc b0 1b ca 3c 54 9c 7c 3d 44 15 99 3c
       -0.030853001 0.024671406 0.061672524 0.018686898
000110 9d d3 95 3d eb 46 26 3c 1e 31 16 3d 93 42 e4 3a
       0.07315753 0.010148744 0.036667936 0.001741486
000120 6d a4 39 3d a7 14 86 bd 14 1f b7 3c 29 00 a8 ba
       0.045322824 -0.06546908 0.022353686 -0.001281743
000130 e5 4c d0 3b ea 23 88 bb bb 2c 09 39 cf ea 94 bd
       0.006356823 -0.004154672 0.00013082002 -0.07271349
000140 fd 3a 13 3d a2 58 5d bd 52 72 2c bd e1 0b b4 bc
       0.035944927 -0.054039605 -0.04210121 -0.02197832
000150 7f e9 b4 3a e0 34 d4 3c 23 83 35 3d 3e 7b 30 3d
       0.0013802497 0.025904119 0.044314515 0.043086283
000160 08 1f 62 3d a9 4d 02 bc 70 bb 5c bd 8b a5 10 3d
       0.055205375 -0.007953086 -0.05388969 0.035314124
000170 79 64 92 3d 3f 7e 02 bc c3 b5 7e 3d f4 48 10 3c
       0.0714807 -0.00796467 0.06218506 0.008806456
000180 ad ae 86 3d 75 c6 23 3d 3b 75 30 bd 6b 8e 2b bd
       0.065762855 0.039984185 -0.04308055 -0.041883867
000190 73 df 7d 3d 41 d7 3e bd 04 66 21 3d 28 46 a2 3b
       0.061980676 -0.046592 0.03940393 0.004952211
0001a0 52 a7 8e bd 11 fc 5f 3d f8 26 55 3c e5 a4 37 bd
       -0.069655076 0.05468375 0.013009779 -0.04483499
0001b0 18 5e 79 3d c1 ce 13 bd 9e 02 2f bd 55 61 f9 3b
       0.06088075 -0.036085848 -0.042727105 0.00761048
0001c0 d6 f0 81 bc f1 4e 72 bd 16 e4 1d 3d 07 7d 13 bd
       -0.01586191 -0.059157316 0.038547598 -0.036007907
0001d0 92 c5 9e 3c 22 d1 0b bd c5 61 72 3d 8a 71 d3 3c
       0.019381318 -0.03413499 0.05917527 0.025810976
0001e0 09 b8 70 3d c9 7b ce bc 8f 1c 8c 3d 24 71 8b bc
       0.05876926 -0.02520551 0.068413846 -0.017021723
0001f0 88 60 ac bc 93 55 bf 3c 1e bd 0d 3d a6 52 b3 bc
       -0.021042123 0.023356235 0.034604184 -0.021889996
000200 bd 68 8d 3c 41 ab 3f 3d 4e 4b 86 bd dc b4 26 bd
       0.017261857 0.04679418 -0.06557332 -0.040699825
000210 18 ab 54 bd 40 06 5d 3c 89 94 12 3d d7 ee 85 bc
       -0.05192098 0.01349026 0.035786185 -0.01634924
000220 b9 72 bf 3c ec 95 63 3d 8d 38 01 3d 4d 35 c6 bc
       0.023370134 0.0555629 0.03154807 -0.024195338
000230 c7 c0 3a bb 1c bc 94 3d d2 f3 c5 3a 91 b7 b8 bc
       -0.0028496252 0.072624415 0.0015102571 -0.022548469
000240 54 c3 1a 3c 23 29 1e 3d b9 84 8e 3d b5 ac ff 3b
       0.009445984 0.03861345 0.069589086 0.0078025707
000250 aa f6 5f bd 56 74 37 bd 08 f8 84 3d de f3 67 3c
       -0.054678597 -0.04478868 0.06492621 0.014157264
000260 24 34 8e 3d c6 73 5c bd e8 40 19 bd 2e 18 91 3d
       0.06943539 -0.053821348 -0.037415415 0.0708469
000270 4b 82 23 3d 16 c0 1e bd c0 fa 61 bd ec ca a1 3d
       0.03991918 -0.038757406 -0.055170774 0.079000324
000280 93 aa 15 3b 39 2a 0e 3d 0a 5a 5d 3d de a4 25 bd
       0.0022837266 0.034708235 0.054040946 -0.040440433
000290 0f cb 81 3c 83 f1 3f 3d 86 c1 38 3b 8c 3e f7 39
       0.015843896 0.046861183 0.002819152 0.00047158112
0002a0 5d f0 94 bd ed ff 06 bd 95 e8 47 bd 9e 49 55 3d
       -0.07272408 -0.032958914 -0.048805792 0.05207216
0002b0 aa eb 07 3d 4b d8 66 3d 85 ca 27 bd 76 23 98 3a
       0.03318373 0.056358617 -0.040964622 0.0011607248
0002c0 dd 03 10 bb be 78 f8 ba 05 ca 17 3d b5 e4 51 bd
       -0.002197496 -0.0018956882 0.037057895 -0.051243503
0002d0 1d c3 15 bd 0e 06 71 bc c9 0b 22 3d e8 63 0c bd
       -0.036563028 -0.014710916 0.03956202 -0.034274966
0002e0 05 7f 5a bd 59 ac d4 3c 09 6f 70 3d 13 4e 8b bd
       -0.05334379 0.025961088 0.05869964 -0.06802001
0002f0 c5 90 80 3d 01 00 41 bc 79 1a 1e 3d df 4f b1 bb
       0.062776126 -0.011779786 0.038599465 -0.0054111327
000300 3f 8a 49 3d 1b f4 0e 3d fd b9 23 3c 59 cd 37 3d
       0.049204107 0.034900766 0.0099930735 0.04487357
000310 5a 2b 31 bd 72 da 3f bd 74 f1 9c bb a9 7a a6 3c
       -0.043254234 -0.046839185 -0.0047895256 0.02032216
000320 4c a1 e2 bc 0a 3c c2 bc 4e d0 05 bd 2a 46 81 3c
       -0.027664803 -0.02371027 -0.032669358 0.015780527
000330 94 48 2b 3d 3f c1 06 3d 7e 3c 8d bc 23 b3 f4 3c
       0.041817263 0.032899138 -0.017240759 0.029870575
000340 ae b1 81 3c 31 35 46 3d 1a 93 43 bd 2c 26 70 bd
       0.015831795 0.04839057 -0.04774771 -0.058630154
000350 92 06 67 3d a5 71 25 3c 1c bf 7c 3d 02 28 0f 3c
       0.05640275 0.010097896 0.061705694 0.008737566
000360 f0 76 54 bd da eb 8d 3c 8e 4b 67 3d 19 83 b4 3c
       -0.05187124 0.017324377 0.05646854 0.022035168
000370 0f ef 3d 3d d4 26 f7 3b 7c 29 10 3c d2 36 69 bd
       0.046370562 0.0075424705 0.008798953 -0.056937046
000380 50 d1 19 3d 73 b4 49 bd a5 fd 6b 3d 55 39 11 3d
       0.03755313 -0.049244355 0.05761494 0.035455067
000390 29 8e c6 3a 27 b5 8b 3d a5 b1 cb 3c 9f 44 3e bd
       0.0015148568 0.068216614 0.024864981 -0.04645216
0003a0 5e fe 56 3d 1e 0d 12 bc de 2e 3e bd 9b 3d 9a bd
       0.052488677 -0.00891426 -0.046431415 -0.075312816
0003b0 a5 cf a5 3c 18 83 93 bb 0b b2 ab bc 4f e6 9b bc
       0.020240614 -0.0045017116 -0.020958921 -0.019030718
0003c0 c1 b0 18 bd bc 00 16 3b 0c b9 93 bc fa a2 a9 bc
       -0.03727794 0.0022888621 -0.018032573 -0.020707596
0003d0 fe 1e 43 3c 5a dc 4c 3d a1 61 3c 3c 9b e9 c4 3c
       0.011909245 0.05001483 0.011497886 0.024037173
0003e0 72 91 fc bb 35 f6 4a 3d 7d 5d 30 3d f9 c6 9b bc
       -0.007707768 0.049551208 0.043057907 -0.019015776
0003f0 b0 a8 83 3c b8 ca 2a bd 67 3b bc bc 8b d3 2b 3b
       0.016071647 -0.041697234 -0.022977544 0.0026218619
