dblp_train/train/pretrained_magnn/decoder_t.pth (torch, 529440 bytes, 4 tensors)

weight f4 [256, 256]
0	0x3ca6e8fb	0.020374766
1	0x3d59b36e	0.053149633
2	0xbd24563b	-0.0401213
3	0x3c11b6ef	0.008893712
4	0x3c70f93f	0.014707862
5	0xbd7fe351	-0.062472645
6	0x3d89760c	0.06711969
7	0xbcb5048a	-0.022096891
8	0x39aa00fe	0.00032425666
9	0xbc2c7ee4	-0.0105283
10	0xbd042526	-0.03226199
11	0xaff88b31	-4.520984e-10
12	0xbd4153a1	-0.047198895
13	0x3cbfd5cf	0.023417382
14	0xbc902dca	-0.017599959
15	0x3cc10b19	0.023564862
16	0xbd011476	-0.031513654
17	0xbc974381	-0.018464806
18	0xbcf434b2	-0.029810283
19	0xbd81228d	-0.06305418
20	0x3ccd50f7	0.025063021
21	0xbc1cd210	-0.009571567
22	0x3d5e18ed	0.05422299
23	0xbcfe5e4b	-0.031050822
24	0x3db5087b	0.08839508
25	0x3be017f8	0.006838795
26	0x3ba21d52	0.004947343
27	0xbd57fa5a	-0.05272899
28	0xbca8b8d7	-0.020595951
29	0x3d02ce24	0.031934872
30	0x3c649d60	0.013953537
31	0x3d6a511b	0.057206254
32	0xbda4c2b8	-0.08044952
33	0xbd3f2729	-0.046668205
34	0x3c5cf7b3	0.0134867905
35	0xbd85b922	-0.06529452
36	0x3c84a171	0.016190263
37	0xbc8d0abe	-0.017217036
38	0x3bc866df	0.006115779
39	0xbcccf44e	-0.025018837
40	0xbc441bdc	-0.011969533
41	0x3d0f14b0	0.03493184
42	0x3c078202	0.008270742
43	0xbd3f69fc	-0.046731934
44	0x3cdf0157	0.027222319
45	0x3d669ed8	0.05630383
46	0xbd18b918	-0.037285894
47	0x3a5c4727	0.00084029365
48	0xbcb0c385	-0.021577606
49	0x3d8239ce	0.063586816
50	0xbd34fb6b	-0.044185083
51	0x3c0e9993	0.008703607
52	0xbbb17fb8	-0.0054168366
53	0xbd22a538	-0.039708346
54	0xbbcead86	-0.0063073067
55	0x3d1de761	0.03855074
56	0xbc5d7454	-0.013516504
57	0xbbc284f2	-0.0059362585
58	0x3d79b9ea	0.060968317
59	0xbc29e013	-0.010368365
60	0xbd4d2e47	-0.05009296
61	0xbd0b8b24	-0.03406824
62	0x3ccf376e	0.025294986
63	0x3a55b2c4	0.00081519433
64	0xbd761bc0	-0.06008506
65	0xbd193329	-0.037402306
66	0xbd8916ee	-0.066938266
67	0xbc1f7fd8	-0.00973507
68	0xbd462959	-0.048379276
69	0x3c3bfeb3	0.011474299
70	0xbc101698	-0.008794449
71	0x3c8903d3	0.016725456
72	0xbc8be764	-0.01707811
73	0x3c5c987d	0.01346409
74	0xbd2521ba	-0.040315367
75	0xbcebaa41	-0.028767707
76	0xbc61880f	-0.013765349
77	0xbd9d3f55	-0.07678095
78	0xbcd3a92c	-0.025837503
79	0xbd40987f	-0.04702043
80	0xbb8ee2d7	-0.0043605375
81	0x3d3b16b6	0.045675956
82	0xbc7897c1	-0.0151729
83	0xbc83a3c0	-0.016069293
84	0xbce36c1b	-0.02776151
85	0xbb3ee2a1	-0.002912678
86	0xbd1e5c7f	-0.03866243
87	0xbc0f1067	-0.008731938
88	0x3b17811c	0.0023117727
89	0x3ce740bb	0.028229108
90	0xbc9d0fa0	-0.01917249
91	0xbd4a54f2	-0.049397416
92	0xbd946ace	-0.07246934
93	0x3cc7e5f1	0.024401637
94	0x3db34bae	0.08754669
95	0xbb820e63	-0.003969
96	0xbd0ccd1e	-0.034375302
97	0x3ad8dba3	0.0016544949
98	0xbcd7d9ac	-0.026348911
99	0xbbf0ed9b	-0.0073525435
100	0x3c3e77c7	0.011625237
101	0x3d3b6b85	0.045756835
102	0xbd65eea7	-0.0561358
103	0xbc3b3404	-0.011425976
104	0xbc8200d0	-0.015869528
105	0xbcc9d2c3	-0.024636632
106	0x3c8b7222	0.017022196
107	0xbd0437f6	-0.03227993
108	0xb7cc0bd4	-2.4324203e-05
109	0xbce0ae3e	-0.027426835
110	0xbc9e5ad0	-0.019330412
111	0xbd4e97ce	-0.05043774
112	0xbd6bbc2d	-0.057552505
113	0x3c9352c1	0.017983796
114	0xbc004f77	-0.007831446
115	0x3bde072c	0.0067757573
116	0x3d9f59e6	0.07780819
117	0xbd171295	-0.036882956
118	0xbd08398c	-0.033258006
119	0x3d1ff907	0.03905585
120	0x3d6e8159	0.058228824
121	0xbcf75324	-0.030191012
122	0xbd293b79	-0.041316483
123	0x3c57d455	0.0131731825
124	0x3ce28a92	0.027653966
125	0x3c3f5285	0.011677389
126	0xbd5d89af	-0.054086383
127	0xbdf95076	-0.1217355
128	0xba05e9ab	-0.00051083666
129	0x3cdd6cfd	0.027029509
130	0xbc963729	-0.01833685
131	0xbcddada7	-0.027060343
132	0xbd2a8ae8	-0.041636378
133	0x3d2d4ab6	0.042307578
134	0xbb6a6c32	-0.0035770056
135	0x3c73dc5c	0.014884081
136	0xbd31374a	-0.04326562
137	0x3d8bbfff	0.0682373
138	0xbd6cd4c7	-0.057820108
139	0x3cb3d39f	0.021951495
140	0x3b03652b	0.0020049314
141	0xbd145ba6	-0.036220215
142	0xbd1547e4	-0.036445513
143	0x3db55340	0.08853769
144	0xbd401f69	-0.046904955
145	0xbcc0809a	-0.023498822
146	0xbcd653ac	-0.026162945
147	0xbd3e2efd	-0.04643153
148	0x3b85fe89	0.004089181
149	0xbd84fb77	-0.064932756
150	0x3c09a524	0.008401189
151	0x3b139e6a	0.0022524842
152	0xbc2a53a3	-0.010395917
153	0xbbfa278d	-0.0076341094
154	0xbd6b9ff5	-0.057525594
155	0xbc5bc461	-0.01341352
156	0xbd8921c9	-0.06695897
157	0xbdfb252a	-0.12262948
158	0xbd38ee22	-0.045148976
159	0x3c689cfe	0.014197586
160	0x3b97496d	0.0046169073
161	0xbb96ca5a	-0.004601759
162	0x3d3c7cad	0.046017338
163	0x3d589aed	0.052882124
164	0x3c62587e	0.0138150435
165	0xbd79d3ca	-0.060992993
166	0xbc9f8228	-0.019471243
167	0x3bade5b2	0.005306923
168	0x3c3fa09d	0.011696008
169	0xbd2a641d	-0.04159938
170	0xbd83ca3c	-0.064350575
171	0xbd1ad917	-0.03780469
172	0xbbc61fd7	-0.006046276
173	0x3c9e02c2	0.019288424
174	0x3cada3b9	0.021196233
175	0x3c8dde2e	0.017317858
176	0xbcfcbd20	-0.0308519
177	0xbd7c2d1e	-0.061566465
178	0xbd1f8a54	-0.03895028
179	0xbcde8bc2	-0.027166251
180	0x3d04229d	0.032259572
181	0x3cc4b646	0.024012696
182	0xbc10e394	-0.008843321
183	0x3be8d083	0.0071049347
184	0xbd3693a6	-0.044574402
185	0xbca337b3	-0.01992402
186	0xbcde23d3	-0.027116692
187	0x3c2bfa78	0.010496728
188	0x3d898bff	0.06716155
189	0xbc6b61d8	-0.0143665895
190	0x3d33fa9e	0.04394018
191	0x3d210eec	0.03932087
192	0x3cedff24	0.029052325
193	0xbb95f39f	-0.004576161
194	0x3ce29683	0.02765966
195	0xbd6eef95	-0.058333952
196	0x3b7c2583	0.0038474507
197	0x3d3f6438	0.046726435
198	0xbd061c58	-0.032741874
199	0x3dab0ff0	0.08352649
200	0x3ae83b6b	0.0017717903
201	0xbc731544	-0.014836613
202	0xbcfd92ec	-0.030953847
203	0x3d2d09b8	0.042245597
204	0x3c282e71	0.010264979
205	0xbc397357	-0.011319003
206	0xb97d9ce8	-0.00024186412
207	0xbcec69e9	-0.028859096
208	0x3d7eb482	0.062183864
209	0x3dcf60d1	0.10125888
210	0xbd7c4b4a	-0.06159524
211	0x3d9f9bfb	0.07793423
212	0xbcf14c75	-0.029455403
213	0x3cb3025e	0.021851715
214	0xbd3e6792	-0.04648549
215	0xbd3d676c	-0.04624121
216	0xbc97e36c	-0.01854106
217	0x3d55dd22	0.05221284
218	0x3cb33fb5	0.021880964
219	0xbba8b613	-0.005148658
220	0xba8da03d	-0.0010805201
221	0xbd92b8ca	-0.07164152
222	0xbcfde05c	-0.030990772
223	0xbbf42a6f	-0.0074513475
224	0xbd529e4e	-0.051420502
225	0xbd4f3e78	-0.050596684
226	0xbd25b699	-0.04045734
227	0xbd9140be	-0.07092427
228	0xbbf7026d	-0.007538131
229	0xbd285719	-0.041098688
230	0xbba13287	-0.0049193534
231	0xbc25da91	-0.010122911
232	0x3cd333b9	0.0257815
233	0xbc9540a1	-0.018219294
234	0xbb88c5ea	-0.004173984
235	0xbd5a5686	-0.05330517
236	0xba7c8983	-0.0009633528
237	0xbd85d707	-0.06535154
238	0xbcd707c2	-0.026248816
239	0xbc80991f	-0.015698014
240	0xbd3203ab	-0.04346053
241	0x3b117d85	0.002220006
242	0xbca244fc	-0.019808285
243	0x3cb0225f	0.021500764
244	0xbc3596c9	-0.011083313
245	0xbda42910	-0.080156446
246	0x3baec009	0.005332951
247	0xbb953255	-0.004553119
248	0xbc0ecbf5	-0.008715619
249	0xbcb50bef	-0.022100417
250	0xbd0dc248	-0.03460911
251	0xbd3db173	-0.046311807
252	0xbc6a42ea	-0.01429818
253	0x3d1ff295	0.039049704
254	0xbd8795a1	-0.06620336
255	0xbd8c6d5d	-0.06856797

bias f4 [256]
0	0x3d1fef20	0.039046407
1	0x3d75e241	0.060030226
2	0x3c125e25	0.008933579
3	0xbd64c4f1	-0.05585188
4	0xbc819d55	-0.015822092
5	0x3c725e1b	0.014792944
6	0xbd87b349	-0.06625993
7	0x3d69c942	0.0570767
8	0x3d315bf0	0.04330057
9	0x3cfc0bd0	0.030767351
10	0xbd46a023	-0.048492562
11	0x3d1cc3f9	0.03827283
12	0xbd8f8f3c	-0.07009742
13	0x3d1aba0a	0.037775077
14	0xbd3b5ee3	-0.045744788
15	0x3d5fcfbe	0.054641478
16	0x3d49a44b	0.049228948
17	0xbd7a5e2c	-0.061124966
18	0x3c39f575	0.011350025
19	0xbd9b6896	-0.075883076
20	0x3d3d8b94	0.04627569
21	0x3d111df7	0.035428967
22	0xbd3c0090	-0.045898974
23	0xbcf2c002	-0.029632572
24	0x3d250fd3	0.040298294
25	0xbb4f797c	-0.0031658104
26	0x3c53ba3a	0.012922818
27	0x3d3b19b6	0.045678817
28	0x3c222909	0.009897479
29	0x3d705bc5	0.05868127
30	0x3c488560	0.01223883
31	0x3a6c7772	0.0009020484
32	0x3d2cba4d	0.042169858
33	0x3cd0626c	0.025437556
34	0x3cc4e695	0.024035731
35	0xbacc053c	-0.0015565525
36	0x3c9a6345	0.018846164
37	0x3d5aaad9	0.05338559
38	0xbd8d209a	-0.06890984
39	0x3d38c3f7	0.04510876
40	0x3b5a2b65	0.0033290025
41	0xbd1df8f6	-0.038567506
42	0xbc3592ab	-0.011082332
43	0x3d6e498d	0.058175612
44	0xbbe2ea51	-0.0069249053
45	0x3d7aadb2	0.061200805
46	0xbd6cc6c7	-0.057806756
47	0xbd90bddb	-0.07067462
48	0xbb90a384	-0.004414024
49	0xbd8fd65c	-0.07023308
50	0x3d4c2bec	0.049846575
51	0xbbf700fd	-0.0075379596
52	0xbcc1e9a3	-0.023670977
53	0x3ba75e2f	0.005107663
54	0x3d901a88	0.070363104
55	0xbd1b3581	-0.037892822
56	0x3d040208	0.0322285
57	0x3c9491e1	0.018135967
58	0xbd91e903	-0.071245216
59	0xbc1e614e	-0.009666754
60	0x3d215256	0.039385162
61	0xbcf7fe2c	-0.030272566
62	0x3c8204a8	0.01587136
63	0x3d4595a0	0.048238397
64	0xbd843c28	-0.064567864
65	0xbcda0a02	-0.0266161
66	0x3c2d3f68	0.010574199
67	0x3d5c5382	0.053790577
68	0x3c1cac01	0.009562493
69	0x3d12269e	0.03568136
70	0x3d0c35b7	0.034230914
71	0xbd745508	-0.059651405
72	0x3d8de4c8	0.06928402
73	0xbd25ca63	-0.040476214
74	0x3d53157c	0.05153416
75	0x3d83f138	0.06442493
76	0xbcc60f82	-0.024177317
77	0x3d06ff1c	0.032958135
78	0xbd1e61b8	-0.03866741
79	0xbceb4b96	-0.028722566
80	0xbc3c95c2	-0.011510314
81	0xbd4bd3ea	-0.049762644
82	0x3d0800d7	0.033203926
83	0xbd685e90	-0.056730807
84	0xbd71f694	-0.059073046
85	0xbc8b3ecf	-0.016997723
86	0x3d4ac3ff	0.049503323
87	0x39c23575	0.00037042392
88	0xbcf3ea3e	-0.029774781
89	0x3d8d8ac0	0.0691123
90	0x3d0bab36	0.034098826
91	0xbd5c3d67	-0.053769495
92	0x3ce53c25	0.02798278
93	0xbd4e329c	-0.050341234
94	0xbbe440e0	-0.0069657415
95	0x3d65484a	0.055977143
96	0x3d97a071	0.07403649
97	0xbb51b934	-0.0032001259
98	0x3d90c535	0.07068864
99	0xbcd49221	-0.025948586
100	0x3d05dde7	0.032682326
101	0xbcf39d40	-0.029738069
102	0x3d28afad	0.041183162
103	0x3d01b206	0.031663917
104	0xbd5691d5	-0.05238517
105	0xbcc03503	-0.023462778
106	0xbcde26ea	-0.027118165
107	0xbd83b063	-0.064301275
108	0x3d211363	0.03932513
109	0xbd22ff32	-0.039794154
110	0x3d2a9c65	0.041653056
111	0xbd829df9	-0.06377787
112	0x3d44f900	0.048089027
113	0x3d6a6023	0.05722059
114	0xbd299686	-0.041403316
115	0xbcb0403f	-0.02151501
116	0xbc2ffc90	-0.010741368
117	0x3d50ba40	0.05095887
118	0x3d9da317	0.076971225
119	0xbd5aab1f	-0.05338585
120	0xbb75da8f	-0.0037514304
121	0xbd423cb1	-0.04742116
122	0x3d4981f0	0.049196184
123	0xbd767575	-0.06017061
124	0x3d9dd225	0.077060975
125	0x3d75822c	0.059938595
126	0xbcce0ddb	-0.025153091
127	0xbd408bc1	-0.04700828
128	0x3cf24ca9	0.02957757
129	0x3cd922a5	0.026505778
130	0x3d4b3c66	0.049618147
131	0x3d49ef07	0.04930022
132	0xbd197009	-0.03746036
133	0x3b48dfee	0.003065105
134	0x3d46b5c2	0.04851318
135	0xbd8410a2	-0.06448485
136	0x3d998448	0.07495934
137	0x3d6127d4	0.054969624
138	0xbcdffc12	-0.027341876
139	0xbd444546	-0.047917627
140	0xbc3b96f6	-0.011449566
141	0x3d3fb066	0.046799086
142	0xbd13e98c	-0.0361114
143	0x3c8f872d	0.017520512
144	0x3d0805c8	0.03320864
145	0xbd914012	-0.070922986
146	0x3d87a1d1	0.06622661
147	0xbd2daff5	-0.042404134
148	0x3d847d4f	0.06469213
149	0xbd577ad3	-0.05260737
150	0x3d81a8e5	0.06331042
151	0x3befd0ff	0.0073186154
152	0xbbc4f22a	-0.0060103135
153	0x3d2051e3	0.039140593
154	0xbd2b7b02	-0.041865356
155	0xbd6b5632	-0.05745525
156	0xbc87df9a	-0.016586114
157	0x3d45fee6	0.048338793
158	0xbcd8b39c	-0.026452832
159	0xbd1d7847	-0.038444784
160	0xbd56c309	-0.052432094
161	0x3d273fed	0.04083245
162	0xbd8ff505	-0.07029156
163	0xbcd879af	-0.02642521
164	0xbc488d36	-0.012240699
165	0x3c4e0df2	0.012576567
166	0xbd5e044b	-0.054203313
167	0x3ceaa568	0.028643325
168	0xbd98adde	-0.074550375
169	0xbd8404e1	-0.06446243
170	0x3b4e88c7	0.003151463
171	0xbcac703f	-0.021049617
172	0xbd9984dc	-0.07496044
173	0xbd6dc1bc	-0.058046088
174	0x3c99e657	0.018786592
175	0x3ce5749a	0.028009702
176	0xbd22184c	-0.039573953
177	0x3d406840	0.04697442
178	0xbd32a395	-0.043613035
179	0x3d35a502	0.044346817
180	0x3ce995f3	0.028513884
181	0x3cbda4d5	0.023149887
182	0x3a9fba07	0.0012186178
183	0x3d345911	0.044030253
184	0xbd4522dc	-0.048128948
185	0x3d53a889	0.0516744
186	0x3cda922d	0.02668103
187	0xbd3999b9	-0.045312617
188	0xbc30a490	-0.010781422
189	0x3d206a76	0.03916403
190	0x3d3143d1	0.043277565
191	0x3bf5d031	0.007501625
192	0xbd6ad8a9	-0.05733553
193	0x3d734b66	0.059398077
194	0xbc99fe34	-0.018797971
195	0x3d817289	0.06320674
196	0xbc72cab2	-0.014818834
197	0x3ce4966b	0.027903756
198	0xbd645e40	-0.055753946
199	0xbd939061	-0.072052725
200	0xbc8e5955	-0.017376581
201	0x3d31c47c	0.043400273
202	0x3ba0a234	0.0049021486
203	0x3d80ad6f	0.0628308
204	0xbceb6054	-0.028732456
205	0xbce5e622	-0.028063837
206	0x3d167c19	0.036739442
207	0xbd689820	-0.056785703
208	0xbd642826	-0.05570235
209	0xbccaae6f	-0.02474138
210	0xbd35e447	-0.044407155
211	0x3d1d324f	0.038378056
212	0xbce3c143	-0.027802115
213	0xbcb46956	-0.022022884
214	0x3d7454ed	0.059651304
215	0xbd7c76c4	-0.0616367
216	0xbd36c310	-0.04461962
217	0xbd8e0d50	-0.06936133
218	0x3d15f53b	0.036610823
219	0xbcf52ef6	-0.02992962
220	0x3cab799e	0.020932015
221	0x3d432fb7	0.047652926
222	0xbc6f11c7	-0.014591641
223	0xbd1ca576	-0.038243733
224	0xbd41348c	-0.047169253
225	0x3c543ab1	0.012953446
226	0xbd7c0bbf	-0.06153464
227	0xbcbb7625	-0.022883484
228	0x3d8dc7b0	0.06922853
229	0xbd2ad91e	-0.041710965
230	0x3d3b7d8c	0.045774028
231	0x3d8789bc	0.066180676
232	0xbd1e5138	-0.038651675
233	0xbd1b65ea	-0.03793899
234	0x3cbd646e	0.023119178
235	0x3cb0bd38	0.021574602
236	0x3c4641d4	0.012100656
237	0xbd0122a5	-0.03152718
238	0x3d13a1df	0.036043044
239	0xbd34f629	-0.04418007
240	0xbd2238aa	-0.03960482
241	0x3d8407be	0.06446789
242	0x3cc18854	0.023624577
243	0xbc87e8ad	-0.01659044
244	0xbcd11425	-0.025522301
245	0xbd29cf0e	-0.04145723
246	0xbc1dc497	-0.00962939
247	0xbd5c98c8	-0.05385664
248	0xbd11f585	-0.035634536
249	0xbbee366e	-0.007269672
250	0x3bd2fbcf	0.0064387093
251	0x3c78329a	0.015148783
252	0xbd9e21a6	-0.07721262
253	0xbd66f22f	-0.056383308
254	0x3bee86fd	0.0072792755
255	0xbd8e20b9	-0.06939835

weight f4 [256, 256]
0	0xbdbf0e61	-0.093289144
1	0x3c381bf9	0.011237138
2	0x3d128154	0.03576787
3	0x3bce0b37	0.006287958
4	0x3d136d7b	0.03599308
5	0x3cd1d9b1	0.025616499
6	0x3d379c1e	0.04482662
7	0x3d77d0e1	0.060501937
8	0xbce69ae0	-0.028150022
9	0x3cf9b031	0.030479522
10	0xbd720839	-0.059089873
11	0x3d196975	0.037454087
12	0xbd190c97	-0.037365522
13	0x3d02b934	0.031914905
14	0x3d658c41	0.05604196
15	0xbc10e107	-0.008842713
16	0xbc8d6543	-0.0172602
17	0x3d74661c	0.05966769
18	0xbd87087a	-0.06593414
19	0xbd019426	-0.031635426
20	0x3d7a3a5d	0.061090816
21	0x3cf4c9a4	0.029881306
22	0x3d80f142	0.06296016
23	0x3d938582	0.07203199
24	0xbd00fae1	-0.031489257
25	0xbd23d107	-0.039994266
26	0xbd0d2a12	-0.03446395
27	0xbbc860b9	-0.006115046
28	0xbb58dcf8	-0.0033090692
29	0xbd21e794	-0.03952749
30	0xbbcb535e	-0.0062050065
31	0xbcdf250c	-0.027239345
32	0xbc572e6d	-0.013133627
33	0x3cdd52df	0.027017055
34	0xbd95b892	-0.073105946
35	0x3d8e730e	0.06955539
36	0xbcfe2412	-0.031023059
37	0xbca4acee	-0.02010199
38	0x3c901ad4	0.017590918
39	0xbb43486f	-0.0029797812
40	0x3ae0a783	0.0017139766
41	0x392e06d6	0.0001659648
42	0x3c4bf367	0.012448168
43	0xbd0d6c57	-0.03452715
44	0x3d597fef	0.053100523
45	0xbd0b27f0	-0.033973634
46	0x3b71c0be	0.0036888565
47	0xbcb417f5	-0.02198408
48	0x3aaeddbd	0.001334123
49	0xbcb61af1	-0.022229644
50	0x3c017903	0.007902387
51	0x3d01dc02	0.031703956
52	0x3d979cdb	0.07402965
53	0xbc3294fe	-0.01089978
54	0xbc6dd232	-0.0145154465
55	0x3d5207e2	0.05127705
56	0xbd3c585f	-0.045982715
57	0x3d57131e	0.052508466
58	0xbc338852	-0.010957794
59	0xbc81a05e	-0.01582354
60	0xb95709a2	-0.00020507586
61	0x3cfaaf01	0.030601026
62	0x3cbb2f7b	0.022849789
63	0x3d90f0af	0.07077157
64	0xbbf593fe	-0.0074944487
65	0xbd6452bd	-0.055742968
66	0xbe3085dc	-0.17238563
67	0x3d5a72be	0.053332083
68	0x3d30f40c	0.04320149
69	0xbdb12738	-0.086500585
70	0xbd166f59	-0.036727283
71	0xbc53f2ba	-0.0129362885
72	0xbc9da011	-0.019241365
73	0x3d0bdf6f	0.03414863
74	0x3c54d3dc	0.012989964
75	0xbaa18a56	-0.0012324553
76	0x3c5a1b7f	0.01331222
77	0xbce8da1a	-0.028424311
78	0x3c399d14	0.011328954
79	0x3d0b3f5b	0.033995967
80	0xbd1f2558	-0.038853973
81	0x3c21fa93	0.009886402
82	0xbd12f560	-0.03587854
83	0x3d02c301	0.03192425
84	0x3d1b28f5	0.037880857
85	0x3ccbc61c	0.02487474
86	0x3d7ee914	0.062234
87	0xbc7d6837	-0.015466741
88	0xbc24cb17	-0.010058186
89	0xbc278e75	-0.0102268355
90	0xbdd11f9c	-0.10211107
91	0xbbe42b32	-0.006963157
92	0x3ce15bc5	0.02750958
93	0x3d2bd76b	0.041953485
94	0xbd6bf8c3	-0.057610285
95	0x3c1c6368	0.009545185
96	0xbd0fc8ac	-0.035103485
97	0x3c9eb9c2	0.019375686
98	0xbc4e50a2	-0.012592467
99	0x3cbe21ed	0.023209536
100	0x3bacbddd	0.005271657
101	0x3c244cd8	0.010028087
102	0x3c8cd73b	0.017192474
103	0xbbe33dc1	-0.006934852
104	0xbd091ccd	-0.033474732
105	0x3d14c86d	0.036323953
106	0x3cf165a1	0.029467406
107	0xbcc18e93	-0.023627555
108	0xbc7e45d5	-0.015519579
109	0x3cbd0df8	0.02307795
110	0x3c8fb4ad	0.017542208
111	0x3c9b6d1f	0.018972931
112	0x3bc4ca8b	0.0060055903
113	0x3c53d53e	0.012929259
114	0x3b2a420e	0.0025979313
115	0x3d19f402	0.03758622
116	0x3cf4b987	0.029873623
117	0x3dbf21d2	0.093326226
118	0x3cac749d	0.0210517
119	0x3c369202	0.011143209
120	0xbd1d906e	-0.038467817
121	0x3cdcb1e9	0.026940303
122	0x3c61c80a	0.013780603
123	0x3bec2cdf	0.0072074975
124	0x3d26959c	0.040670022
125	0xbc1a9e34	-0.009437133
126	0x3c1b8918	0.009493135
127	0x3d3bf263	0.045885455
128	0xbb9816f4	-0.004641408
129	0x3c9cbd40	0.01913321
130	0xbc57a7da	-0.0131625775
131	0xbd8b7870	-0.06810081
132	0x3c0a57e5	0.008443807
133	0xbd70c4c9	-0.05878142
134	0x3d55427e	0.052065365
135	0xbca602e5	-0.020265052
136	0x3dda8cdd	0.10671399
137	0x3c81a104	0.015823849
138	0x3c2dec2a	0.010615388
139	0xbceef63b	-0.029170146
140	0xbdbbd7bd	-0.09172008
141	0xbc2cceec	-0.010547381
142	0xbcedc632	-0.029025171
143	0x3d218255	0.039430935
144	0xbd5556ef	-0.05208486
145	0xbad5bd16	-0.0016306962
146	0xbb8260f0	-0.003978841
147	0x3b9523f6	0.004551406
148	0xbd41001c	-0.047119245
149	0x3c3bcc90	0.011462346
150	0x3d64b12d	0.05583303
151	0xbd5f3784	-0.054496303
152	0x3c759d4a	0.014991114
153	0x3bca6052	0.006176033
154	0x3c7c4441	0.015397132
155	0x3dd5ac30	0.10433233
156	0xbba5e94f	-0.005063213
157	0x3da1b3d9	0.07895631
158	0xbbf90933	-0.0075999736
159	0x3b51e306	0.0032026186
160	0xbd16d8f2	-0.03682799
161	0x3d209b86	0.03921082
162	0xbd8440a3	-0.06457641
163	0x3cd808d7	0.026371403
164	0xba868f96	-0.0010266181
165	0xbd848fbc	-0.06472728
166	0xbcc2edda	-0.023795057
167	0x3d34b95f	0.044122096
168	0xbd1ac409	-0.03778461
169	0x3cadfb62	0.021238033
170	0x3d381dc8	0.044950277
171	0xbcd52e5d	-0.026023084
172	0xbda28652	-0.07935776
173	0x3d5d1abb	0.05398057
174	0xbc74ccd4	-0.014941413
175	0xbd6b467b	-0.057440262
176	0xba8bc33a	-0.001066304
177	0xbcdec3d0	-0.02719298
178	0xbd08aeeb	-0.03336994
179	0x3d931d7c	0.07183358
180	0xbbe4df50	-0.0069846287
181	0x3d6a1324	0.05714716
182	0x3be05866	0.0068464754
183	0x3d1356ca	0.03597144
184	0x3d14d7d4	0.036338642
185	0xbc438cac	-0.011935394
186	0x3cc7912d	0.024361217
187	0xbd232f8e	-0.039840274
188	0x3ca7fd3e	0.020506497
189	0x3c9e6f9f	0.019340334
190	0xbd6038b5	-0.05474158
191	0x3cdaeb34	0.026723482
192	0xbcc5e1a2	-0.024155442
193	0x3c9807ad	0.018558348
194	0x3db24367	0.08704262
195	0xbc98e980	-0.018666029
196	0x3d8807dc	0.06642124
197	0x3c89e6ce	0.016833689
198	0x3ccf4751	0.025302561
199	0xbcaba12c	-0.020950876
200	0x3d915cd7	0.07097786
201	0xbd77bb55	-0.060481388
202	0x3c2b8b54	0.01047023
203	0xbb1f3223	-0.0024291358
204	0xbb4c20ee	-0.0031147557
205	0x3bf5d6b1	0.0075024
206	0x3ced1197	0.028939052
207	0x3c4ba3a9	0.012429156
208	0x3c5dcc99	0.013537549
209	0xbca69247	-0.020333422
210	0x3b7cc9d4	0.0038572447
211	0xbd12cf1b	-0.035842042
212	0xbc065568	-0.008199073
213	0x3b8177ce	0.0039510494
214	0xbe01c9ef	-0.12674688
215	0xbd20a50b	-0.039219897
216	0xbc850d3e	-0.016241666
217	0xbcc3ea8e	-0.023915555
218	0x3d48b184	0.048997417
219	0xbc39db84	-0.0113438405
220	0x3bf75745	0.007548245
221	0x3d6be793	0.057593893
222	0x3d68e650	0.056860268
223	0xbd7946ed	-0.060858656
224	0xbd277514	-0.04088314
225	0xbbdf1fee	-0.0068092262
226	0x3c2fc73f	0.010728656
227	0x3d476de9	0.048688803
228	0xbd21d3e3	-0.03950871
229	0xbc99bb69	-0.018766122
230	0xbc91c550	-0.017794281
231	0xbd219cb1	-0.039456073
232	0x3dc29e56	0.095028564
233	0xbd065362	-0.032794364
234	0xbb162934	-0.0022912743
235	0x3cb3c3c1	0.021943929
236	0xbc66ce8e	-0.014087332
237	0x3d6b882d	0.057502914
238	0x3c8a4190	0.016876966
239	0x3d76d602	0.060262688
240	0x3d377345	0.044787664
241	0xbcd9f66f	-0.026606767
242	0xbdbd71d4	-0.092502266
243	0xbc4325be	-0.011910854
244	0xbc8d2c2c	-0.017232977
245	0x3c56db8f	0.01311387
246	0x3d1f61e3	0.03891171
247	0x3c87605a	0.016525436
248	0x3d03fd58	0.03222403
249	0xbd32040a	-0.043460883
250	0x3cae92ce	0.021310236
251	0x3da47d2c	0.08031687
252	0x3d7235ee	0.059133463
253	0xbac4097b	-0.0014956439
254	0xbc407c3f	-0.011748373
255	0xbbee2a5a	-0.0072682323

bias f4 [256]
0	0xba770dd2	-0.00094243616
1	0x3d074bd0	0.033031285
2	0xbd1e6646	-0.038671754
3	0x3d43f33e	0.047839396
4	0x3d4533e8	0.048145205
5	0x3cd94f65	0.026527116
6	0x3c5f4a87	0.013628609
7	0x3c60c597	0.013718984
8	0x3d2f1ddf	0.042753097
9	0x3cfe9893	0.031078612
10	0x3d252151	0.040314976
11	0xbc800639	-0.015627967
12	0xbc92faf7	-0.017941935
13	0xbc95a7cd	-0.01826849
14	0xbc3f6ebb	-0.011684115
15	0xbbbd21cb	-0.0057718507
16	0x3d5ac6d8	0.05341229
17	0x3b6166fd	0.0034393661
18	0xbb34536f	-0.002751555
19	0x3bea30bf	0.0071469243
20	0xbd48e0fc	-0.049042687
21	0x3cceba87	0.025235428
22	0x3cae1e4f	0.021254687
23	0xbd429dd1	-0.047513787
24	0xbcaa649c	-0.020799927
25	0xbd66e96b	-0.05637495
26	0xb92c9962	-0.00016460338
27	0x3d007efb	0.031371098
28	0x3d802d43	0.06258633
29	0xbcf881c2	-0.03033531
30	0x3d012aac	0.031534836
31	0xbd2fb95f	-0.042901393
32	0xbd154fdf	-0.036453124
33	0xbcd16263	-0.02555961
34	0x3d394a76	0.045237027
35	0x3c0f54ea	0.008748272
36	0x3d37ac2f	0.04484194
37	0xbb3e12e4	-0.002900296
38	0x3d624e1e	0.05525028
39	0xbd513431	-0.051075164
40	0x3c9afafd	0.018918509
41	0x3d121d9d	0.035672773
42	0xbb31cace	-0.0027128938
43	0x3d499415	0.049213488
44	0xbc51cc06	-0.012804991
45	0x3cd0e072	0.025497649
46	0xbbc618f6	-0.006045456
47	0x3d349a9e	0.044092767
48	0x3d4e590e	0.050377898
49	0xbc1b7298	-0.0094877705
50	0xbbe883b1	-0.007095777
51	0xbd00fe1a	-0.03149233
52	0x3d0fd5ca	0.035115995
53	0x3d599350	0.053119004
54	0x3d011f98	0.03152427
55	0x3d0b4ed3	0.03401072
56	0xbd42a40e	-0.047519736
57	0x3ccd3c80	0.025053263
58	0x3d07081b	0.032966714
59	0x3d57ea88	0.0527139
60	0xbca98f25	-0.02069814
61	0x3ca02da4	0.019553013
62	0xbcb725d9	-0.022356914
63	0x3c52425b	0.012833203
64	0x3d399938	0.045312136
65	0x3d859d16	0.065241024
66	0x3cf1951d	0.029490048
67	0xbcc97da7	-0.024596049
68	0xbd6c8549	-0.057744298
69	0x3cd7fdb0	0.026366085
70	0x3cd5042f	0.026002971
71	0xbc6d0372	-0.014466153
72	0xbd611b6e	-0.0549578
73	0xbcff70be	-0.03118169
74	0x3d3fa987	0.046792533
75	0xbd454900	-0.04816532
76	0x3cfa47a3	0.030551737
77	0xbcce1438	-0.025156125
78	0x3d5ea48b	0.05435614
79	0xbc9a606f	-0.018844811
80	0xbc256ce2	-0.0100967605
81	0x3cb5bffd	0.022186274
82	0x398de432	0.00027063634
83	0xbd3f3ee7	-0.046690848
84	0x3cd733e2	0.026269857
85	0xbd051d88	-0.032498866
86	0xbd2fe742	-0.042945154
87	0x3d7ab9f4	0.061212495
88	0x3cecf2d4	0.028924383
89	0xbd0f70c7	-0.035019662
90	0x3d55ed6c	0.052228376
91	0x3d30e550	0.04318744
92	0xbccbeb72	-0.024892543
93	0xbc7dd5e7	-0.015492893
94	0xb8ca7414	-9.653732e-05
95	0xbbc4d558	-0.006006878
96	0xbcd76953	-0.02629534
97	0xba4f1eab	-0.0007900993
98	0xbd0e3520	-0.034718633
99	0x3c926480	0.017870188
100	0xbd753197	-0.059861746
101	0xbc8a4227	-0.016877247
102	0x3cf55f76	0.029952746
103	0x3d514b36	0.051097117
104	0xbc0a065d	-0.008424369
105	0x3d093c93	0.033505034
106	0x3cb13167	0.021630002
107	0x3d82dcff	0.06389808
108	0xbd20bbfe	-0.039241783
109	0xbcc43429	-0.023950653
110	0xbd0d6891	-0.03452355
111	0xba93492f	-0.001123702
112	0xbc581b17	-0.0131900525
113	0xbcfd0912	-0.030888114
114	0x3d2fbfef	0.04290765
115	0x3d866dce	0.06563912
116	0x3d1a7cee	0.0377168
117	0xbd67c7f0	-0.05658716
118	0xbcdff9d7	-0.027340813
119	0x3d644caf	0.055737194
120	0xbceae52e	-0.028673735
121	0x3d3ec12a	0.046570934
122	0x3cc45eac	0.023970924
123	0xbc60d005	-0.013721471
124	0x3d57728c	0.052599475
125	0x3cba62de	0.022752222
126	0xbd2c47e9	-0.042060766
127	0xbcf6413b	-0.030060401
128	0x3d69b1f3	0.05705447
129	0x3cecd4fc	0.028910153
130	0x3b4ddf9d	0.0031413801
131	0x3d5f2b1c	0.05448447
132	0x3d758643	0.059942495
133	0xbd0b3a80	-0.033991337
134	0xbd8a8f16	-0.06765573
135	0x3d7d6af7	0.061869588
136	0x3cd44868	0.025913432
137	0x3c857ff9	0.016296374
138	0x3d502dc2	0.050824888
139	0x3cf28cc3	0.029608136
140	0xbc5aa0d2	-0.013344007
141	0xbd480e6f	-0.04884189
142	0x3d16a2f1	0.036776487
143	0x3d6d4cdc	0.057934627
144	0xbd4f86f2	-0.050665803
145	0x3c8c003b	0.017089954
146	0xbb9a3a3d	-0.0047066496
147	0xbd5a24bc	-0.05325769
148	0x3ca09d2a	0.019606192
149	0xbc8a3f71	-0.016875954
150	0xbc7f4713	-0.01558091
151	0xbcc22c78	-0.023702845
152	0x3d50455a	0.05084739
153	0xbcbdb407	-0.023157133
154	0xbca907e4	-0.020633645
155	0x3d41ba9c	0.047297105
156	0xbcb4969d	-0.022044474
157	0x3d129f67	0.03579655
158	0x3d07cc66	0.033153914
159	0x3ab97696	0.0014149721
160	0xbc0aa2d3	-0.008461672
161	0xbd5aa8cc	-0.053383633
162	0xbd56ef3b	-0.05247424
163	0xbb49791d	-0.0030742355
164	0xbd5fc815	-0.054634172
165	0xbd8d100f	-0.068878286
166	0x3d195041	0.03743005
167	0x3c7110c1	0.014713467
168	0xbd050e5c	-0.032484397
169	0xbce65d8c	-0.028120779
170	0xbc0f25cc	-0.008737039
171	0x3d7759fd	0.060388554
172	0x3c3f3bc6	0.011671966
173	0x3d78f510	0.060780585
174	0x3c51a962	0.012796732
175	0xbd1bc7e2	-0.03803242
176	0x3d83e02a	0.0643924
177	0xbd72333c	-0.059130892
178	0xbcc671e4	-0.02422423
179	0x3c8f00ae	0.017456379
180	0xbc3a8b61	-0.01138577
181	0xbd8be5f8	-0.068309724
182	0x3d1aa9f9	0.037759755
183	0x3d400b6a	0.046885885
184	0x3d81a683	0.06330588
185	0x3bbca0d8	0.0057564788
186	0xbc274562	-0.010209413
187	0xbb220dcb	-0.002472746
188	0xbd7f4940	-0.062325716
189	0xbb551441	-0.0032513293
190	0x3c3e2196	0.011604687
191	0x3cfa10fa	0.030525673
192	0xbc6607e7	-0.01403997
193	0xbd83bdfe	-0.064327225
194	0xbcd6156b	-0.02613326
195	0xbd2a7ac5	-0.04162099
196	0x3cbb4bb0	0.022863239
197	0x3d30ffd3	0.043212723
198	0xbcdb3eec	-0.026763402
199	0xbd2bdb55	-0.04195722
200	0xbd8147e6	-0.06312542
201	0xbbde5559	-0.0067850766
202	0x3d2cc0f2	0.042176194
203	0xbd3884de	-0.045048587
204	0xbd1a2d2d	-0.03764074
205	0xbd4a1c33	-0.0493433
206	0x3d2a561a	0.04158602
207	0x3d3160fb	0.04330538
208	0x3d70e7f8	0.058814973
209	0x3d03ca78	0.03217551
210	0xbd5d22c3	-0.05398823
211	0xbd6511d7	-0.055925217
212	0x3d139489	0.036030326
213	0x3abecdd0	0.0014557187
214	0xbaa1a8a7	-0.0012333588
215	0x3ccd599e	0.025067147
216	0x3d16c6c3	0.036810648
217	0x3d2c55ba	0.042073943
218	0xbcbd7dc4	-0.023131259
219	0x3d8ea669	0.06965334
220	0xbbb49d7e	-0.0055119386
221	0xbd3edd16	-0.046597563
222	0x3d34cdd5	0.04414161
223	0xbbca2e4d	-0.0061700703
224	0xbd3dd959	-0.046349857
225	0xbbe04004	-0.0068435688
226	0x3b790295	0.0037995924
227	0x3cb8b38c	0.022546552
228	0xbd12e0d1	-0.035858933
229	0x3d1433d6	0.036182247
230	0x3cc92c89	0.024557369
231	0xbc85810f	-0.016296891
232	0xbd15db2d	-0.036585975
233	0x3ced60aa	0.028976757
234	0x3cfff335	0.0312439
235	0x3bb7f692	0.0056141103
236	0x3d493605	0.049123783
237	0x3d0d8013	0.03454597
238	0xbd8d58fa	-0.069017366
239	0x3d814ab3	0.06313076
240	0xbd738593	-0.05945356
241	0x3d3c279a	0.045936204
242	0xbc07fe69	-0.008300402
243	0x3ce2e714	0.027698077
244	0xbc30fbf2	-0.010802256
245	0x3c2eb2f6	0.010662785
246	0x3d8117be	0.063033566
247	0xbd2c67d6	-0.042091213
248	0x3d852151	0.06500495
249	0x3a186baf	0.0005814386
250	0xbce1671c	-0.027514987
251	0x3cb18a71	0.02167246
252	0x3d11b4a2	0.035572655
253	0xbc380910	-0.011232629
254	0xbd4bd249	-0.04976109
255	0x3c318365	0.01083455
