dblp_train/train/pretrained_hgnn/decoder_p.pth (torch, 529440 bytes, 4 tensors)

weight f4 [256, 256]
0	0xbd4cf4d0	-0.05003816
1	0x3d80d53c	0.06290671
2	0xb8c47a33	-9.36877e-05
3	0x3c1f7785	0.0097330855
4	0xbb540cae	-0.003235619
5	0x357798d9	9.2237093e-07
6	0x3d40fd88	0.047116786
7	0xbbf6b356	-0.0075287027
8	0x3d81d9ad	0.063403465
9	0x3d953c6c	0.07286915
10	0x3b0b0f83	0.0021218963
11	0xbdb10321	-0.08643175
12	0x3d1e0f41	0.038588766
13	0x3be17f7f	0.006881654
14	0x3cf2192f	0.029553024
15	0xbd429b30	-0.04751128
16	0xbd31575d	-0.043296207
17	0x3d979da9	0.07403118
18	0xbd8aee98	-0.067837894
19	0xbcb1e782	-0.021716837
20	0x3d1c91e2	0.038225062
21	0xbd288319	-0.04114065
22	0xbc7d0a3a	-0.015444333
23	0x3bd2e5bb	0.0064360774
24	0x3c2f7633	0.010709333
25	0xbccddb6e	-0.025129046
26	0x3ce8ffa0	0.028442204
27	0x3ba22a6a	0.004948904
28	0xbd0cbb1d	-0.034358133
29	0x3c30b136	0.010784438
30	0x3d79727f	0.060900208
31	0xb8121799	-3.483109e-05
32	0xbbb666da	-0.00556646
33	0xbce0ee4f	-0.027457384
34	0x3d93d13a	0.07217641
35	0x3d1f0ddb	0.038831573
36	0xbb544c5a	-0.0032394142
37	0xbcd03498	-0.025415704
38	0xbc467067	-0.01211176
39	0x3d812a74	0.063069254
40	0x3c18c83d	0.009325084
41	0xbda2fca0	-0.07958341
42	0xbddc8418	-0.107673824
43	0x3d31f7a1	0.043449048
44	0xbd2bd8b9	-0.04195473
45	0xbd20b591	-0.039235655
46	0xbd240aaa	-0.040049233
47	0x3ca1bc1d	0.01974302
48	0x3d0221e2	0.031770594
49	0x3ddb7034	0.107147604
50	0xbcb0769b	-0.02154093
51	0x3c7021cd	0.014656496
52	0xbc45bc9e	-0.012068896
53	0xbd2af8ab	-0.041741055
54	0x3c84ec21	0.016225876
55	0x3d8e1d74	0.069392115
56	0xbd49baa7	-0.04925027
57	0x3c3644e0	0.0111248195
58	0xbb840434	-0.0040288214
59	0xbd0d1d15	-0.034451563
60	0xbbe2c398	-0.0069202892
61	0x3d1d960d	0.038473178
62	0x3d0abd9b	0.033872228
63	0xbd1e84fa	-0.038701035
64	0x3d0e9ab8	0.03481552
65	0x3c1be3a5	0.009514724
66	0x3cad0aa0	0.02112323
67	0xbe06eb31	-0.13175656
68	0x3c90288a	0.017597456
69	0x3ce4a4c0	0.02791059
70	0xb4dd3017	-4.1199448e-07
71	0xbc849cff	-0.016188143
72	0x3b1cfbbf	0.0023953763
73	0x3d06258d	0.032750655
74	0xbd1e2195	-0.038606245
75	0x3d613504	0.0549822
76	0xbd0845f8	-0.033269852
77	0x3d93d02e	0.072174415
78	0x3cb27264	0.021783061
79	0xbbfef596	-0.007780741
80	0xbcb87944	-0.022518761
81	0xbc814092	-0.01577786
82	0xbd3c4bfd	-0.045970906
83	0xbd859eda	-0.06524439
84	0x3c220c21	0.009890587
85	0x3cb3247b	0.021867981
86	0xbd01d4a7	-0.03169694
87	0xbc5c4933	-0.013445186
88	0x3d474d62	0.048657782
89	0xbd1b90a9	-0.037979756
90	0xbd90d9b7	-0.07072776
91	0x3d24f1c2	0.04026962
92	0xbd907747	-0.07054
93	0x3d1b637f	0.037936684
94	0xbd5a4ab5	-0.053293902
95	0x3d4af8d0	0.049553692
96	0xbce7c32e	-0.028291311
97	0xbcab3899	-0.020901011
98	0xbc624d53	-0.013812381
99	0xbc89f53b	-0.016840568
100	0xbbafeb8c	-0.0053686555
101	0x3d60b62e	0.05486124
102	0xbc6193c4	-0.01376814
103	0xbc373956	-0.011183104
104	0x3d3455d1	0.044027153
105	0xbc015551	-0.007893876
106	0x3c5cfc34	0.013487864
107	0x3d9d3321	0.07675768
108	0xb1c3e080	-5.7007696e-09
109	0x3c70bcd6	0.0146934595
110	0xbc8d6659	-0.017260717
111	0xbbf5da58	-0.0075028352
112	0xbd2244c7	-0.039616372
113	0xb835f53f	-4.3382166e-05
114	0xbd4f2fc6	-0.05058267
115	0x3c34bc1b	0.011031176
116	0xbd00130e	-0.031268172
117	0x3d229921	0.039696816
118	0x3dab1eda	0.08355494
119	0xbd89a923	-0.067217134
120	0x3cf3e295	0.029771129
121	0xbd54d31b	-0.05195914
122	0xbd13171c	-0.03591071
123	0x3c8378d1	0.01604882
124	0xbc563553	-0.013074237
125	0x3b99acd2	0.0046897912
126	0xbd8c9477	-0.06864255
127	0xbb43dd72	-0.002988663
128	0xbbf7af61	-0.0075587486
129	0xbcb98309	-0.02264549
130	0x3d85da66	0.06535797
131	0x3b14010d	0.0022583634
132	0xbd935bac	-0.071952194
133	0x3c9b4cc8	0.01895751
134	0x3cb7c4ff	0.022432802
135	0x3d7f99ae	0.06240242
136	0xbbfa8e2f	-0.007646344
137	0x382a0bcc	4.0542145e-05
138	0x3c0f782e	0.00875668
139	0xbd1ab681	-0.037771706
140	0xbdb28bfb	-0.087181054
141	0x3deaf124	0.11471775
142	0x3dae8932	0.08522262
143	0x3cd18633	0.025576686
144	0xbc374ac1	-0.011187256
145	0x3bab17b5	0.005221332
146	0xbd07e5f4	-0.033178285
147	0xbd1802e2	-0.037112124
148	0x3d6b9945	0.057519216
149	0xbc9116e3	-0.017711109
150	0xbd769b9b	-0.06020699
151	0x3d219080	0.039444447
152	0x3cced35e	0.025247272
153	0xbdb81c41	-0.08989764
154	0x3d68d95f	0.056847926
155	0xbc0cb847	-0.008588857
156	0xb40551b6	-1.2416317e-07
157	0x3b9502d3	0.004547456
158	0x3c6574a5	0.014004861
159	0xbd107db1	-0.03527612
160	0xbb070383	-0.0020601458
161	0xbb8656de	-0.004099711
162	0x39acba46	0.0003294518
163	0x3d6482ae	0.05578869
164	0x3c4b1701	0.012395621
165	0xbbb87f14	-0.0056303833
166	0xbcdf8d0b	-0.027288934
167	0xbd069267	-0.032854464
168	0x3c9cc4bb	0.019136777
169	0x3cb6f09c	0.022331528
170	0xbd2c848c	-0.042118594
171	0xbd564652	-0.052313156
172	0x3cadcffd	0.02121734
173	0xbc709a3f	-0.014685213
174	0x3e0a04c0	0.13478374
175	0xbd445138	-0.04792902
176	0xbbf5bb12	-0.007499107
177	0x3d0e47a9	0.03473631
178	0xbcd48193	-0.025940692
179	0xbcbc46b9	-0.022982942
180	0x3d6377d1	0.055534188
181	0xbc865157	-0.016396208
182	0xbd717907	-0.05895331
183	0x3d29922d	0.04139917
184	0xbd49ebd4	-0.04929717
185	0x3c8c626f	0.01713678
186	0x3da7077c	0.081557244
187	0x3c7f4b82	0.015581967
188	0xbd0c973a	-0.03432391
189	0xbda4e35b	-0.08051177
190	0x3a77ad13	0.00094480923
191	0x3d8ee60d	0.069774725
192	0x3d2fba8b	0.04290251
193	0xbcf3dd3f	-0.029768584
194	0x3dc6c548	0.09705597
195	0xbb805f18	-0.003917586
196	0xbdb4f0f0	-0.08835018
197	0x3c181f93	0.009284872
198	0xbbacb7c4	-0.00527093
199	0x3d645de3	0.0557536
200	0xbbd0e40f	-0.006374843
201	0x3bf88051	0.007583656
202	0xbdc9bd88	-0.09850603
203	0xbc587def	-0.013213619
204	0xbb6f286c	-0.00364926
205	0x3d48c0ff	0.04901218
206	0x3d0055ae	0.03133171
207	0x3af1f683	0.0018460307
208	0x3d7a9016	0.061172567
209	0xbcbace28	-0.022803381
210	0x3d2b767c	0.041861042
211	0xbd8c40d4	-0.068483025
212	0x3c2cc40b	0.010544787
213	0x3cfee076	0.03111289
214	0xbc0e226a	-0.008675197
215	0x3cdc4efd	0.026893133
216	0x3d8eba37	0.069691114
217	0x3c84369a	0.016139317
218	0xbcd0d600	-0.025492668
219	0x349f40b5	2.9663138e-07
220	0xbda31c38	-0.07964367
221	0xbc0d395d	-0.0086196335
222	0x3d0bd0d0	0.034134686
223	0x3ddea4ea	0.108712986
224	0x3b8e1ed9	0.0043371734
225	0xba5806b7	-0.00082407467
226	0xba8e844c	-0.0010873168
227	0x3ce874eb	0.028376063
228	0x3d644e94	0.055739
229	0xbc6aaa17	-0.014322779
230	0x3bd1fa74	0.00640803
231	0xbbeabd38	-0.00716367
232	0xbcbd9f6d	-0.02314731
233	0xbbfeb17c	-0.0077726226
234	0x3d3466ab	0.044043224
235	0xbd5ef7be	-0.054435484
236	0xbd5a9d5a	-0.05337272
237	0x3b9ecd59	0.0048462567
238	0x3c691566	0.014226293
239	0xbba7fad3	-0.005126336
240	0xbb8098d5	-0.003924469
241	0xbb460bc7	-0.0030219422
242	0xbd133681	-0.03594065
243	0xbc40ada0	-0.011760145
244	0x3ae86dd0	0.0017732922
245	0x3d757649	0.05992726
246	0xbbbd6d01	-0.0057808165
247	0xbc7535d9	-0.014966452
248	0x3d0213c4	0.03175713
249	0x3d0d3c44	0.034481302
250	0x3ce44533	0.027865028
251	0x3d182024	0.037140027
252	0xbd2b8f6a	-0.041884817
253	0x3c23a998	0.009989165
254	0x3d8ace62	0.06777646
255	0x3d318695	0.043341238

bias f4 [256]
0	0xbc79f4f8	-0.015256159
1	0x3d7796ca	0.060446538
2	0xbc8bdf8c	-0.017074369
3	0xbcc7ecd9	-0.02440493
4	0x3cf152fc	0.029458515
5	0x3d704e1a	0.058668233
6	0x3aba6d16	0.0014223184
7	0xbb0fecee	-0.002196129
8	0xbd6a463d	-0.05719589
9	0x3d422968	0.04740277
10	0x3d335319	0.04378042
11	0xbc38a42f	-0.011269613
12	0x3c8a5a9c	0.016888909
13	0xbc99737c	-0.018731825
14	0xbd7f578b	-0.062339347
15	0x3d46dae6	0.0485486
16	0xbb1128da	-0.0022149594
17	0x3ba5fe55	0.005065719
18	0x3d1702e8	0.036868006
19	0x3c4c7526	0.012479102
20	0x3ceb764c	0.028742932
21	0x3ce5c900	0.028049946
22	0xbc217e85	-0.009856825
23	0x3c55e9de	0.013056247
24	0xbd2471fb	-0.040147763
25	0xbd4ae0df	-0.04953086
26	0x3c29d8f9	0.010366672
27	0x3d4100ca	0.047119893
28	0xbc71fdb4	-0.01476996
29	0x3c84aa44	0.01619447
30	0xbc03366e	-0.0080085825
31	0x3d6c446f	0.05768245
32	0x3cacdd51	0.021101626
33	0x3d6c0f12	0.05763156
34	0x3d1246ab	0.035711925
35	0x3cb4b62d	0.022059524
36	0xbba7e8fe	-0.0051242104
37	0xbc3262a1	-0.010887773
38	0x3d214388	0.039371043
39	0x3c9e0121	0.019287648
40	0x3d3c5351	0.045977894
41	0x3d2a0a41	0.041513685
42	0xbae4316f	-0.0017409752
43	0x3c91dc2f	0.017805187
44	0x3d4fa7ca	0.050697125
45	0xbc08d859	-0.008352363
46	0x3d5ef811	0.054435793
47	0x3d52489d	0.05133878
48	0x3d6ef0dc	0.05833517
49	0xbbdbb2d7	-0.006704669
50	0xbd051603	-0.032491695
51	0xbcbd726f	-0.023125855
52	0xbc396655	-0.011315902
53	0xbb306231	-0.0026913995
54	0xbd111954	-0.035424545
55	0x3b8d71d9	0.00431655
56	0x3c309bf6	0.0107793715
57	0x3ca4ec87	0.020132316
58	0xbd831320	-0.06400132
59	0x3bfbbcdd	0.0076824264
60	0xbd72991a	-0.05922804
61	0xb7cf135e	-2.4685341e-05
62	0xbd23d4af	-0.039997753
63	0xbbc7e43f	-0.006100207
64	0x3d6e8683	0.05823375
65	0xbcdce442	-0.02696431
66	0xbc98ce17	-0.018652959
67	0xbd2d0f66	-0.042251013
68	0x3c75dcf4	0.015006293
69	0xbd2b6ef2	-0.041853853
70	0xbc94c8cf	-0.01816216
71	0x3d82e2e5	0.06390933
72	0x3c23a99f	0.009989171
73	0x3caa0756	0.020755451
74	0xbccdcac7	-0.025121106
75	0x3d46b4cf	0.048512276
76	0xbd21830a	-0.03943161
77	0x3d33749e	0.043812387
78	0xbc483091	-0.01221861
79	0x3d4fc622	0.050726064
80	0xbd64adf2	-0.05582995
81	0xbb77cc5a	-0.0037811012
82	0xbd3e1698	-0.046408266
83	0x3cd7b65e	0.026332077
84	0x3cc668f3	0.024219966
85	0x3d345240	0.044023752
86	0xbd5a8153	-0.05334599
87	0x3c8ac059	0.016937422
88	0x3cf122b5	0.029435495
89	0x3cdd3fee	0.027008023
90	0xbd3234f4	-0.04350753
91	0xbd752125	-0.059846062
92	0x3bc1e20e	0.0059168404
93	0xbd854b83	-0.06508543
94	0xbc702777	-0.014657847
95	0x3d852edd	0.06503079
96	0x3d1a095a	0.037606575
97	0x3d524184	0.05133201
98	0xbcc3eb1d	-0.023915822
99	0x3d34b1bd	0.044114817
100	0x3d52948b	0.051411193
101	0xbd5d166f	-0.053976472
102	0xbd15ec9b	-0.036602598
103	0x3d4722b4	0.04861708
104	0xbd70d85d	-0.05880009
105	0x3cc25c69	0.023725705
106	0x3cb0bb31	0.021573635
107	0xbc922db2	-0.017844055
108	0xbd7bced3	-0.06147654
109	0xbb193e05	-0.0023382914
110	0xbd2625f6	-0.040563546
111	0x3c12ff64	0.008972023
112	0x3d52edb4	0.051496223
113	0xbd851286	-0.06497674
114	0x3d31e8cc	0.043434903
115	0xbd75e2ce	-0.06003075
116	0xbd367089	-0.044540916
117	0xbcd17f83	-0.025573498
118	0xbc83d009	-0.01609041
119	0x3c6b8b16	0.014376422
120	0x3cac3d7b	0.02102541
121	0xbd40d037	-0.04707357
122	0xbd658a40	-0.05604005
123	0x3d25bdd9	0.040464256
124	0xbabadeb9	-0.001425705
125	0xbd5e05ac	-0.054204628
126	0xbba8f777	-0.0051564532
127	0x3d51a35a	0.051181175
128	0xbd21e708	-0.03952697
129	0x3cd5c110	0.026093036
130	0xbd55d184	-0.052201763
131	0x3ccee31f	0.025254784
132	0xbd7edcea	-0.0622224
133	0x3d249c42	0.04018808
134	0x3d6ba4c7	0.05753019
135	0xbd1e938d	-0.038714934
136	0xbd27eeb5	-0.040999133
137	0xbcd3a84c	-0.025837086
138	0x3d6fcea7	0.05854669
139	0xbcd58915	-0.026066342
140	0xbd41964d	-0.04726248
141	0xbc8bd4a3	-0.017069167
142	0x3c851a85	0.016247997
143	0xbd58ce95	-0.052931387
144	0xbbb80000	-0.0056152344
145	0xbaa3de9a	-0.0012502254
146	0xbd2a9715	-0.04164799
147	0x3a86c84a	0.001028308
148	0x3d574aba	0.0525615
149	0xbd078c5e	-0.03309285
150	0x3a707020	0.00091719814
151	0xbbe10563	-0.006867097
152	0x3d0574f1	0.032582227
153	0xbd6dd3bb	-0.05806325
154	0xbcdb853d	-0.026796931
155	0xbd11229a	-0.03543339
156	0x3ca2a644	0.019854672
157	0xbd66f036	-0.056381427
158	0xbcdd9056	-0.027046364
159	0x3d3d0c87	0.046154525
160	0x3d52e249	0.051485334
161	0xbcc78c14	-0.024358787
162	0xbd24040d	-0.040042926
163	0x3c04bcd7	0.008101664
164	0xbd426fdd	-0.047469962
165	0x3ce7e871	0.028309079
166	0x3d0c07c7	0.034187105
167	0x3bfe1f8f	0.007755227
168	0x3c297530	0.010342881
169	0x3d1bb5fd	0.038015354
170	0xbd457bcd	-0.04821377
171	0x3d6b46c3	0.05744053
172	0x3d378009	0.04479984
173	0x3d464c17	0.04841241
174	0x3d6d9483	0.05800296
175	0xbca7ebd9	-0.020498203
176	0xbccd1115	-0.02503256
177	0xbcb708bc	-0.022343032
178	0x3d252091	0.04031426
179	0x3d3f0bde	0.046642177
180	0xbc1930f1	-0.009350047
181	0xbcdfd8d5	-0.027325073
182	0xbd6cd39e	-0.057819
183	0x3d39c6e3	0.04535569
184	0x3b2bf78e	0.0026240083
185	0xbd593115	-0.053025324
186	0x3c1e8822	0.009676011
187	0xbc4c0dfe	-0.012454508
188	0xbcc237d5	-0.023708263
189	0xbd5343e0	-0.051578403
190	0xbd75ce9c	-0.06001149
191	0x3d190347	0.03735664
192	0x3d20a89f	0.03922331
193	0xbd0a566a	-0.033773817
194	0xbcfcb345	-0.030847201
195	0x3bebf794	0.0072011445
196	0xbd28022b	-0.041017693
197	0x3ac4db01	0.0015018882
198	0xbba88e31	-0.0051439037
199	0x3d104700	0.03522396
200	0xbd4cbf6b	-0.049987238
201	0xbce66673	-0.028125023
202	0x3d153499	0.036427114
203	0x3d06cd2f	0.032910522
204	0x3c36c5ab	0.011155526
205	0xbd6ce51b	-0.05783568
206	0xbbb2815a	-0.005447549
207	0xbcfc896a	-0.030827243
208	0x3cb1d0ee	0.02170607
209	0x3d13470b	0.035956424
210	0xbc9464ff	-0.018114565
211	0xbbfe91cf	-0.0077688466
212	0xbc015cac	-0.00789563
213	0x3d162bf0	0.036662996
214	0xbd6c3272	-0.057665296
215	0xbca1d7ba	-0.019756187
216	0xbc98cec4	-0.018653281
217	0x3d855137	0.06509631
218	0x3c684351	0.014176206
219	0xbd79027c	-0.060793385
220	0xbd7644ce	-0.06012421
221	0xbd010f9e	-0.031509034
222	0x3c6a3776	0.0142954495
223	0xbd137947	-0.03600433
224	0xbd56437b	-0.05231045
225	0xbcf7c8db	-0.030247143
226	0x3d465152	0.048417397
227	0x3d7f8686	0.06238415
228	0x3cd3fbdb	0.02587693
229	0x3bbba6a9	0.0057266545
230	0xbd86b486	-0.06577401
231	0xbc94d3b8	-0.018167362
232	0x3ca465f0	0.020068139
233	0xbd5ad4de	-0.053425662
234	0x3cd2d27e	0.025735136
235	0x3c2775cc	0.010220956
236	0xbbca2406	-0.006168845
237	0x3a853937	0.0010164146
238	0xbd1e0ece	-0.038588338
239	0xbc900c95	-0.017584125
240	0xbbffeec5	-0.007810446
241	0x3d388467	0.045048144
242	0x3d250490	0.040287554
243	0xbd4b8e00	-0.04969597
244	0x3c0e54a7	0.008687175
245	0xbc9fbedc	-0.019500189
246	0x3d5bc689	0.053656135
247	0xbd1d633b	-0.03842471
248	0x3d04bd14	0.03240688
249	0xbd2c8976	-0.04212328
250	0x3cfa128a	0.030526418
251	0x3c48a9b4	0.012247492
252	0xbb25ea0b	-0.0025316502
253	0x3a84fd3e	0.0010146273
254	0xbd27a4a3	-0.040928494
255	0xbd25778f	-0.040397223

weight f4 [256, 256]
0	0xbcf94845	-0.030429969
1	0x3bdbae56	0.006704132
2	0xbd7db02f	-0.0619356
3	0x3c2e76ae	0.010648413
4	0x3d417971	0.047234956
5	0xbd0def4e	-0.034652047
6	0xbd3bd467	-0.04585686
7	0xbd170d34	-0.036877826
8	0x3ccbd55c	0.024882011
9	0xbc6a707e	-0.014309047
10	0x3d8c36f5	0.0684642
11	0x3dd4b13f	0.103853695
12	0xbcdc0e95	-0.026862422
13	0x3c3d94af	0.011571093
14	0x3c193c9a	0.009352827
15	0x3c1e6367	0.009667254
16	0xbd9435aa	-0.07236798
17	0xbcb81d8f	-0.022475032
18	0x3c8bd331	0.017068477
19	0x3c4666b5	0.012109448
20	0xbc9068bc	-0.017628066
21	0x3cbdbfa5	0.023162672
22	0x3d0de33a	0.03464053
23	0xbd86f0c0	-0.06588888
24	0xbce533b7	-0.027978761
25	0x3d14f96f	0.03637069
26	0xbc4fff1c	-0.0126951
27	0x3c0f1100	0.00873208
28	0xbd3984f9	-0.04529283
29	0xbd1bd904	-0.03804876
30	0x39b357bc	0.00034206908
31	0x3b8f806b	0.0043793223
32	0xbd356442	-0.044285066
33	0x3c685414	0.014180202
34	0x3cd23c3b	0.025663486
35	0xbc80c8af	-0.015720693
36	0xbd4bc98a	-0.04975275
37	0xbb66de2e	-0.0035227644
38	0xbcedc09d	-0.02902251
39	0xbd4965e8	-0.04916945
40	0x3d265984	0.040612713
41	0x3d4b36c0	0.04961276
42	0xbc09ceaf	-0.008411094
43	0x3cec8c85	0.028875599
44	0xba7ba189	-0.0009598961
45	0xbcbad488	-0.02280642
46	0x3d9fad32	0.07796706
47	0x3cd93593	0.026514804
48	0x3d64f270	0.05589527
49	0xbcaa855b	-0.020815542
50	0xbdb60d3b	-0.08889242
51	0xbc35beae	-0.011092825
52	0xbd6c6ece	-0.05772286
53	0x3b2bab9b	0.0026194814
54	0xbc2d0136	-0.010559371
55	0x3ac479c9	0.0014989908
56	0xbd035924	-0.032067433
57	0xbca6e13e	-0.020371076
58	0xbd6da01e	-0.058014028
59	0xbaf6ce83	-0.0018829856
60	0x3d115f90	0.035491526
61	0xbd85b943	-0.065294765
62	0xbbdc44f3	-0.0067220866
63	0x3d1001bd	0.035157908
64	0x3cfcb2b6	0.030846935
65	0xbc8cfb80	-0.017209768
66	0xbdb65e5b	-0.089047156
67	0x3c9d8877	0.01923011
68	0x3cb633f6	0.022241574
69	0xbdd15ee4	-0.10223177
70	0x3ddc0165	0.107424535
71	0xbc510ef6	-0.012759915
72	0xbd8880f7	-0.06665223
73	0x3c2a7162	0.010403009
74	0xbd2ab165	-0.041673083
75	0x3db6b87e	0.08921908
76	0xbc256987	-0.01009596
77	0xba6633a4	-0.0008781499
78	0x3d33c348	0.043887407
79	0x3d10aa6a	0.03531877
80	0xb40b3e84	-1.2968127e-07
81	0xbc9e522c	-0.019326292
82	0x3a6d51b4	0.0009053007
83	0x3d3a4cdd	0.04548346
84	0xbcb52a99	-0.022115039
85	0x3c5e5119	0.01356914
86	0x3cd8ff26	0.026488852
87	0xbd7bc117	-0.06146344
88	0xbc902189	-0.017594116
89	0x3bc008be	0.005860417
90	0x3d7442fd	0.059634198
91	0x3d0f73a2	0.035022385
92	0x3c335b92	0.010947125
93	0x3b1c423f	0.0023843197
94	0xbccbdccd	-0.02488556
95	0xbd2b2d58	-0.04179129
96	0x3de5dec1	0.112241276
97	0x3db50e2d	0.088405944
98	0x3d78fed0	0.060789883
99	0x3c8bc62b	0.017062267
100	0xbe160acb	-0.14652555
101	0xbc751b3d	-0.014960107
102	0xb901e8e7	-0.00012389162
103	0x3dbf373b	0.09336706
104	0xbcb74e79	-0.022376286
105	0xbc0fa5b2	-0.008767532
106	0x3cd69a70	0.026196688
107	0xbc93e7b3	-0.018054819
108	0x3c261d09	0.010138758
109	0x3d73f3fc	0.059558854
110	0x3bb32739	0.005467322
111	0xbaaa749f	-0.0013004726
112	0x383182b8	4.232183e-05
113	0xbd92fdaf	-0.071772926
114	0xbb11dcba	-0.0022256807
115	0xbd601f15	-0.054717142
116	0xbc075199	-0.0082592005
117	0xbbb9a540	-0.0056654513
118	0x3b35fb1c	0.002776808
119	0x3d930055	0.07177798
120	0x3cce102a	0.025154192
121	0xbd0cd932	-0.03438682
122	0xbcba68e8	-0.022755101
123	0x3a960242	0.0011444765
124	0xbde05846	-0.10954337
125	0x3d138b8a	0.036021747
126	0x3db066b9	0.08613343
127	0xbd8b192d	-0.06791911
128	0x3d41065f	0.047125217
129	0x3c4009ac	0.011721056
130	0xbd64ced4	-0.05586131
131	0xba2a882b	-0.0006505276
132	0x3cb364c6	0.021898638
133	0x3d148e58	0.036268562
134	0x3d84b345	0.064795054
135	0xbd802b5e	-0.06258272
136	0x3be33782	0.0069341073
137	0xbca2c8f4	-0.019871213
138	0x3c2408a7	0.0100118285
139	0x3bfd4e9d	0.0077303187
140	0xbdb0d54a	-0.08634432
141	0xbda6670b	-0.08125123
142	0x3b3d69c6	0.0028902157
143	0x3bd85f3f	0.006603151
144	0xbccdc27b	-0.02511715
145	0xbace0551	-0.0015718137
146	0x3cc5a991	0.024128707
147	0x3dc33664	0.095318586
148	0x3c80ffea	0.01574703
149	0x3cc0f512	0.023554359
150	0xbcb64aa0	-0.02225238
151	0x3b82bd96	0.0039898856
152	0xbc3f5314	-0.011677522
153	0x3bde9dbc	0.0067937057
154	0xbc722315	-0.014778872
155	0x3d4004b6	0.046879493
156	0xbc704881	-0.014665724
157	0xbd1ed74f	-0.038779553
158	0x3d8931f3	0.0669898
159	0xbc1ee722	-0.009698661
160	0xbd8036c8	-0.06260449
161	0x3caa15f2	0.020762417
162	0x3dd4a97d	0.1038389
163	0xbd7d5d93	-0.061856817
164	0x3d7469e8	0.059671313
165	0xbc227b51	-0.009917096
166	0xbb9eb187	-0.0048429403
167	0xbcaa875f	-0.020816503
168	0xbd5a44df	-0.053288337
169	0xbc312ff7	-0.010814658
170	0x3cf23933	0.02956829
171	0xbc410983	-0.011782053
172	0x3c95068b	0.018191596
173	0x3c869178	0.016426787
174	0xbd9c87f1	-0.07643116
175	0xbcd83964	-0.026394553
176	0xbd9cdf48	-0.07659775
177	0x3cd93dc2	0.026518706
178	0xbce0a3b9	-0.027421819
179	0x3d0e869a	0.034796335
180	0xbcde9f16	-0.027175467
181	0x3bad929b	0.0052970177
182	0xbc8d8c9a	-0.017278958
183	0x3d7be748	0.061499864
184	0x3d117a77	0.035517182
185	0xbd547374	-0.051867917
186	0xbc8afa12	-0.016964946
187	0xbbf47548	-0.00746027
188	0x3d8568db	0.0651414
189	0x3cf52b10	0.02992776
190	0x39c90352	0.0003834018
191	0x3dade531	0.084909804
192	0x3bbfde8a	0.005855386
193	0x3c16b0b6	0.009197405
194	0x3cb2e78b	0.021838924
195	0xbcddd581	-0.027079346
196	0x3d81a85b	0.063309394
197	0x3b4efa3f	0.0031582264
198	0x3d5e6784	0.05429794
199	0x3a8e68bb	0.0010864952
200	0xbd2142e2	-0.039370425
201	0xbd387e76	-0.045042478
202	0xbda5f943	-0.081041835
203	0x3cf4df84	0.029891737
204	0xbcb3b4ce	-0.0219368
205	0x3d03fd8e	0.03222423
206	0xbc369a42	-0.011145176
207	0xbd182c30	-0.037151515
208	0xbc88132c	-0.016610704
209	0xbb65830e	-0.0035020742
210	0xbd6edb01	-0.058314327
211	0xbd08345b	-0.033253055
212	0xb47e205a	-2.3667363e-07
213	0x3bcac219	0.006187689
214	0x3b04a8dd	0.0020242252
215	0x3c186126	0.009300506
216	0xbd26bc8e	-0.040707164
217	0x3d96f296	0.07370488
218	0xbb81e822	-0.00396444
219	0xbd1bc9b5	-0.03803416
220	0xbcdf3153	-0.0272452
221	0xbac74ba2	-0.0015205035
222	0x3d468dae	0.04847496
223	0xbcd1b76e	-0.025600161
224	0x3c90614e	0.017624523
225	0x3d1e9da3	0.038724553
226	0x3d304ada	0.043040134
227	0xbb7aa192	-0.0038243276
228	0x3d96639c	0.07343218
229	0x3dc0cf58	0.09414548
230	0xbcb2eb84	-0.021840818
231	0x3b3f24b2	0.002916616
232	0x3d2e73bd	0.042590845
233	0x3d095463	0.033527743
234	0xbd0b2540	-0.03397107
235	0xbd70dc57	-0.058803882
236	0xbd0179bc	-0.031610236
237	0x3af231a7	0.0018477932
238	0xbd9a8fa6	-0.0754693
239	0x3d5a097d	0.053231705
240	0x3c327774	0.010892738
241	0xbc8077f0	-0.01568219
242	0x3b16f79c	0.002303577
243	0x3cb5c329	0.022187786
244	0x3dbb7a9c	0.09154245
245	0x3d75f848	0.060051233
246	0xbd6f5b22	-0.05843652
247	0x3d0a7402	0.03380204
248	0xbd88cc40	-0.066795826
249	0xbded6487	-0.1159144
250	0x3d33aa06	0.04386332
251	0x3d257b92	0.04040105
252	0x3c30c76a	0.0107897315
253	0x3d20bc87	0.039242294
254	0x3cb33aa1	0.021878542
255	0xbbfb6c24	-0.0076728035

bias f4 [256]
0	0x3c55e46e	0.01305495
1	0x3c958060	0.01824969
2	0xbd4bff6c	-0.049804136
3	0x3c56ac50	0.013102606
4	0x3d312240	0.043245554
5	0xbd4ca329	-0.04996029
6	0xbcb579da	-0.02215283
7	0x3d5b2640	0.053503275
8	0x3d7bd4ca	0.06148223
9	0x3cb22428	0.021745756
10	0x3a7b3481	0.0009582714
11	0xbd166b03	-0.036723148
12	0xbb3c7f12	-0.0028762263
13	0x3d2b05ce	0.041753583
14	0x3d34e69a	0.04416523
15	0x3d23ced1	0.039992157
16	0x3cfbb6a7	0.030726744
17	0xbc6d02cc	-0.014465999
18	0xbd3148b3	-0.043282222
19	0x3cf27b86	0.029599916
20	0x3cd3adda	0.025839735
21	0xbd558a55	-0.052133877
22	0x3d2d63c7	0.042331483
23	0xbc71766f	-0.014737709
24	0xbd6a2cca	-0.05717162
25	0xbd6b3709	-0.057425532
26	0x3d81f621	0.063457735
27	0xbc0a1371	-0.008427487
28	0x3d5e067a	0.054205395
29	0xbcc7f64f	-0.024409441
30	0xbd72ad3a	-0.059247233
31	0x3bebfe3c	0.007201938
32	0xbc6b8ce1	-0.01437685
33	0x3d0542f4	0.032534555
34	0x3d665fb5	0.056243617
35	0x3d714680	0.058905125
36	0xbd32609d	-0.04354917
37	0xbc3d586d	-0.011556727
38	0xbd06bf7d	-0.03289746
39	0xbd2370d2	-0.039902516
40	0xbcb2d31f	-0.021829186
41	0xbcfa9c03	-0.03059197
42	0xbc07d893	-0.008291381
43	0x3d30aa30	0.043131053
44	0x3d7374b3	0.059437465
45	0x3d363f8e	0.044494204
46	0x3d413c84	0.047176853
47	0x3d3ce9ee	0.04612153
48	0xbd144f57	-0.036208477
49	0xbc2a7d5a	-0.010405863
50	0xbce2391d	-0.027615124
51	0x3b75752e	0.0037453878
52	0x3d2a5a87	0.04159024
53	0x3c3bc951	0.011461572
54	0x3d6f3115	0.058396418
55	0x3bc4f492	0.0060106004
56	0xbd665052	-0.056228943
57	0xbcb96c08	-0.022634521
58	0x3cf1a19f	0.029496012
59	0x3ce994e8	0.028513387
60	0xbce56252	-0.028000984
61	0xbd3dff84	-0.046386257
62	0x3cd950e0	0.026527822
63	0x3d4efc19	0.050533388
64	0x3b00c202	0.0019646888
65	0xbbf87cdf	-0.007583245
66	0x39ffa879	0.00048762912
67	0xbcc50ff5	-0.02405546
68	0x3d06664d	0.032812405
69	0x3b2ce558	0.0026381817
70	0x3cdc84d0	0.026918799
71	0x3bb7ec66	0.0056128977
72	0xbd3d12f6	-0.04616066
73	0x3d449419	0.0479928
74	0xbd363e87	-0.044493224
75	0xbc56bbd8	-0.013106309
76	0x3d31649e	0.043308847
77	0x3c58e579	0.013238304
78	0x3beb9b31	0.007190131
79	0xbc71de7e	-0.014762519
80	0xbc1652cc	-0.009175014
81	0x3c4a4cfb	0.012347455
82	0xbbf4e371	-0.007473402
83	0xbc438c63	-0.011935326
84	0x3a8344b6	0.0010014984
85	0xbcfca4ac	-0.03084024
86	0x3d81b590	0.063334584
87	0x3d812e08	0.06307608
88	0xbd442786	-0.047889255
89	0x3d36b72b	0.044608276
90	0x3a7cb4bd	0.0009639969
91	0x3b6708f3	0.0035253137
92	0xbd19b66a	-0.03752748
93	0x3d13ff56	0.03613218
94	0xbd812fa8	-0.06307918
95	0xb9e67db9	-0.0004396269
96	0x3ce8f584	0.028437383
97	0xbd820c4c	-0.06350002
98	0x3c5890cf	0.013218119
99	0x3d35605d	0.044281352
100	0xbd616a58	-0.055033058
101	0x3b17ed1a	0.0023182095
102	0xbc1415a5	-0.009038364
103	0xbd41f8d6	-0.04735645
104	0x3d741161	0.059586886
105	0xbc3d67c1	-0.011560381
106	0x3c5b22f5	0.013375034
107	0xbd2d95e0	-0.04237926
108	0x3c88b247	0.016686572
109	0xbd52c063	-0.051453006
110	0x3d75605c	0.05990635
111	0xbd35ee71	-0.04441685
112	0xbd79f0aa	-0.06102053
113	0xbc5d7701	-0.013517142
114	0x3c6f30c3	0.014599028
115	0x3c92bc8a	0.017912168
116	0xbc8116d6	-0.01575796
117	0xbd193569	-0.03740445
118	0x3d795076	0.06086775
119	0x3d73ff3e	0.05956959
120	0x3d8259c8	0.06364781
121	0x3c32af22	0.010906013
122	0x3d77fab6	0.06054183
123	0xbd2adc85	-0.04171421
124	0x3cbae01e	0.022811946
125	0x3b08ef36	0.0020894534
126	0x3d7eb0ba	0.06218026
127	0x3c9bd120	0.019020617
128	0x3c6deb93	0.014521497
129	0x3b8d0435	0.00430348
130	0xbd36fe96	-0.044676386
131	0xbd29cb79	-0.041453812
132	0xbd0f4e44	-0.03498675
133	0x3c832ec4	0.01601351
134	0xbd11f393	-0.03563268
135	0x3c9fb810	0.019496948
136	0xbd600dce	-0.054700665
137	0x3b17387d	0.002307444
138	0x3ca0ad03	0.019613748
139	0x3cc49203	0.023995405
140	0x3d1f0f61	0.038833026
141	0x3d7273f5	0.059192616
142	0xbb91ba57	-0.0044472623
143	0xbcbb4123	-0.022858208
144	0xbc145794	-0.009054083
145	0x3d05f5b4	0.032705024
146	0x3d4c2379	0.049838517
147	0xbb743840	-0.0037264973
148	0x3a704afc	0.0009166447
149	0xbd25fcc0	-0.040524244
150	0x3ca19866	0.01972599
151	0xbd7759dc	-0.06038843
152	0x3c6810f8	0.014164202
153	0xbc1ee12f	-0.009697243
154	0xbd505d8c	-0.050870463
155	0xbd4411b7	-0.047868457
156	0xbd14ca6f	-0.03632587
157	0xbd7c9672	-0.061666913
158	0xbc7f2bd4	-0.015574414
159	0x3ca4298f	0.020039348
160	0x3ba86df7	0.005140062
161	0xbd50c477	-0.050968613
162	0x3d62e78b	0.055396598
163	0x3d2a3324	0.041552678
164	0x3b85a55b	0.00407855
165	0x3ca813ab	0.02051719
166	0x3cc84891	0.024448665
167	0xbbf38c55	-0.0074325004
168	0x3d1079d0	0.03527242
169	0xbb4809aa	-0.0030523338
170	0xbd7880ae	-0.060669594
171	0x3d49440c	0.04913716
172	0x3d234d39	0.039868567
173	0xbc56b17b	-0.013103838
174	0x3d1b267e	0.037878506
175	0x3d55aee1	0.05216873
176	0x3d0bab4e	0.034098916
177	0xbd748751	-0.05969936
178	0x3b007331	0.001959991
179	0xbd05d816	-0.03267678
180	0xbcf72447	-0.030168666
181	0x3d52a407	0.05142596
182	0xbd7fba90	-0.06243378
183	0xbd4efb59	-0.050532673
184	0xbcc83656	-0.024439972
185	0x3c427317	0.01186826
186	0x39585b50	0.00020633382
187	0xbd398096	-0.045288645
188	0x3cac7051	0.02104965
189	0xbd34adec	-0.044111177
190	0xbc60ee99	-0.013728761
191	0x3d64a6f1	0.05582327
192	0xbd155266	-0.036455534
193	0x3d366aad	0.044535328
194	0xbd4aa2cb	-0.049471658
195	0xbd212e86	-0.03935101
196	0xbb5a2a01	-0.0033289196
197	0x3d4ec7a6	0.05048337
198	0xbd3ab612	-0.045583792
199	0x3b9620f8	0.004581567
200	0xbcc79bac	-0.024366222
201	0x3c6aebb6	0.014338424
202	0xbb183bf6	-0.00232291
203	0xbd556617	-0.052099314
204	0x3d6616c7	0.056174066
205	0xbaef233a	-0.0018244751
206	0xbd1c09fd	-0.038095463
207	0x3d2b960a	0.041891135
208	0xbc9c7dbe	-0.019102927
209	0xbd1dff5b	-0.038573604
210	0x3d81f978	0.063464105
211	0xbd56529b	-0.052324872
212	0x3a8f2468	0.0010920884
213	0xbd48e652	-0.049047776
214	0x3d1deaa5	0.038553853
215	0x3d30abec	0.043132707
216	0xbc806f0a	-0.015677948
217	0xbca81903	-0.020519739
218	0x3bd2ac2b	0.0064292154
219	0xbd64377b	-0.055716973
220	0x39d63204	0.00040854525
221	0x3b2dd91d	0.0026527115
222	0xbb8787a4	-0.0041360427
223	0xbd13b440	-0.03606057
224	0xbc70ba71	-0.014692889
225	0xbccbcaa3	-0.024876898
226	0x3c70df1a	0.014701629
227	0x3d705849	0.058677945
228	0x3b84c9ea	0.0040523903
229	0x3d3332c4	0.043749586
230	0xbce16689	-0.027514713
231	0xbd80e084	-0.06292823
232	0xbc68f8b2	-0.01421945
233	0xbd72c482	-0.059269436
234	0x3b607bf0	0.003425356
235	0x3d0abe94	0.033873156
236	0x3cabd2cc	0.02097454
237	0x3c69cc83	0.014269951
238	0x3c69c090	0.014267102
239	0x3d624642	0.055242784
240	0x3d11f98d	0.03563838
241	0x3d080887	0.033211257
242	0x3cb0be1b	0.021575024
243	0x3d2845a2	0.041082032
244	0xbcf21cd1	-0.029554756
245	0xbcdff6db	-0.02733939
246	0xbd25aa91	-0.040445868
247	0x3d39e91b	0.045388322
248	0xbd1bc8d0	-0.038033307
249	0x3ca3d641	0.019999625
250	0xbd74547a	-0.059650876
251	0xbc8938ac	-0.016750656
252	0xbcb30d2d	-0.021856869
253	0xbd2deb0b	-0.042460483
254	0xbc6ff3d4	-0.0146455355
255	0x3d0c1e67	0.03420868
