dblp_train/train/pretrained_hgnn/decoder_a.pth (torch, 529440 bytes, 4 tensors)

weight f4 [256, 256]
000000 a7 ae 71 bc 6a b5 82 bc e3 91 42 3d 4d 5f 60 3d
       -0.014751113 -0.015955646 0.04750241 0.054778386
000010 9e d1 0a bd 1e 5b 39 bc 05 2e 01 bc 99 59 9b 3b
       -0.033891313 -0.011313228 -0.007884507 0.0047409055
000020 b3 df 30 3d c1 a2 57 3c cf 04 41 bd a4 3b 87 3d
       0.043182086 0.013161362 -0.047123726 0.066031724
000030 69 aa e9 3b fb c7 d2 3c e7 6b c0 ba ec fe e4 3b
       0.00713091 0.025730124 -0.0014680595 0.006988397
000040 08 70 bd 36 75 38 04 3d 21 de 27 3d 47 8d a5 3c
       5.645681e-06 0.032280404 0.040983323 0.020208968
000050 5d 91 51 3d c0 67 c6 bc f1 b3 bd bc df c7 92 3c
       0.05116402 -0.024219394 -0.023157092 0.017917572
000060 56 0d ec 3b 5e ef 6e bb 20 51 69 3d 61 84 fa 39
       0.007203738 -0.0036458592 0.056962132 0.00047782346
000070 51 1d 98 3b 51 e7 38 3d 17 9b 16 3d e1 a0 4a bd
       0.0046421667 0.045142476 0.036769 -0.049469832
000080 cf 89 46 39 e8 99 93 bc bd 4f a1 3d a1 d3 50 b8
       0.00018934089 -0.018017724 0.07876537 -4.978816e-05
000090 bf 31 49 3c 4e d9 0b bd ae 9e 70 bb a7 50 49 3c
       0.012279927 -0.034142785 -0.0036715674 0.012287295
0000a0 67 9d f4 bc de 77 23 3d 1a 46 b0 3b 00 ef 81 bc
       -0.029860212 0.039909236 0.0053794505 -0.015861034
0000b0 50 eb 30 bd 6e da 8c 3d 81 bc 2a 3c 67 72 c8 3c
       -0.04319316 0.068776 0.010420919 0.024468614
0000c0 bd 25 95 3c e3 4a d1 3b 10 7f 1c bb f4 70 10 3d
       0.018206472 0.006387101 -0.0023879446 0.03526397
0000d0 6b 07 26 3d 1d 6b e3 bd 71 a3 d1 3c be 32 c2 3a
       0.040534418 -0.111044146 0.02559063 0.0014816148
0000e0 8b 22 2c 3d ba 58 11 3d 4f ba ea 3b ae 17 4a 3d
       0.04202513 0.035485007 0.007163323 0.04933899
0000f0 7a f5 b5 3d 08 7d 98 3b 69 6b cd 3c 97 a9 8c 3d
       0.088847116 0.0046535768 0.025075631 0.06868284
000100 00 36 69 3d 51 7b 1a 3d d9 0a 64 3c 42 0e 87 bc
       0.056936264 0.03771526 0.013918602 -0.01648629
000110 a6 b4 44 bd c2 36 42 3d d2 d2 17 33 9f de e5 bc
       -0.048023842 0.047415502 3.5349167e-08 -0.028060256
000120 3c 02 10 3c 2f 21 95 3b 3a 3e ad bd 9e ad 62 3a
       0.008789595 0.004551075 -0.084591344 0.0008647087
000130 78 7a 96 bb 67 84 89 3b f8 72 8b 3c ab ca 10 3d
       -0.004592236 0.004196692 0.017022595 0.03534953
000140 30 53 53 b8 75 87 b0 3c 19 e6 86 3d 24 fb 4c 3c
       -5.0383795e-05 0.021548966 0.065868564 0.0125110485
000150 e0 0b dc 3c 6f a6 0e 3d 1a af 85 bc c9 9d 5b bd
       0.026861131 0.034826692 -0.016318846 -0.053617273
000160 b5 22 aa bc 5f d2 32 bc 72 b7 b7 3b dc 32 b5 3c
       -0.020768503 -0.010914414 0.005606585 0.022118978
000170 2e d4 23 bd be 4e f6 3b 6b eb 75 3c 90 43 73 3b
       -0.039997272 0.007516711 0.015009741 0.0037119128
000180 7f 46 ed 3c fe 6d 12 bd b9 d8 50 bb 8d 81 43 bc
       0.02896428 -0.035749428 -0.0031867458 -0.011932743
000190 dc 5d 07 bc 29 ce 10 3d 50 74 1a bd e3 81 39 3c
       -0.008262124 0.03535286 -0.03770858 0.011322471
0001a0 9f 30 43 bc 69 2b e8 3d 75 76 08 3d cf 99 de ba
       -0.011913448 0.11336405 0.033316094 -0.0016983094
0001b0 49 b9 02 3c 2e e0 08 39 db 5e 41 bd d0 e8 47 3c
       0.007978746 0.00013053484 -0.0472096 0.012201503
0001c0 9a 70 07 3d dd 36 ae bc bd e5 8b 3c a3 4d 8d 3d
       0.03306637 -0.021266395 0.017077321 0.06899574
0001d0 02 0a 41 bd 3c 05 03 3c 41 5a 4d b9 f7 0a 50 bc
       -0.047128685 0.007996853 -0.00019583946 -0.012697927
0001e0 c5 76 81 3c bb 72 3a 3d 47 63 60 bd 16 4e da bc
       0.015803704 0.04551957 -0.05478218 -0.026648562
0001f0 ad 96 b5 bc d2 17 3c 3d e7 56 b2 3b 01 c7 d3 bd
       -0.022166574 0.045921154 0.0054424885 -0.10340691
000200 bf 9f 80 bb 57 8e f8 3b d1 a9 12 3c 02 0d 1d 3b
       -0.003925293 0.0075853276 0.00895162 0.0023964052
000210 ff 5b 19 3c a5 ca c7 3d 6e bd 6b 3d ea 42 24 3d
       0.0093603125 0.09755448 0.0575537 0.040102877
000220 68 34 94 3c 05 dd 40 3c 7a e4 2b bb 23 17 86 bd
       0.018091395 0.011771445 -0.0026228712 -0.06547382
000230 9b d7 2f bd f9 63 b1 3a 83 61 5c bb 81 c0 86 3d
       -0.042930227 0.0013533822 -0.0033627457 0.06579686
000240 4f c3 91 3c 1f 31 0d 3d b8 ae c2 3c 15 a0 81 3c
       0.017793326 0.034470674 0.023764953 0.015823403
000250 59 93 97 bd 9f bb 3b 3d 7f 90 1c bb 17 ad 63 3c
       -0.07401151 0.045833226 -0.0023889837 0.013896248
000260 de d4 62 3d 9c 89 42 3d 3f 98 ff 3b 1e 55 0b 3a
       0.055378787 0.047494516 0.0078001316 0.00053151126
000270 69 0f 25 3c 7e ab 67 bc 4c 6a 5f 3c 72 c5 38 3d
       0.010074475 -0.014140008 0.013636183 0.045110174
000280 c2 b6 30 b8 88 58 9e 3d 97 2b f3 bb 80 02 db 3c
       -4.2131876e-05 0.0773173 -0.007420968 0.02673459
000290 95 c4 02 3b 1a 2f 77 bd 30 ae 9a 3d 08 38 90 3d
       0.0019953598 -0.060347654 0.07552755 0.07041937
0002a0 1a 3c f0 3d 06 65 d7 3a 3d 16 30 39 c0 ee 7f 3c
       0.117302135 0.0016433306 0.00016792952 0.015620887
0002b0 f2 1d 6b 3d 4d fc ee 3c a3 ce d9 33 d9 d1 dd 3c
       0.057401605 0.02917304 1.0142437e-07 0.027077602
0002c0 74 a6 a1 bd bd a6 e0 3c ad d9 7a bd 49 09 85 bd
       -0.078930765 0.027423257 -0.061242748 -0.06495912
0002d0 44 69 0d 3c 3d 9d 10 bd d4 bb 79 bd 47 35 14 3d
       0.008631054 -0.035306204 -0.060970142 0.03618362
0002e0 3d e7 68 3d b6 46 02 3d 6a f6 e0 3c 52 f9 31 3d
       0.05686115 0.031805716 0.02746125 0.04345066
0002f0 72 d9 bb 39 e0 fc 3f 3d 87 da 28 3c aa 01 ab 3c
       0.0003582943 0.04687202 0.010306007 0.020874817
000300 5a e8 4a bd c0 0d 21 3c 78 15 93 3c 0e f5 83 bc
       -0.049537994 0.009829938 0.017954573 -0.016108062
000310 14 84 c8 b9 8a 23 a9 3c ad f4 7f 3c e2 38 65 b8
       -0.00038245379 0.02064683 0.0156223 -5.465083e-05
000320 9c a2 83 3c 9e 6b 0b 3d 78 40 3f 3d b4 66 c7 39
       0.01606875 0.03403818 0.04669234 0.00038032758
000330 9d 59 3d bd a6 01 6e 3c 8b e2 0c 3c 0e a6 89 3c
       -0.04622804 0.01452676 0.008598934 0.016802814
000340 83 35 55 b8 a1 d8 07 3d 10 1d 27 3c 38 a0 2e 3b
       -5.0832994e-05 0.033165578 0.0101998 0.002664579
000350 c6 64 93 b9 2b ac 0b bd 0a 82 e6 3c ff 66 33 bd
       -0.00028113107 -0.03409974 0.02813818 -0.043799397
000360 95 9b 12 3c 8c 8f 64 3d 90 76 93 bd a3 03 81 bc
       0.008948226 0.05580096 -0.072003484 -0.015748804
000370 de bf af bc e1 d9 41 3d a1 b6 63 3c 5c 4d 22 bc
       -0.021453794 0.047326926 0.013898523 -0.009906139
000380 48 ef c5 3d f6 e5 92 bb a5 d9 a0 3d 73 ba 32 3d
       0.0966478 -0.00448298 0.078540124 0.043634843
000390 27 33 6b 3d 1a 96 22 3d 37 43 6b 3d f9 ea ed 3c
       0.05742183 0.03969393 0.057437148 0.029042708
0003a0 5e 73 01 bb dc 36 86 b9 4e 9d 4f 3c 7e cb 33 3b
       -0.0019752602 -0.00025599345 0.012671782 0.0027434523
0003b0 0b e0 8b 3d 51 7f 61 bd 9e 84 80 bc 0b 5a 57 3d
       0.06829842 -0.05505306 -0.015688237 0.052576106
0003c0 46 a1 84 3d 03 04 f5 bb ad 8a 88 3c 2f 46 84 3b
       0.06476073 -0.007477285 0.016667688 0.004036687
0003d0 25 89 ca 3c 67 f3 40 bd a4 01 11 3d 62 82 0b 3d
       0.024723599 -0.047107127 0.035401955 0.03405989
0003e0 9a e7 1c bc 7b 20 18 bd 95 21 60 bc 7c 2e aa bc
       -0.0095767025 -0.03714035 -0.013679882 -0.020774119
0003f0 ca bd 85 3d 08 98 90 3d ca 61 85 39 9c 78 fe 3c
       0.0653034 0.07060248 0.00025440595 0.03106337

bias f4 [256]
000000 41 41 af 3c 19 8b 16 3c 65 d4 9f 3d 9e 93 4b 3d
       0.02139342 0.009188437 0.07804183 0.049701326
000010 be 74 d4 bc 92 91 73 bc f5 00 fd bc a5 ae 2e 3d
       -0.025934573 -0.01486625 -0.030884245 0.042647023
000020 ac 42 36 3c db 03 4a bd 14 dd eb 3c 37 f8 d1 bc
       0.011124294 -0.049320083 0.028791942 -0.025631053
000030 d6 d2 60 bd 20 22 f9 bc 01 20 a2 3d 63 1a a9 bc
       -0.05488857 -0.03041178 0.079162605 -0.020642465
000040 d4 63 8d 3d bd 62 76 bd a9 8d 99 bd 7a 7c 0f 3b
       0.06903806 -0.060152758 -0.07497723 0.0021894262
000050 7c 16 57 3d 56 01 a7 bb b1 71 00 3d 9b 3c d6 3c
       0.052511677 -0.005096595 0.031358425 0.026151946
000060 0a 7c 87 3c 31 6c af 3c 02 14 0b 3d ee 10 33 3d
       0.016538639 0.021413894 0.033954628 0.043717317
000070 e5 af a1 ba a3 a3 77 3d 76 16 ad 3c 93 80 8f 3c
       -0.0012335746 0.06045879 0.021128874 0.017517364
000080 7a 33 10 3b d4 99 88 bd fe f0 c3 3c df c1 db 3b
       0.0022003339 -0.066699654 0.023918625 0.006706461
000090 d8 0c 23 ba e7 c4 43 3d 23 e2 03 3d 36 ce a9 b9
       -0.00062198704 0.047795203 0.032198083 -0.0003238783
0000a0 33 7f 49 3c 09 79 24 3d 0a 71 8e 3d d0 45 75 bd
       0.012298393 0.04015449 0.06955154 -0.05988103
0000b0 eb 7a 67 bc 57 fb 12 3d 3b 7e 5e 3c 04 cd 33 bc
       -0.014128427 0.035884228 0.0135799 -0.0109741725
0000c0 55 0e 84 3d 18 b8 8f 3c b6 b2 9d 3c 82 68 da 3c
       0.06448046 0.017543837 0.019250255 0.026661161
0000d0 71 89 7a 3d a4 f5 5f bd 27 dc 2d bd 30 8a 40 3d
       0.06116623 -0.05467762 -0.04244628 0.047006786
0000e0 d1 d7 65 3d 3d 95 0d 3c e5 14 82 3d 5d c7 32 3a
       0.05611402 0.008641538 0.063516416 0.00068198686
0000f0 9e c5 e8 3b b8 71 98 bd 26 1b 15 bd a0 da 1c 3d
       0.007103636 -0.07443565 -0.036402844 0.038294435
000100 42 21 ba 3c 1d 43 72 3d ee 23 8b 3c 12 15 43 bd
       0.022720937 0.059146035 0.016984906 -0.047627516
000110 bf 02 7d 3d 19 5e 31 bd 9d 48 5a 3c a5 31 dc bc
       0.061770197 -0.04330263 0.013322976 -0.026879141
000120 15 9b 53 bd f6 7a a4 3d 35 21 9f bc c4 3c a4 3b
       -0.05166157 0.080312654 -0.019425014 0.0050121266
000130 91 fd 87 3d bd 1c 01 bc 8c 2a 13 bc e9 b3 81 bd
       0.06640161 -0.007880387 -0.008982312 -0.06333143
000140 0c 01 c9 bc 0d e8 73 3d 53 ad 92 3d c5 08 38 3d
       -0.024536632 0.059547473 0.07161965 0.04493024
000150 d9 54 06 bc af d3 57 bc 5b 69 87 bd 82 98 e7 3c
       -0.00819894 -0.013173028 -0.06611892 0.028270964
000160 58 4e 54 3c a9 6c 39 bd 08 24 5b 3d 12 b8 cb bb
       0.012958132 -0.045269642 0.05350116 -0.0062170113
000170 ae fd 3d 3d 88 0c b3 bc 45 20 52 bc f3 05 2d 3d
       0.046384506 -0.021856561 -0.0128250765 0.042242
000180 a4 c8 71 3d 19 ae 1e 3d 64 27 7e 3c 1c 9c f0 3c
       0.059029236 0.03874025 0.015512321 0.029371314
000190 15 9c 85 bd 0f 06 6d 3c 89 df 07 bd 77 34 73 bd
       -0.06523911 0.0144667765 -0.033172164 -0.059376206
0001a0 3f 97 6d bd ad ad a6 bc 7e d3 94 bd 8d 1b 7e 3b
       -0.058005568 -0.020346487 -0.072669014 0.0038773746
0001b0 50 8e 56 b9 b5 a2 5e 3d f2 04 07 bd c9 bd 5b 3c
       -0.00020461646 0.05435439 -0.0329637 0.0134119475
0001c0 8b 1e e1 3c ce 41 74 3d 52 31 74 3d 1f 04 80 3d
       0.027480384 0.05963307 0.059617348 0.06250786
0001d0 2f 6e 1c 3b a1 61 26 3d 65 27 5e bd cd c5 ff bc
       0.0023869385 0.04062045 -0.05423679 -0.031222248
0001e0 bc 79 2e 3b 54 53 b4 bc 45 bf 52 3d 22 9a c0 3c
       0.0026622852 -0.02201239 0.05145194 0.023510996
0001f0 31 21 8e bd ed 31 4f 3b a2 f7 c4 bc 17 72 63 bc
       -0.069399245 0.0031615451 -0.024043862 -0.013882182
000200 40 d2 1a 3d 0a 37 9b 3c be 62 86 bc a8 d6 13 bc
       0.037798166 0.018947143 -0.016404506 -0.009023346
000210 a1 a2 16 3c 91 7d fb bc 4b 1d 81 bd b2 ff e3 bc
       0.009194047 -0.030699523 -0.06304415 -0.027831886
000220 7f b6 9c 3c 99 3b 58 3c 5f 83 67 bd 35 b0 1c bb
       0.01912999 0.013197803 -0.05652177 -0.0023908739
000230 74 80 e7 bc 04 64 20 3d b0 db 6a bd ae 45 eb bc
       -0.028259493 0.039157882 -0.057338417 -0.02871975
000240 1b 91 98 bd b5 fd 9a 3d 6b ff 8f 3d 67 62 c3 bb
       -0.07449552 0.07567922 0.07031139 -0.005962658
000250 88 11 de 3b 61 8e 36 3d 53 66 13 3d 3d 40 18 bc
       0.006776992 0.044569377 0.035986256 -0.009292659
000260 98 02 28 3c 3c 3b 40 bd 67 d1 3c bc 49 2a 7e bd
       0.010254525 -0.04693149 -0.011524535 -0.062052045
000270 ee b3 c7 3c 0e 64 81 bd 8a f5 86 3d d8 3e 9e bc
       0.02437779 -0.06317912 0.065898016 -0.019317076
000280 26 1c 75 3d c9 31 f4 3c 6b 8c b9 3c 10 d8 5f bc
       0.059841298 0.029808896 0.022649964 -0.013662353
000290 7c b1 27 bd f3 de 8c 3d 59 99 74 3c f2 f9 04 3d
       -0.040940747 0.06878462 0.014929139 0.03246493
0002a0 49 cb 85 bd e2 c6 4e bd 7c c6 90 3b 7d 8e d8 bb
       -0.06532914 -0.05048264 0.0044181924 -0.006608783
0002b0 7a 8b 6d bc 62 10 08 3d 5a a5 58 3d 34 9f 88 bd
       -0.014498586 0.03321875 0.052892067 -0.066709906
0002c0 79 cd ac 3c dc 70 93 bd 03 02 d4 3c f4 de d9 bc
       0.02109407 -0.071992606 0.025879866 -0.02659557
0002d0 13 4e 3d bd 09 6b 17 38 a0 88 c9 bc ce bd f5 3c
       -0.046217036 3.610089e-05 -0.02460128 0.029997732
0002e0 45 0e 9b bb 1f 40 66 3d 83 4d 02 3c e9 65 3f bd
       -0.0047319257 0.056213494 0.007953051 -0.04672805
0002f0 e5 0f 04 3d 3d 33 ac bc 6c d4 dc bc 09 5a f3 bc
       0.03224172 -0.021020526 -0.02695676 -0.029706018
000300 d6 c3 dc 3a 3d 0d 83 3d ab 0b 32 3d 6c 45 6a 3d
       0.0016843032 0.063990094 0.04346816 0.057195112
000310 48 20 b2 bc 91 76 7c 3d 45 02 ce 3c 0f 33 67 bd
       -0.021743909 0.06163651 0.025147567 -0.056445178
000320 7d 04 12 bd 37 b0 0f bd e3 c2 a2 bc 1c 98 60 3d
       -0.03564881 -0.03508016 -0.01986832 0.054832563
000330 cb 18 15 bd f8 73 a3 3c a9 66 08 3d 1f 30 49 3d
       -0.036400598 0.01995276 0.03330103 0.049118157
000340 a7 92 a4 bc 9c 6f 4a bd 0e d7 88 3d 55 f3 14 3d
       -0.02008946 -0.049422845 0.066816434 0.036364872
000350 db 99 07 3d ef 39 e3 3b a4 f1 2f 3d 5a 61 88 3c
       0.033105712 0.0069343965 0.042955056 0.016647983
000360 bb 7a 81 3c 53 55 4e 3d 6a 58 87 bd 6c 5b 85 3d
       0.015805593 0.05037434 -0.066086605 0.06511578
000370 00 21 7b bd 0c 3f 7e bd e9 ca 44 bd 10 5d cc 3c
       -0.061310768 -0.062071845 -0.048045073 0.02494672
000380 95 38 f7 bc e2 d7 d0 bc be b6 1c 3d 83 86 5d bc
       -0.030178348 -0.025493566 0.038260214 -0.01352084
000390 78 29 36 bc 9e af d6 bb 26 b2 57 3d 81 51 84 bd
       -0.011118285 -0.006551697 0.05266013 -0.06460858
0003a0 4b 37 19 bc 79 b7 64 3d 17 97 51 bd d5 db 4c 3c
       -0.009351562 0.055839036 -0.05116948 0.012503584
0003b0 b2 8d c7 3c 5c 5e 57 3d fd c0 50 bd ea 8d aa 3c
       0.024359558 0.052580222 -0.050965298 0.020819623
0003c0 da b3 21 3d bd d4 49 3d b3 71 98 3d 32 96 b5 bc
       0.03947816 0.04927515 0.074435614 -0.022166345
0003d0 72 c8 80 3d 48 9f 12 bd 04 2c e4 bb 0a bc 8b 3c
       0.06288232 -0.035796434 -0.006963255 0.017057437
0003e0 c3 4f 58 3d 95 a1 3f 3d 27 8e 69 3d cf 21 41 3c
       0.05281044 0.046784956 0.057020333 0.011787846
0003f0 af 06 2e 3d 32 bd 08 3c 8f 30 0b bd 68 c4 61 3d
       0.042486843 0.008345889 -0.033981856 0.05511895

weight f4 [256, 256]
000000 ef 16 85 bc 4f a9 8d 3b e7 b9 1a bd c2 0f 82 bd
       -0.016246287 0.0043231617 -0.037774947 -0.06350662
000010 8c 6b b4 3d 41 45 27 bc 08 64 79 3b 89 53 f8 b9
       0.088095754 -0.0102093825 0.0038054008 -0.00047364485
000020 23 76 b9 3a 04 b4 f8 3b fa e0 62 3d 1e 83 7b 3d
       0.0014149587 0.007589819 0.055390336 0.06140434
000030 09 e6 db bc 90 f5 8e 3c c5 6e a3 bc c5 f7 5d 3d
       -0.026843088 0.017451078 -0.01995028 0.05419137
000040 2c 54 46 ba 3d fb ed bc 7d 50 06 3a c5 47 0c 3d
       -0.0007565643 -0.029050464 0.0005123688 0.034248132
000050 5d bf 94 bd 81 a0 80 bd b1 84 3f bb db 2d b6 3c
       -0.07263062 -0.06280614 -0.0029223377 0.022238662
000060 49 0a 13 bd 7b 82 8a 3c d6 38 e0 bc d3 a4 f0 3b
       -0.03589848 0.016907921 -0.027370851 0.0073438673
000070 33 f5 63 bc 97 30 9a 3c a1 bc 4d 3d 06 f5 8d bc
       -0.0139134405 0.018821998 0.05022872 -0.01732875
000080 6a 46 08 bd 2f 63 0c bd 58 ca 33 bd 69 80 b5 bc
       -0.033270277 -0.034274276 -0.043894142 -0.022155957
000090 ac b7 b6 bd 58 4a 02 3a dd 2f 81 bd ae 9d 29 3c
       -0.089217514 0.00049701845 -0.06307957 0.010352535
0000a0 31 42 93 3d 1e d5 2e 3c 2d a9 ae bc 16 38 fd 3c
       0.071903594 0.010670928 -0.021320904 0.030910533
0000b0 1e 52 e5 bc b1 6a 63 3d d2 c1 08 bd e5 ed cf bc
       -0.027993258 0.05552167 -0.033387966 -0.025381992
0000c0 f4 25 4a 3d 17 dd 70 3d 91 8e b9 bd 79 b6 c8 3a
       0.0493526 0.058804598 -0.090603955 0.001531317
0000d0 58 39 b8 bc ce 05 ee 3d 86 4f 24 bb d1 5e dd 3c
       -0.022488281 0.11622201 -0.0025071814 0.027022751
0000e0 b8 69 d2 bd 54 ed fd bb f3 3a f7 bc ff 32 0a 3d
       -0.102740705 -0.007749239 -0.030179476 0.03374004
0000f0 32 5d cd 3a 60 0c f7 bb 1c 36 8c bc 72 6f b0 bd
       0.0015668033 -0.007539317 -0.017115645 -0.086150065
000100 a0 13 42 bc 70 4d e7 b9 ad 15 10 3c 47 d2 cc bd
       -0.011845499 -0.0004411745 0.00879423 -0.10001045
000110 ef 4d 1a bd f4 1f be bd 7b c9 31 3d 21 6e a3 bd
       -0.03767198 -0.09283438 0.043405037 -0.0797999
000120 ec 5f 44 3d ef 9d 85 3d c3 00 66 bd 1b 55 a2 bc
       0.04794304 0.06524264 -0.05615307 -0.019815972
000130 2c 64 6e 3c 97 dc 72 bc f1 57 90 bc 53 5c 1b 3c
       0.01455025 -0.0148231005 -0.017620059 0.009482461
000140 61 93 5a bd c0 34 10 3d b7 69 b1 3d 2b d3 70 bb
       -0.053363208 0.035206556 0.08662742 -0.003674696
000150 8f e9 e7 3d d0 70 d0 bd e0 4e 48 bd cf 5e 70 bc
       0.11323845 -0.10177767 -0.048903346 -0.014671042
000160 f7 d2 18 bc eb 95 76 bc 35 01 0b 35 ea 7a 6a bb
       -0.009327642 -0.015050392 5.178329e-07 -0.003577883
000170 03 88 6c 3d 05 80 38 bc 66 82 c9 35 a3 8b 0c bd
       0.0577469 -0.011260991 1.5013618e-06 -0.034312855
000180 28 ca 5c 3d 0c fb cb 3c e2 59 71 3d 42 a9 d3 3b
       0.05390373 0.024899982 0.05892361 0.006459386
000190 69 0e 4e bc da 38 9f bc 1b 0c bd 3c fa a6 d1 bc
       -0.012576678 -0.019436289 0.023077061 -0.025592316
0001a0 7f 8d dc bc 68 e9 6d 3d b2 96 4d 3d 76 40 3c bc
       -0.02692294 0.05808392 0.050192542 -0.011489978
0001b0 1f ad d7 bc e4 d3 3b 36 a5 bc c4 bd 91 10 b8 bb
       -0.026327668 2.7988508e-06 -0.096062936 -0.0056172092
0001c0 8f 30 90 bc 10 27 38 3d 67 e5 cc bc 3b fc cd 3d
       -0.01760128 0.044959128 -0.025011731 0.10057875
0001d0 29 ff 84 3d ff b4 bf 3c 3d 67 f7 3c 70 e2 82 bb
       0.064939804 0.023401735 0.030200595 -0.0039942786
0001e0 7f a8 6d bc ec 6e af 3c 1a bd cd bb 44 7c 00 3d
       -0.014505505 0.021415196 -0.006278646 0.03136851
0001f0 2b 23 08 3d e1 12 b8 bc 25 35 c1 3b 19 b7 d7 bc
       0.033236664 -0.02246994 0.005896228 -0.026332425
000200 67 2b 65 bc 5a b6 82 bd 58 0e 48 3c 28 18 51 36
       -0.013987399 -0.06382437 0.012210451 3.1157488e-06
000210 6a d3 74 3d 1b 8c e0 3c 6e 56 fc 3b 22 af 83 3d
       0.059771933 0.027410557 0.007700733 0.06429888
000220 6b 20 ad bc 77 f5 2f 3d 42 1d c2 bb 58 d2 2b bd
       -0.021133622 0.042958703 -0.005923898 -0.041948646
000230 9f 80 b5 39 13 d9 18 bc 2a 09 2b 3d 56 fa a0 3b
       0.0003461884 -0.009329098 0.041756786 0.004912655
000240 ee 96 d5 bc 8f d2 07 bd 97 13 29 3d 3e ea 51 3d
       -0.026072945 -0.03315979 0.041278448 0.05124878
000250 77 4b 84 3c 1c 97 0a bd 4a 2b 8f bc 45 24 3a bd
       0.016149266 -0.033835515 -0.017476697 -0.045444746
000260 56 c6 e7 3c 02 59 23 3d 25 76 ab bc a0 0b 05 bd
       0.028292816 0.039879806 -0.02093036 -0.03248179
000270 99 d1 4f bc b9 c9 a1 3c 23 bf 8a b9 01 49 2d 3c
       -0.012684249 0.01974951 -0.0002646382 0.0105764875
000280 95 00 8b bd 3b b2 9d bd 0c 0c 67 3a af dd ac 3b
       -0.067872204 -0.077000104 0.0008813746 0.00527545
000290 fa 25 a8 3d 02 15 22 b9 2d d0 44 3d b8 c1 40 bc
       0.082103685 -0.0001545735 0.048050094 -0.011764936
0002a0 2e 86 0b 3b bf dc 93 bd 21 99 b9 bd 0e da 9d 3d
       0.0021289694 -0.07219838 -0.0906241 0.07707606
0002b0 3a ed a0 3a be d5 70 bc 54 21 ce ba ad fc ff bc
       0.001227773 -0.014699398 -0.0015726485 -0.031248415
0002c0 fb 22 fb bc cc 23 e0 b7 f1 7b 04 bc bb 1f 37 3d
       -0.030656328 -2.671955e-05 -0.008086191 0.044707995
0002d0 95 09 3c 39 ca 52 c9 3c 69 be 12 bd fe 8b c5 3c
       0.00017932647 0.02457561 -0.03582612 0.024114605
0002e0 5d 23 84 bc f1 22 42 bc eb 29 ac 3c 6b 6b 0d bd
       -0.016130144 -0.011849151 0.021016082 -0.03452627
0002f0 6a 22 24 bc 5c 0b 9c 3c a2 84 81 3d 08 f4 85 3c
       -0.010017971 0.019048385 0.06324126 0.016351715
000300 2f 56 6e bc 40 dc 47 bc d2 4e be 3c ea ae 14 bc
       -0.014546915 -0.012198508 0.023230944 -0.009074906
000310 0e 0c 97 3c 4c 91 be 3b 52 7b 88 3d 6f d5 3e 3d
       0.018438365 0.0058156606 0.066641465 0.046590265
000320 fa 0a 78 bb 32 d1 e6 3c 9f d2 22 3c ef db 58 bd
       -0.003784834 0.028175924 0.009937911 -0.05294412
000330 9b ad b4 bc 9c bf ea bb 3f 3e 1c bc b3 33 a6 3c
       -0.022055438 -0.007163955 -0.009536325 0.020288324
000340 90 3a b7 3c 8a 78 55 bd fd 3b 99 bd 9d d9 97 ba
       0.022366792 -0.052116908 -0.07482145 -0.001158524
000350 76 75 5f bd 9c dc 4a bd 69 df e4 bc d7 c0 3b 3d
       -0.05455538 -0.049526796 -0.027938562 0.045838203
000360 54 f6 c5 ba f4 11 b5 bd 13 f1 9a bd 91 23 83 34
       -0.0015103319 -0.08841315 -0.075655125 2.442653e-07
000370 01 58 68 bc bc 15 52 3d 94 f2 cc bc 67 00 20 3c
       -0.014181138 0.05129026 -0.025018014 0.009765721
000380 fd 67 2a 3d a3 c4 3b 3c f1 6c 3e 3d 67 c6 0d 3d
       0.041603077 0.011460456 0.046490613 0.03461304
000390 a4 3a 2f 3d 8a 2c ca 3c cd 91 7e 3d c8 a5 37 bc
       0.042780533 0.024679441 0.062150765 -0.011208959
0003a0 ce 30 44 3d e4 43 5c 35 93 c1 1c bc f0 64 32 bd
       0.047898106 8.205518e-07 -0.009567636 -0.043553293
0003b0 d4 cd ea bc 84 20 c7 3c e9 0b 16 3d 0e af d8 bc
       -0.0286626 0.024307497 0.036632452 -0.02645066
0003c0 bc 1c 4a bc 5c ef e1 ba 0e ee 01 bc 38 20 13 3d
       -0.012335952 -0.0017237472 -0.007930292 0.035919398
0003d0 c4 fc 17 3b ef 12 36 bb 86 cd 65 3c 76 69 55 3d
       0.0023191432 -0.0027782281 0.014026051 0.05210253
0003e0 03 b5 72 bd 39 91 8e 3b 67 68 1c bd 51 c4 88 3d
       -0.059254657 0.004350808 -0.038185503 0.066780694
0003f0 0b 92 ee 37 21 47 ec 3c b1 a5 f9 bc 93 51 58 3c
       2.8439817e-05 0.02884251 -0.030474516 0.013203043

bias f4 [256]
000000 7f 18 a9 3c 41 d3 09 bd 26 5f 1a 3d 84 79 1b bd
       0.020641563 -0.033648733 0.037688397 -0.037957683
000010 26 78 d9 bc 4d f9 0b 3d 24 9a db 3c 39 c8 9b bc
       -0.026546549 0.0341733 0.026806898 -0.019016372
000020 ec bc 44 bd f7 6a 4e bd 5f 72 92 3c fd ab 3d bd
       -0.048031732 -0.05039498 0.017876802 -0.0463066
000030 cf 70 8e 3b 52 50 94 bc 22 10 84 3d ab 8f 57 bd
       0.004346944 -0.018104706 0.064483896 -0.052627247
000040 ed aa 43 3d 21 e4 19 bd ca 12 51 3d 44 e7 ec 3b
       0.04777043 -0.037571076 0.05104331 0.0072297174
000050 f7 0e 09 3d 93 35 d6 bb e5 57 a6 bc 75 9c a8 3c
       0.033461537 -0.0065371483 -0.020305583 0.020582417
000060 bb 8e 4a 3c 1d 91 74 3c 5e e2 06 3d 24 c0 4a bd
       0.012363131 0.014927176 0.032930724 -0.049499646
000070 98 04 0f 3d d9 df 28 bd 20 e9 3f bd f4 96 6e bd
       0.03491649 -0.041229103 -0.046853185 -0.05824943
000080 70 f9 aa ba c3 54 b3 ba ca ab db bc d5 99 66 bd
       -0.0013044309 -0.0013681877 -0.026815314 -0.05629905
000090 0c 66 61 bd 41 24 f9 bc a3 dc 37 bd 69 4f 9d bc
       -0.05502896 -0.030412795 -0.04488815 -0.019202905
0000a0 3f f2 ad 3c 81 21 5e 3b 43 d5 f4 bc e2 1f 87 bb
       0.021233676 0.0033894482 -0.029886847 -0.004123674
0000b0 e7 e9 04 bd 6c 67 0a bd 1a d2 4b bd 1c 83 7a bd
       -0.03244963 -0.033790037 -0.049760915 -0.061160192
0000c0 48 18 f2 bc c1 77 62 bd 2e 3a f5 3a e4 26 aa 3c
       -0.029552594 -0.055289987 0.0018709355 0.020770498
0000d0 45 b5 13 3c ea 7b de bc f0 a2 8d bc 86 8e 5f 3c
       0.009015386 -0.027158696 -0.017289609 0.01364482
0000e0 44 41 36 bc f4 90 bb 3b b0 ce 3b bd 9c 70 5c bd
       -0.011123959 0.005724067 -0.04585141 -0.05381833
0000f0 57 94 67 3b c4 23 31 3d 02 e9 25 bd ee 9b 0e 3c
       0.003533622 0.043247 -0.040505417 0.008704169
000100 f5 27 02 3d d3 77 2b bd d9 83 d1 3c 24 c5 0b bc
       0.031776387 -0.04186232 0.025575565 -0.008530889
000110 0e 4b 02 3d 6b 26 f8 3c 60 0a 7f bd 9a de 9f bb
       0.03180986 0.030291757 -0.062265754 -0.004878831
000120 c1 14 30 bd e7 53 5f bd a7 b0 bd 3b f2 07 a2 3c
       -0.042988542 -0.054523375 0.005788881 0.01977918
000130 c2 8d fd 3b 80 a1 72 3d 46 0c 49 bd 84 af 85 3c
       0.007737846 0.05923605 -0.04908397 0.016319044
000140 15 92 f2 3c 0d 74 7d 3d f7 1e b7 bc f4 09 0d 3d
       0.029610673 0.061878253 -0.022353632 0.03443332
000150 3c f4 6b 3c e0 a6 86 bb 93 55 11 bc 8f f7 54 bd
       0.014401492 -0.0041092485 -0.0088705 -0.051993903
000160 ba fa ac bc b4 c0 1f 3d 68 f2 c5 3c 91 5d 50 bd
       -0.02111565 0.039002135 0.02416344 -0.050870482
000170 dc 3c 30 bc f3 6d 45 3d 93 e2 44 3d 5a 6c 62 3c
       -0.0107566975 0.04820056 0.04806764 0.013819778
000180 75 09 49 3c 86 1e 2a bd 9f de da bc 0e 82 7f bb
       0.012270321 -0.041533016 -0.026717482 -0.003898743
000190 9c 6d 41 3c 56 3e 1f ba 52 aa 1f bc 07 b7 8e bc
       0.011805918 -0.00060746574 -0.009745197 -0.017421259
0001a0 2a 7a 47 bd 77 db 19 3d a5 74 77 bc e4 0c dd 3c
       -0.04870049 0.037562814 -0.015103494 0.026983686
0001b0 b9 a4 67 bd fc 7c 21 3c df 34 3b bd b4 72 6b 3c
       -0.056553576 0.009856459 -0.04570472 0.014370609
0001c0 0c d6 44 ba 53 49 f6 bc e1 8f 73 bd 7f 10 1a bd
       -0.0007508702 -0.03006426 -0.059463385 -0.03761339
0001d0 bc b9 0e bd 24 31 fc 3c b4 69 7b bd e5 73 30 bd
       -0.0348451 0.03078515 -0.061380103 -0.043079276
0001e0 99 2e 4e 3d 2a 3b 1a 3d e1 ef eb 3c c1 37 ee bb
       0.050337408 0.03765408 0.028800907 -0.00726983
0001f0 5f f5 42 3d 12 bb b7 bc 11 fc f3 3c 6c c1 f3 3c
       0.047597285 -0.02242807 0.02978328 0.029755317
000200 ee 03 38 bd 54 88 10 bd 14 25 43 3b 3b 67 b2 bc
       -0.044925623 -0.035286263 0.002977674 -0.02177774
000210 fb 6c dd 3c 5a d1 df bb 57 10 3c 3d 7b 22 18 3c
       0.027029505 -0.0068303766 0.04591402 0.009285565
000220 6b 6a 31 bc 5d a6 85 bd 37 c9 59 3d 71 78 94 bd
       -0.010828595 -0.06525872 0.05317041 -0.07249535
000230 58 ff 19 bc 6f 5b 1b bd 67 67 16 bc 9c 6a 91 bb
       -0.009399258 -0.037928995 -0.0091799265 -0.0044377577
000240 f0 7f 23 3d 9d 47 36 3d 25 1e c5 3b 9c a6 38 bc
       0.039916933 0.04450189 0.0060155564 -0.0112701915
000250 bc 3c b6 bc 23 2c 9b 3c e4 41 1b 3c 62 2b 01 bd
       -0.022245757 0.018941944 0.009476159 -0.031535514
000260 d7 f3 c8 bc a4 05 ea bc 39 18 36 bd b2 b1 3d 3d
       -0.024530334 -0.028567143 -0.044456694 0.04631204
000270 72 66 bf 3c 77 47 ce 3c 04 fd c4 3c 71 f5 78 bd
       0.02336428 0.025180561 0.024046429 -0.060780946
000280 14 c1 38 bd 1b 16 ca 3c 5b ef 35 3c 79 8a 6c bd
       -0.04510601 0.024668744 0.01110443 -0.057749245
000290 e8 e2 ca bc 83 c4 87 bc 78 f9 fa ba 39 e5 c5 3c
       -0.0247664 -0.016573196 -0.0019147834 0.024157153
0002a0 0e 34 9a 3b 03 d4 a8 bc 00 25 6c bc 97 fa 07 3d
       0.0047059124 -0.020608908 -0.014413118 0.033197965
0002b0 ec b4 90 3c 88 b6 28 bd 0c 11 4c bc 9a 6d 95 3c
       0.017664395 -0.0411897 -0.012455236 0.018240739
0002c0 19 2c 6c 3c 9e ba a9 bc 96 c0 e1 3c 13 05 b0 3b
       0.014414811 -0.020718869 0.027557652 0.0053716986
0002d0 a2 e2 ac bc 36 6c 7e bd e7 9d 92 3c 47 79 35 bd
       -0.02110416 -0.062114917 0.01789756 -0.044305112
0002e0 bb 2a 0c 3d ab 2c 26 3c 16 13 35 bd b3 b2 d0 bc
       0.03422044 0.010142486 -0.044207655 -0.025475835
0002f0 3f 2f 17 3b 95 e4 4c 3c 51 6b b2 3c 1c d2 11 bd
       0.0023068932 0.01250567 0.021779688 -0.035600767
000300 fa b7 0f 3d 06 0b de bc 48 66 65 bc bd 40 0c bd
       0.035087563 -0.027104866 -0.0140014365 -0.034241427
000310 8e 03 86 bb 44 ae 40 3c eb d5 4f bd 99 ab 25 bd
       -0.004089779 0.011760298 -0.050741117 -0.04044685
000320 da c9 56 3d 9d 35 77 bd b0 90 a4 3c 9d 19 5f 3c
       0.052438594 -0.060353864 0.020088524 0.0136169465
000330 ed a7 fb bc 6f b6 26 3c db 60 19 bd ec e9 ab 3c
       -0.030719722 0.0101753315 -0.037445884 0.020985566
000340 bd c0 2d 3d 02 6c a7 bc 04 d9 c1 3b 59 49 18 bd
       0.042420138 -0.020437244 0.005915763 -0.037179325
000350 ef 91 05 3d ec d2 6f 3c 7e 45 12 3d 78 45 87 3d
       0.032609876 0.01463769 0.035710804 0.06605047
000360 89 89 4b 3c 2d c9 7c bc f2 0c cb 3c 7d 5a 6e 3c
       0.012422928 -0.015428823 0.024786446 0.014547941
000370 c4 6a 62 3d 22 e1 fd 3b 12 02 30 3c af 91 21 bd
       0.0552776 0.007747785 0.010742681 -0.039445575
000380 db 85 5a 3d ad 74 4b 3d 08 2a c7 bc af 8f 72 bd
       0.05335031 0.049671818 -0.024312034 -0.05921906
000390 95 7f 1a bc 08 59 93 bd e2 34 06 bd db a1 13 bd
       -0.009429832 -0.07194716 -0.032765277 -0.03604303
0003a0 d8 2e 2d bd 10 ce 42 3d 57 7b e6 3c 18 89 96 bc
       -0.042281 0.047559798 0.028134985 -0.018375918
0003b0 49 c3 48 3d 04 50 ea bc 59 11 a5 bc 91 1a 01 3d
       0.049014363 -0.028602608 -0.020149874 0.031519476
0003c0 d2 21 08 3d b0 8e cc 3c 0a 96 88 3c 5c 6a bc bb
       0.03323538 0.024970382 0.016673107 -0.0057499837
0003d0 2f 8d 5d 3c 9b 71 7c ba 9f 42 43 bd ec ac ab bc
       0.01352243 -0.00096299656 -0.047670957 -0.020956479
0003e0 78 9f 2e 3d af c8 41 bd 6a d2 4d 3d 3a 54 18 3c
       0.04263255 -0.047310527 0.050249495 0.009297425
0003f0 44 65 78 3c d7 6f 07 3c bd 88 33 3c 97 dc 2b 3d
       0.015160862 0.008266411 0.010957894 0.041958418
