imdb_train/train/pretrained_han/decoder_m.pth (torch, 135136 bytes, 4 tensors)

weight f4 [128, 128]
0	0x3dbe45f5	0.09290687
1	0x3bd5cf57	0.006524961
2	0xbcf2949f	-0.029611884
3	0x3a9104e6	0.0011064082
4	0x3d77eac9	0.060526643
5	0x3cb04919	0.02151923
6	0x37f9d7ee	2.9783663e-05
7	0xbd90d62c	-0.070721
8	0xbc83a2ac	-0.016068779
9	0x3b1e9906	0.0024200096
10	0x3a8e4839	0.0010855264
11	0x3c4bb288	0.012432702
12	0xbe1e4df0	-0.15459418
13	0xbcd3c952	-0.025852833
14	0xbd00d519	-0.031453226
15	0xbc183ae4	-0.009291384
16	0xbcf20abd	-0.029546136
17	0xbd8af84f	-0.06785642
18	0x3d627e17	0.05529603
19	0xbc406d5a	-0.011744821
20	0x3cfe263b	0.03102409
21	0x3dae7914	0.085191876
22	0xbd944fab	-0.07241758
23	0xba255480	-0.0006306842
24	0xbdec06e7	-0.11524754
25	0x3d455177	0.048173394
26	0xbdb3cafc	-0.087789506
27	0x3c823806	0.015895855
28	0x3bc61d09	0.0060459417
29	0x3c90ab7e	0.017659899
30	0x3cf1a2b4	0.029496528
31	0xb96f265e	-0.00022807109
32	0xbd0a2979	-0.033730958
33	0x3bc69aa4	0.006060915
34	0xbd3e8b1f	-0.046519395
35	0x3cfadb51	0.030622156
36	0x3d0b958a	0.03407816
37	0xbd1f76cf	-0.038931664
38	0x3dfad042	0.12246753
39	0x3c022344	0.007942978
40	0xbce02e35	-0.027365783
41	0x3afd9e9b	0.0019349636
42	0xbccf07f9	-0.025272356
43	0x3d524d12	0.05134303
44	0x3d9529bb	0.0728335
45	0xbc424904	-0.011858229
46	0x3b913fba	0.0044326456
47	0x3d072e86	0.033003353
48	0xbc88b403	-0.016687399
49	0xbd14c06c	-0.03631632
50	0x3c4c379c	0.01246443
51	0xb89382df	-7.033883e-05
52	0x3beedfc9	0.007289861
53	0x3c8577a9	0.01629241
54	0x3c8aab79	0.016927468
55	0xbdb21f52	-0.0869738
56	0x3c3b349e	0.011426119
57	0x3cdf24e5	0.027239272
58	0x3d6a9409	0.057270084
59	0x3b75449c	0.0037424928
60	0x3cfe1fa4	0.031020947
61	0xbbc724cb	-0.006077384
62	0x37ba7936	2.2229371e-05
63	0x3aa2e5e3	0.0012428131
64	0x3cb23746	0.021754872
65	0x3b620dad	0.0034493015
66	0x3beeda9e	0.007289245
67	0xbc6726c6	-0.014108365
68	0x34d2177b	3.9132632e-07
69	0x3e00f3d6	0.12593016
70	0x3b4c8e99	0.0031212925
71	0x3b8b13d4	0.004244307
72	0xbb38a7b2	-0.0028176126
73	0x3c659831	0.014013336
74	0x3cc55d70	0.024092406
75	0x3cea93fe	0.028635021
76	0x3d5748d3	0.052559685
77	0xbb89751d	-0.004194869
78	0x3d2c1882	0.04201556
79	0x3ced6a0d	0.028981233
80	0x3d9088ef	0.07057368
81	0xbbc34fac	-0.0059604254
82	0x3c5573b5	0.013028075
83	0x3c6bf246	0.014401024
84	0xbc9a83c1	-0.018861653
85	0x3d0adffd	0.033905018
86	0xbca0e09f	-0.019638358
87	0x3c09885c	0.008394327
88	0x3c691e3a	0.014228398
89	0x3dd26257	0.10272663
90	0xbbabd76e	-0.005244187
91	0xbcea21ab	-0.028580507
92	0xbd29a170	-0.041413724
93	0xbd05efad	-0.032699276
94	0xb8b71854	-8.7306515e-05
95	0x3ba73513	0.0051027625
96	0x3b440403	0.0029909618
97	0xbd5a624f	-0.05331641
98	0xbd5bd0bc	-0.05366586
99	0x3d891d5b	0.06695052
100	0x3d0e1a66	0.034693144
101	0x3c92578b	0.01786401
102	0x3b3ac8f0	0.0028501116
103	0xb3095868	-3.1978203e-08
104	0x3d304414	0.043033674
105	0xbd843b8f	-0.064566724
106	0x3bbda1b2	0.005787098
107	0x3bb2b001	0.00545311
108	0x3ddd9435	0.10819284
109	0x3cc14ca6	0.02359612
110	0x3d083fad	0.03326385
111	0x3cd77a7e	0.026303526
112	0x3c35ce1c	0.011096504
113	0xbd5b6032	-0.053558536
114	0x3dafc171	0.08581818
115	0x3d0e3349	0.034716878
116	0xbb968993	-0.004594037
117	0x3d7ad9b3	0.06124277
118	0xbd6653a8	-0.056232125
119	0x3c84b56a	0.016199786
120	0xb3aa5e7f	-7.9334306e-08
121	0x3dbc26b3	0.09187069
122	0x3cdd9167	0.027046872
123	0x3d6cec9b	0.057842832
124	0x3c9de96b	0.019276341
125	0x3cf7bc2a	0.03024109
126	0xbc0cefbf	-0.008602082
127	0x3c4b719d	0.012417224
128	0xbd26d206	-0.040727638
129	0x3d4feaad	0.050760914
130	0x3d7cdd43	0.06173445
131	0x3caf6af5	0.021413306
132	0xbc66a55f	-0.0140775135
133	0x3dd7316f	0.105074756
134	0xbcd1fd7d	-0.025633568
135	0x3d051747	0.032492902
136	0x3d342617	0.043981638
137	0xbcd05026	-0.025428843
138	0xbcf87f89	-0.030334251
139	0xbd785c8a	-0.060635127
140	0x3cf7f3c0	0.030267596
141	0xbbdf08e5	-0.00680648
142	0xbdb89936	-0.09013598
143	0xbd9f5a8a	-0.07780941
144	0x3c8efc6f	0.017454354
145	0xbd8d93bb	-0.06912943
146	0xbd5e0401	-0.054203037
147	0xbdb20954	-0.086931854
148	0x3c153219	0.0091061825
149	0x3dba5c6e	0.09099661
150	0xbd3dec3b	-0.046367865
151	0x3d369b9b	0.04458199
152	0xbda34068	-0.07971269
153	0x3cbf9729	0.023387508
154	0xbd4c7a51	-0.049921338
155	0x3d91240c	0.070869535
156	0x3d3b0b04	0.045664802
157	0x3c751247	0.014957971
158	0xbd108a6a	-0.035288252
159	0x3d2d5494	0.042316988
160	0xbba95240	-0.0051672757
161	0x3d80e21c	0.06293127
162	0x3df06840	0.11738634
163	0x3b9e6e50	0.0048349276
164	0x3bef5a9b	0.007304502
165	0x39d54e1a	0.00040684716
166	0x3ce8614c	0.028366707
167	0xbdab8480	-0.08374882
168	0x3d0f9c19	0.035060976
169	0x3d48579e	0.048911683
170	0xb578dcb1	-9.270835e-07
171	0x3d2f6c8e	0.042828135
172	0xbcf05dc6	-0.02934159
173	0xbd8ca2c5	-0.06866983
174	0x3da211c1	0.079135425
175	0xbd473cfb	-0.04864214
176	0xbb495be5	-0.003072494
177	0x3d3ca266	0.046053313
178	0x3c104885	0.0088063525
179	0x3cc9ae8d	0.024619365
180	0x3d2bd19d	0.04194795
181	0x3d15fa10	0.03661543
182	0x3cef26e1	0.029193344
183	0x3ce9b507	0.028528703
184	0x3d5302a9	0.05151621
185	0x3cc7f894	0.024410523
186	0x3c59d6f5	0.013295879
187	0xbd036ae3	-0.032084357
188	0xbc445fc1	-0.01198572
189	0xbd39a042	-0.04531885
190	0x3da4f08e	0.08053695
191	0xbad4b4e6	-0.0016228228
192	0x3d982709	0.0742932
193	0xbc7bf7f1	-0.015378938
194	0xbc7b49a2	-0.01533738
195	0x3d1ead3d	0.03873943
196	0x3cfb4552	0.030672703
197	0x3c701207	0.014652736
198	0x3ab48bde	0.0013774594
199	0x3d150431	0.03638095
200	0xbc9b944a	-0.018991608
201	0x3790fcf4	1.7283928e-05
202	0xbbe28ece	-0.0069139963
203	0xbd891103	-0.06692698
204	0x3d17048d	0.036869574
205	0x3cb34e86	0.021888029
206	0xbc95de7c	-0.018294565
207	0x3d964a1a	0.073383525
208	0x3cd2dcc4	0.025740035
209	0xbc1de80d	-0.009637845
210	0x3d7ca881	0.061684135
211	0xbcfac792	-0.03061274
212	0x3b0ba6ed	0.0021309212
213	0xbc3d6f5b	-0.011562194
214	0x3d22d15b	0.03975044
215	0x3dd543e6	0.10413341
216	0xbd47b781	-0.048758987
217	0x3d73de50	0.059538186
218	0x3a366320	0.000695752
219	0xbd5520ea	-0.052033342
220	0xbd8c9d47	-0.06865936
221	0xbcb3320b	-0.021874448
222	0xbd26916f	-0.04066604
223	0xbcbebc19	-0.023283051
224	0xbce61bfc	-0.028089516
225	0xbd373c09	-0.04473499
226	0xbcfbc316	-0.030732673
227	0x3d605ca6	0.054775856
228	0xbc4ddb13	-0.012564438
229	0x3c6deba4	0.014521513
230	0x3ccf3656	0.025294464
231	0xbce9cd61	-0.028540315
232	0xbaeb5a20	-0.0017955936
233	0xbd787503	-0.060658466
234	0x3c013885	0.00788701
235	0xbce404bd	-0.02783429
236	0x3d0d9719	0.034567926
237	0xbc04988f	-0.008093013
238	0x3c144022	0.009048494
239	0x3c98d172	0.018654559
240	0xbcc15734	-0.023601152
241	0xbd58c4d1	-0.052922074
242	0x3d9a7b2e	0.07543026
243	0xbd42843d	-0.047489394
244	0xbdc87e08	-0.097896636
245	0x3da1b71f	0.07896256
246	0xbc97358f	-0.018458156
247	0xbd061972	-0.03273911
248	0x3c99370e	0.01870301
249	0x3d6b3d9f	0.057431813
250	0xbc71d10f	-0.014759316
251	0x3d980877	0.074234895
252	0xbd4f5f4f	-0.050628003
253	0x3be621ec	0.007023087
254	0xbcf26bf8	-0.0295925
255	0xbda7bbce	-0.08190118

bias f4 [128]
0	0x3d2cc8dc	0.042183742
1	0xbd95dc16	-0.07317369
2	0xbdda877a	-0.10670371
3	0x3d245c59	0.040127132
4	0xbd1c43fb	-0.03815077
5	0x38fd4e1a	0.00012078528
6	0xbbbcd4c5	-0.005762669
7	0x3db35f40	0.08758402
8	0xbd6834e7	-0.056691077
9	0x3dd50624	0.10401562
10	0x3cd5bc00	0.026090622
11	0x3db96551	0.09052528
12	0xbd070012	-0.03295905
13	0x3bc03d35	0.0058666714
14	0xbd956870	-0.072953105
15	0x3d1351a0	0.035966516
16	0xbc577d0d	-0.013152373
17	0xbbade39f	-0.0053066756
18	0x3d0c3801	0.034233097
19	0xbd0ecb43	-0.034861814
20	0x3d88d767	0.0668171
21	0x3da21c71	0.07915581
22	0x3d600a48	0.054697305
23	0xbc714dab	-0.01472799
24	0xbdad6be0	-0.08467841
25	0x3b46e242	0.0030347263
26	0x3d45f9d7	0.04833397
27	0xbcb17313	-0.021661317
28	0xbcc09db6	-0.023512702
29	0xbb9cbfc6	-0.0047836034
30	0x3c796b18	0.015223287
31	0x3d746a46	0.059671663
32	0x3d94d2dd	0.072667815
33	0xbc94bb14	-0.018155612
34	0x3c10b91c	0.008833196
35	0xbb393768	-0.0028261784
36	0xbcfa3e6d	-0.030547345
37	0x3dd88fde	0.105743155
38	0xbd4534e4	-0.048146144
39	0x3db7643a	0.089546636
40	0x3d823a7c	0.06358811
41	0xbd21692c	-0.03940694
42	0x3d1251a0	0.035722375
43	0x3d499743	0.04921652
44	0xbc8e8524	-0.01739747
45	0xbdb1d920	-0.086839914
46	0x3d8b7c6a	0.068108395
47	0xbd3451c5	-0.044023294
48	0xbdaf3b67	-0.08556252
49	0x3d6a74f3	0.057240438
50	0x3a65f7f1	0.0008772603
51	0xbc733fba	-0.014846737
52	0xbddacaa6	-0.10683183
53	0x3c3ece23	0.0116458265
54	0xbd29db75	-0.041469056
55	0x3db67b45	0.089102305
56	0xbd393494	-0.045216158
57	0x3d2431ea	0.040086664
58	0xbd546a0f	-0.051858958
59	0xbc7e7888	-0.015531667
60	0xbcc47dcf	-0.023985771
61	0x3c43f2a4	0.0119597055
62	0x3dd92215	0.10602204
63	0x3b269546	0.0025418564
64	0x3db06c5c	0.08614418
65	0xbd0c1701	-0.034201626
66	0xba8d6fa2	-0.0010790715
67	0xbdca24cb	-0.09870299
68	0x3d19af36	0.03752061
69	0xbc188e3d	-0.009311256
70	0x3db90a58	0.09035176
71	0x3cc7ec20	0.024404585
72	0xbceb6179	-0.028733002
73	0x3c8394d4	0.016062178
74	0xbc26ffe3	-0.010192844
75	0xbd138613	-0.036016535
76	0x3b333765	0.002734625
77	0xbba6aa04	-0.0050861854
78	0x3bb19078	0.0054188333
79	0xbd049291	-0.03236634
80	0x3d8fcce8	0.07021505
81	0xbdc97048	-0.09835869
82	0x3d7b8862	0.06140936
83	0xbd76bd19	-0.06023893
84	0x3cd1f322	0.02562863
85	0xbda676b0	-0.081281066
86	0x3c9a29c9	0.018818753
87	0xbd88ff38	-0.06689304
88	0xbd841e55	-0.06451098
89	0x3d037883	0.03209735
90	0x3d1a5ba6	0.03768506
91	0xbb9cbcdd	-0.0047832564
92	0xbd8e4b1a	-0.06947918
93	0xbc14aec8	-0.009074874
94	0xbd9325cc	-0.071849436
95	0x3cd90226	0.026490282
96	0x3d8364e5	0.064157285
97	0xbccd1a0f	-0.02503684
98	0x3c58bf27	0.013229168
99	0x3da927cb	0.08259543
100	0x3da1ed89	0.07906634
101	0x3b4f3e16	0.00316227
102	0xbd823765	-0.06358222
103	0xbd1e0081	-0.0385747
104	0xbbd42b67	-0.0064749005
105	0xbd8e76af	-0.06956231
106	0x3dc2bd3c	0.0950875
107	0x3da2ff92	0.079589024
108	0xbc68a2e3	-0.0141989915
109	0xbc08277b	-0.008310194
110	0x399efe70	0.0003032568
111	0xbd84fb51	-0.06493247
112	0x3d00626f	0.031343874
113	0x3d4b91d2	0.049699612
114	0xbbb20e30	-0.00543382
115	0x3dad56b6	0.084638044
116	0xbc4d323e	-0.012524186
117	0x3ccad3d6	0.024759214
118	0xbcf166a2	-0.029467884
119	0x3c5108bb	0.012758429
120	0x3d86240a	0.06549843
121	0x3c362aa2	0.011118563
122	0x3ddbcd8e	0.10732566
123	0x3d55d078	0.052200764
124	0x3ba6c1d8	0.005089026
125	0x3db2a7cf	0.08723413
126	0xbdaba75f	-0.08381533
127	0xbda55a60	-0.08073878

weight f4 [128, 128]
0	0x3d49375c	0.04912506
1	0xbba2298c	-0.0049488004
2	0x3bd7f0b3	0.006589973
3	0xbc85efb8	-0.016349658
4	0x3b0a94cf	0.0021145826
5	0x3c364e69	0.011127093
6	0xbbb9d6be	-0.005671351
7	0xbd678bfa	-0.056529976
8	0xbc711f18	-0.014716886
9	0x3d370bf3	0.04468913
10	0xbcb48894	-0.022037782
11	0x3d208949	0.039193425
12	0x3cc2bf31	0.023772808
13	0xbcaa687d	-0.020801777
14	0xbc16d653	-0.009206372
15	0x3c0a63d3	0.0084466515
16	0x3c219ec0	0.009864509
17	0xbd475e92	-0.048674174
18	0x3b01abe4	0.0019786293
19	0xbd0e63b0	-0.03476304
20	0xbc36fc39	-0.011168533
21	0xbc627f0a	-0.013824234
22	0xbc00cc85	-0.007861261
23	0xbe1cd05e	-0.15313861
24	0xbd548670	-0.051886022
25	0x3cae1489	0.021250026
26	0xbc434719	-0.0119188065
27	0x3a730c2f	0.000927153
28	0x3d34bb8d	0.044124175
29	0x3bc661ae	0.006054125
30	0xbbefb327	-0.007315058
31	0x3d88fa16	0.06688325
32	0xbc801805	-0.015636453
33	0xbca5b1fd	-0.020226473
34	0xbc0d3d22	-0.008620532
35	0xbcd52d4a	-0.026022572
36	0xbcdd7612	-0.02703384
37	0xbc9f9697	-0.019480987
38	0xbcd4aff4	-0.025962807
39	0x3cb8991a	0.022533942
40	0x3cfc1d21	0.030775608
41	0xbd28466b	-0.04108278
42	0x3d885350	0.066565156
43	0x3d70df92	0.058806963
44	0xbbee1e1e	-0.007266774
45	0xbce04106	-0.027374756
46	0xbc7db160	-0.015484184
47	0xbd85a17b	-0.065249406
48	0x3d56aef3	0.05241294
49	0xbca20337	-0.019776924
50	0x3d1f77cf	0.038932618
51	0x3dc1761b	0.09446355
52	0xbcbbc977	-0.022923214
53	0xbc2f5e12	-0.01070358
54	0x3c92a1e2	0.017899457
55	0x3cf4f65a	0.029902626
56	0xbd86a777	-0.0657491
57	0x3d1a96d1	0.037741486
58	0x3bd64165	0.0065385574
59	0xbd1205f2	-0.0356502
60	0xbd173fc0	-0.03692603
61	0xbbe74c2c	-0.007058641
62	0x3b8c40ba	0.004280177
63	0xbcf8ff8b	-0.03039529
64	0xbd43ec1b	-0.04783259
65	0x3d323314	0.043505743
66	0x3c0d26c7	0.008615202
67	0xbd2f4b0a	-0.042796172
68	0xbbc4c625	-0.006005066
69	0x3daf1bd6	0.08550231
70	0xbba2198e	-0.004946894
71	0xbcba8706	-0.022769462
72	0xbb87828b	-0.004135435
73	0xbac39608	-0.0014922032
74	0x3d0f16ca	0.034933843
75	0xbc926e45	-0.017874846
76	0xbcb248ea	-0.021763284
77	0x3c77137c	0.015080329
78	0xbd32de43	-0.043668997
79	0xbc2e0eb3	-0.010623622
80	0x3cd850f5	0.02640579
81	0xbd7af3b5	-0.061267573
82	0xbb8d184b	-0.0043058745
83	0xbc96e112	-0.018417869
84	0xbbfbd06e	-0.007684759
85	0x3c4c259c	0.012460139
86	0xbc45c0e2	-0.012069913
87	0x3d2c5ae3	0.042078864
88	0xbd46cac6	-0.048533224
89	0x3d4cfcbe	0.05004572
90	0xbcf0bec3	-0.029387837
91	0xbd99caf1	-0.07509411
92	0x3d2ab0f1	0.04167265
93	0x3d06fc19	0.032955263
94	0xbd32aa45	-0.043619413
95	0xbd305f7a	-0.043059804
96	0xbc304f8f	-0.010761156
97	0xbd185e3e	-0.03719925
98	0xbd1c0e4c	-0.038099572
99	0x3d4a0240	0.049318552
100	0xbcb423e5	-0.021989772
101	0xbbcdb4bd	-0.006277649
102	0xbccaeea0	-0.024771988
103	0x3c1098c4	0.008825485
104	0x3cd6aa50	0.026204258
105	0xbd5db3a0	-0.054126382
106	0xbde24cb1	-0.11049784
107	0x3b0c331f	0.0021392775
108	0x3c934045	0.017974982
109	0xbd620834	-0.055183604
110	0x3c82e709	0.015979307
111	0xbaf69cd6	-0.0018815051
112	0xb7953798	-1.7788072e-05
113	0xbb0d90ce	-0.0021601203
114	0x3d3bd57f	0.045857903
115	0x3d248f64	0.04017581
116	0xbcd38b22	-0.02582318
117	0xbba94a55	-0.005166332
118	0xbd369acc	-0.04458122
119	0x3c2037a9	0.009778895
120	0xbbaf20b3	-0.005344474
121	0x3ba71896	0.0050993664
122	0x3bb5d858	0.005549472
123	0xbd158827	-0.036506798
124	0xbc838484	-0.0160544
125	0xbd26f829	-0.040764008
126	0xbcbb4593	-0.022860324
127	0x3d5037f6	0.05083462
128	0xbd00da34	-0.031458095
129	0x3db27283	0.087132476
130	0x384b7028	4.8503425e-05
131	0x3c288b79	0.010287159
132	0x3d6fc043	0.058532964
133	0x3d40cbd4	0.047069386
134	0xbd50dd7f	-0.050992485
135	0x3bf80dda	0.0075700106
136	0x3b1d198e	0.002397153
137	0xbd4d80fa	-0.05017183
138	0xbca63ce1	-0.020292701
139	0x3d86c80c	0.06581125
140	0x3c33caf3	0.01097368
141	0x3c778e41	0.0151096
142	0xbd741774	-0.05959268
143	0xbc9535cf	-0.018214134
144	0xbd08a452	-0.033359833
145	0xbd4634ec	-0.048390314
146	0x3d956b06	0.07295804
147	0xba62a050	-0.0008645104
148	0x3d34d131	0.044144813
149	0x3d3ee938	0.046609133
150	0x3dbeb604	0.093120605
151	0xba59de3c	-0.00083110086
152	0xbdb9ee4f	-0.09078657
153	0xbc9bc78f	-0.019016055
154	0xbd3321e0	-0.043733478
155	0xbd1c2823	-0.038124215
156	0x32025c34	7.5879605e-09
157	0x3d9214a3	0.071328424
158	0xbbd46b16	-0.006482492
159	0x3cf82800	0.030292511
160	0xbd1f8f48	-0.038955003
161	0x3c8636a8	0.016383484
162	0x3dc193f0	0.09452045
163	0xbd8a5189	-0.06753833
164	0x3d58df01	0.052947048
165	0xbc0ca7ae	-0.0085849
166	0xbd941f9b	-0.07232591
167	0x3d2412a3	0.040056836
168	0x3db62855	0.088944115
169	0xbd5faefc	-0.054610237
170	0xbd07463a	-0.033025958
171	0xbcd11300	-0.025521755
172	0x3d0110a2	0.031510003
173	0xbc9d2adb	-0.019185474
174	0xbc887cb5	-0.016661027
175	0xb8b73190	-8.735352e-05
176	0x3d88bdef	0.06676852
177	0x3a7d4cac	0.0009662609
178	0x3d1324a0	0.0359236
179	0xb497a107	-2.8243105e-07
180	0x3d0e43ee	0.03473275
181	0xbd27eb67	-0.04099598
182	0x3d252ca6	0.040325783
183	0x3d1caa46	0.038248323
184	0x3d181cdc	0.037136897
185	0x3c932d92	0.017966066
186	0x3d82b43b	0.063820325
187	0x3cccceed	0.025001014
188	0x3da1033f	0.07861947
189	0xbc0ed48b	-0.008717666
190	0x374e8e14	1.2311637e-05
191	0xbd02145b	-0.031757694
192	0x3da1d3e5	0.07901744
193	0x3d5019cb	0.050805848
194	0x3c100ca0	0.008792073
195	0xbb09c0a6	-0.0021019368
196	0x3c25cc64	0.010119531
197	0xbc837f51	-0.01605192
198	0x3bdd3478	0.0067506395
199	0x3d70d70d	0.05879884
200	0xbd08bf50	-0.033385575
201	0x39c4418d	0.00037432872
202	0x3d8bef48	0.06832749
203	0x3d9d3138	0.07675403
204	0xbd3e85dc	-0.046514377
205	0x3cb0f681	0.021601917
206	0xbd693361	-0.056933764
207	0xbcd0823c	-0.025452726
208	0xbb581682	-0.00329724
209	0xbdaefdee	-0.08544527
210	0x3de91e62	0.11382748
211	0xbd44d79c	-0.048057184
212	0x3dab68ce	0.08369599
213	0x3c5527a0	0.013009936
214	0xbb9e88a8	-0.004838068
215	0x3c5ffa12	0.013670461
216	0xbd82e47e	-0.06391238
217	0x3941d169	0.00018483926
218	0xbcc5be4f	-0.024138598
219	0xbc989cd8	-0.018629476
220	0xbcfe517f	-0.03104472
221	0xbc8780e7	-0.016540958
222	0xba753d6b	-0.00093551603
223	0xbd8cc157	-0.06872814
224	0xbdd38335	-0.1032776
225	0xbd211051	-0.0393222
226	0xbb1556a8	-0.0022787247
227	0x3d15dac2	0.036585577
228	0xbc2735a4	-0.01020566
229	0x3ad6158a	0.0016333323
230	0xbd1742d9	-0.036928985
231	0x3d055608	0.03255275
232	0x3dd398f2	0.103319064
233	0xbddd8692	-0.10816683
234	0xbd75d4e5	-0.060017485
235	0x3c92bb56	0.017911594
236	0xbbda8dbf	-0.0066697295
237	0xbc3132ba	-0.010815317
238	0xbd25fb63	-0.040522944
239	0x3cdef9d6	0.02721874
240	0xbd4f85f1	-0.050664846
241	0x3a9fdc69	0.0012196425
242	0x3c03dccf	0.00804825
243	0xbd056509	-0.032567058
244	0xbc4b82f9	-0.012421363
245	0xbdbb0b60	-0.09133029
246	0xbd811b41	-0.063040264
247	0xbd294dab	-0.041333836
248	0x3d341e76	0.043974362
249	0x3d26c97d	0.040719498
250	0x3d2b1bcd	0.04177456
251	0x3dc9d681	0.098553665
252	0xbc4133c1	-0.011792124
253	0xbbd3e5c3	-0.0064665987
254	0xbcc5921c	-0.024117522
255	0xbd47d8b5	-0.048790652

bias f4 [128]
0	0xbd7db6b4	-0.061941817
1	0x3d9507e2	0.07276894
2	0x3db2a948	0.08723694
3	0x3d97dbae	0.074149475
4	0x3d5613f5	0.052265126
5	0x3d33e43e	0.04391884
6	0xbd9a7054	-0.07540956
7	0x3cfb6ec5	0.030692467
8	0xbce8f002	-0.028434757
9	0xbbfda56a	-0.007740666
10	0x3d8ac99a	0.06776734
11	0xbdc44bdc	-0.095847815
12	0x3ceb5439	0.028726684
13	0x3c2661a4	0.010155115
14	0x3d1764ed	0.036961485
15	0x3b1b47fc	0.002369403
16	0x3d5192b3	0.051165294
17	0xbdd3fa9d	-0.10350535
18	0xbd8b8444	-0.06812337
19	0xbd6493ae	-0.0558049
20	0x3d8916e2	0.06693818
21	0x3b99fe8f	0.004699535
22	0xbc1adb1d	-0.009451655
23	0xbdb56067	-0.08856278
24	0x3b28154f	0.0025647467
25	0x3db1fcc9	0.08690793
26	0x3d47a620	0.048742414
27	0x3cab6e23	0.02092654
28	0x3d85c385	0.06531433
29	0x3c80f40e	0.015741374
30	0xbd7d0f33	-0.061782073
31	0xbdda0f91	-0.106475
32	0xbdcd804b	-0.100342356
33	0x3d70f4bd	0.05882715
34	0x3b869b1c	0.004107846
35	0xbcd17d47	-0.025572432
36	0x3d0b789f	0.03405058
37	0xbd60a1b3	-0.05484171
38	0xbc6e86a6	-0.01455847
39	0xbdd3a730	-0.10334623
40	0xbc4785fa	-0.012177939
41	0xbd5b7cd6	-0.05358585
42	0x3d0c35ab	0.03423087
43	0xbd909f3b	-0.07061621
44	0x3ca2fb97	0.019895358
45	0x3d43d8ad	0.04781406
46	0x3c57c7bf	0.013170182
47	0xb9af8fd8	-0.00033485773
48	0x3d30851a	0.043095686
49	0x3d95fca2	0.073235765
50	0x3d42ee6a	0.04759065
51	0x3d504880	0.05085039
52	0x3cadb343	0.021203643
53	0x3c3b8d1e	0.011447219
54	0xbcfd738f	-0.030938892
55	0xbba07ceb	-0.004897704
56	0x3da4e7ea	0.080520466
57	0xbdb3aecc	-0.08773574
58	0x3d35804e	0.044311814
59	0xbbe0aab2	-0.006856286
60	0xbcdb924f	-0.026803164
61	0xbdc8c944	-0.09804013
62	0xbd3015eb	-0.042989653
63	0x3ca87aee	0.02056643
64	0x3ced208e	0.028946187
65	0x3a0d0f5b	0.0005381011
66	0x3d19af98	0.037520975
67	0x3d8018e4	0.062547475
68	0xbca4817a	-0.02008127
69	0x3c1d6caa	0.009608427
70	0x3da2f554	0.07956949
71	0x3d6b8090	0.057495654
72	0xbddaeda8	-0.106898606
73	0x3d37f963	0.044915568
74	0xbd4fa27f	-0.050692078
75	0xbd70e98f	-0.05881649
76	0xbdcf03cc	-0.10108146
77	0xbd84a3be	-0.06476544
78	0x3d9adc9e	0.07561611
79	0x3a3b84e7	0.0007153288
80	0x3cd3688c	0.025806688
81	0x3cf97fc2	0.030456427
82	0xbc952876	-0.01820777
83	0x3dc5bb39	0.096548505
84	0x3c002400	0.007821083
85	0xbd194f22	-0.037428983
86	0xbd0143ec	-0.031558916
87	0x3d8eaa36	0.06966059
88	0x3cc1ad45	0.023642192
89	0xbca1a0d2	-0.019730005
90	0xbd9f6519	-0.07782955
91	0xbd67c33a	-0.056582667
92	0xbd160c66	-0.036632918
93	0x3d8b12e0	0.067907095
94	0x3d66613c	0.056245074
95	0xbd43e427	-0.047825005
96	0x3d0b1cfe	0.033963196
97	0xbce5f97a	-0.028073061
98	0xbdb2813f	-0.08716058
99	0xbcba7dda	-0.022765089
100	0xbd9c9edb	-0.07647487
101	0x3d8a4fea	0.06753524
102	0x3d7c398a	0.06157831
103	0x3cb0a1d2	0.021561537
104	0xbd086d02	-0.033307083
105	0x3db74b5e	0.08949922
106	0xbcbe6412	-0.023241077
107	0xbdc73f96	-0.09728925
108	0x3d11fe7f	0.035643097
109	0x3dbf528d	0.09341917
110	0xbce40610	-0.027834922
111	0xbd47786e	-0.048698835
112	0xbd83ce69	-0.06435854
113	0xbd99db43	-0.07512524
114	0x3de6a38e	0.11261664
115	0xbd9bae0b	-0.076015554
116	0x3dbf184a	0.09330805
117	0x3d19cae1	0.037546996
118	0x3d6bbcdc	0.057553157
119	0x3d8e315a	0.06943007
120	0x3d54cf81	0.051955704
121	0xbc9eb4eb	-0.019373378
122	0xbd705893	-0.05867822
123	0xbdb5ea6d	-0.08882604
124	0xbc0a01c4	-0.0084232725
125	0xbb8733bd	-0.0041260407
126	0x3d06aa97	0.03287753
127	0x3da90526	0.08252935
