imdb_train/train/pretrained_han/decoder_d.pth (torch, 135136 bytes, 4 tensors)

weight f4 [128, 128]
-0.019884398 0.033025704 4.7142526e-06 -0.003855163 -0.0056376983 0.015522885 0.07439455 0.058797643
0.031290714 -0.0030327383 -2.3639698e-06 -0.09189284 0.040930238 0.05193043 -0.07194298 0.006922955
0.034209598 -0.054142427 0.024470398 -0.048737694 0.041175094 -0.0037511084 0.024149079 0.027145103
-0.0729558 0.045469623 -0.08607626 0.0089006955 -0.06649601 0.009977929 -0.03600687 0.017491855
-0.042298783 0.05169377 -0.05153037 0.025091132 -0.0784218 0.035668444 0.027548749 -0.0002683422
0.0011444258 -0.035600275 -0.020328075 0.019131761 -0.049881034 -0.0016855232 -0.0028402065 -0.0072646504
-0.041379154 0.036175344 -0.06913631 -0.048242807 -0.043294687 -0.009430053 -0.024986928 -0.008152497
0.0035084884 -0.017419463 -0.011257895 0.12128087 -0.104936354 -0.06182368 0.019607326 -7.32469e-09
0.0626 0.008226015 0.008939953 0.0057941303 0.002265605 -0.037241552 0.026387583 0.042963445
-0.04744096 0.036966316 0.0152913965 -0.059533328 -0.049517654 0.05316596 0.01522956 -0.052194197
0.018519051 0.08153706 0.09222888 -0.046186145 -0.07775434 0.030100476 -0.014524501 0.0130352685
-0.016309764 5.5260767e-05 -0.024255328 -0.017742775 -0.0513462 0.06813865 0.02180086 -0.08588518
0.033953995 -0.04814602 0.07146199 0.050579976 0.09839769 0.009507474 -0.015540521 0.008277152
0.0060783485 -0.059915498 -1.3859234e-05 -0.010798612 0.008218266 -0.02999959 -0.028768018 0.056135636
-0.0003068753 0.02737308 0.024965918 -0.024503727 -0.03073449 0.002123686 -0.020283472 0.00034362564
-0.01933638 0.018017529 0.008371369 0.026194304 0.00700968 0.027276987 0.008680757 0.02082742
-0.053092267 0.044365622 -0.057549886 -0.04006938 -0.012808584 0.021876069 -0.029203529 0.02075072
-0.0044517764 -0.084713 3.802649e-08 -0.067248106 0.012591425 0.03124465 -0.016318964 0.060549594
0.024022024 -0.045393668 -0.038602054 -0.02932602 -0.04103045 0.028449139 0.012077201 0.03615798
-0.02314509 -0.0002759368 -0.034209043 -0.01051968 -0.062675335 -0.021527216 -0.0230818 0.017988067
0.018736573 0.039151654 0.010314417 0.024009312 0.059628714 -0.005019112 -0.04029134 -0.0009736706
-0.022492789 -0.091454215 0.0094927475 -0.0052492614 -0.014279345 -0.0027488985 0.036097016 -9.5212845e-06
0.038859095 -0.0339373 -0.023157883 0.032650955 -0.10092855 0.026845913 0.060291093 -0.02710048
-0.046192527 -0.042036034 0.056105223 0.08464204 -0.025192685 0.09009064 -0.032779913 -0.028825533
0.06600805 -0.02557657 -0.012788445 0.018086042 -0.051986303 -0.002320563 -0.033767767 -0.026736433
0.042938184 0.0030796921 0.02629997 -0.0796357 -0.044763554 -4.062965e-08 -0.06837357 -0.09045156
-0.06611844 0.04679802 -0.003204877 -0.06983687 0.044068053 0.020664282 -0.010001014 0.028290702
-0.016353156 -0.055169147 -0.05360423 -0.058364116 -0.0413106 0.019942785 0.01349646 0.0043893135
-0.009555839 0.011314099 -0.04556927 0.04586411 0.018468888 0.007157907 0.005086121 -0.06370361
-0.005587216 -0.049353328 0.0018201185 0.036480516 0.038855236 0.086156055 -0.040688705 0.032882255
-0.0039067073 0.06417193 0.03673747 -0.010283259 -0.017952515 0.040108904 -0.08542367 -0.046278566
-8.62637e-08 0.016205315 -0.040344518 0.02261794 -0.029914612 0.06899118 -0.0034637384 -0.013436535
00000000: 9be4 a2bc f645 073d 1f2f 9e36 e7a6 7cbb
00000010: 71bc b8bb b353 7e3c 2b5c 983d ccd5 703d
00000020: b12a 003d e8c0 46bb b1a4 1eb6 5032 bcbd
00000030: 77a6 273d 01b5 543d d756 93bd f5d9 e23b
00000040: 5d1f 0c3d 73c4 5dbd 2576 c83c 2da1 47bd
00000050: 37a7 283d 28d5 75bb 4ad4 c53c 685f de3c
00000060: da69 95bd 5b3e 3a3d c048 b0bd 39d4 113c
00000070: 0f2f 88bd 787a 233c f17b 13bd 144b 8f3c
00000080: 7d41 2dbd d9bc 533d 8211 53bd eb8b cd3c
00000090: 9c9b a0bd 1319 123d eaad e13c 48b0 8cb9
000000a0: 8f00 963a 98d1 11bd 1087 a6bc 36ba 9c3c
000000b0: 0e50 4cbd c6ec dcba c222 3abb 4e0c eebb
000000c0: 307d 29bd 992c 143d 5697 8dbd 409a 45bd
000000d0: c555 31bd 8280 1abc 63b1 ccbc 0d92 05bc
000000e0: abee 653b 43b3 8ebc 0973 38bc 1b62 f83d
000000f0: dfe8 d6bd d43a 7dbd 8b9f a03c a8ac fbb1
00000100: 6e34 803d 68c6 063c e178 123c b0dc bd3b
00000110: 8b7a 143b 998a 18bd c62a d83c 70fa 2f3d
00000120: 7451 42bd fe69 173d c488 7a3c 38d9 73bd
00000130: 06d3 4abd 8dc4 593d 6885 793c 95c9 55bd
00000140: 44b5 973c e7fc a63d 7fe2 bc3d af2d 3dbd
00000150: ab3d 9fbd 4695 f63c 2cf8 6dbc e191 553c
00000160: 0e9c 85bc ccc7 6738 1cb3 c6bc 4c59 91bc
00000170: 6550 52bd 478c 8b3d b897 b23c 92e4 afbd
00000180: 5813 0b3d c334 45bd aa5a 923d f32c 4f3d
00000190: ba84 c93d 3cc5 1b3c ab9d 7ebc e49c 073c
000001a0: e22c c73b f469 75bd f584 68b7 a9ec 30bc
000001b0: e8a5 063c b3c1 f5bc e8aa ebbc 7bee 653d
000001c0: 1be4 a0b9 823d e03c 5385 cc3c 0abc c8bc
000001d0: e6c6 fbbc 8a2d 0b3b 8629 a6bc a728 b439
000001e0: 5467 9ebc 7f99 933c 1128 093c 7095 d63c
000001f0: 75b1 e53b fd73 df3c bc39 0e3c 449e aa3c
00000200: 4777 59bd bab8 353d 6eb9 6bbd ca1f 24bd
00000210: 18db 51bc 7135 b33c 3d3c efbc 6afd a93c
00000220: 35e0 91bb 027e adbd 9152 2333 60b9 89bd
00000230: 444c 4e3c c8f4 ff3c 59af 85bc da02 783d
00000240: d6c9 c43c b6ee 39bd 301d 1ebd 1f3d f0bc
00000250: 8c0f 28bd 2b0e e93c 74df 453c 641a 143d
00000260: c69a bdbc 9cab 90b9 c81e 0cbd bc5a 2cbc
00000270: ed5b 80bd d859 b0bc 0b16 bdbc b65b 933c
00000280: 717d 993c 7c5d 203d cdfd 283c 2daf c43c
00000290: 3d3d 743d 5d77 a4bb 8808 25bd ee3d 7fba
000002a0: cc42 b8bc 594c bbbd 7887 1b3c ff01 acbb
000002b0: eaf3 69bc dd26 34bb 77da 133d 9bbd 1fb7
000002c0: b72a 1f3d d701 0bbd 9ab5 bdbc 02bd 053d
000002d0: a1b3 cebd f6eb db3c cbf3 763d d301 debc
000002e0: 6034 3dbd fa2d 2cbd 97ce 653d ce58 ad3d
000002f0: e460 cebc 7181 b83d 3b44 06bd 8623 ecbc
00000300: 3b2f 873d f485 d1bc a086 51bc 2e29 943c
00000310: 97ef 54bd 9614 18bb 1250 0abd 5d06 dbbc
00000320: f3df 2f3d a9d4 493b 0973 d73c 0b18 a3bd
00000330: fd59 37bd c680 2eb3 7107 8cbd ab3e b9bd
00000340: 1b69 87bd 48af 3f3d ea08 52bb a206 8fbd
00000350: b480 343d 2448 a93c 4bdb 23bc e7c1 e73c
00000360: 0ef7 85bc 0bf9 61bd 1c90 5bbd 360f 6fbd
00000370: 4e35 29bd 0d5f a33c 4220 5d3c 3bd4 8f3b
00000380: 1890 1cbc c55e 393c d8a6 3abd 01dc 3b3d
00000390: 114c 973c e08c ea3b 7aa9 a63b 0a77 82bd
000003a0: f714 b7bb b726 4abd 0b91 ee3a 986c 153d
000003b0: ab26 1f3d 9672 b03d 33a9 26bd 8baf 063d
000003c0: d603 80bb 936c 833d 087a 163d 1d7b 28bc
000003d0: 2711 93bc 3c49 243d 9bf2 aebd 988e 3dbd
000003e0: f83f b9b3 02c1 843c 4b40 25bd 4249 b93c
000003f0: 7d0f f5bc 3f4b 8d3d e3ff 62bb ea24 5cbc

bias f4 [128]
-0.07358402 -0.04865693 0.064349785 -0.04414891 0.0126624415 0.00022456294 -0.012051948 -0.053637937
-0.060091443 0.060546905 -0.06551787 0.02100709 -0.061186906 -0.046237014 -0.06317675 0.064360075
-0.061979413 -0.03397254 0.0063734283 -0.0015269124 0.029982952 -0.100103736 -0.013283194 -0.0765363
0.078930356 0.055864125 -0.053534895 0.094552495 0.08328889 -0.036861293 -0.028166309 0.053781375
-0.044292636 -0.04673864 0.06775008 -0.007950124 -0.09444369 -0.07713605 0.0023724858 -0.0456998
0.051032808 -0.023102807 0.05582577 -0.031288244 0.04524209 -0.02299833 -0.03922333 -0.03962309
-0.026576133 0.09943535 -0.04324835 0.0116715375 0.027376192 0.0280024 -0.08228038 -0.07881326
0.025012711 -0.015940087 0.00952297 0.06667554 -0.056235176 0.08048621 0.059770867 -0.020821095
0.027178578 -0.06991571 -0.02783436 0.06121803 -0.055073746 0.08811065 0.09655985 -0.043339018
-0.012686952 0.102780946 -0.010744197 0.09120181 -0.029008627 -0.026472945 0.041499108 0.0043068663
-0.03975414 0.035300512 0.043388423 0.061099507 0.013836751 -0.06635978 -0.07498101 0.07498714
-0.0403091 -0.08692958 -0.06024186 0.06054376 -0.08853134 -0.010030505 0.0140051665 0.05754525
0.04141712 0.0009775663 0.012783943 0.08026309 0.026900297 -0.055671982 0.03513904 0.08739913
0.093226045 -0.010774974 0.061526515 0.08621115 0.098180525 -0.050028794 0.04654986 -0.051195238
0.055844627 0.06384158 -0.0735109 -0.097318806 0.031311236 0.023989491 0.050650857 0.04612112
-0.037081577 0.025611911 -0.018600851 -0.05728189 0.07556795 -0.078479744 0.043935638 -0.011410436
00000000: 38b3 96bd 7d4c 47bd d2c9 833d 7dd5 34bd
00000010: 2176 4f3c a878 6b39 8975 45bc 74b3 5bbd
00000020: 7222 76bd 0800 783d 3c2e 86bd 1017 ac3c
00000030: 1f9f 7abd 0663 3dbd d062 81bd 37cf 833d
00000040: 20de 7dbd ca26 0bbd 31d8 d03b ae22 c8ba
00000050: cf9e f53c 3003 cdbd c1a1 59bc 10bf 9cbd
00000060: 3da6 a13d c8d1 643d 6847 5bbd bda4 c13d
00000070: 5e93 aa3d defb 16bd 08bd e6bc dc49 5c3d
00000080: 326c 35bd 0471 3fbd 8ec0 8a3d 3d41 02bc
00000090: b16b c1bd 81f9 9dbd b57b 1b3b b72f 3bbd
000000a0: c707 513d 1942 bdbc 90a9 643d 1a28 00bd
000000b0: c54f 393d fe66 bcbc a4a8 20bd d24b 22bd
000000c0: 31b6 d9bc c3a4 cb3d 2f25 31bd fa39 3f3c
000000d0: 0944 e03c 4a65 e53c 9e82 a8bd d968 a1bd
000000e0: 75e7 cc3c c994 82bc 3b06 1c3c 2f8d 883d
000000f0: db56 66bd f4d5 a43d 4cd2 743d 0091 aabc
00000100: 9ca5 de3c f82f 8fbd e204 e4bc c2bf 7a3d
00000110: 0295 61bd 5b73 b43d 2cc1 c53d 4184 31bd
00000120: efdc 4fbc d17e d23d 6e08 30bc 04c8 ba3d
00000130: 80a3 edbc cadd d8bc f8fa 293d 9d20 8d3b
00000140: 3dd5 22bd 4597 103d 0fb8 313d 7a43 7a3d
00000150: 8ab3 623c a3e7 87bd a58f 99bd dc92 993d
00000160: 281b 25bd 2308 b2bd 2bc0 76bd bcfc 773d
00000170: eb4f b5bd fd56 24bc ed75 653c 91b4 6b3d
00000180: ffa4 293d af21 803a be73 513c fa60 a43d
00000190: 035e dc3c 4e08 64bd f4ed 0f3d 51fe b23d
000001a0: 4ced be3d 8489 30bc 3a03 7c3d 798f b03d
000001b0: df12 c93d feea 4cbd 11ab 3e3d 19b2 51bd
000001c0: 56bd 643d 60bf 823d e28c 96bd 154f c7bd
000001d0: 3640 003d 9c85 c43c 4677 4f3d 80e9 3c3d
000001e0: dae2 17bd 12d0 d13c d060 98bc 6aa0 6abd
000001f0: 5fc3 9a3d fdb9 a0bd dbf5 333d d6f2 3abc

weight f4 [128, 128]
-0.040135123 0.027092066 -0.00639915 -0.020675521 -0.00029530542 0.025451105 0.05246252 -0.014912054
-0.036490146 -0.06070833 -0.03492798 0.057391588 -0.018863536 -0.014981464 -0.003176154 -0.030010233
-0.03289518 0.0026264286 -0.0053295526 0.020770445 -0.029062383 0.015620084 0.070758775 0.07558856
0.072693534 0.022617528 0.05453862 -0.06417743 -0.048671555 -0.050444376 -0.12045029 -0.034013025
0.018967956 0.029566709 0.04146573 0.11861676 -0.007816617 0.06421048 0.012848713 0.010991814
-0.010500702 -0.004656217 -0.023622736 -0.04985856 -0.030784203 -0.0708891 0.070525035 0.029945116
0.031613376 -0.017041994 -0.1019594 -0.0012329614 0.051996626 -0.049366523 0.010880169 -0.01059295
0.021115346 -0.027047463 0.009859062 -0.00037471324 -0.04675577 0.02708625 -0.026443139 0.006069406
-0.09092239 -0.027586618 -0.005054117 -0.016420785 -0.047389567 -0.006529682 0.017042939 -0.011090819
-0.054194573 -0.029772788 0.028772583 0.009828347 -0.074680954 -0.04304388 -0.019846603 0.059459403
-0.10087654 -0.011073946 0.030636344 0.047312595 0.036099195 0.031112893 -0.031129634 0.0045840894
0.008529133 0.09160576 -0.020197105 -0.0014042624 0.02932926 0.034326438 -0.006518748 -0.0070662866
-0.0003806618 -0.0017786513 -0.002708665 0.0012243128 0.011566464 -0.11233067 -0.10826047 0.0057135522
6.6954104e-05 0.015952155 -0.06842318 3.6705424e-05 0.0063554635 -0.010589858 -0.046396554 -0.009866152
0.021406759 0.02318367 0.021510912 -0.07486016 -0.010516736 0.019755239 3.4636032e-05 -0.016546123
-2.4439669e-06 -0.029725906 0.007328107 -0.074481286 -0.07203566 0.004536229 0.007248949 0.039579492
0.051087722 -0.0030403156 -0.016717065 -0.046021476 -0.00028913695 -0.009829224 0.027889304 0.016856525
0.062445775 -0.03772738 0.06504522 -0.008227726 -0.01774326 -0.03205162 0.0062842914 -0.10059193
-0.01784106 0.042212468 0.0009533079 0.034815393 -0.027832912 -0.025160221 -0.021939015 0.09099216
-0.03420166 -0.016721787 0.03340826 0.006858912 -0.015061674 -0.031212702 0.037621077 -0.05984928
0.027746359 0.026161427 0.0020300355 0.09648834 0.036467336 0.030398477 -0.0076414486 0.07789929
-0.012276612 0.043968875 -0.01923426 -0.06352193 -0.014247461 -0.045231793 0.05766932 -0.064924315
0.10332566 0.0021248371 -0.124181926 0.05076837 0.00902321 0.058837853 0.037206344 0.07451992
0.016049206 -0.040826507 0.01330093 -0.011228552 -0.026836123 0.015307275 0.003136419 -0.034571994
-0.10319848 0.023975464 -0.046429336 -0.003873141 -0.043702133 -0.04643267 -0.05863312 0.01826943
-0.07534015 0.00060164824 0.099491745 0.07805996 0.0156951 -0.03310528 -0.029180195 -4.110589e-05
0.026689481 0.028122257 0.00023596655 -0.026678922 0.011093041 0.14506435 -0.019205 -0.046075784
0.10508609 -0.0032487928 0.015039701 -0.031802233 -0.034783375 -0.058144733 -0.040921975 -0.011413883
-0.0051055956 0.0710011 -0.008702582 0.042520586 -0.06467398 -0.02463703 0.03018238 0.04750224
-0.00037371673 -0.015993483 -0.09052445 -0.0019155269 0.041848063 -0.0062225102 0.0018438364 0.042681906
-0.027739074 -0.020137867 -0.0010072397 -0.022311002 0.039784223 0.086374074 -0.012181806 -0.06642106
-0.0055984636 -0.04966532 0.0017574371 0.069389954 0.0033739172 0.12279154 -0.00014448052 0.007208028
00000000: ba64 24bd 2ef0 dd3c f6af d1bb b65f a9bc
00000010: 39d3 9ab9 d67e d03c f0e2 563d b051 74bc
00000020: b176 15bd 4ca9 78bd a410 0fbd 7113 6b3d
00000030: b487 9abc d074 75bc 0627 50bb 05d8 f5bc
00000040: 19bd 06bd 2920 2c3b 87a3 aebb c826 aa3c
00000050: 3c14 eebc 61eb 7f3c fae9 903d 2dce 9a3d
00000060: 59e0 943d 6548 b93c e363 5f3d 756f 83bd
00000070: d35b 47bd c39e 4ebd a4ae f6bd 3e51 0bbd
00000080: b062 9b3c e235 f23c f8d7 293d 58ed f23d
00000090: 4511 00bc c980 833d 6983 523c 0217 343c
000000a0: 230b 2cbc 2e93 98bb 7884 c1bc 7d38 4cbd
000000b0: 272f fcbc 4e2e 91bd 6e6f 903d 764f f53c
000000c0: 077d 013d a79b 8bbc 17d0 d0bd 529b a1ba
000000d0: 6afa 543d 8d34 4abd bd42 323c 0d8e 2dbc
000000e0: 17fa ac3c a492 ddbc e787 213c 2975 c4b9
000000f0: fa82 3fbd fce3 dd3c 489f d8bc dee1 c63b
00000100: 8535 babd 55fd e1bc 029d a5bb e284 86bc
00000110: 901b 42bd f1f6 d5bb a29d 8b3c 44b6 35bc
00000120: 21fb 5dbd 10e6 f3bc 7bb4 eb3c 1307 213c
00000130: 54f2 98bd c84e 30bd 5895 a2bc b48b 733d
00000140: 5c98 cebd 7f6f 35bc 12f9 fa3c daca 413d
00000150: c0dc 133d 77e0 fe3c 9303 ffbc 2136 963b
00000160: c7bd 0b3c cd9b bb3d 6674 a5bc 3a0f b8ba
00000170: eb43 f03c e199 0c3d 399b d5bb 4f8c e7bb
00000180: 9093 c7b9 a221 e9ba dc83 31bb 1f79 a03a
00000190: 4481 3d3c 9f0d e6bd aab7 ddbd c038 bb3b
000001a0: b669 8c38 18ae 823c 7421 8cbd 26f4 1938
000001b0: 7e41 d03b 1581 2dbc 500a 3ebd a4a5 21bc
000001c0: 3a5d af3c aeeb bd3c a737 b03c 4950 99bd
000001d0: 634e 2cbc bdd5 a13c 2846 1138 bc8b 87bc
000001e0: 0803 24b6 be83 f3bc 9e20 f03b a589 98bd
000001f0: 6f87 93bd a6a4 943b 9788 ed3b 1b1e 223d
00000200: 5c41 513d 0840 47bb 3af2 88bc 0481 3cbd
00000210: 4e97 97b9 c10a 21bc 1c78 e43c b216 8a3c
00000220: 24c7 7f3d 0688 1abd 6e36 853d 96cd 06bc
00000230: 505a 91bc 8f48 03bd 75ec cd3b 2403 cebd
00000240: 6a27 92bc fbe6 2c3d 69e7 793a 969a 0e3d
00000250: d901 e4bc cf1c cebc 73b9 b3bc 195a ba3d
00000260: 0a17 0cbd 21fc 88bc 1ad7 083d b9c0 e03b
00000270: 3dc5 76bc c8b1 ffbc 8f18 1a3d 8524 75bd
00000280: 554c e33c 7d50 d63c 580a 053b ae9b c53d
00000290: c65e 153d 3a06 f93c 1e65 fabb aa89 9f3d
000002a0: d823 49bc b518 343d 2b91 9dbc c917 82bd
000002b0: 2f6e 69bc f944 39bd aa36 6c3d 0af7 84bd
000002c0: 679c d33d da40 0b3b 1853 febd 7ff2 4f3d
000002d0: 16d6 133c f6ff 703d ae65 183d e69d 983d
000002e0: a079 833c b239 27bd 25ec 593c f6f7 37bc
000002f0: 6ed7 dbbc 5dcb 7a3c 618c 4d3b 5d9b 0dbd
00000300: ba59 d3bd 3168 c43c b02c 3ebd 86d4 7dbb
00000310: 0201 33bd 2f30 3ebd 4829 70bd c6a9 953c
00000320: f04b 9abd eeb7 1d3a 54c2 cb3d e6dd 9f3d
00000330: 0393 803c 6799 07bd 4e0b efbc 1d69 2cb8
00000340: e6a3 da3c a660 e63c ca6d 7739 c18d dabc
00000350: 96bf 353c c08b 143e ce53 9dbc f6b9 3cbd
00000360: 6037 d73d b3e9 54bb 1469 763c 0f43 02bd
00000370: 0379 0ebd 2c29 6ebd cd9d 27bd 4c01 3bbc
00000380: d74c a7bb 0669 913d 4695 0ebc 112a 2e3d
00000390: cb73 84bd 99d3 c9bc 0a41 f73c b591 423d
000003a0: 69ef c3b9 c404 83bc e264 b9bd 6b12 fbba
000003b0: e068 2b3d 33e6 cbbb e2ac f13a 39d3 2e3d
000003c0: 0e3d e3bc 2bf8 a4bc 5b05 84ba 90c5 b6bc
000003d0: c8f4 223d e4e4 b03d 3396 47bc c407 88bd
000003e0: 5173 b7bb dd6d 4bbd ce59 e63a 521c 8e3d
000003f0: f01c 5d3b 227a fb3d b27f 17b9 5231 ec3b

bias f4 [128]
0.069882214 -0.0782815 -0.07584625 -0.038028095 -0.02732837 -0.0865561 -0.060522415 0.003756956
-0.089476064 0.07765914 -0.037392963 0.034236066 -0.05536526 0.03955951 -0.08196048 -0.03592195
-0.05882488 0.022424348 -0.019600987 0.060685672 0.035135087 0.014645458 -0.049881715 -0.025648706
0.03692006 0.022478294 -0.083060645 0.088569514 0.035103902 0.07294643 0.01881659 -0.007259107
-0.054429743 -0.013035423 -0.014183981 0.030649671 -0.022669153 0.008275989 0.054923367 -0.0042133937
-0.046107046 -0.0541973 -0.050360013 0.04367297 -0.023206525 -0.007228572 -0.036844723 -0.017378634
-0.017209588 -0.0410676 0.037976474 -0.032330886 -0.071527645 0.0735813 0.017754829 -0.019819014
0.05686391 -0.080534436 0.025242114 0.06204069 -0.07443528 -0.07827937 -0.053210657 0.004793132
0.09159655 -0.065664284 0.025525443 0.06954247 0.043942533 -0.07876133 -0.0006880921 -0.07115978
-0.015164095 0.06868858 0.08357056 0.07007743 0.06990709 -0.026689328 0.01938913 0.104127645
-0.057115365 0.09129093 0.030544309 0.043477118 -0.004776417 0.07966947 0.039100245 0.013978492
0.008189578 -0.06469168 0.02567652 0.057467703 -0.005825074 -0.015439716 0.050115343 0.03985466
0.05363751 0.017872771 0.05659536 0.085283116 0.030790964 0.013316118 0.034048866 -0.022553131
0.063467726 0.04164594 0.043311108 0.073609024 0.027689649 0.07466958 -0.0795075 -0.052011747
0.049770158 -0.037933435 0.058575224 -0.040955134 0.047397483 -0.065677606 0.0314415 0.07845481
0.015036629 0.034139868 -0.007585252 0.040133223 -0.032554645 -0.015951004 -0.06640694 -0.05727145
00000000: 681e 8f3d 0d52 a0bd 4755 9bbd 59c3 1bbd
00000010: bfdf dfbc 5344 b1bd 5ae6 77bd 4337 763b
00000020: 3a3f b7bd c10b 9f3d 5d29 19bd 1e3b 0c3d
00000030: afc6 62bd 2709 223d e5da a7bd e522 13bd
00000040: 5bf2 70bd 44b3 b73c 4092 a0bc 8a91 783d
00000050: cfe9 0f3d 81f3 6f3c c550 4cbd 3c1d d2bc
00000060: 7d39 173d 6624 b83c b31b aabd ef63 b53d
00000070: 1cc9 0f3d f064 953d 4025 9a3c cedd edbb
00000080: b9f1 5ebd 8792 55bc ee63 68bc 0515 fb3c
00000090: a9b4 b9bc 0498 073c 53f7 603d 8210 8abb
000000a0: beda 3cbd fdfd 5dbd 4d46 4ebd 6ee2 323d
000000b0: 9c1b bebc a8dd ecbb 7eea 16bd a35d 8ebc
000000c0: 1ffb 8cbc 8036 28bd 388d 1b3d 646d 04bd
000000d0: 167d 92bd cbb1 963d 9372 913c 7c5b a2bc
000000e0: 22ea 683d 3def a4bd 8dc8 ce3c 611e 7e3d
000000f0: 8671 98bd ef50 a0bd 6bf3 59bd b50f 9d3b
00000100: f996 bb3d ff7a 86bd bc1a d13c 486c 8e3d
00000110: 16fd 333d 9f4d a1bd 1461 34ba 38bc 91bd
00000120: d372 78bc 99ac 8c3d 0b27 ab3d c184 8f3d
00000130: 732b 8f3d 94a3 dabc f4d5 9e3c e040 d53d
00000140: cdf1 69bd bdf6 ba3d 0f38 fa3c 1015 323d
00000150: 7d83 9cbb bf29 a33d 9427 203d 0b06 653c
00000160: 942d 063c 127d 84bd 9157 d23c 4163 6b3d
00000170: 43e0 bebb ddf6 7cbc bf45 4d3d a43e 233d
00000180: 01b3 5b3d eb69 923c 89d0 673d eaa8 ae3d
00000190: 553d fc3c d92b 5a3c d376 0b3d 58c1 b8bc
000001a0: 5efb 813d ef94 2a3d fd66 313d 54c0 963d
000001b0: 67d5 e23c 5dec 983d d4d4 a2bd 450a 55bd
000001c0: cbdb 4b3d 1760 1bbd 93ec 6f3d 92c0 27bd
000001d0: dd23 423d fb81 86bd cdc8 003d eaac a03d
000001e0: 315c 763c 3fd6 0b3d b58d f8bb bc62 243d
000001f0: 0558 05bd aeab 82bc 5d00 88bd 7895 6abd
